MAPPO/results/MyEnv/MyEnv/rmappo/check/run4/models/actor_agent2.pt (torch, 257699 bytes, 22 tensors)

base.feature_norm.weight f4 [411]
00000000: c03e 803f 66cf 803f 4452 803f 83cf 7b3f
00000010: ace0 813f c871 813f db9c 813f 44fc 7d3f
00000020: 88c6 803f 8334 7f3f 4621 7f3f aa45 803f
00000030: 7311 803f 9430 7f3f 6e7d 803f 264c 7f3f
00000040: ef00 803f fd99 7e3f 1b83 7f3f a70f 813f
00000050: 2304 813f bfc0 7e3f 09d9 7e3f d00a 803f
00000060: 25c0 7f3f 9f49 7f3f 8fd8 7f3f e935 813f
00000070: 16ae 7d3f 15d9 803f 5d3e 803f 9e6e 7c3f
00000080: 266b 7f3f c12b 7f3f 2e5b 803f e460 7f3f
00000090: 3e24 803f d4d6 7e3f ea0a 813f 041a 803f
000000a0: d2a4 803f 6b08 803f 728e 7d3f 67ba 7f3f
000000b0: 9ed2 7e3f 6b7c 7d3f ddf8 7e3f c774 7c3f
000000c0: db44 7f3f 2b9c 7b3f 0b6c 7d3f e266 7f3f
000000d0: 92ae 803f 7108 7f3f f326 803f 4369 803f
000000e0: f64e 803f 1a34 803f 4257 7e3f 0345 813f
000000f0: 0def 7f3f 4373 803f 55dd 7f3f d1de 7c3f
00000100: 87e0 7d3f d2b6 7f3f 8737 803f 64a7 7e3f
00000110: a490 7d3f 7937 823f 1aef 803f 8f16 7e3f
00000120: ce3c 803f 3206 803f 7071 813f 7035 803f
00000130: 348c 7f3f 5a65 7d3f 67fc 7f3f f187 803f
00000140: ad40 803f 022e 803f 885e 7f3f 32ea 7f3f
00000150: 045a 803f 9e6f 7e3f 2678 7e3f b647 803f
00000160: 85d7 7f3f 53df 7d3f 0233 823f baa4 803f
00000170: 6542 803f 1169 813f 5d35 7f3f 5b18 7f3f
00000180: a05f 7f3f 11af 823f 80a6 7f3f cec8 7e3f
00000190: 967c 7f3f 1d07 7f3f e4d7 7f3f 1fbd 7c3f
000001a0: 3637 813f d34d 813f b52a 803f 7f4e 7e3f
000001b0: 2390 7e3f 2996 803f 2abf 7e3f 1ed9 803f
000001c0: 0537 7f3f 8290 823f db48 7f3f 4bfb 7f3f
000001d0: 8a25 803f c8ee 7f3f 63bf 813f 4843 803f
000001e0: 1cb0 7e3f 739b 7e3f 8edb 7f3f f57e 7e3f
000001f0: c8b3 7d3f 97b8 813f f3d9 7f3f c075 7e3f
00000200: 2907 803f 351d 7e3f 460d 803f 0af7 813f
00000210: 3656 813f 1917 823f 703f 7f3f 76ee 7e3f
00000220: 8d65 7f3f fc9c 7d3f 55b8 803f 19cd 7f3f
00000230: 058c 803f 2a36 813f 4e47 803f 624a 803f
00000240: 9913 803f d82e 803f b3b3 803f 179d 7e3f
00000250: 29bc 7c3f 0a67 803f 18b0 7e3f 7e42 7f3f
00000260: fa5c 803f 6906 803f d690 7d3f ab0f 803f
00000270: c0be 803f d41e 823f 10e2 823f d5de 803f
00000280: dadd 7e3f 6246 833f 45d7 813f 1794 823f
00000290: 7138 7f3f b77f 803f 9f88 813f ef39 803f
000002a0: 348c 803f 223a 803f 6685 813f 8104 803f
000002b0: 0460 7f3f 01a6 823f b4d4 833f 595d 823f
000002c0: 97f4 813f 84fa 823f 7738 7f3f 8b9d 7e3f
000002d0: 5962 803f 6217 7f3f 6635 7f3f 8395 7e3f
000002e0: 9af1 803f a06d 7f3f 8c28 803f e9f5 7f3f
000002f0: bd6d 803f bbb8 803f 1684 803f 2444 7e3f
00000300: 2f67 7f3f 2bbc 7c3f 6b28 803f 18d7 803f
00000310: 89c7 7f3f f03d 7e3f 913f 803f 532d 823f
00000320: 192d 803f cc37 813f 0ca7 7e3f b616 803f
00000330: acb1 803f ac2e 7f3f 9b6b 7e3f fce6 7b3f
00000340: 1dd3 7d3f 5b20 813f 44d6 7f3f 166f 813f
00000350: 8de7 7b3f 4be8 803f 1bd6 7e3f 9688 803f
00000360: c2a8 7d3f 5316 803f 15ab 7e3f 38f0 7e3f
00000370: 6369 7e3f 257c 7e3f 58aa 7e3f 2633 7f3f
00000380: b4bf 7e3f 8170 7f3f 469d 7f3f af99 803f
00000390: 281c 813f bcb0 7f3f 702d 7f3f e334 7f3f
000003a0: 3b51 7e3f 2f9d 7e3f ec69 803f b347 803f
000003b0: a1cf 7f3f df00 803f eefd 803f 8251 803f
000003c0: 730d 7f3f 11d3 7d3f 8251 813f 1649 7f3f
000003d0: eee1 7e3f c7d2 803f 9681 7e3f 334b 813f
000003e0: c69e 7d3f d749 7f3f c609 803f 9ca7 7f3f
000003f0: 3e92 7e3f 9647 7e3f 3298 7d3f 8c60 7f3f
1.001915 1.0063293 1.0025105 0.9836351 1.014669 1.0112848 1.0125993 0.9921305
1.0060587 0.996895 0.99660146 1.002126 1.0005325 0.996835 1.0038278 0.9972557
1.0000285 0.9945372 0.99809426 1.0082902 1.0079387 0.9951286 0.9954992 1.00033
0.99902564 0.9972171 0.9993982 1.0094577 0.9909376 1.0066248 1.0019032 0.9860629
0.9977287 0.9967614 1.0027826 0.9975722 1.001106 0.9954655 1.0081456 1.0007939
1.0050299 1.0002569 0.9904548 0.998938 0.99540126 0.9901797 0.99598485 0.9861569
0.9971444 0.9828517 0.98992985 0.9976636 1.0053275 0.99622256 1.0011886 1.0032123
1.0024097 1.00159 0.99351895 1.0099186 0.9997414 1.0035175 0.999471 0.9877749
0.99170727 0.99888337 1.0016946 0.9947417 0.9904883 1.0173179 1.0072968 0.9925317
1.0018556 1.0001891 1.0112743 1.0016308 0.9982331 0.98982775 0.9999451 1.0041486
1.0019737 1.001404 0.9975362 0.9996673 1.002747 0.99389064 0.9940208 1.0021884
0.9993823 0.9916889 1.0171816 1.005027 1.0020262 1.0110189 0.996908 0.9964654
0.9975529 1.0209676 0.99863434 0.99525154 0.9979948 0.9962023 0.999388 0.98726076
1.0094974 1.0101875 1.0013033 0.99338526 0.99438685 1.0045825 0.99510443 1.0066259
0.9969333 1.020035 0.99720544 0.9999282 1.0011456 0.99973726 1.0136532 1.0020533
0.9948747 0.99455947 0.9994439 0.9941247 0.9910245 1.0134457 0.9994194 0.9939842
1.0002185 0.99263316 1.0004051 1.0153515 1.0104434 1.0163299 0.9970617 0.9958261
0.9976433 0.99067664 1.0056254 0.9992233 1.004273 1.0094655 1.002176 1.00227
1.0005981 1.0014296 1.005484 0.9945845 0.9872461 1.0031445 0.9948745 0.99710834
1.0028374 1.0001956 0.9904913 1.0004781 1.0058212 1.0165658 1.0225239 1.0068003
0.9955727 1.0255854 1.014382 1.0201443 0.996955 1.0038975 1.0119818 1.001768
1.0042787 1.0017741 1.0118835 1.0001374 0.99755883 1.020691 1.0299287 1.0184737
1.0152768 1.0232701 0.99695534 0.9945914 1.0030013 0.99645054 0.99690855 0.99446887
1.0073731 0.9977665 1.0012374 0.99984604 1.003349 1.0056375 1.004031 0.99322724
0.9976682 0.9872462 1.0012335 1.0065641 0.9991384 0.9931326 1.0019399 1.0170082
1.0013763 1.0095153 0.99473643 1.0006931 1.0054221 0.9968059 0.9938294 0.9839933
0.9915026 1.0087999 0.9993632 1.0112026 0.98400193 1.007089 0.9954545 1.0041683
0.9908563 1.0006813 0.994798 0.99585295 0.9937956 0.9940818 0.99478674 0.9968742
0.99511266 0.9978104 0.99849355 1.00469 1.0086718 0.9987905 0.9967871 0.99690074
0.993427 0.99458593 1.0032325 1.0021881 0.9992619 1.0000266 1.0077493 1.0024874
0.99629897 0.99150187 1.0102999 0.99720895 0.9956349 1.0064324 0.9941648 1.0101074
0.99070394 0.99722046 1.0002983 0.99865127 0.994419 0.9932798 0.99060357 0.99756694

base.feature_norm.bias f4 [411]
00000000: ff51 1fba ae21 02bc b5e7 12bb e6b4 5d3c
00000010: 92eb 9cbc 0d1c 36bc b839 09bc 01d8 6e3c
00000020: 20a7 0bbc 8049 7c3b 81f5 803b 146f 1c3b
00000030: 868c c739 b117 b23b 50b1 89bb 17ff 803a
00000040: 2a75 8aba c4bc df3b b444 fb3a ae62 5fbc
00000050: 56a1 39bc 4c31 413c 80d4 7eba 635d 0fbb
00000060: 0291 c039 ef07 963b d326 4dbb 1b9e 09bc
00000070: 2ff7 8b3c ae7c 0bbc 3a27 09bb 5e2e a63c
00000080: 820c 8a3b b8cb 4a3b 1eb8 15bb 5096 933b
00000090: 4230 42bb 104a 013c 9436 46bc 1c3c e5ba
000000a0: 80f4 babb 13f8 51ba c3c3 413c 97a4 9e3b
000000b0: d0ed 073c 9415 553c 1715 333c 3736 ae3c
000000c0: eb15 5c3b 087f c33c 7c25 143c bc6c 093b
000000d0: 3792 02bc 1a46 643b 9d6d 55bb 3f3b c8bb
000000e0: f425 8dbb 23c3 c53b a282 3e3c 1291 f9bb
000000f0: 3871 9e3a 30e5 92b9 a1e2 423a ac58 493c
00000100: dfa4 833b 781a 3f3b 8b15 30bb 9597 153c
00000110: 9bdf 463c 1a4c 68bc f3a0 f7bb 44ca 2c3c
00000120: a5b0 5bbb e83e 7e3a 1da8 67bc d6fa e7ba
00000130: 7ba6 cdbb 8e6d 823c 3c0b 143a 70f0 e2bb
00000140: de35 3bbb 4531 cbba 5f2c 3a3b 473d cc39
00000150: 86e2 2cbc 9dd2 ad3c daa4 073c 4225 5abb
00000160: f4dd 683a 69cb a43b 0432 573c 57bc 13bc
00000170: cc31 4dbb 893e 83bc a2d5 ae3b 5ebe df3b
00000180: 9ee8 3a3b 4a36 943a b8e0 a83a 5920 073c
00000190: 7e8a ae3b 6599 c63b 0016 6bba cddc 8f3c
000001a0: bcc8 cfba b1d0 743c b025 f3ba 76af f63b
000001b0: 6acf f73b 1c49 dfbb 3e78 163c f065 6dba
000001c0: 36c2 12bb fdd0 64bb 845a 943b 7db7 c1ba
000001d0: 937d d039 3a78 e039 e382 76bc cf7f 50bb
000001e0: 6491 fd3b 4fca 193c d0dc f938 ae0c 9a3b
000001f0: 5d79 e9bb 56fe fd3b 947e 59ba 172d 083c
00000200: c33e 51ba cf4f 283c a96f 7bba 05e9 d53b
00000210: 81c8 8cbc 146f f13b e54f 763c 7ca7 c93b
00000220: 379d 4a3b 7cf5 563c 3ba0 00bc 2955 e43a
00000230: 57c5 03b9 be33 01bc 6362 fcbb 88e6 74bb
00000240: 74b9 43ba e6eb d23b a1c3 57bc 98d9 b03a
00000250: 1418 983c 39e3 9fbb 1609 67bb 1cb9 8c3b
00000260: ee52 77bb 2f47 9eba cf0e 4b3a e010 7d3a
00000270: 0fcb e5bb 0a8e e13a 449d cf3a 142d 19bc
00000280: 778a de3b a2e9 203c 9b08 1ebc d77e 743a
00000290: b8a5 3a3b f450 cdbb bfe3 4b3c f711 b23b
000002a0: 188c f3bb 3518 63bb 5a90 233c 2a72 3e39
000002b0: 5faf bf3b e89c 00ba e2e1 b1bb 7334 e03b
000002c0: 2a61 613b 7f11 d0b9 7e26 983b 71c2 2b3c
000002d0: 42d1 82bb 5d85 9c3b fc76 ac3b ce85 3c3c
000002e0: 793a 43bc a2ca 133b c2b7 a1b9 e676 aeba
000002f0: 3167 9abb 4fc3 13bc edc4 c6bb ce07 213c
00000300: 90f1 b43a a797 953c 1de3 5cba 449f 06bc
00000310: 7e6d 193a f189 4d3c 7f00 73ba afb4 cdbc
00000320: a854 2cbb fc4c 26bc 67ac b33b ddbb b8ba
00000330: 1cfb f2bb 2f36 053c b963 0f3c 6a94 bc3c
00000340: e38a 473c 831b 2abc d1db bbb8 3903 85bc
00000350: 363c c63c 35ea 3bbc 4c36 e03b c59d abbb
00000360: de03 2c3c 8aca 37bb 1f22 d53b 5153 e83b
00000370: 0bf8 bf3b 4930 f63b 97ce a13b 128d 4d3b
00000380: 5ca2 b93b 6656 0c3b 1867 803b bac4 a4bb
00000390: 6b28 37bc c3e4 0e3b 29b1 d13b 77bc a43b
000003a0: 97be e83b bca8 1f3c 29c5 92bb 9162 2abb
000003b0: 38e6 c039 d67e 0f3a 1f80 23bc 4a71 afbb
000003c0: 6572 083b 833e 203c f31e 7dbc 168c d93a
000003d0: 939e e63b c3d6 02bc cd93 ce3b 09ca 6bbc
000003e0: 3066 713c 7bef 0b3c 31f4 15bb 1ca6 213b
000003f0: 6bf3 1b3c e705 143c b497 5b3c 06a2 933b
-0.0006077587 -0.0079426 -0.002241594 0.013531899 -0.019155297 -0.011115086 -0.008375578 0.0145778665
-0.008523732 0.0038495958 0.0039355163 0.0023869919 0.00038060936 0.005434953 -0.0042020455 0.0009841648
-0.0010563482 0.0068279225 0.0019170255 -0.013634367 -0.011329969 0.011791538 -0.0009720996 -0.0021875731
0.00036729133 0.0045785825 -0.0031303659 -0.008399512 0.01708564 -0.008513613 -0.0020927922 0.020285781
0.004212917 0.003094418 -0.0022845338 0.0045040026 -0.0029630815 0.007891193 -0.012097973 -0.0017489227
-0.005705416 -0.0008009683 0.011826458 0.004841398 0.008296445 0.013005633 0.010930321 0.021266086
0.00335824 0.023864284 0.00904214 0.0020969352 -0.007969431 0.0034831823 -0.0032566555 -0.0061105783
-0.004307503 0.006035225 0.011627825 -0.0076161707 0.0012088185 -0.00028018048 0.0007434283 0.012289207
0.004017457 0.0029160064 -0.002686831 0.009130378 0.012138273 -0.0141783 -0.0075570284 0.010546271
-0.0033522036 0.0009698705 -0.014139202 -0.0017698656 -0.0062759495 0.01592138 0.0005647426 -0.006925635
-0.0028566043 -0.0015502354 0.0028407795 0.00038955567 -0.010552054 0.021218592 0.00827905 -0.0033286368
0.0008883171 0.005029131 0.013134483 -0.009017072 -0.0031310199 -0.01602103 0.0053355256 0.0068281135
0.0028519998 0.0011307683 0.0012884354 0.008247458 0.005326568 0.0060607665 -0.0008967817 0.01756134
-0.001585267 0.014942334 -0.001855066 0.007528241 0.0075625675 -0.0068141352 0.009183941 -0.00090560224
-0.002239359 -0.0034914606 0.004527392 -0.0014779415 0.00039766412 0.00042814185 -0.015045854 -0.003181446
0.007738279 0.009386613 0.00011914375 0.0047012186 -0.0071250633 0.0077512665 -0.00082967547 0.0083115315
-0.00079820695 0.010272934 -0.0009591529 0.0065280222 -0.017185451 0.007367978 0.015033697 0.006153999
0.0030916461 0.0131200515 -0.007850702 0.0017420399 -0.00012566648 -0.007885871 -0.0077021583 -0.0037368853
-0.00074662943 0.0064368127 -0.0131692 0.0013492582 0.018566169 -0.004879382 -0.0035253218 0.0042945277
-0.003773864 -0.0012075658 0.0007746042 0.00096536987 -0.007012732 0.0017208469 0.0015839715 -0.009349126
0.0067914086 0.009821327 -0.009645606 0.0009326762 0.0028480124 -0.006265754 0.012444436 0.0054342705
-0.007432472 -0.003465188 0.009983147 0.00018162341 0.0058497633 -0.00049061934 -0.0054285387 0.00684219
0.003439019 -0.00039685887 0.0046432605 0.01048337 -0.0039922306 0.0047766403 0.0052632075 0.011506511
-0.011915796 0.0022551198 -0.00030845223 -0.0013310581 -0.0047120084 -0.009018733 -0.006065956 0.009828521
0.0013804901 0.01826079 -0.00084261765 -0.008216683 0.00058528024 0.012545095 -0.0009269788 -0.02511057
-0.0026295576 -0.01015019 0.0054831984 -0.0014094074 -0.0074151885 0.008130594 0.008751803 0.023019988
0.012179109 -0.010382536 -8.957799e-05 -0.016236888 0.024198633 -0.0114694135 0.00684241 -0.0052373135
0.010498969 -0.0028044307 0.0065043117 0.00709001 0.0058584264 0.0075130803 0.0049379575 0.0031364602
0.0056651067 0.0021413802 0.0039185397 -0.0050283344 -0.01117907 0.0021803833 0.006399293 0.0050273496
0.007102798 0.009744819 -0.0044790697 -0.0025998692 0.0003679262 0.0005473917 -0.009979277 -0.0053540813
0.0020820138 0.009780529 -0.015449273 0.0016597535 0.0070379465 -0.0079857735 0.0063042403 -0.014391431
0.014733836 0.008540983 -0.0022881145 0.002466566 0.009518485 0.00903461 0.013402868 0.0045053987

base.mlp.fc1.0.weight f4 [64, 411]
00000000: a927 a3bd 90c3 c13d a683 44bd af35 c6bd
00000010: 9c31 43bd db33 213d 4c8c 76bd 139b eb3c
00000020: c55a fa3b a1bc d5bd ee15 edbd fc5d 18bd
00000030: 9bee 9e3d 1cd5 b43c a448 73bd e1da acbd
00000040: e2d2 df3c 7b46 cd3c 2a3b fd3d ebc2 353d
00000050: 99c5 cd3a 60a6 9c3b ba0b 0c3d b7b6 f8bd
00000060: 6164 c2bc 4593 a2bd 5b74 873b fe2e 1abc
00000070: c7a8 f83d 9652 b03d d57a 143d 5805 693d
00000080: 07b7 063d 79f2 b13c a34a 3a3e 6040 203e
00000090: 9445 e33c a165 f5bc 737d cbbd 7b84 9d3a
000000a0: 2fdd cdbd d5f1 d6bd 886c 7ebd dc76 433c
000000b0: d16b 083d 1f4d 2e3c 693e fd3d 3a2b 8f3d
000000c0: 5c71 25bd 8a9a 2c3d 32ab 3e3b 78df ee3c
000000d0: 4d4f 3dbc 7ebd 0ebd 73c6 04bc 4b5c 233d
000000e0: 62eb c83d f5e3 803d 1c7b a3bd a430 333d
000000f0: 8141 e63c 8c07 86bd b800 ac3d c268 fa3d
00000100: 0d6a f8bd a2b8 af3d ddb3 bcbc 5bf3 063d
00000110: c063 8f3d ed23 9ebd 2daf 1bbc 4217 083e
00000120: 6e64 0dbe 48b4 bbbd f39e e5bd 6a8d e9bc
00000130: 2236 943c bcb1 0e3d fd36 853d e8ce 383d
00000140: bbe6 afbb 14d0 0bbd 52de 01be 23bb 9abd
00000150: b178 aabd 3aee d83d 83f1 d23b f30c e2bd
00000160: 9c53 a53d 4b1f 953d 4a39 813d 1994 5c3d
00000170: a86a e539 7544 d43d c743 2e3d e35e 083e
00000180: 2329 1abd f327 d9bc 0e77 54bc 1814 76bc
00000190: a4ea c8bb ca03 29bd 48b5 983d f814 a63d
000001a0: f5c1 023d 5eb3 843c 1b12 3a39 8786 ca3c
000001b0: ace5 9fbd b5c6 b93d c224 943c 2fb5 cbbd
000001c0: a363 873d 2cfe 013b 953e 40be 4c24 023a
000001d0: f4e2 8dbd aa7d 013d 5f7d db3b 6d25 f5bd
000001e0: b844 dd3c 899c 933c f65e 5a3d 7993 c0bd
000001f0: 3279 8f3d 05f3 d1bd 685c 99bd b4f2 073d
00000200: dc2b 04bd 3967 963c c483 ae3d 2931 aabc
00000210: 58bf 04be 1d4b 03bd d310 41bd ab36 ddbd
00000220: 4556 cb3c 2e69 07bd eb2d 743d 64bf 4bbd
00000230: bf5d 103d ec24 bdbd 2a7b 6ebd 2be0 06be
00000240: e25b e5ba 41cc 8abb 9eac edbd 817e 34be
00000250: b26a 313c c72f 713c 1c51 d9bc e30a da3d
00000260: d94b c13d 9c37 6c3a a09f 373d 9d85 473c
00000270: 238c ab3c 556f f5bd b402 013e 71a8 36bc
00000280: 7e7b 343e 738c ba3c 16b6 60bd 4c0f b93d
00000290: e2d4 d63b fc71 2fbd 4664 3d3c 3c54 74bd
000002a0: 4680 4cbd abf2 2abd 6e08 85bd 76b9 6e3d
000002b0: c78b 073e c802 f8bd a07a dbbb 6e6b 713d
000002c0: 4424 1cbc a799 febb 4460 46bd 06c8 603b
000002d0: 6d6e 3abb 8ec2 06bd 7f4b 2abd c984 363c
000002e0: 8e08 b43b 4d15 a5bd 7761 443e d3e9 83bd
000002f0: 3c63 c93d 9081 1c3e ff17 20bc c22a 41bd
00000300: 30db 993d 9ae8 41bd 6e7c 9d3d 4cb9 493d
00000310: 3e96 4abd 930d c0bc 6e3f 3e3d 081d 60bd
00000320: 2257 07be 2c5b 913d ea8a 6cbd d2d2 283d
00000330: 2785 31bd 8839 5a3d 58bd 8fbc 0190 2dbc
00000340: b01b e7bd 1f57 e33c d672 1b3e a4ac 07be
00000350: c072 b03b 9178 c53d 72f1 443d 2185 cf3c
00000360: 1286 203d 969b e83d 8776 1d3d a5d9 23bc
00000370: c8df b8bb 4e5d c53c 2c59 6fbc 6532 36bc
00000380: ae17 5bbe dfcd 16be f4a4 14bd b273 a43d
00000390: ccb6 d73b 75b8 66bd 97e2 e53d f5ba 843d
000003a0: 4798 fabc f226 ccbb 34db ac3c 8d2d e63c
000003b0: a04d abbd deda 353c 0b2d 0dbd 2469 96bc
000003c0: a7f5 7cbc 1354 78bd 393b ee3c 637d d73b
000003d0: 00c0 08bd a480 bcbd 57ac c9bc 839b c0bd
000003e0: d97b 2aba bad5 d53d 8517 c4bd ab4b 7dbc
000003f0: 1f42 eebd 07b3 fe3c 28e0 cabb ea07 083e
-0.07966549 0.09461129 -0.047977112 -0.09678208 -0.047654733 0.039356094 -0.06019239 0.028760469
0.007640215 -0.10436369 -0.115764484 -0.037199005 0.07760354 0.022074275 -0.059395447 -0.08440185
0.027322236 0.025058022 0.123648 0.04437534 0.0015699147 0.0047805756 0.03419087 -0.12144225
-0.023729505 -0.07938246 0.0041337437 -0.009410618 0.12141567 0.08609502 0.036249954 0.05688986
0.032889392 0.021722065 0.18192534 0.15649557 0.027743138 -0.029955687 -0.09936037 0.0012017632
-0.10051953 -0.104953445 -0.062115222 0.011930194 0.033305947 0.010638504 0.123654194 0.06990667
-0.04039131 0.042139567 0.002909374 0.029159293 -0.011554551 -0.034848683 -0.008103955 0.03988294
0.09810521 0.06293479 -0.079824656 0.04374756 0.028107407 -0.06544408 0.083985746 0.12227012
-0.121296026 0.08580138 -0.023034984 0.032946926 0.07001448 -0.07721696 -0.009502214 0.13290122
-0.13807842 -0.09165245 -0.11211958 -0.028509814 0.018092219 0.03483747 0.06504629 0.045119196
-0.0053680814 -0.034133986 -0.12682465 -0.07555225 -0.08323801 0.10592313 0.006437482 -0.11037626
0.08072588 0.07281359 0.06309755 0.053852174 0.0004375775 0.1036462 0.042545106 0.13317446
-0.037636887 -0.026508307 -0.012967838 -0.015019439 -0.006131487 -0.04126338 0.07456452 0.08109468
0.031923253 0.01619881 0.00017745087 0.02472235 -0.07807478 0.090711035 0.018083934 -0.099466674
0.06610801 0.0019835336 -0.18773873 0.0004964515 -0.069280535 0.031613983 0.006698295 -0.11970029
0.027010307 0.018018978 0.053313218 -0.09403128 0.07005538 -0.102514304 -0.07488328 0.033190444
-0.03226839 0.018359767 0.08521226 -0.020775395 -0.12963617 -0.032054055 -0.047135185 -0.10801443
0.02482141 -0.03305929 0.059614103 -0.04974307 0.035245653 -0.09235558 -0.058222927 -0.13171451
-0.0017498697 -0.0042357747 -0.1160519 -0.17626382 0.010828661 0.014720864 -0.026527934 0.10646608
0.09438295 0.0009010972 0.044829965 0.012177852 0.020940846 -0.119841255 0.12598687 -0.011148558
0.17625234 0.02277205 -0.05486115 0.09036121 0.0065561393 -0.042833313 0.011559552 -0.059650645
-0.04992702 -0.041735332 -0.064957485 0.058282338 0.13236915 -0.121099055 -0.0066979676 0.058940344
-0.009530131 -0.0077697816 -0.04843165 0.003429891 -0.0028447167 -0.032900386 -0.041575905 0.011140057
0.005494184 -0.080607034 0.19177805 -0.06441083 0.098333806 0.15283799 -0.009771346 -0.047159918
0.0751251 -0.047340967 0.07689749 0.04924898 -0.04945969 -0.023443973 0.04644721 -0.054715186
-0.13216832 0.07097468 -0.057749666 0.04121668 -0.043339875 0.053277522 -0.01754634 -0.010593415
-0.11284578 0.027751504 0.15180525 -0.13249451 0.005384773 0.09642137 0.048081823 0.025332035
0.03919036 0.11357801 0.038443115 -0.010000621 -0.005641911 0.024092343 -0.014608663 -0.011120413
-0.21395752 -0.14726971 -0.036290124 0.0802988 0.0065830704 -0.056328256 0.11224859 0.06480972
-0.03059019 -0.0062302286 0.021100618 0.028097892 -0.08364415 0.011099545 -0.034466784 -0.018360682
-0.015439427 -0.060627054 0.029080974 0.0065762266 -0.03338623 -0.09204224 -0.02461831 -0.094046615
-0.000650344 0.10441156 -0.095747985 -0.015459935 -0.11633705 0.031091226 -0.0061912723 0.13284269

base.mlp.fc1.0.bias f4 [64]
00000000: a480 a03b 5b6c 15bc 2195 253c ec09 193c
00000010: 0000 0000 1057 a7ba 8983 d2bb 0000 0000
00000020: f8d0 eeba 0000 0000 0000 0000 5f55 83bb
00000030: 64d2 9abb dcff b4b8 696c a23b 482b cf3b
00000040: 0000 0000 0000 0000 8c71 7abb 9458 61bb
00000050: 0000 0000 77f9 32ba af19 963b 091a f3bb
00000060: 3d6a abbb f393 e6ba 0000 0000 4ce9 33bc
00000070: 42d1 6dbc df37 9fbb 3f37 a7bb 0000 0000
00000080: 5afd 793b 0000 0000 791d 313a 0000 0000
00000090: 0485 23bb 473c 823c 03a7 d4ba 0000 0000
000000a0: cd12 c5bb 0000 0000 c8ca 78bb bbfa 3d3c
000000b0: 0000 0000 58f1 cf3a b083 ed3b 0000 0000
000000c0: f0b0 29bc 0000 0000 16f9 fc3a 5720 f1bb
000000d0: 69b1 163c 637c 153b 7d64 29bb 14ca 1c3c
000000e0: 0000 0000 0000 0000 d80b 8f3a 4880 743b
000000f0: 7d4e 0a3d 89db 04ba 5b5a 8dbb b381 3cbb
0.0048981477 -0.009120072 0.010106356 0.009340744 0.0 -0.0012767036 -0.0064243716 0.0
-0.0018220237 0.0 0.0 -0.0040079798 -0.0047247875 -8.6307264e-05 0.004956771 0.006322298
0.0 0.0 -0.0038214652 -0.0034385072 0.0 -0.00068273343 0.0045806984 -0.007418875
-0.0052311704 -0.00175917 0.0 -0.010980915 -0.014515223 -0.0048589553 -0.0051030214 0.0
0.0038145394 0.0 0.0006756406 0.0 -0.002495111 0.015897883 -0.001622409 0.0
-0.006014204 0.0 -0.0037962664 0.011595423 0.0 0.0015864773 0.0072483644 0.0
-0.010357127 0.0 0.0019300308 -0.0073585915 0.009197571 0.0022809736 -0.002584725 0.009569664
0.0 0.0 0.0010913564 0.0037307907 0.03376626 -0.00050681137 -0.0043137497 -0.002876383

base.mlp.fc1.2.weight f4 [64]
00000000: 4bde 7b3f c87c 823f effc 7e3f 131b 813f
00000010: 2d84 7c3f bca5 7c3f 8db3 7e3f 8cef 7f3f
00000020: 36d9 7e3f d684 7f3f e4b3 813f 458a 7d3f
00000030: 7b1f 803f d0aa 803f c53f 803f 932e 7f3f
00000040: b6a1 823f c4ed 7c3f 918e 803f 591d 7f3f
00000050: 8717 7e3f 2c51 7e3f 550d 7d3f e680 7f3f
00000060: 6273 7c3f c195 7c3f c98f 813f 8cea 823f
00000070: 22b9 7f3f c7a0 7f3f 65aa 813f 8cd2 7c3f
00000080: e382 803f 78f8 7f3f 6185 7f3f a5b7 803f
00000090: 2421 813f 1880 803f dca5 7d3f d7ea 7f3f
000000a0: 3b47 7d3f 325b 803f 17c9 7e3f 6e60 823f
000000b0: 8733 813f 4df6 7e3f 0451 803f 8541 803f
000000c0: e939 823f 78d6 823f 11fd 7e3f 5486 7f3f
000000d0: 16b7 803f c158 7f3f b9f0 813f 30c3 803f
000000e0: fe08 7f3f e05d 783f b157 7d3f 928b 7f3f
000000f0: 625f 833f 0c02 7d3f bcae 7e3f cda6 803f
0.9838607 1.019433 0.99604696 1.0086387 0.98639184 0.9869039 0.9949272 0.99974895
0.9955019 0.99812067 1.0133023 0.9903911 1.0009607 1.0052128 1.0019461 0.9968044
1.02056 0.988003 1.0043508 0.99654156 0.9925465 0.9934261 0.9884847 0.9980606
0.9861356 0.98666006 1.0122005 1.0227828 0.99891865 0.998547 1.0130125 0.9875877
1.0039943 0.9998851 0.99812895 1.0056044 1.0088239 1.0039091 0.99081206 0.9996771
0.98936814 1.0027831 0.9952559 1.0185678 1.009385 0.99594575 1.0024724 1.0019995
1.0173923 1.0221701 0.996049 0.99814343 1.0055873 0.997448 1.0151588 1.0059566
0.99623096 0.9701824 0.9896193 0.9982234 1.0263484 0.9883125 0.99485373 1.0050904

base.mlp.fc1.2.bias f4 [64]
00000000: 2095 043b 40c3 9bbc 0ada 423b 9137 f83b
00000010: 9ab4 603c 799d 80b9 9cbf 0dbc 21ab 1939
00000020: 539d 87bb c35f c23a 8ad5 58bc 4924 bdbb
00000030: 34c6 a2ba 71f9 25bc 125f 2a3b ba97 e23a
00000040: 7032 b1bc 6fad 4d3c bd9f 2dbc dc35 ddbb
00000050: 4f83 013c 2a06 2dbb 281d d43a e92e 1dbc
00000060: 229d 32bc 6823 7abb 1e63 4cbc ed74 87bc
00000070: 6abf aabc 51e4 dd3a 0d36 5bbc 1c81 573c
00000080: 2d76 31bb 1331 133a 8870 b63a fd69 b4bb
00000090: cd03 43bc f3a8 64bb fc0c 5abb 4e3d e439
000000a0: 0cd2 1ebc 4133 48bb 62e8 fabb 2c6d 373c
000000b0: 8386 0ebc c5fa 21bb 77cb 863b c4d4 0bbb
000000c0: 87f9 9abc 840b babc 8281 23ba 4d06 6eb8
000000d0: f784 bc3b e4cd 80ba c987 62bc 20d1 ea3b
000000e0: 0a69 863b 3e32 f83c b992 5939 5e9b 573a
000000f0: 1a16 df3c 091f ffbb a0ed c0bb becf 1ebc
0.0020230487 -0.019014 0.0029732012 0.0075749834 0.013714934 -0.0002453139 -0.00865164 0.00014654968
-0.0041386276 0.0014829565 -0.013234505 -0.005772148 -0.0012418688 -0.010130272 0.0025996608 0.001728765
-0.021630496 0.012553557 -0.010597167 -0.0067508053 0.007904842 -0.002640138 0.0016183006 -0.009593704
-0.010901721 -0.0038168076 -0.012474803 -0.016535247 -0.020843226 0.0016929006 -0.013379586 0.013153341
-0.0027078495 0.00056149176 0.0013919035 -0.005505799 -0.011902762 -0.003489074 -0.00332719 0.00043533224
-0.009693634 -0.0030548128 -0.0076570967 0.011195462 -0.008699062 -0.002471612 0.0041136104 -0.0021336535
-0.018917812 -0.02271057 -0.0006237255 -5.674949e-05 0.0057531553 -0.0009826985 -0.013826319 0.007166043
0.004101877 0.030297395 0.00020749391 0.00082247506 0.027232219 -0.007785682 -0.005887702 -0.009693084

base.mlp.fc_h.0.weight f4 [64, 64]
00000000: 839b aabc 722e 103e 0a0e c2bd b718 8fbe
00000010: aea2 fcbd 15f4 213e b9a4 393c 1972 b0bd
00000020: 51c0 f0bd 05ab 163e 60e7 b0be 0bf9 ee3d
00000030: a928 2c3d 9420 983d b7c5 eabd fa7d a9be
00000040: c7cc 0abe 60f7 073e 8005 2b3e fb93 e8bd
00000050: 9ed3 273e 4c5f 033e 22e7 983b aaee 753e
00000060: 3675 163e c317 91be 9448 e13d af8e 9cbe
00000070: 9f90 bc3e be0b 47be b2bf e5bd 89c9 10bc
00000080: 9dd6 23bd a208 9abe e9b2 343e 59d4 67bd
00000090: ee3c c2bd 935a be3e d6a8 ef3d 8acd eabc
000000a0: 6ae4 65be e911 5b3e 4b3f ab3d 2c6d 97be
000000b0: d7f7 87be 40ba 5cbc e969 4abd 8819 2b3e
000000c0: 2513 d33d b0a1 abbd e5f6 81be 73a6 c5bd
000000d0: 1b00 0c3c eb11 e43d 3b37 21be e31c b53e
000000e0: 0c2b 7abe 9ec1 bd3d e306 49bc 1edc 203e
000000f0: 269a 38be e038 18bc c43a b33c 7735 fcbd
00000100: 8a0f 9bbe 5747 f03c 94cf 223e 7cda ee3c
00000110: 63e9 57be 1670 d9be 5a2c 303e 189a a7be
00000120: 8349 f0bd 0e76 f53c 67d6 87bd 3367 3e3c
00000130: 7d17 1cbe 9678 2abe 166a 193e 6d26 9e3e
00000140: b3df 4abd 3396 cdbc e9b5 c33d c3fc c4be
00000150: ba0b 85be b36e 0dbe 7de0 d4bc 12bf 443e
00000160: ba6a a13d 5ff0 b0bd e8e7 14bb f17c 383e
00000170: 0ebf 2fbe 5cd4 4b3e ab9c 13bd 453e 5c3e
00000180: 2d6d 323e 76b3 c8bd 2933 c8bd 8d9f 8dbd
00000190: 504b d23d d45a 5d3e 20ec 65be ed2e 3d3e
000001a0: 5ab6 d13d dbf6 e63b 4b5e 233d 16fb fdbc
000001b0: 875c bebd 3f1e 75be 3e2d e7bd 1d67 883d
000001c0: 4a7a abbd d4ba d63d c0b3 bc3d 5e7f dbbe
000001d0: e88e a3bc 9bd2 04be ae59 dfbd f309 483e
000001e0: 0356 4ebe ac56 97be 2418 76be 84f1 6dbe
000001f0: e204 0ebe 43d0 ec3c 7a9c 09be 8258 44be
00000200: c4c0 38be 416b 00be 0e41 2c3d 0079 04be
00000210: 3a99 87bd fc6e 98bd 779b fd3d d596 d43d
00000220: a947 253e 1c6a 573e a70b bcbb 2023 96bd
00000230: 9e1d a03c 6b65 c23e f60f a2be 9f4b 6dbc
00000240: bb0f 543e 69a8 92bd 3b9f df3a 2ef9 6d3e
00000250: da97 c83d 58a1 63be 3489 14bc 88ba eabd
00000260: 5905 d13e ccc1 513c 2118 423e 0c05 fa3d
00000270: ef95 4cbd 7b01 383d e5e2 093e 69ec 903d
00000280: 02fe 1bbf 43cb 0b3d 1071 933d 2754 35bd
00000290: 6bbf ea3d 512c 333e 33dc d2be 84a8 253e
000002a0: ef47 b13d 729f 9b3e bd51 63bd 550d e23d
000002b0: e892 90be f37b 99bd 6978 8abd b0ea 103e
000002c0: fe1f f73b 4d8a 0a3e b4b3 183e b960 a03e
000002d0: 51ca a33d a36d 63bd 2a9c e83d be28 373e
000002e0: cf71 56bc 5dd4 cebd 66d2 ddbb 58bc f5bd
000002f0: d4de 7b3e d1bb 243e 2cf4 96bd ff04 613d
00000300: 4bfb 893e fda6 b5bd d0b9 20be 31c4 d93c
00000310: be52 31bd 9c69 3dbe 48e0 e13d ee0d 2a3d
00000320: 23f0 3d3e 4d6c 33be 9615 a6be 0bc3 82be
00000330: 011d 2c3d 1201 b53d 07dc 7cbd 23e4 69be
00000340: bc49 18be b720 70be 1d3e f53d de51 893c
00000350: 6377 28be 848a 37bd 8032 c43e 4904 dbbd
00000360: 4098 3dbe f8e8 5fbc 987e 86bd e455 5a3e
00000370: 5cb6 003e e61f 4abe f75c 89be 207f 50be
00000380: f70d 79bd b23f ef3c 0ada 75bc 9c60 f3bc
00000390: ae6b de3e 04ea 74bd 8ab5 bc3d 2078 603c
000003a0: db83 093e 6157 64bd b6d4 183e e508 8fbc
000003b0: af59 553e 9d62 9fbe 8193 1abe 9a3a e53d
000003c0: 3728 9e3e 8d60 433d b0ad 8ebd d431 843e
000003d0: af7b 9c3d 2a24 4ebd fea0 d8bd 8c0b 693d
000003e0: a752 9e3d 0371 933d 48b4 d3be ee32 07be
000003f0: 0fd4 cbba 56ed 88be 3bc2 87be 0ae3 69be
-0.020826107 0.14080217 -0.09475334 -0.27948543 -0.12335716 0.15815766 0.011330777 -0.086155124
-0.117554314 0.14713676 -0.34551525 0.11668595 0.042030964 0.07428089 -0.11463492 -0.33103925
-0.13554679 0.1327796 0.16701317 -0.1135635 0.1638932 0.12829322 0.004666225 0.24016824
0.1469315 -0.2833844 0.11000171 -0.3057761 0.36829087 -0.19438073 -0.112182036 -0.008837112
-0.039999593 -0.3008471 0.17646374 -0.056598995 -0.09484278 0.37178478 0.11702125 -0.028662462
-0.22450414 0.21393551 0.083616816 -0.2957548 -0.26556274 -0.01347214 -0.04941741 0.16708958
0.10306386 -0.08380449 -0.25383678 -0.09650888 0.008544947 0.1113623 -0.15743725 0.353736
-0.24430484 0.09265445 -0.012269708 0.15708968 -0.18027553 -0.009290904 0.021878608 -0.12314885
-0.30285293 0.029330892 0.15899497 0.029156916 -0.21085124 -0.42468327 0.17204419 -0.32734752
-0.11732771 0.02996352 -0.06632691 0.011621284 -0.15243335 -0.16647562 0.14981875 0.30888692
-0.049529742 -0.025096035 0.09556181 -0.38474092 -0.2598551 -0.1381176 -0.02598595 0.19213513
0.078816846 -0.08639597 -0.0022721235 0.18016411 -0.17162725 0.19905227 -0.036038082 0.21508129
0.1742446 -0.097998545 -0.09775383 -0.069151975 0.10268271 0.2161668 -0.22453356 0.18474932
0.10239859 0.0070484704 0.039884847 -0.031003516 -0.09294992 -0.23937319 -0.11287926 0.06660292
-0.08372934 0.104848534 0.09213972 -0.4287061 -0.019965604 -0.12970965 -0.10905777 0.19535045
-0.20149998 -0.29558313 -0.24032646 -0.23236662 -0.1386905 0.0289079 -0.13438597 -0.19174388
-0.18042284 -0.12540914 0.04205423 -0.12936783 -0.066210225 -0.074430436 0.12383168 0.103803314
0.16140617 0.21036571 -0.0057386938 -0.07330918 0.019545373 0.37968 -0.31652802 -0.0144833615
0.20709126 -0.07161028 0.0017061004 0.23239586 0.097945884 -0.22229517 -0.009065915 -0.11461359
0.40824392 0.012802552 0.18954517 0.12207994 -0.049947675 0.044923287 0.1346546 0.07076342
-0.6093446 0.034129392 0.07199299 -0.044269707 0.11462291 0.17497374 -0.41183624 0.16177565
0.08656298 0.30395085 -0.055497874 0.11037699 -0.2823708 -0.074943446 -0.06761248 0.14152026
0.0075416556 0.1352932 0.14912301 0.31323794 0.07997573 -0.05552448 0.11357911 0.17886636
-0.0130886575 -0.10099099 -0.006769466 -0.11998814 0.24596721 0.16087271 -0.07370791 0.054936405
0.26949534 -0.08869741 -0.15695882 0.02658281 -0.0432918 -0.18497318 0.110291064 0.04151719
0.18548636 -0.17521782 -0.32438344 -0.2553943 0.042019848 0.08838095 -0.061733272 -0.22840934
-0.14871877 -0.2344998 0.11974738 0.01676267 -0.16451792 -0.044809833 0.38319778 -0.10694177
-0.1851511 -0.013666384 -0.065671146 0.21321827 0.12569565 -0.19738731 -0.2682874 -0.20360994
-0.060804334 0.029205177 -0.015005598 -0.029709153 0.43441528 -0.059793487 0.09214313 0.013700515
0.13429205 -0.055747394 0.14924893 -0.017460296 0.20834993 -0.31129923 -0.15095331 0.11192818
0.30890056 0.0476995 -0.06966722 0.25819266 0.07640778 -0.050327457 -0.10577582 0.056895778
0.077306084 0.0719929 -0.4134848 -0.13203022 -0.0015550869 -0.26743573 -0.26515374 -0.22840515

base.mlp.fc_h.0.bias f4 [64]
00000000: 0000 0000 0000 0000 0000 0000 0000 0000
00000010: 0000 0000 0000 0000 0000 0000 0000 0000
00000020: 0000 0000 0000 0000 0000 0000 0000 0000
00000030: 0000 0000 0000 0000 0000 0000 0000 0000
00000040: 0000 0000 0000 0000 0000 0000 0000 0000
00000050: 0000 0000 0000 0000 0000 0000 0000 0000
00000060: 0000 0000 0000 0000 0000 0000 0000 0000
00000070: 0000 0000 0000 0000 0000 0000 0000 0000
00000080: 0000 0000 0000 0000 0000 0000 0000 0000
00000090: 0000 0000 0000 0000 0000 0000 0000 0000
000000a0: 0000 0000 0000 0000 0000 0000 0000 0000
000000b0: 0000 0000 0000 0000 0000 0000 0000 0000
000000c0: 0000 0000 0000 0000 0000 0000 0000 0000
000000d0: 0000 0000 0000 0000 0000 0000 0000 0000
000000e0: 0000 0000 0000 0000 0000 0000 0000 0000
000000f0: 0000 0000 0000 0000 0000 0000 0000 0000
0.0 0.0 0.0 0.0 0.0 0.0 0.0 0.0
0.0 0.0 0.0 0.0 0.0 0.0 0.0 0.0
0.0 0.0 0.0 0.0 0.0 0.0 0.0 0.0
0.0 0.0 0.0 0.0 0.0 0.0 0.0 0.0
0.0 0.0 0.0 0.0 0.0 0.0 0.0 0.0
0.0 0.0 0.0 0.0 0.0 0.0 0.0 0.0
0.0 0.0 0.0 0.0 0.0 0.0 0.0 0.0
0.0 0.0 0.0 0.0 0.0 0.0 0.0 0.0

base.mlp.fc_h.2.weight f4 [64]
00000000: 0000 803f 0000 803f 0000 803f 0000 803f
00000010: 0000 803f 0000 803f 0000 803f 0000 803f
00000020: 0000 803f 0000 803f 0000 803f 0000 803f
00000030: 0000 803f 0000 803f 0000 803f 0000 803f
00000040: 0000 803f 0000 803f 0000 803f 0000 803f
00000050: 0000 803f 0000 803f 0000 803f 0000 803f
00000060: 0000 803f 0000 803f 0000 803f 0000 803f
00000070: 0000 803f 0000 803f 0000 803f 0000 803f
00000080: 0000 803f 0000 803f 0000 803f 0000 803f
00000090: 0000 803f 0000 803f 0000 803f 0000 803f
000000a0: 0000 803f 0000 803f 0000 803f 0000 803f
000000b0: 0000 803f 0000 803f 0000 803f 0000 803f
000000c0: 0000 803f 0000 803f 0000 803f 0000 803f
000000d0: 0000 803f 0000 803f 0000 803f 0000 803f
000000e0: 0000 803f 0000 803f 0000 803f 0000 803f
000000f0: 0000 803f 0000 803f 0000 803f 0000 803f
1.0 1.0 1.0 1.0 1.0 1.0 1.0 1.0
1.0 1.0 1.0 1.0 1.0 1.0 1.0 1.0
1.0 1.0 1.0 1.0 1.0 1.0 1.0 1.0
1.0 1.0 1.0 1.0 1.0 1.0 1.0 1.0
1.0 1.0 1.0 1.0 1.0 1.0 1.0 1.0
1.0 1.0 1.0 1.0 1.0 1.0 1.0 1.0
1.0 1.0 1.0 1.0 1.0 1.0 1.0 1.0
1.0 1.0 1.0 1.0 1.0 1.0 1.0 1.0

base.mlp.fc_h.2.bias f4 [64]
00000000: 0000 0000 0000 0000 0000 0000 0000 0000
00000010: 0000 0000 0000 0000 0000 0000 0000 0000
00000020: 0000 0000 0000 0000 0000 0000 0000 0000
00000030: 0000 0000 0000 0000 0000 0000 0000 0000
00000040: 0000 0000 0000 0000 0000 0000 0000 0000
00000050: 0000 0000 0000 0000 0000 0000 0000 0000
00000060: 0000 0000 0000 0000 0000 0000 0000 0000
00000070: 0000 0000 0000 0000 0000 0000 0000 0000
00000080: 0000 0000 0000 0000 0000 0000 0000 0000
00000090: 0000 0000 0000 0000 0000 0000 0000 0000
000000a0: 0000 0000 0000 0000 0000 0000 0000 0000
000000b0: 0000 0000 0000 0000 0000 0000 0000 0000
000000c0: 0000 0000 0000 0000 0000 0000 0000 0000
000000d0: 0000 0000 0000 0000 0000 0000 0000 0000
000000e0: 0000 0000 0000 0000 0000 0000 0000 0000
000000f0: 0000 0000 0000 0000 0000 0000 0000 0000
0.0 0.0 0.0 0.0 0.0 0.0 0.0 0.0
0.0 0.0 0.0 0.0 0.0 0.0 0.0 0.0
0.0 0.0 0.0 0.0 0.0 0.0 0.0 0.0
0.0 0.0 0.0 0.0 0.0 0.0 0.0 0.0
0.0 0.0 0.0 0.0 0.0 0.0 0.0 0.0
0.0 0.0 0.0 0.0 0.0 0.0 0.0 0.0
0.0 0.0 0.0 0.0 0.0 0.0 0.0 0.0
0.0 0.0 0.0 0.0 0.0 0.0 0.0 0.0

base.mlp.fc2.0.0.weight f4 [64, 64]
00000000: b0de b2bc a4d9 153e 22ad b7bd be02 92be
00000010: 9c57 f2bd 0109 283e 21b7 033c 741a a6bd
00000020: dc2f fcbd 90d5 1b3e 1854 aebe ac1f ee3d
00000030: bdd3 403d 53ea a53d 3b24 f5bd 396f acbe
00000040: 489d 05be b825 0d3e 9508 303e e8a2 f4bd
00000050: c2fa 2c3e 2a4d fa3d 014a bcba 55da 6f3e
00000060: 87bf 113e a75b 92be 3ca4 eb3d 6748 9bbe
00000070: f684 ba3e ccda 41be 6931 dbbd 6653 79bb
00000080: 24cc 15bd 2075 97be 57f1 393e ae1d 53bd
00000090: 76db b7bd 0ef4 c03e 8820 ef3d 5b7b c1bc
000000a0: cc96 6abe ca38 603e 1f5b 9e3d 28b3 9abe
000000b0: 9a64 85be 472b 09bc c4d8 5fbd d13f 303e
000000c0: 11c8 e23d db49 a1bd c5c0 84be d6e8 b5bd
000000d0: 0ec1 253b e779 de3d 581c 1dbe 83f1 b13e
000000e0: dd02 75be 4d0f c83d 78c5 2ebc 1da9 183e
000000f0: b806 35be 3f19 a2bb 51e4 803c 4396 f8bd
00000100: 67dc 9bbe ee69 203d 32a9 273e 9fb9 a13c
00000110: 499f 50be edc2 d8be f4a1 343e c6ee a3be
00000120: 8ad1 02be dcf0 173d 7577 72bd f7ab 9a3c
00000130: 73aa 14be 89c0 19be 3294 113e 66e5 973e
00000140: f27f 2dbd ec68 93bc 9496 a83d 4845 cabe
00000150: 0a6d 81be db54 14be 223f 35bd 3547 3b3e
00000160: 9b8d 9a3d d2bd a4bd bf1b 9d3b d928 403e
00000170: 823f 27be d220 533e 53ff ecbc dc89 633e
00000180: 4d7f 3d3e 8200 babd 26a4 b7bd d73b 7ebd
00000190: cfa6 da3d 8eaa 663e 658f 62be 5d6f 443e
000001a0: 81fc bc3d 22b6 673c 87f4 fb3c e48f 1bbd
000001b0: f8b5 afbd 6316 72be 57f0 f6bd d928 973d
000001c0: ad4a 97bd fc7f e53d 6cd8 ae3d 3bdd d6be
000001d0: d79f d1bc bbcf 0fbe 8030 cbbd 8b47 423e
000001e0: ea0e 47be 81b5 93be e6ee 75be 8805 73be
000001f0: 784c 11be 99e1 b53c a5c5 0fbe c87a 40be
00000200: 729b 3dbe 282f fcbd cf7c 353d adab 0bbe
00000210: 58a9 82bd f10b 89bd 74ae 023e cb5a d93d
00000220: 831c 1b3e 1cbf 593e 3c8c 5abb 9578 89bd
00000230: a227 b33c c2d0 c83e 63e3 a1be ec9a 79bc
00000240: 4d5d 563e daaf 8dbd bce0 87bc 01c6 6c3e
00000250: d689 cd3d 135f 6cbe 4dab 07bc 4493 f4bd
00000260: 1ef1 d03e 96bc 823c d970 443e a8a3 fe3d
00000270: a8d3 44bd 59c4 413d af3b 0c3e 23c7 953d
00000280: 6eb8 1abf d762 153d d2a0 983d 0da3 2bbd
00000290: 7973 023e 9f8e 353e ec29 d0be 1a17 283e
000002a0: c368 a63d 01d8 9c3e 48b0 86bd 25d9 e13d
000002b0: c562 8fbe 57e9 98bd 4226 8cbd d949 133e
000002c0: 71ee 233c 3bd5 0c3e bc06 173e f642 a13e
000002d0: 2407 a73d d421 83bd d16c d03d 5da1 383e
000002e0: 1527 2fbc 8ffb c9bd 8a27 88bc 0c6e f9bd
000002f0: e898 7b3e eae2 283e baf7 9abd c500 683d
00000300: fa5f 893e 6e6d a1bd 4c58 19be 3bfc aa3c
00000310: 5ff2 13bd 4ed1 39be 14bd f03d 75a7 473d
00000320: 2c74 413e 5207 2cbe 7d64 a2be c6aa 7cbe
00000330: 637b 493d b870 c73d 78fb 8bbd 1cc7 70be
00000340: bbe0 10be a2c8 68be 202c 083e 6a12 fb3b
00000350: f91a 21be e832 5bbd 1883 bc3e a018 f1bd
00000360: 11bf 4abe 7044 9cbc 2f5d 6fbd 8211 613e
00000370: 79b8 003e 34c1 42be 70b5 85be b91f 49be
00000380: ceb1 40bd 392d 153d 3c84 0bbc bd7a b8bc
00000390: ed26 db3e 8d58 57bd 8ebb ca3d 6a3e ab3c
000003a0: 4819 fb3d 5ce2 46bd 1837 183e ce81 bebc
000003b0: d7bf 5c3e 3533 9bbe f6f7 23be 1e04 f43d
000003c0: 963e a13e ea17 613d 0577 a1bd 1c8f 873e
000003d0: cdf6 8e3d ad76 7cbd aeb4 afbd d937 3c3d
000003e0: a20d ad3d 8b24 a23d c649 d5be 5405 0dbe
000003f0: a395 2bbb 7167 8dbe 2a84 8cbe 5878 64be
-0.021834701 0.14633805 -0.08968569 -0.28517717 -0.118331164 0.16409685 0.008039267 -0.08110514
-0.12313816 0.15218186 -0.34048533 0.11627135 0.04707693 0.081013344 -0.11969801 -0.33678606
-0.1304828 0.1378392 0.17190774 -0.119451344 0.16892532 0.12221749 -0.0014365317 0.23423131
0.14233218 -0.2858555 0.115059346 -0.30328676 0.36429566 -0.1893112 -0.107027836 -0.0038044094
-0.036571637 -0.29581547 0.1815847 -0.051541977 -0.08977406 0.376862 0.11676127 -0.02361839
-0.22909087 0.21896663 0.07732224 -0.3021481 -0.26053315 -0.0083721345 -0.054650083 0.17211844
0.11073316 -0.07875415 -0.2592832 -0.088823006 0.0025292072 0.10863095 -0.15342844 0.3475457
-0.23926874 0.097685434 -0.010667197 0.14908262 -0.17678344 -0.004946857 0.01573387 -0.12138035
-0.3044159 0.039163522 0.16373137 0.019741831 -0.20373262 -0.42336217 0.17639905 -0.32018107
-0.12775245 0.037094936 -0.059195954 0.018880827 -0.14518146 -0.15014853 0.14216688 0.29667205
-0.042358346 -0.017994367 0.082318455 -0.39505982 -0.25278503 -0.14485495 -0.04424966 0.18288882
0.0754654 -0.08044018 0.0047945674 0.18765582 -0.1633282 0.20617989 -0.028930342 0.22220558
0.18505593 -0.09082128 -0.08966856 -0.062068786 0.106763475 0.22525999 -0.22125013 0.19183107
0.09227849 0.014142545 0.030756248 -0.03797902 -0.0857963 -0.23641352 -0.1205756 0.07380838
-0.0738729 0.11206052 0.08537373 -0.4196566 -0.025588913 -0.14044087 -0.0992136 0.18972604
-0.19439283 -0.28849414 -0.24016914 -0.23732579 -0.14189327 0.0222023 -0.14040239 -0.18796837
-0.18516329 -0.12313682 0.04430848 -0.13639708 -0.06379956 -0.06691731 0.12761861 0.106130205
0.15147595 0.21264309 -0.0033347746 -0.06712452 0.021869484 0.3922177 -0.31618795 -0.01523469
0.20934029 -0.06918307 -0.016586654 0.23122407 0.10036056 -0.23083143 -0.008280587 -0.11942151
0.40808958 0.015959065 0.19183673 0.12433559 -0.048053414 0.047306392 0.13694642 0.07313373
-0.6043767 0.036471214 0.07452549 -0.041903544 0.12739362 0.17730187 -0.40656984 0.16415063
0.081254505 0.30633548 -0.06576592 0.11027745 -0.28005043 -0.07466381 -0.068432346 0.1438364
0.010005579 0.13753216 0.14748663 0.314964 0.08155659 -0.064029366 0.10177005 0.18030305
-0.01069047 -0.09862434 -0.016620416 -0.12179193 0.24570048 0.16492811 -0.07566781 0.05664136
0.26831037 -0.078822 -0.14975089 0.020872226 -0.036119815 -0.1814625 0.11754814 0.048743684
0.18891972 -0.16799667 -0.3171729 -0.2467452 0.049189936 0.09738296 -0.06835073 -0.23513454
-0.14148228 -0.22732785 0.13298082 0.0076621072 -0.15732946 -0.053515345 0.36818767 -0.11772275
-0.19799449 -0.019075602 -0.058438476 0.21979335 0.1257037 -0.19019014 -0.26114988 -0.19641007
-0.047044568 0.03642008 -0.008515414 -0.022519464 0.42803136 -0.052574683 0.098990545 0.020903785
0.122606814 -0.048555717 0.14864767 -0.023255255 0.21557556 -0.30312505 -0.16012558 0.11914848
0.31493062 0.054954447 -0.07884029 0.2647637 0.06980667 -0.061636616 -0.08579384 0.045951698
0.08449866 0.07917126 -0.41657847 -0.13771564 -0.002618172 -0.27617982 -0.27444583 -0.22311532

base.mlp.fc2.0.0.bias f4 [64]
00000000: db39 aebb 7c74 d9bb 96b6 c8ba cc6e fcbb
00000010: 0000 0000 0000 0000 ed1a 9bba 0000 0000
00000020: 16ac 373c ae87 72bb 0000 0000 4344 71bb
00000030: 0000 0000 e5e6 f5bb 0000 0000 7b0c c3ba
00000040: 600c 50bc b4f3 e1bb 0000 0000 294f 81bb
00000050: e966 9c3c 3edd 333c 2943 0bba 6eb1 2e3c
00000060: 399e 3abb 0000 0000 66e6 1dbb bb43 1c3c
00000070: 0000 0000 f7c8 983b cbf7 923c bfcb 6ebc
00000080: 6025 c13c 3327 87bb 0000 0000 898c f73b
00000090: 0000 0000 938c 80ba a844 08bb 0000 0000
000000a0: bf71 b5bb d256 59bc 75dd f3ba 0000 0000
000000b0: a9d8 04ba b351 1ebc 4909 8bba 0000 0000
000000c0: f297 2ebb 0000 0000 2c09 a73c 9530 71bb
000000d0: e4ab 83b9 e749 973c 3cb7 26bb 03bb 99bb
000000e0: 17f2 ba3c 0000 0000 42e0 82bc 0000 0000
000000f0: 0a0c ad3b 54b0 61bb 441a 0c3b ed13 f03b
-0.0053169555 -0.0066362005 -0.0015313204 -0.0077036377 0.0 0.0 -0.0011833586 0.0
0.011210462 -0.003700714 0.0 -0.0036814369 0.0 -0.0075043314 0.0 -0.0014881039
-0.012698263 -0.0068955068 0.0 -0.003946204 0.01909204 0.010978041 -0.0005312437 0.01066242
-0.0028475656 0.0 -0.0024093627 0.009537633 0.0 0.0046626288 0.017940423 -0.014574944
0.023577392 -0.004124546 0.0 0.007554595 0.0 -0.0009807519 -0.0020792875 0.0
-0.005537241 -0.0132653285 -0.0018605428 0.0 -0.0005067685 -0.009663033 -0.0010607626 0.0
-0.002664086 0.0 0.020390116 -0.0036802639 -0.00025114336 0.018467857 -0.0025438806 -0.004691483
0.022820516 0.0 -0.015976075 0.0 0.005280976 -0.0034437375 0.002137796 0.007326594

base.mlp.fc2.0.2.weight f4 [64]
00000000: 1cc7 793f af63 7c3f 7710 803f 42b4 803f
00000010: 0e57 813f 15a7 7d3f 5d1a 7c3f 3fc6 813f
00000020: 1eb6 803f e59a 803f 4d1e 783f 6fbf 7e3f
00000030: d0e0 7e3f 20c6 793f 0c5f 813f ea3a 803f
00000040: 181d 7c3f 8ff0 803f a973 7f3f 70d0 813f
00000050: 9410 813f f4d4 813f 5b35 823f bf5f 813f
00000060: 7c9c 7c3f 84c4 7b3f a9ab 7d3f b9c4 813f
00000070: 1114 803f 5dd2 7c3f 09c5 833f b1e2 7c3f
00000080: e900 843f 1476 7f3f 2e69 7e3f aec1 803f
00000090: 9ac5 823f 5da3 803f c3b1 7e3f 55a8 803f
000000a0: 8831 803f 19d9 803f be1c 813f 04e9 7c3f
000000b0: f659 7e3f 263c 7e3f d586 7b3f 0836 803f
000000c0: f92b 813f 87c0 803f 4521 833f 0865 7d3f
000000d0: 62bf 7e3f 42bf 833f 1372 7f3f f507 7b3f
000000e0: 73a2 7f3f 6043 803f b6dc 813f 75bb 7f3f
000000f0: 4e8b 803f a7cd 7e3f d576 813f 8712 7a3f
0.9756944 0.98589605 1.0005025 1.005501 1.0104692 0.9908307 0.9847773 1.0138625
1.0055578 1.004727 0.96921235 0.99510854 0.99561787 0.9756794 1.0107131 1.0017979
0.98481894 1.0073413 0.9978586 1.0141735 1.0083184 1.0143113 1.0172533 1.0107344
0.98676276 0.98346734 0.9909006 1.013816 1.0006124 0.9875849 1.0294505 0.98783404
1.0312778 0.9978955 0.9937924 1.0059106 1.0216553 1.0049855 0.9948999 1.0051371
1.0015116 1.0066253 1.0086896 0.98793054 0.9935602 0.9931053 0.9825261 1.0016489
1.0091544 1.0058755 1.0244528 0.98982286 0.99510777 1.0292742 0.9978344 0.98059016
0.9985725 1.0020561 1.0145481 0.9989541 1.0042512 0.9953255 1.011439 0.9768452

base.mlp.fc2.0.2.bias f4 [64]
00000000: ab51 d73c 35d0 83bb cb65 dfbb 3ccb 88bb
00000010: b544 30bc ca99 223c 66c4 eb39 c977 73bc
00000020: 17de 01bc 2842 34bc aa4c 0c3d 1814 ad3b
00000030: 365c 9d3b 1092 633c 2a91 44bc c1c6 e0bb
00000040: ab0b 603c 437b 49bc 0b08 403b e6aa 74bc
00000050: 251c 3abc 1f93 403c c290 afbc 2623 353c
00000060: a01a b83b 2d3a 8f3c 2f05 223a f981 69bc
00000070: 8969 9fb9 5a77 f63b ae22 a53c e552 bfbb
00000080: 5973 c23c 85db 07bc c85d ae3b 2b32 0e3c
00000090: 4dc4 c5bc 547c 2abb 73b1 0a3b f3b8 c6bb
000000a0: 8539 77bb 50bc 1ebc fc39 10bc 2f79 743c
000000b0: f2ce 983a cfb5 4abb 9ca2 8d3c 7481 daba
000000c0: 7111 81bb 6991 d8bb 8cbe b33c 15b9 293c
000000d0: 5b95 aa3a 4aad ab3c 70ff 2eba 6241 ac3c
000000e0: 36d0 a73c 32da 04bb bdab 77bc b006 1a3a
000000f0: 8a6f 9f3b d55c f5bb 663b 47bc b40c d23c
0.02628406 -0.004022623 -0.0068175546 -0.004174618 -0.0107585685 0.0099243615 0.0004496902 -0.014860102
-0.0079264855 -0.011002101 0.0342528 0.0052819364 0.004802252 0.0138898045 -0.0119975 -0.006859631
0.013674657 -0.012297454 0.002930167 -0.0149333235 -0.011359249 0.011753826 -0.02143133 0.011055743
0.0056184083 0.017483795 0.0006180582 -0.014252179 -0.00030405473 0.007521552 0.020158138 -0.005838739
0.023736643 -0.008292084 0.005321238 0.008678953 -0.024141455 -0.0026014047 0.0021162897 -0.006064528
-0.0037723493 -0.009688452 -0.008802887 0.014921471 0.0011658354 -0.003093112 0.017289452 -0.001667066
-0.0039388468 -0.006609131 0.021941446 0.010359068 0.0013014482 0.020956654 -0.00066756364 0.02102727
0.020485025 -0.0020271656 -0.015116629 0.00058756303 0.0048655914 -0.007487873 -0.012160158 0.025640823

rnn.rnn.weight_ih_l0 f4 [192, 64]
00000000: 798a 5abd 3cbb c3bd b5c7 13bd 8ca1 e6bc
00000010: d739 c6bd 67fd 06bd 44e0 03be ca04 1dbc
00000020: cf84 263e 99ab 6f3d 4560 4dbc fde8 fa3c
00000030: 4de9 a6bd dd4e 553d 6b63 823c 26b7 00be
00000040: 0831 83bd 8340 463d 126b 393c f4e4 473c
00000050: 626e 60bc a93d 7c3d 6495 2dbd 35aa 993d
00000060: af1e 1fbc 9dce 08bd b773 863d 5fb0 7c3c
00000070: ee50 e9bd 2751 8e3d df97 7abd 94c0 5b3d
00000080: 5aa9 acbd 5db2 49bd 675d dc3c 196e 173d
00000090: ad97 d1bc f3ed 64bd 39a3 493d 5a04 0d38
000000a0: 2a71 143c 6306 18bd 602a 2dbd 1e6a 9d3d
000000b0: 7d67 ca3d 6fbe cebd 9fbf 983a 053b 233c
000000c0: 9bba 653d 13d0 853c 6582 27bd 989d 833d
000000d0: 40b9 29bd 14f2 d2ba 291b 883e 9ee4 b83d
000000e0: d06d d4bd 4471 d13d 12ab f5bb 7c07 5d3c
000000f0: c3a4 dc3d 8372 6ebd 7fb7 cb3c 42f3 afbd
00000100: b349 85bd f87d a339 4851 ffbb 1130 b13d
00000110: e781 cd3d 2738 c23d ec52 273b c18c de3c
00000120: f3a6 153e 0314 f3bc 6b57 8b3a 191b 2cbd
00000130: 31c2 e43c 6a02 efbc 8971 fabc 3b76 00bd
00000140: 4fb7 7cbd b4e9 85bc a85f 9abc f8ed b93c
00000150: c2f5 19be 0e79 48bd a83e f2bd cbda 73bd
00000160: 85ae 053b 9f6c cc3d 303b 84ba 545c 9b3d
00000170: ef5a 3dbb 1a09 633c 8586 c93c b680 9c3d
00000180: d0bb 77bc 68c9 98bd c712 b8bc 20dd 06bd
00000190: 4223 333d b516 673c 767b 1a3c fdea 2f3e
000001a0: ef3c a2bd 3795 a3bd 6fb2 87bc 6541 ffbb
000001b0: f69e 3d3d 12c4 80bd 0d07 4cbd 39cb 6b3c
000001c0: a26f 853d ecc2 07be 1845 17bd 0dc2 acbd
000001d0: 40b7 873c 243f 033d 1b6f 27bc 0fd9 753c
000001e0: 3ad9 85bd 9f6a 4dbd 2e16 933d 4418 513b
000001f0: 72a1 bebc 6345 f0bb 0841 d53d e803 483e
00000200: 986d 48bd a56c d3bc dfa1 b4bc 454b aabc
00000210: e5e8 bf3c 6ca9 e93d 3b5b e7bc 4917 6cbb
00000220: 5eef 02bd 6486 523d f639 493d bb2a 01bd
00000230: 1330 233d ecbe e8bb 3792 7e3d fa69 2bbe
00000240: 3068 b63c dfdc a2bc 9b27 f3bc e86d b43d
00000250: 5cf1 ed3c a612 17bd 1c73 613c a142 2e3d
00000260: 80f5 38bd 5404 753c 0c93 bdbc f87f d9bb
00000270: 9ecd 5cbd 9e90 a1bd af70 5ebe 54f9 1abd
00000280: e47f 1c3b b6e8 093d d7c0 5fbc ad6f df3d
00000290: d86a 95bd 81a1 02be f4ab 84bd 76f7 f73d
000002a0: 4000 1abb f39c d5bd 5448 913d bee9 ba3c
000002b0: a5b5 b13c 7b2e 42bd 9c48 4fbd db5c cdbd
000002c0: 00cb 0abd 25a9 e93c d753 2d3d 4442 4c3d
000002d0: e8f1 2a3d 3eb7 afbd deda d5bd 4507 d6bd
000002e0: 93b1 26bc f125 3bbe d030 613d 1488 20bc
000002f0: 036a 693d 1c96 30bd 5933 8b3d 2794 433c
00000300: a0ce 7cbe 615f 463d 69b9 863d b1eb ad3d
00000310: 9c4e 3c3d 3f34 bdbd 9189 a3bd 569f 5bbd
00000320: 5565 29bd c208 08bd aa06 873c 2af3 d43d
00000330: 6438 06bd e1bb fe3b a464 bbbd 3d41 d63c
00000340: b1a8 c83c ff8a 63bc 8406 efbd b878 76bc
00000350: 7688 193d 4d3c 10bc c387 123e 8426 26be
00000360: fa9c 22bd f9b1 29bd a0b8 97bd 609e 46bc
00000370: 3a0c 563d c204 ae3c d954 bb3d a4e3 863d
00000380: 91cf 45bd 8f09 0a3e 2e2c 0a3e 54b7 df3d
00000390: fa4e 153d 4f29 c63d 5aa4 83bd c3aa 313d
000003a0: 8fbb 083c fb3b ec3b 114f 433d 54e7 ab3d
000003b0: 71b0 14bc 18b7 8ebd 4afd 083d 5eb8 0bbc
000003c0: 0866 113a ac4d 24bb 896a 113c 9e48 01bd
000003d0: 8197 9fbc 08aa 803d 914f 6abd bb20 163d
000003e0: 9f83 cebb b7ef abbd 022e d4bd 4d56 d93c
000003f0: 58bf ae3d 9e59 2cbc a8af 1bbd 4217 af3d
-0.053354714 -0.095571965 -0.036079127 -0.028153203 -0.09679001 -0.032956507 -0.1287852 -0.009583661
0.162616 0.058513258 -0.0125351595 0.030628676 -0.08149967 0.052077163 0.015916547 -0.12569866
-0.06405836 0.048401367 0.011317031 0.012200583 -0.013698192 0.06158224 -0.042378798 0.075031675
-0.009711905 -0.033400167 0.065650396 0.0154229095 -0.11392389 0.06949072 -0.06117999 0.053650454
-0.08430739 -0.049242366 0.026900006 0.03697023 -0.02558502 -0.05589099 0.049227927 3.3621072e-05
0.009060184 -0.037115466 -0.04227674 0.07686256 0.0988302 -0.10094916 0.0011653787 0.009962802
0.056086164 0.01633457 -0.04089584 0.06426543 -0.041436434 -0.0016093873 0.26583222 0.0902798
-0.103725076 0.10226682 -0.0074972 0.013490554 0.10773613 -0.058214676 0.024867771 -0.085913196
-0.06508198 0.00031183637 -0.007791672 0.08651746 0.100345425 0.094833665 0.0025531603 0.027166726
0.14614467 -0.029672628 0.0010630911 -0.04201803 0.027924629 -0.029175956 -0.030571716 -0.031362753
-0.061698254 -0.01634679 -0.01884444 0.02269648 -0.15035155 -0.04894357 -0.11828357 -0.05953483
0.0020398211 0.09981655 -0.001008844 0.075859696 -0.0028893312 0.01385715 0.024600277 0.07641737
-0.015120462 -0.0746029 -0.022469891 -0.032925725 0.043734796 0.014104535 0.009428849 0.17179485
-0.079217784 -0.07987445 -0.016564576 -0.007789778 0.046294175 -0.062873974 -0.04981141 0.014391714
0.06515433 -0.1325795 -0.036931127 -0.0843545 0.016566873 0.032042637 -0.010219361 0.015005364
-0.06535573 -0.05015051 0.07181965 0.0031905333 -0.023270342 -0.0073324903 0.10412794 0.1953274
-0.04893264 -0.025808642 -0.022049842 -0.020787844 0.023426482 0.11409268 -0.028241744 -0.0036024621
-0.03196656 0.051397696 0.04912754 -0.03153489 0.03984077 -0.007102838 0.06215116 -0.16739646
0.022266477 -0.01988071 -0.029681971 0.088100255 0.029045753 -0.03688302 0.013760354 0.04254401
-0.045156002 0.014954645 -0.023141406 -0.0066375695 -0.05390703 -0.07888912 -0.21722673 -0.037835434
0.002387994 0.033669196 -0.013656816 0.10909972 -0.072957695 -0.12756921 -0.0647811 0.12107746
-0.0023498684 -0.10430326 0.070938736 0.022816535 0.02169306 -0.04740761 -0.050606355 -0.100274764
-0.033885002 0.028523037 0.042316284 0.049867883 0.041734606 -0.085798725 -0.10442136 -0.10450605
-0.010174173 -0.18276192 0.05497819 -0.009798069 0.056985866 -0.043111905 0.06796903 0.011937178
-0.24688196 0.048430804 0.06578333 0.0849222 0.045973405 -0.09238481 -0.07985223 -0.05361875
-0.041356403 -0.033211477 0.01648267 0.10397942 -0.032768622 0.0077738618 -0.09150055 0.026154155
0.0244945 -0.01388812 -0.11671165 -0.01504343 0.037483655 -0.008803439 0.14309601 -0.1622563
-0.039700486 -0.041429494 -0.07408261 -0.0121227205 0.052257754 0.021242503 0.09147043 0.06586388
-0.048293654 0.13480209 0.13493416 0.10923639 0.03645227 0.09675848 -0.06427832 0.04337574
0.008345499 0.0072092987 0.047682825 0.08393732 -0.00907527 -0.06968516 0.03344468 -0.008527843
0.0005546515 -0.002507071 0.008875498 -0.031563394 -0.019481422 0.06282431 -0.057204787 0.036652308
-0.0063023116 -0.08395331 -0.10360338 0.02653041 0.0853259 -0.010519413 -0.038009316 0.08549358
