MAPPO/results/MyEnv/MyEnv/rmappo/check/run4/models/actor_agent0.pt (torch, 257699 bytes, 22 tensors)

base.feature_norm.weight f4 [411]
0	0x3f801c2c	1.0008597
1	0x3f808b69	1.0042545
2	0x3f7f9733	0.99840087
3	0x3f7f1dd7	0.99654907
4	0x3f7fe3db	0.99957055
5	0x3f7f1da9	0.9965463
6	0x3f8034de	1.0016134
7	0x3f7e9897	0.99451584
8	0x3f7e459f	0.99324983
9	0x3f80996e	1.0046823
10	0x3f7f72d1	0.9978457
11	0x3f81199a	1.0085938
12	0x3f7fec32	0.9996978
13	0x3f803b65	1.0018126
14	0x3f800256	1.0000713
15	0x3f7f61bf	0.99758524
16	0x3f7e5680	0.9935074
17	0x3f7c09fc	0.98452735
18	0x3f8011ca	1.0005429
19	0x3f7f0b74	0.9962685
20	0x3f807c91	1.0038015
21	0x3f7cf120	0.9880543
22	0x3f7ecf90	0.99535465
23	0x3f8054af	1.0025843
24	0x3f809a4a	1.0047085
25	0x3f803eca	1.0019162
26	0x3f8063ef	1.0030497
27	0x3f7e454c	0.9932449
28	0x3f809909	1.0046703
29	0x3f7f8c21	0.99823195
30	0x3f7ed698	0.99546194
31	0x3f7f27b9	0.99669987
32	0x3f801229	1.0005542
33	0x3f8006a4	1.0002027
34	0x3f7fb749	0.99889046
35	0x3f81060e	1.0079973
36	0x3f7c8939	0.98646885
37	0x3f7fa11e	0.9985522
38	0x3f7fbd61	0.99898344
39	0x3f80dc6b	1.0067266
40	0x3f80a9dd	1.0051838
41	0x3f8291f2	1.0200789
42	0x3f812e85	1.0092322
43	0x3f7fa488	0.9986043
44	0x3f7ebe50	0.99509144
45	0x3f806469	1.0030643
46	0x3f7fc3bf	0.9990806
47	0x3f800463	1.0001339
48	0x3f7f42a0	0.99711037
49	0x3f802fba	1.0014565
50	0x3f7f4f54	0.9973042
51	0x3f80c23b	1.0059274
52	0x3f7ef03e	0.9958533
53	0x3f803ee0	1.0019188
54	0x3f7f16e9	0.99644333
55	0x3f7fe742	0.99962246
56	0x3f8079e8	1.0037203
57	0x3f81eea9	1.0150958
58	0x3f7f4627	0.9971642
59	0x3f810095	1.0078303
60	0x3f81073d	1.0080334
61	0x3f7e4a73	0.9933235
62	0x3f7f0d97	0.9963011
63	0x3f7ef96e	0.9959935
64	0x3f7fc708	0.9991307
65	0x3f814967	1.0100526
66	0x3f804a8a	1.0022748
67	0x3f8017f5	1.0007311
68	0x3f806019	1.0029327
69	0x3f81397d	1.0095669
70	0x3f7f210f	0.9965982
71	0x3f80b1b7	1.0054234
72	0x3f8085cc	1.0040832
73	0x3f8057d1	1.00268
74	0x3f807df1	1.0038434
75	0x3f7f3974	0.9969704
76	0x3f805263	1.0025142
77	0x3f7f99c4	0.99844
78	0x3f806c92	1.0033133
79	0x3f80e2b0	1.006918
80	0x3f807e0f	1.003847
81	0x3f80f894	1.007586
82	0x3f7e26bb	0.9927785
83	0x3f804aa1	1.0022775
84	0x3f8061c8	1.002984
85	0x3f7f5d5d	0.99751836
86	0x3f80849f	1.0040473
87	0x3f8081f1	1.0039655
88	0x3f80465a	1.002147
89	0x3f80071c	1.000217
90	0x3f801d08	1.000886
91	0x3f7e1aa0	0.99259377
92	0x3f803a42	1.0017779
93	0x3f7efd51	0.9960528
94	0x3f7df7fd	0.99206525
95	0x3f814291	1.009844
96	0x3f7d44e4	0.98933244
97	0x3f7f827b	0.9980847
98	0x3f8021fd	1.0010372
99	0x3f7dba67	0.9911255
100	0x3f7f1a76	0.9964975
101	0x3f7e7b4f	0.99406904
102	0x3f7e9b22	0.99455464
103	0x3f800919	1.0002776
104	0x3f7dfbc4	0.9921229
105	0x3f8117d9	1.0085403
106	0x3f810677	1.0080098
107	0x3f7f6b57	0.9977316
108	0x3f7da83d	0.99084836
109	0x3f8055db	1.0026201
110	0x3f7ea84f	0.9947557
111	0x3f80d792	1.0065787
112	0x3f7e74e4	0.9939711
113	0x3f805fdb	1.0029253
114	0x3f7f171f	0.99644655
115	0x3f808213	1.0039696
116	0x3f7f9598	0.99837637
117	0x3f8081cd	1.0039612
118	0x3f80a1c8	1.0049372
119	0x3f81c5c7	1.0138482
120	0x3f813037	1.0092839
121	0x3f7fbacd	0.9989441
122	0x3f7dd9d2	0.9916049
123	0x3f809006	1.0043952
124	0x3f803fe8	1.0019503
125	0x3f804d3c	1.002357
126	0x3f7f8656	0.99814355
127	0x3f7f6b96	0.9977354
128	0x3f806817	1.0031766
129	0x3f8034c7	1.0016106
130	0x3f81ddea	1.0145848
131	0x3f80615f	1.0029715
132	0x3f810704	1.0080266
133	0x3f814b02	1.0101016
134	0x3f80016c	1.0000434
135	0x3f80910f	1.0044268
136	0x3f7e89a7	0.9942879
137	0x3f801836	1.0007389
138	0x3f80940f	1.0045184
139	0x3f7f83dd	0.9981058
140	0x3f7f231d	0.99662954
141	0x3f814487	1.0099038
142	0x3f80fa33	1.0076355
143	0x3f7ee9eb	0.9957568
144	0x3f7ec8d8	0.99525213
145	0x3f80fe38	1.0077581
146	0x3f81266b	1.0089849
147	0x3f7fd3d9	0.9993263
148	0x3f7d5195	0.9895261
149	0x3f807b8d	1.0037705
150	0x3f809454	1.0045266
151	0x3f81cb1c	1.0140109
152	0x3f7eaa21	0.99478346
153	0x3f7f6148	0.99757814
154	0x3f801485	1.0006262
155	0x3f7fd2ea	0.99931204
156	0x3f7eaa08	0.994782
157	0x3f7dd1e9	0.9914842
158	0x3f81fb95	1.0154902
159	0x3f7f5336	0.99736345
160	0x3f8059cd	1.0027405
161	0x3f80db16	1.006686
162	0x3f7eb4b9	0.9949451
163	0x3f823aa9	1.0174152
164	0x3f811e38	1.0087347
165	0x3f7ec754	0.995229
166	0x3f80a10f	1.0049151
167	0x3f7cfd18	0.9882369
168	0x3f807948	1.0037012
169	0x3f80fcf8	1.00772
170	0x3f8070b5	1.0034395
171	0x3f7fdec4	0.9994929
172	0x3f7eb030	0.9948759
173	0x3f7e3c38	0.99310637
174	0x3f7f2db8	0.99679136
175	0x3f80711b	1.0034517
176	0x3f8071a5	1.0034682
177	0x3f800ab8	1.0003271
178	0x3f802c3d	1.00135
179	0x3f809be0	1.0047569
180	0x3f80e0dd	1.0068623
181	0x3f7efcfd	0.9960478
182	0x3f808d3a	1.0043099
183	0x3f7e7091	0.9939051
184	0x3f80a903	1.0051578
185	0x3f7f2e73	0.9968025
186	0x3f7ef75b	0.99596184
187	0x3f804594	1.0021234
188	0x3f81052d	1.0079705
189	0x3f7ff2f9	0.9998012
190	0x3f808796	1.0041378
191	0x3f8053fe	1.0025632
192	0x3f7ec47a	0.9951855
193	0x3f809d81	1.0048066
194	0x3f807aa1	1.0037423
195	0x3f7f1698	0.9964385
196	0x3f7f63a9	0.99761444
197	0x3f8040b1	1.0019742
198	0x3f7e6437	0.99371666
199	0x3f7eb3e6	0.99493253
200	0x3f7ffc2d	0.99994165
201	0x3f813208	1.0093393
202	0x3f7eca0b	0.99527043
203	0x3f7f6e28	0.9977746
204	0x3f7ee093	0.99561423
205	0x3f7f67eb	0.9976794
206	0x3f7fd597	0.9993529
207	0x3f7fb861	0.99890715
208	0x3f80e930	1.0071163
209	0x3f7f43d3	0.99712867
210	0x3f813fe4	1.0097623
211	0x3f7fdd9a	0.9994751
212	0x3f7e40ad	0.9931744
213	0x3f804171	1.0019971
214	0x3f807555	1.0035807
215	0x3f7fd109	0.9992834
216	0x3f7ede49	0.9955793
217	0x3f809ed9	1.0048476
218	0x3f7ef9a8	0.99599695
219	0x3f7da207	0.9907536
220	0x3f7f7219	0.99783474
221	0x3f7ee91e	0.9957446
222	0x3f7f9436	0.99835527
223	0x3f7ef3fc	0.9959104
224	0x3f810c83	1.0081943
225	0x3f8068ff	1.0032042
226	0x3f7f606e	0.99756515
227	0x3f7eee34	0.9958222
228	0x3f7e50e7	0.993422
229	0x3f80c722	1.006077
230	0x3f7e38d4	0.9930546
231	0x3f7ddd70	0.9916601
232	0x3f7f6cea	0.99775565
233	0x3f80484f	1.0022067
234	0x3f7cf3e4	0.9880965
235	0x3f7de19d	0.99172384
236	0x3f806b0d	1.0032669
237	0x3f803db9	1.0018836
238	0x3f807c68	1.0037966
239	0x3f81187e	1.00856
240	0x3f7ff194	0.99977994
241	0x3f7fe8c3	0.9996454
242	0x3f7d0bc1	0.9884606
243	0x3f7e8da4	0.99434876
244	0x3f80f20f	1.007387
245	0x3f7d8e3f	0.99045175
246	0x3f8044d3	1.0021003
247	0x3f80ac37	1.0052556
248	0x3f7ff70a	0.99986327
249	0x3f7e5a9b	0.99357
250	0x3f7f5b8d	0.9974907
251	0x3f81252d	1.008947
252	0x3f80e317	1.0069302
253	0x3f805a92	1.002764
254	0x3f7f51be	0.99734104
255	0x3f802d48	1.0013819

base.feature_norm.bias f4 [411]
0	0xbb55eadb	-0.0032641205
1	0xbba7ccea	-0.005120863
2	0x3b21651c	0.0024626916
3	0x3b88a42d	0.004169962
4	0xba29d056	-0.0006477883
5	0x3c0596f6	0.008153668
6	0xbb4dbe7c	-0.0031394055
7	0x3bac30cd	0.005254841
8	0x3c1aec33	0.009455728
9	0xbb81ce30	-0.003961347
10	0x3b535080	0.0032244027
11	0xbb4a1a72	-0.0030838517
12	0xba850615	-0.0010148907
13	0xbb8e23ae	-0.0043377494
14	0x3b662525	0.0035117355
15	0x3b3ec1d8	0.002910724
16	0x3c20a545	0.009805028
17	0x3c8ccc7e	0.017187353
18	0xb92b2e01	-0.00016324969
19	0x3c243bd1	0.010024027
20	0xbb553eef	-0.0032538732
21	0x3c81871e	0.0158115
22	0x3bdec250	0.006798066
23	0xba8abdfe	-0.0010585187
24	0xbc09fe39	-0.008422428
25	0xba950372	-0.0011368825
26	0x3bc2fdf6	0.0059506847
27	0x3beaf453	0.007170239
28	0xbc4b44a6	-0.012406504
29	0x3b07ef69	0.0020742065
30	0x3bb2af0d	0.0054529966
31	0x3baaac90	0.0052085593
32	0x3b617a55	0.003440519
33	0x3b258fcb	0.002526271
34	0x3ba25aaf	0.004954658
35	0xb8db1c4c	-0.000104480045
36	0x3c9f8de8	0.019476846
37	0x3af86c6a	0.0018953208
38	0xbbf6d913	-0.0075332015
39	0xbc1438a2	-0.009046705
40	0x3c01de3b	0.007926519
41	0xbc2e8c22	-0.010653527
42	0x3b462f35	0.003024054
43	0x3b687508	0.0035470147
44	0x3bd6eb7e	0.0065588346
45	0xbb5bd095	-0.0033541073
46	0x3b790215	0.0037995626
47	0x3c024395	0.007950683
48	0xba8cc90b	-0.0010741068
49	0xbc3c8689	-0.011506685
50	0x3ba154bf	0.0049234326
51	0xbc24e2d0	-0.010063842
52	0x3ba597dd	0.005053504
53	0xbb474d42	-0.003041104
54	0x3b9abaa7	0.0047219577
55	0x3a4be625	0.00077781297
56	0xbbcce4af	-0.006252847
57	0xbb7e5ea8	-0.0038813744
58	0x3c114e53	0.008868772
59	0xbc083698	-0.008313797
60	0x3aa2caf0	0.0012420099
61	0x3b776762	0.003775083
62	0x3b5b0555	0.0033419926
63	0x3b5b0f8a	0.003342601
64	0xba3989d4	-0.0007077728
65	0xbc65a2b9	-0.014015847
66	0xba3f94cc	-0.0007308244
67	0x3b8c49ab	0.004281243
68	0xbc26ed49	-0.010188409
69	0xbb99924d	-0.00468663
70	0x3bc7a4d8	0.006092649
71	0xbc163b61	-0.0091694305
72	0xbbc21281	-0.005922616
73	0xbaf8524d	-0.0018945426
74	0xbbad8df6	-0.005296464
75	0x3b6b6edd	0.0035924234
76	0xbc28e1df	-0.010307758
77	0x3aeea936	0.0018208388
78	0xbb938e45	-0.004503044
79	0xbc297ad8	-0.01034423
80	0xbbc54322	-0.0060199657
81	0xbc3a8cbd	-0.011386094
82	0x3c20e337	0.009819797
83	0xbb83ad95	-0.0040184953
84	0xbb2ee41b	-0.0026686254
85	0xba1b0b81	-0.0005914495
86	0xbb6a7095	-0.003577267
87	0xbc1d6a2e	-0.009607835
88	0xbaf57f78	-0.0018730005
89	0x3c131ff4	0.008979786
90	0xbb902950	-0.004399456
91	0x3c647bc5	0.013945525
92	0xbb2be65a	-0.002622983
93	0x3bd12873	0.0063829958
94	0x3c3ed1fe	0.011646746
95	0xbc8df9d0	-0.017331034
96	0x3c351895	0.011053224
97	0x3c3c7ebc	0.011504825
98	0x3a97030a	0.0011521291
99	0x3c718a38	0.014742427
100	0x3bc0df0c	0.0058859643
101	0x3c04dd23	0.008109364
102	0x3bfec8f7	0.0077754217
103	0xbbb86114	-0.005626807
104	0x3c4a94ee	0.012364609
105	0xbba82bd8	-0.0051321797
106	0xbc801e74	-0.015639521
107	0x3ad66163	0.0016355928
108	0x3c41d84d	0.011831355
109	0xbb6e54be	-0.0036366428
110	0x3bf02a53	0.007329264
111	0xbc613a8b	-0.013746868
112	0x3bc0bc02	0.0058817873
113	0xbc1b061a	-0.009461904
114	0x3bb0cdb4	0.0053956155
115	0xbbc0fbd8	-0.005889397
116	0x3a801949	0.000977316
117	0xbbfb67a4	-0.007672267
118	0xbb4fe4af	-0.0031722
119	0xbaf5580a	-0.0018718254
120	0xbc899b9b	-0.016797831
121	0x3b19b523	0.0023453913
122	0x39729f05	0.00023138158
123	0xbbbb0a8a	-0.0057080435
124	0xbb262758	-0.002535304
125	0x3c536825	0.012903248
126	0x3b40aaaa	0.0029398599
127	0x3bbdb4c8	0.005789373
128	0xbb7e0a19	-0.0038763343
129	0xbb1d6b57	-0.0024020278
130	0xbc0ffd30	-0.008788392
131	0xbb718b88	-0.0036856849
132	0xbaa0d286	-0.0012269772
133	0x3c1654c6	0.009175485
134	0x3c28d85e	0.010305492
135	0xbbe4f828	-0.0069875903
136	0x3c2a46f4	0.010392893
137	0xb9820946	-0.00024802441
138	0xbbf2aec6	-0.0074060885
139	0x3b6632b7	0.0035125443
140	0xbb2a6d0f	-0.0026004945
141	0x3c7db9e0	0.015486211
142	0xbaa35468	-0.0012461068
143	0x3be2e788	0.0069245733
144	0x3bfab4d7	0.0076509523
145	0xba4ab5a4	-0.0007732755
146	0xbb41e05c	-0.0029583191
147	0xbb361e91	-0.0027789215
148	0x3c80180e	0.01563647
149	0xbbe4af4f	-0.006978906
150	0x3aed9b88	0.0018128017
151	0x3c2f58ae	0.010702295
152	0x3c0c88d0	0.0085775405
153	0x3aa1d5cb	0.001234704
154	0x3b9be297	0.004757236
155	0x3a66181c	0.0008777396
156	0x3c0125d9	0.007882559
157	0x3c516c61	0.012782187
158	0xbc2c5929	-0.010519304
159	0x3b8710b6	0.004121865
160	0xbb900137	-0.004394676
161	0x3c93f1bd	0.018059606
162	0x3c49e236	0.012321999
163	0xbae73046	-0.0017638288
164	0xbc95747f	-0.018244026
165	0x3b8cddcf	0.0042989026
166	0xbb0ef0e5	-0.0021811065
167	0xbb4c2b65	-0.0031153795
168	0xbbe3b53d	-0.0069490955
169	0xbc5e76c6	-0.0135781225
170	0xbb31fac9	-0.0027157536
171	0xba9d1d6f	-0.0011986921
172	0x3bfe574d	0.007761872
173	0xbc4e1cc4	-0.0125801
174	0xbb641362	-0.0034801592
175	0xbc04136d	-0.008061272
176	0xbb2afee3	-0.0026091866
177	0xba5243f3	-0.00080209895
178	0xbb491aa0	-0.0030686036
179	0xbbfd5e1a	-0.007732165
180	0xbc373f22	-0.011184486
181	0x3b84188e	0.0040312475
182	0xbbdbe02d	-0.0067100734
183	0x3c1b0a04	0.009462837
184	0xbc09abd4	-0.008402783
185	0x3bb47e65	0.0055082315
186	0x3baa64e6	0.0052000163
187	0xbb54545a	-0.003239891
188	0xbc3f6327	-0.011681355
189	0x3abd5a7f	0.0014446526
190	0xbbd02108	-0.006351594
191	0xbbc4ccc9	-0.0060058576
192	0x3c1c447a	0.00953781
193	0xbbe936f7	-0.007117148
194	0xbbb2b2a9	-0.005453427
195	0x3bd19788	0.0063962378
196	0x3ada1dff	0.001664102
197	0xbb16de36	-0.0023020632
198	0x3c55e697	0.013055465
199	0x3c342229	0.010994473
200	0x393b256f	0.00017847655
201	0xbca09a0c	-0.019604705
202	0x3bb57aba	0.005538312
203	0x3b3f4f8a	0.0029191696
204	0x3c1769b1	0.009241507
205	0x3b3df256	0.0028983555
206	0xb89e2bde	-7.542198e-05
207	0x3b0e1512	0.002168004
208	0xbc3c7ab7	-0.011503867
209	0x3b9e7454	0.0048356447
210	0xbc7c1b37	-0.015387348
211	0xb9a33919	-0.00031132324
212	0x3c27ce87	0.010242111
213	0xbb6862ec	-0.0035459353
214	0xbbcf9a2d	-0.006335518
215	0x39f93e16	0.0004753924
216	0x3bd3ca89	0.006463353
217	0xbc0d57d7	-0.0086269
218	0x3bdcb1d0	0.006735064
219	0x3c3fda68	0.011709787
220	0x3bbcf3c4	0.005766364
221	0x3c025ab8	0.007956199
222	0x3b01497e	0.0019727643
223	0x3c1b98ec	0.009496909
224	0xbc80ac86	-0.015707266
225	0xbba3501d	-0.0049839155
226	0x3ba24968	0.0049525984
227	0x3bb8d945	0.005641135
228	0x3c4b1603	0.012395385
229	0xbc159a42	-0.009131016
230	0x3c30b6ac	0.01078574
231	0x3c4496e0	0.011998862
232	0x3b845280	0.004038155
233	0xbb511f17	-0.00319094
234	0x3c9966cd	0.018725777
235	0x3c7b7461	0.015347571
236	0xbb91e544	-0.0044523794
237	0xbb4478c1	-0.0029979201
238	0xbb33a5c0	-0.0027412027
239	0xbc52b882	-0.012861373
240	0x3ac52b04	0.0015042727
241	0x38c8c7c8	9.573955e-05
242	0x3ca84142	0.02053893
243	0x3c114ff6	0.008869162
244	0xbc224c52	-0.0099058915
245	0x3c6742d5	0.014115055
246	0xbb9cf3c0	-0.0047897995
247	0xbc26b402	-0.010174753
248	0x3aa4a5a2	0.001256157
249	0x3c721cff	0.014777421
250	0x3b8c455b	0.0042807288
251	0xbc8c055c	-0.0170924
252	0xbc363722	-0.011121543
253	0xbba02ca0	-0.004888132
254	0x3b848d7c	0.0040451866
255	0xbab4ccbf	-0.0013793929

base.mlp.fc1.0.weight f4 [64, 411]
0	0x3c2fdb03	0.010733369
1	0x3d23a720	0.039954305
2	0x3c38816a	0.0112613235
3	0xbd5f9b99	-0.05459175
4	0xbd43b123	-0.047776353
5	0x3da0ac40	0.07845354
6	0x3c0273f4	0.007962216
7	0xbd5117a2	-0.05104793
8	0x3b7873af	0.003791075
9	0xbd2ef88c	-0.0427175
10	0xbcc3a390	-0.023881704
11	0xbcb1b122	-0.021690909
12	0x3a921d2e	0.0011147612
13	0xbdb8c979	-0.09022803
14	0x3cc06abd	0.023488397
15	0x3cec7081	0.02886224
16	0x3d1503fc	0.036380753
17	0x3d125320	0.035723805
18	0x3da7adfa	0.0818748
19	0x3d9af473	0.07566156
20	0xbc11e035	-0.008903553
21	0x3de5722f	0.112034194
22	0xbdb6586d	-0.08903585
23	0x3d1bd47f	0.03804445
24	0xbc73ea3d	-0.01488739
25	0xbbafaabe	-0.00536093
26	0xbd028a92	-0.031870432
27	0x3e31c7f2	0.1736143
28	0xbd558183	-0.052125465
29	0x3d1b5325	0.03792109
30	0xbcbec30d	-0.023286367
31	0x3dc0b6d9	0.094098754
32	0x3ca37c78	0.019956812
33	0x3dfba349	0.122870035
34	0x3dd35ae1	0.10320068
35	0x3c315684	0.01082385
36	0x3e5d242e	0.21595833
37	0xbd7df255	-0.061998684
38	0xbce97eb3	-0.028502798
39	0xbdb6512d	-0.08902202
40	0x3d8fe3e3	0.07025888
41	0xbc5d5e6e	-0.013511283
42	0xbc8493d8	-0.016183779
43	0xbd3c35ef	-0.045949873
44	0x3dbc99a6	0.092089936
45	0xbd6eff1b	-0.058348756
46	0xbdb4b693	-0.08823886
47	0x3d921477	0.071328096
48	0x3cf6bdbf	0.030119775
49	0xbd185458	-0.03718981
50	0x3d8cd7e9	0.06877119
51	0x3d55ca5d	0.05219494
52	0xbd9f38a8	-0.07774478
53	0xbdce4679	-0.10072035
54	0xbd8a1ffa	-0.0674438
55	0x3d0034ee	0.031300478
56	0x3d574fc4	0.052566305
57	0xbd16a06e	-0.03677409
58	0x3c3aab50	0.011393383
59	0xbe22a3a3	-0.15882735
60	0xbd2b8b97	-0.04188117
61	0xbd1fa381	-0.03897429
62	0xbc4bbb6c	-0.012434822
63	0xbcda6fc3	-0.02666462
64	0xbc6088ac	-0.01370446
65	0xbc5c4c20	-0.013445884
66	0x3d8810c4	0.06643823
67	0x3dd43a50	0.10362685
68	0x3cba01bd	0.022705907
69	0x3c284b31	0.010271833
70	0x3b98dd96	0.004665087
71	0xbdaa8187	-0.08325487
72	0x3d15d555	0.036580402
73	0xbd4affcb	-0.04956035
74	0xbccafa95	-0.02477769
75	0xbd46d3cc	-0.04854183
76	0xbdd028f1	-0.10164059
77	0xbd7c03da	-0.06152711
78	0x3d36cf4e	0.044631295
79	0xba5c3e97	-0.00084016606
80	0xbdd2f8d3	-0.10301366
81	0xbd9a3bfe	-0.07530974
82	0xbdcfd5e8	-0.10148221
83	0xbd60b5ef	-0.054861005
84	0xbdfe3a7f	-0.12413501
85	0x3cb7043f	0.022340892
86	0x3cb38ff0	0.02191922
87	0x3de4aed0	0.11166155
88	0xbd84d706	-0.06486325
89	0xbcf66879	-0.030079113
90	0xbd4c7f59	-0.049926136
91	0x3de85508	0.113443434
92	0xbd465c86	-0.04842808
93	0x3e128628	0.14308989
94	0x3c2bf51c	0.01049545
95	0xbd91f951	-0.071276315
96	0x3d3d6d3f	0.046246763
97	0x3dcfb55b	0.10142013
98	0x3df2aeed	0.11849771
99	0x3d822f28	0.063566506
100	0x3e06b2da	0.13154164
101	0xbc5f9e9a	-0.013648653
102	0x3d115af4	0.03548713
103	0xbd308f54	-0.04310544
104	0xbd019e34	-0.031645015
105	0x3d19d767	0.03755894
106	0x3c91f732	0.017818067
107	0xbd0be54d	-0.034154225
108	0x3d14d694	0.03633745
109	0x3c217616	0.009854814
110	0xbd88355f	-0.06650805
111	0x3c8f8c92	0.017523084
112	0x3b8804a0	0.004150942
113	0x3d87fed7	0.06640404
114	0x3e0ec172	0.13940981
115	0xbc0e9c29	-0.008704224
116	0xbdd5e000	-0.10443115
117	0x3d831dcc	0.06402168
118	0x3b5cb93c	0.0033679744
119	0x3c827f1b	0.01592975
120	0xbd8c778c	-0.06858739
121	0xbd850bde	-0.06496404
122	0x3da540b6	0.08068983
123	0xbce5b870	-0.028042048
124	0xbd3c3a95	-0.045954306
125	0x3d13a23c	0.03604339
126	0xba952bed	-0.0011380889
127	0x3d2ea8a8	0.042641312
128	0x3bf74fb9	0.0075473455
129	0xbc4a0ca2	-0.012332113
130	0x3ce1d834	0.027568914
131	0xbc96d01d	-0.018409783
132	0xbd245b4c	-0.04012613
133	0xbc781a85	-0.0151430415
134	0x3d873996	0.066027805
135	0xbc8ef7db	-0.017452171
136	0x3dc0f03d	0.09420822
137	0xbc8e7052	-0.017387543
138	0xbd88194c	-0.0664545
139	0xbd78c9fb	-0.0607395
140	0xbda65251	-0.08121169
141	0x3deeca56	0.11659686
142	0x3ce20947	0.027592314
143	0x3e185b52	0.14878586
144	0x3b032d93	0.0020016178
145	0x3caa8b82	0.020818476
146	0xbd0a0b9a	-0.03370247
147	0xbd6378c0	-0.055535078
148	0x3df12ba4	0.11775902
149	0xbc95c1dc	-0.018280916
150	0xbcaf14af	-0.021372167
151	0xbdd94da3	-0.10610511
152	0x3ccc577a	0.024944056
153	0xbc5a42a0	-0.013321549
154	0x3d9a72a2	0.07541396
155	0xbcc40cce	-0.023931887
156	0xbd88aede	-0.06673978
157	0x3ce7302a	0.028221209
158	0xbc9a918f	-0.018868236
159	0x3de743fb	0.11292263
160	0x3d4e03e1	0.050296668
161	0x3dc0b6fb	0.09409901
162	0x3dbe81eb	0.09302124
163	0xbd730a1a	-0.059335805
164	0xbc111b14	-0.008856554
165	0x3c2ab8d5	0.010420044
166	0x3c94e147	0.018173827
167	0x3cc893b3	0.024484491
168	0xbd8ff1bb	-0.07028528
169	0x3bbe7486	0.0058122305
170	0xbe2b5079	-0.16729917
171	0xbcecd48e	-0.028909948
172	0x3dba302a	0.09091218
173	0xbd727fc0	-0.059203863
174	0xbc768ab8	-0.015047722
175	0xbdbad9ce	-0.09123574
176	0x3d92263b	0.07136198
177	0xbc1359f5	-0.008993615
178	0xbca8e195	-0.020615378
179	0x3b151de3	0.002275341
180	0xbde9dc88	-0.11419016
181	0xbd96cfca	-0.07363851
182	0xbdbb6dc6	-0.09151797
183	0xbb8e3d83	-0.004340829
184	0xbe04fcd7	-0.12987076
185	0xbc06e26c	-0.008232694
186	0xbcd92d25	-0.026510784
187	0xbd596b2f	-0.053080734
188	0x3ca18758	0.019717857
189	0x3d639865	0.055565257
190	0x3d8c5df1	0.068538554
191	0xbd7732da	-0.06035123
192	0xbbefb21c	-0.0073149335
193	0xbe0b5e0e	-0.13610098
194	0xbe1d97bd	-0.15389915
195	0x3ac05450	0.0014673565
196	0xbde3c5a7	-0.111216836
197	0xbab4e308	-0.0013800571
198	0xbd00319b	-0.031297307
199	0xbd86b3a7	-0.06577235
200	0xbd107f94	-0.035277918
201	0x3c1533be	0.009106575
202	0xbc0cd0d4	-0.00859471
203	0x3cba3565	0.022730539
204	0xbcf7b202	-0.030236248
205	0xbe3b1e39	-0.18273248
206	0xbdb405af	-0.087901466
207	0x3e03a30d	0.12855168
208	0xbd4c291c	-0.049843892
209	0xbe012150	-0.12610364
210	0x3b0c8f89	0.0021447858
211	0xbce7ca04	-0.02829457
212	0x3dd5acce	0.104333505
213	0x3cdc1519	0.026865529
214	0xbddc5b38	-0.10759586
215	0x3d5986be	0.053107016
216	0x3d32d951	0.04366428
217	0xbdeecc50	-0.11660063
218	0x3d2d5f7f	0.0423274
219	0x3cb056fa	0.021525849
220	0x3ddc1dac	0.10747847
221	0x3cfcc0f5	0.030853728
222	0x3dd29920	0.102831125
223	0xbd0a8ad4	-0.033823803
224	0x3c71716d	0.0147365155
225	0x3cde5c72	0.02714369
226	0x3da369bb	0.07979151
227	0xbdea2801	-0.114334114
228	0x3df29380	0.1184454
229	0xbdd746d6	-0.10511558
230	0x3dc93311	0.09824193
231	0xbd81e475	-0.06342403
232	0xbd2a509f	-0.041580793
233	0x3b323e99	0.0027197956
234	0x3d9f7722	0.07786395
235	0x3d849513	0.06473746
236	0xbdb8ac9e	-0.09017299
237	0xbdc8a2e2	-0.097966924
238	0x3b674039	0.0035286082
239	0x3d38c47b	0.045109253
240	0x3d8e6a6e	0.069538936
241	0xbd56e5d7	-0.052465286
242	0xbd8b3bb5	-0.067984976
243	0x3cb487c5	0.022037396
244	0xbcf0af1e	-0.029380377
245	0x3d0ae98b	0.03391413
246	0xbd066971	-0.0328154
247	0xbcde1071	-0.02710745
248	0x3d942cb5	0.0723509
249	0xba2e8e93	-0.00066588185
250	0x3dda313f	0.10653924
251	0x3d3031d5	0.043016274
252	0xbdbc27ee	-0.091873035
253	0x3bb1a639	0.0054214266
254	0xbc811a87	-0.01575972
255	0x3c051f1f	0.008125096

base.mlp.fc1.0.bias f4 [64]
0	0x3c357525	0.011075293
1	0xbba409dd	-0.0050060586
2	0xbb854096	-0.004066537
3	0xbc5c5714	-0.013448495
4	0x399845b1	0.00029043623
5	0x3b5f2c21	0.0034053402
6	0xbb8eeb93	-0.0043615787
7	0x00000000	0.0
8	0xbc82cdf3	-0.015967345
9	0x3c9ad63c	0.018900983
10	0x3c42bd01	0.011885882
11	0x00000000	0.0
12	0x3a5b50d2	0.000836623
13	0x3bcbe0ac	0.0062218513
14	0xbbeec66a	-0.0072868364
15	0x3c27aad6	0.010233602
16	0x00000000	0.0
17	0x00000000	0.0
18	0x00000000	0.0
19	0x3ba467f4	0.005017275
20	0xbbe401ee	-0.006958238
21	0xbc436cce	-0.0119277965
22	0xbb4cd299	-0.0031253456
23	0x3b8f7275	0.004377658
24	0x3b430fb2	0.0029763994
25	0xbaac1f6c	-0.0013131923
26	0xbaa00a84	-0.0012210165
27	0xb996eb9e	-0.00028785778
28	0xbae8a7a7	-0.001775016
29	0x00000000	0.0
30	0xba88d989	-0.0010440807
31	0x00000000	0.0
32	0x00000000	0.0
33	0xbbb3809a	-0.005477977
34	0xbb9a0f1d	-0.0047015087
35	0x3b2f29e4	0.002672785
36	0x00000000	0.0
37	0x00000000	0.0
38	0x3bdc470a	0.0067223357
39	0xbb192e26	-0.0023373454
40	0x3be4e444	0.006985219
41	0xbc2e7ba6	-0.010649597
42	0x00000000	0.0
43	0x00000000	0.0
44	0x3bdf3edd	0.006812914
45	0xbb959b01	-0.004565597
46	0xbbe7e63b	-0.007077006
47	0x00000000	0.0
48	0x00000000	0.0
49	0x00000000	0.0
50	0xb8e5a54a	-0.000109503584
51	0x00000000	0.0
52	0x3c7015b7	0.014653615
53	0xbb359734	-0.0027708532
54	0x3b512611	0.0031913558
55	0x3bf43256	0.0074522896
56	0x3bb823fe	0.005619525
57	0x00000000	0.0
58	0xbbe09802	-0.0068540582
59	0xbbfcf5d5	-0.007719735
60	0x3c7a197c	0.015264865
61	0x3c156f50	0.009120777
62	0xbb7ca2ec	-0.0038549257
63	0x3ac1ca2f	0.0014784987

base.mlp.fc1.2.weight f4 [64]
0	0x3f7e6c28	0.99383783
1	0x3f7fccec	0.9992206
2	0x3f8134cd	1.0094239
3	0x3f803d39	1.0018684
4	0x3f805882	1.002701
5	0x3f7ed2b7	0.99540275
6	0x3f7ffae2	0.9999219
7	0x3f80b5a1	1.0055429
8	0x3f7ceee3	0.9880201
9	0x3f833d52	1.0253088
10	0x3f814f74	1.0102372
11	0x3f829af3	1.0203537
12	0x3f7f3fd9	0.997068
13	0x3f7fb6cf	0.9988832
14	0x3f813a42	1.0095904
15	0x3f7ef887	0.9959797
16	0x3f7b7cd4	0.9823735
17	0x3f80c052	1.0058692
18	0x3f80eed3	1.0072883
19	0x3f80db3d	1.0066906
20	0x3f7da489	0.99079186
21	0x3f7dfc98	0.9921355
22	0x3f7d39ec	0.98916507
23	0x3f7fac72	0.99872506
24	0x3f80115b	1.0005296
25	0x3f80afa6	1.0053604
26	0x3f7df4ec	0.99201846
27	0x3f7c7364	0.9861357
28	0x3f7ea36a	0.994681
29	0x3f8034fe	1.0016172
30	0x3f81b90e	1.0134599
31	0x3f7c44b6	0.98542345
32	0x3f7e358f	0.99300474
33	0x3f82f5ea	1.0231297
34	0x3f7e5411	0.99347025
35	0x3f7eb624	0.99496675
36	0x3f7d3030	0.98901653
37	0x3f7be44a	0.98395216
38	0x3f80e6e5	1.0070463
39	0x3f8014af	1.0006312
40	0x3f7ac765	0.979605
41	0x3f80bc2d	1.0057427
42	0x3f7f2013	0.99658316
43	0x3f80a208	1.0049448
44	0x3f801e12	1.0009177
45	0x3f8068d0	1.0031986
46	0x3f800bad	1.0003563
47	0x3f82af2e	1.0209711
48	0x3f7c2a63	0.98502177
49	0x3f8044f5	1.0021044
50	0x3f7d830f	0.99028105
51	0x3f81be11	1.0136129
52	0x3f7df623	0.992037
53	0x3f7ec8f2	0.9952537
54	0x3f804890	1.0022144
55	0x3f81004b	1.0078214
56	0x3f8049dd	1.0022541
57	0x3f80972f	1.0046138
58	0x3f7b07d5	0.98058826
59	0x3f82376f	1.0173167
60	0x3f7c68fa	0.9859768
61	0x3f81630e	1.0108354
62	0x3f82ac43	1.020882
63	0x3f7d7b46	0.99016225

base.mlp.fc1.2.bias f4 [64]
0	0x3c384b7d	0.011248467
1	0xbb99d688	-0.0046947636
2	0xbc20d3b1	-0.009816096
3	0xbc097b5c	-0.008391228
4	0xbb2cb167	-0.0026350857
5	0x3b09c180	0.0021019876
6	0xbc048823	-0.008089098
7	0xbbcd9738	-0.00627413
8	0xbc11401d	-0.008865383
9	0x3c9941f7	0.018708212
10	0x3c2ebb9d	0.010664848
11	0xbcad8c63	-0.021185106
12	0x3a0d7f56	0.00053976977
13	0x3babca7c	0.005242644
14	0xbc21ddb3	-0.009879517
15	0x3bcc4dea	0.006234874
16	0x3c97439e	0.01846486
17	0xbbe32218	-0.0069315545
18	0xbbf694b5	-0.0075250515
19	0x3baa958a	0.0052058147
20	0xbc0ba566	-0.008523321
21	0xbb96828d	-0.0045931996
22	0xbb982dae	-0.0046441173
23	0x3b6c7222	0.003607877
24	0x3b6073a6	0.003424862
25	0xbbbd54a4	-0.005777912
26	0x3bf30413	0.007416257
27	0x3c6a9a48	0.01431901
28	0xbb05b94c	-0.0020404635
29	0xbaa70be2	-0.001274463
30	0xbc5c81c3	-0.013458672
31	0x3c742b2d	0.014902872
32	0x3bed67ee	0.0072450554
33	0xbcad3557	-0.021143598
34	0xb9c686d8	-0.0003786597
35	0x3b07a492	0.0020697457
36	0x3c3706e2	0.011171075
37	0x3c8770a3	0.016533202
38	0x3c00f222	0.007870229
39	0xbb67b3ef	-0.0035355052
40	0x3b4d0f2a	0.0031289556
41	0xbc57c013	-0.013168353
42	0x3b751b2a	0.0037400224
43	0xbba734b1	-0.005102717
44	0x3bb66b92	0.0055670226
45	0xbb4a604f	-0.0030880158
46	0xba1b34b4	-0.0005920634
47	0xbcb5d544	-0.02219642
48	0x3c87c578	0.016573653
49	0xbb13ebe6	-0.0022571026
50	0x3c2d3bd3	0.010573345
51	0xbc6d3212	-0.01447727
52	0x3c67d96f	0.014150961
53	0xbab344ce	-0.0013677122
54	0x3b676ee6	0.0035313903
55	0x3c06649a	0.008202696
56	0x3b6c8cae	0.0036094594
57	0xbbaf60d5	-0.0053521194
58	0xbbed81c9	-0.0072481376
59	0xbc91da97	-0.017804427
60	0x3c938877	0.018009407
61	0x3c23039e	0.009949593
62	0xbcb6b55a	-0.022303272
63	0x3acdf6c3	0.00157138

base.mlp.fc_h.0.weight f4 [64, 64]
0	0x3e5a98d4	0.21347362
1	0x3eb4a636	0.3528306
2	0xbe38000d	-0.1796877
3	0xbdc6974c	-0.09696826
4	0xbe420709	-0.18947996
5	0x3cb5f150	0.022209793
6	0xbdce9f78	-0.1008901
7	0xbd838ade	-0.06422971
8	0x3ed8313b	0.4222506
9	0x3dbc4b72	0.091940776
10	0xbe05358f	-0.13008712
11	0xbdd19b9b	-0.102347575
12	0x3e1d50f8	0.15362918
13	0xbe8e7634	-0.27824557
14	0x3da66a85	0.08125786
15	0xbe2ca658	-0.1686033
16	0x3ddee835	0.10884134
17	0x3ead8e1b	0.3389748
18	0xbe1a3390	-0.15058732
19	0x3e88fd8c	0.2675594
20	0xbc12f4a5	-0.008969461
21	0x3e35542f	0.17707895
22	0xbdad30f2	-0.08456601
23	0x3e5f785a	0.21823254
24	0xbda5c9e8	-0.08095151
25	0xbd9f3755	-0.077742256
26	0x3e76f62c	0.24117345
27	0xbdc845a3	-0.09778907
28	0xbc838130	-0.016052812
29	0xbcc45464	-0.023966022
30	0x3d89590b	0.06706437
31	0xbcdcb6bf	-0.026942609
32	0x3e9d23c2	0.30691344
33	0xbd2de716	-0.04245671
34	0xbd869fcf	-0.0657345
35	0xbe831500	-0.2560196
36	0xbe183b17	-0.14866291
37	0x3c72a4f7	0.0148098385
38	0x3e2ee043	0.17077737
39	0xbea7d250	-0.32777643
40	0xbd2d68d7	-0.04233631
41	0xbe5f4a94	-0.21805793
42	0x3d8097e6	0.06278972
43	0x3df829ac	0.12117323
44	0x3d829506	0.0637608
45	0xbd0f6dd0	-0.035016835
46	0x3ea60f3d	0.324335
47	0x3d800ade	0.06252073
48	0xbd637c16	-0.05553826
49	0xbd8dbb54	-0.06920496
50	0xbd2bc015	-0.04193123
51	0xbe0f177a	-0.139738
52	0x3ca39452	0.019968186
53	0xbdb591f6	-0.088657305
54	0x3ca65784	0.020305403
55	0x3e3b1515	0.18269761
56	0x3e81130b	0.2520984
57	0xbdcb1cfc	-0.09917638
58	0xbec7942d	-0.38980237
59	0x3cf301e2	0.029663984
60	0x3d83a660	0.06428218
61	0xbdc4ea52	-0.096150056
62	0x3c190de4	0.009341691
63	0x3ed69d9c	0.4191712
64	0xbc6bab8b	-0.014384161
65	0xbe45c2ae	-0.19312546
66	0x3e7ba225	0.24573572
67	0x3cdf810c	0.027283214
68	0xba0699ad	-0.0005134594
69	0xbcddab86	-0.027059328
70	0xbd2ed506	-0.042683624
71	0xbde2ec75	-0.11080257
72	0xbe1bedc2	-0.15227416
73	0x3d84eb9e	0.06490253
74	0xbe3ed758	-0.18636835
75	0x3b7f4bd0	0.00389551
76	0x3ea9f64d	0.33195725
77	0x3e3c2842	0.18374732
78	0xbec7188a	-0.3888591
79	0xbeab8b5f	-0.3350477
80	0x3d416734	0.047217563
81	0x3d1976a7	0.03746667
82	0xbc369558	-0.011144005
83	0xbe7c4f11	-0.24639536
84	0xbebeb8e8	-0.37250447
85	0x3e047fd2	0.12939385
86	0x3d0799d2	0.03310568
87	0xbc836892	-0.016041074
88	0xbd1be541	-0.03806043
89	0x3ebd28d3	0.3694521
90	0x3ca73b62	0.020414058
91	0x3e194cca	0.14970699
92	0xbe69bd8d	-0.22826214
93	0x3dd2ec97	0.10299032
94	0x3d5b2de1	0.05351055
95	0xbe9d52da	-0.30727273
96	0xbc5de072	-0.013542281
97	0x3e20826d	0.15674753
98	0xbe1e7e8c	-0.15477961
99	0xbe74ff93	-0.23925619
100	0xbd8f2891	-0.06990159
101	0x3da65650	0.081219316
102	0x3e20d83a	0.15707484
103	0x3e42e767	0.19033585
104	0xbe850b8d	-0.25985375
105	0xbe1a92a7	-0.15095006
106	0x3da304c3	0.079598926
107	0x3dd49f47	0.10381942
108	0xbd6a4560	-0.057195067
109	0x3e6ee96a	0.23331228
110	0xbc11a636	-0.008889725
111	0x3e19f16b	0.150335
112	0xbe2f6e90	-0.1713202
113	0xbe6037e1	-0.21896316
114	0x3ed2eca8	0.4119618
115	0x3bc9559c	0.0061442386
116	0x3d03092e	0.031991176
117	0x3de737ae	0.11289917
118	0x3db47aad	0.08812461
119	0x3e5cc81c	0.2156071
120	0xbd7ab167	-0.06120434
121	0xbe429fba	-0.19006243
122	0x3add8bd7	0.0016902637
123	0x3e00b78a	0.12570015
124	0xbe3abd83	-0.18236355
125	0x3e8df198	0.27723384
126	0x3d6aa8b4	0.057289794
127	0x3e2090e9	0.15680279
128	0xbcc46bb2	-0.023977134
129	0x3e80feb1	0.25194314
130	0xbe628b91	-0.22123553
131	0x3dcacb01	0.09902001
132	0xbd0e3ad9	-0.03472409
133	0x3e1d69ba	0.15372363
134	0x3d6cfb91	0.0578571
135	0x3d82b72b	0.06382593
136	0xbde58bc5	-0.112082995
137	0x3d4ba9b2	0.04972238
138	0xbc6afd80	-0.014342666
139	0x3e6ecb8a	0.23319831
140	0x3e1cd721	0.1531644
141	0x3c641635	0.01392131
142	0xbcfb013a	-0.030640233
143	0x3e7e3df9	0.24828328
144	0x3eb4e20b	0.35328707
145	0xbd2c237b	-0.042026024
146	0x3d866140	0.06561518
147	0x3e9e49dd	0.30915728
148	0x3d9d0c34	0.07668343
149	0xbed52c56	-0.41635388
150	0xbd6078d7	-0.05480274
151	0xbe227fca	-0.1586906
152	0xbe2a4ef2	-0.16631678
153	0x3e4c77ae	0.19967529
154	0x3d510fe9	0.051040564
155	0x3d3e37c8	0.046439916
156	0x3e1fe5da	0.15615025
157	0xbd857585	-0.06516556
158	0x3d1a7bd3	0.037715744
159	0xbcd59c5e	-0.026075538
160	0xbd415527	-0.04720035
161	0xbdf2e334	-0.11859742
162	0xbe1d1e24	-0.15343529
163	0x3c2f84a6	0.010712778
164	0xbe4cfc6a	-0.20018163
165	0xbb87dcb3	-0.0041461824
166	0x3e197621	0.14986469
167	0x3ed5ee18	0.41783214
168	0x3e5862b0	0.21131396
169	0xbe93d502	-0.2887345
170	0xbebb7bbf	-0.36617848
171	0xbe06d592	-0.13167408
172	0x3d6c37c1	0.05767036
173	0xbcc88d90	-0.024481565
174	0xbe17aeb1	-0.14812733
175	0xbe60a75a	-0.2193884
176	0xbdd2e4fa	-0.1029758
177	0xbe3ecd0f	-0.18632911
178	0x3e65cc6b	0.2244126
179	0xbe21a92b	-0.15787189
180	0xbe4538e7	-0.19259988
181	0x3e7dbef4	0.24779874
182	0xbc0f3970	-0.0087417215
183	0x3df8b12a	0.12143166
184	0x3e894416	0.26809758
185	0x3dbd351d	0.09238646
186	0xbe3d5b4f	-0.18491863
187	0xbe2983ef	-0.16554235
188	0x3d7f47ea	0.062324442
189	0x3e775b91	0.24156024
190	0xbe8f2d71	-0.27964357
191	0xbd94c67f	-0.072644226
192	0xbd5ee8bb	-0.054421168
193	0xbdf398b1	-0.11894358
194	0xbeddb7bb	-0.43304238
195	0x3d9360b3	0.07196178
196	0x3e7c74d7	0.24653946
197	0x3dd696f1	0.104780085
198	0xbe2d522c	-0.16925877
199	0x3dac8814	0.08424392
200	0x3d34ec61	0.04417074
201	0x3dadeb0a	0.08492096
202	0xbd987a97	-0.07445257
203	0x3dda9374	0.10672656
204	0x3e4b75f3	0.19869213
205	0x3e79ef46	0.24407682
206	0x3d10a938	0.03531763
207	0x3dbd959f	0.092570536
208	0xbe7c1d1b	-0.24620478
209	0x3e1412da	0.14460316
210	0xbdbf8d86	-0.09353165
211	0xbc83543f	-0.016031383
212	0x3e370556	0.17873129
213	0x3de4e7ce	0.11177026
214	0x3d498414	0.049198225
215	0xbe00bbd4	-0.1257165
216	0x3c950a7e	0.01819348
217	0x3c9ac4bd	0.01889264
218	0x3d4133e9	0.047168646
219	0xbe4df639	-0.20113458
220	0xbd3a45f7	-0.04547688
221	0xbe1e90db	-0.15484945
222	0xbe7d3dc6	-0.24730596
223	0xbe812cd2	-0.25229508
224	0x3e7a4de9	0.24443783
225	0x3ec8f07d	0.39245978
226	0xbe4bde60	-0.19909048
227	0xbe2f426a	-0.17115179
228	0x3e0e3c0a	0.1389009
229	0x3ea3c313	0.31984767
230	0xbea5dcc9	-0.32395008
231	0x3e5143c5	0.20436008
232	0xbcee9eb7	-0.029128416
233	0x3ab01c66	0.0013436198
234	0xbeb1a42e	-0.34695572
235	0x3df78875	0.12086574
236	0x3e7de184	0.24793059
237	0xbd76a200	-0.06021309
238	0xbdb2ff84	-0.08740142
239	0xbdbbc472	-0.09168328
240	0xbecf4125	-0.4047939
241	0x3e1ff611	0.1562121
242	0xbe80c30c	-0.2514881
243	0x3e049ef9	0.12951268
244	0x3d897b1b	0.06712934
245	0xbe6edd3c	-0.23326582
246	0xbe2a33ec	-0.16621369
247	0xbda2477a	-0.07923789
248	0xbd3d82e6	-0.046267413
249	0xba9e6b07	-0.001208634
250	0xbdde1db1	-0.10845507
251	0xbd31081a	-0.043220617
252	0xbd993167	-0.07480126
253	0x3dd87c84	0.105706245
254	0x3e4375e0	0.19087934
255	0x3d414e4a	0.047193803

base.mlp.fc_h.0.bias f4 [64]
0	0x00000000	0.0
1	0x00000000	0.0
2	0x00000000	0.0
3	0x00000000	0.0
4	0x00000000	0.0
5	0x00000000	0.0
6	0x00000000	0.0
7	0x00000000	0.0
8	0x00000000	0.0
9	0x00000000	0.0
10	0x00000000	0.0
11	0x00000000	0.0
12	0x00000000	0.0
13	0x00000000	0.0
14	0x00000000	0.0
15	0x00000000	0.0
16	0x00000000	0.0
17	0x00000000	0.0
18	0x00000000	0.0
19	0x00000000	0.0
20	0x00000000	0.0
21	0x00000000	0.0
22	0x00000000	0.0
23	0x00000000	0.0
24	0x00000000	0.0
25	0x00000000	0.0
26	0x00000000	0.0
27	0x00000000	0.0
28	0x00000000	0.0
29	0x00000000	0.0
30	0x00000000	0.0
31	0x00000000	0.0
32	0x00000000	0.0
33	0x00000000	0.0
34	0x00000000	0.0
35	0x00000000	0.0
36	0x00000000	0.0
37	0x00000000	0.0
38	0x00000000	0.0
39	0x00000000	0.0
40	0x00000000	0.0
41	0x00000000	0.0
42	0x00000000	0.0
43	0x00000000	0.0
44	0x00000000	0.0
45	0x00000000	0.0
46	0x00000000	0.0
47	0x00000000	0.0
48	0x00000000	0.0
49	0x00000000	0.0
50	0x00000000	0.0
51	0x00000000	0.0
52	0x00000000	0.0
53	0x00000000	0.0
54	0x00000000	0.0
55	0x00000000	0.0
56	0x00000000	0.0
57	0x00000000	0.0
58	0x00000000	0.0
59	0x00000000	0.0
60	0x00000000	0.0
61	0x00000000	0.0
62	0x00000000	0.0
63	0x00000000	0.0

base.mlp.fc_h.2.weight f4 [64]
0	0x3f800000	1.0
1	0x3f800000	1.0
2	0x3f800000	1.0
3	0x3f800000	1.0
4	0x3f800000	1.0
5	0x3f800000	1.0
6	0x3f800000	1.0
7	0x3f800000	1.0
8	0x3f800000	1.0
9	0x3f800000	1.0
10	0x3f800000	1.0
11	0x3f800000	1.0
12	0x3f800000	1.0
13	0x3f800000	1.0
14	0x3f800000	1.0
15	0x3f800000	1.0
16	0x3f800000	1.0
17	0x3f800000	1.0
18	0x3f800000	1.0
19	0x3f800000	1.0
20	0x3f800000	1.0
21	0x3f800000	1.0
22	0x3f800000	1.0
23	0x3f800000	1.0
24	0x3f800000	1.0
25	0x3f800000	1.0
26	0x3f800000	1.0
27	0x3f800000	1.0
28	0x3f800000	1.0
29	0x3f800000	1.0
30	0x3f800000	1.0
31	0x3f800000	1.0
32	0x3f800000	1.0
33	0x3f800000	1.0
34	0x3f800000	1.0
35	0x3f800000	1.0
36	0x3f800000	1.0
37	0x3f800000	1.0
38	0x3f800000	1.0
39	0x3f800000	1.0
40	0x3f800000	1.0
41	0x3f800000	1.0
42	0x3f800000	1.0
43	0x3f800000	1.0
44	0x3f800000	1.0
45	0x3f800000	1.0
46	0x3f800000	1.0
47	0x3f800000	1.0
48	0x3f800000	1.0
49	0x3f800000	1.0
50	0x3f800000	1.0
51	0x3f800000	1.0
52	0x3f800000	1.0
53	0x3f800000	1.0
54	0x3f800000	1.0
55	0x3f800000	1.0
56	0x3f800000	1.0
57	0x3f800000	1.0
58	0x3f800000	1.0
59	0x3f800000	1.0
60	0x3f800000	1.0
61	0x3f800000	1.0
62	0x3f800000	1.0
63	0x3f800000	1.0

base.mlp.fc_h.2.bias f4 [64]
0	0x00000000	0.0
1	0x00000000	0.0
2	0x00000000	0.0
3	0x00000000	0.0
4	0x00000000	0.0
5	0x00000000	0.0
6	0x00000000	0.0
7	0x00000000	0.0
8	0x00000000	0.0
9	0x00000000	0.0
10	0x00000000	0.0
11	0x00000000	0.0
12	0x00000000	0.0
13	0x00000000	0.0
14	0x00000000	0.0
15	0x00000000	0.0
16	0x00000000	0.0
17	0x00000000	0.0
18	0x00000000	0.0
19	0x00000000	0.0
20	0x00000000	0.0
21	0x00000000	0.0
22	0x00000000	0.0
23	0x00000000	0.0
24	0x00000000	0.0
25	0x00000000	0.0
26	0x00000000	0.0
27	0x00000000	0.0
28	0x00000000	0.0
29	0x00000000	0.0
30	0x00000000	0.0
31	0x00000000	0.0
32	0x00000000	0.0
33	0x00000000	0.0
34	0x00000000	0.0
35	0x00000000	0.0
36	0x00000000	0.0
37	0x00000000	0.0
38	0x00000000	0.0
39	0x00000000	0.0
40	0x00000000	0.0
41	0x00000000	0.0
42	0x00000000	0.0
43	0x00000000	0.0
44	0x00000000	0.0
45	0x00000000	0.0
46	0x00000000	0.0
47	0x00000000	0.0
48	0x00000000	0.0
49	0x00000000	0.0
50	0x00000000	0.0
51	0x00000000	0.0
52	0x00000000	0.0
53	0x00000000	0.0
54	0x00000000	0.0
55	0x00000000	0.0
56	0x00000000	0.0
57	0x00000000	0.0
58	0x00000000	0.0
59	0x00000000	0.0
60	0x00000000	0.0
61	0x00000000	0.0
62	0x00000000	0.0
63	0x00000000	0.0

base.mlp.fc2.0.0.weight f4 [64, 64]
0	0x3e5e57b5	0.21713145
1	0x3eaa10e5	0.33216015
2	0xbe4176c5	-0.18892963
3	0xbdde3d6f	-0.10851561
4	0xbe4b810e	-0.19873449
5	0x3c9bdb3c	0.019025438
6	0xbdd875e7	-0.10569363
7	0xbd9672cd	-0.07346115
8	0x3ed4ae04	0.41539013
9	0x3dc91c94	0.09819904
10	0xbe081d7c	-0.13292497
11	0xbde49766	-0.111616895
12	0x3e200a98	0.15629041
13	0xbe8a9bac	-0.27071893
14	0x3d965c46	0.073418185
15	0xbe37d7d9	-0.17953433
16	0x3dcc4b50	0.09975302
17	0x3ea8d01b	0.32971272
18	0xbe23a4e1	-0.15980865
19	0x3e8cdf42	0.27514082
20	0xbb286fcc	-0.0025701402
21	0x3e30e129	0.17273392
22	0xbd94aa20	-0.07259011
23	0x3e61fc07	0.22068797
24	0xbd8e8626	-0.069591805
25	0xbdb23e32	-0.08703269
26	0x3e6aae2f	0.22918008
27	0xbdda3938	-0.10655445
28	0xbc454968	-0.012041427
29	0xbd083185	-0.03325035
30	0x3d6c2820	0.057655454
31	0xbd13cec7	-0.03608587
32	0x3e986829	0.29766968
33	0xbd570c43	-0.052501928
34	0xbd8d13fd	-0.06888578
35	0xbe7700d1	-0.24121405
36	0xbe2190ce	-0.15777895
37	0x3bb917ba	0.0056485804
38	0x3e39cbec	0.18144196
39	0xbeac7dde	-0.3368978
40	0xbd3de847	-0.046364095
41	0xbe6318f4	-0.22177488
42	0x3d5ba114	0.053620413
43	0x3de54af6	0.11195938
44	0x3d9dacfc	0.0769901
45	0xbd33a972	-0.043862768
46	0x3ea12cfc	0.31479633
47	0x3d59f185	0.053208847
48	0xbd844e0b	-0.06460198
49	0xbda0af9d	-0.078459956
50	0xbd5153ff	-0.051105496
51	0xbe189287	-0.14899646
52	0x3d29d068	0.041458517
53	0xbda9ab8d	-0.08284674
54	0x3cfb9b96	0.030713838
55	0x3e45778d	0.19283886
56	0x3e86b6e6	0.26311415
57	0xbdde0f29	-0.10842735
58	0xbecdeea9	-0.40221146
59	0x3cb0397a	0.021511782
60	0x3d8e31e1	0.069431074
61	0xbdad740e	-0.08469401
62	0x3914a22e	0.00014174797
63	0x3ed873fa	0.42275983
64	0xbcd6ee71	-0.026236745
65	0xbe3c0a87	-0.18363391
66	0x3e8155ab	0.25260672
67	0x3ca58bc4	0.020208247
68	0x3bd34dd3	0.0064484864
69	0xbcbe479d	-0.023227507
70	0xbd18f899	-0.037346456
71	0xbdd4b511	-0.10386098
72	0xbe1d372c	-0.15353078
73	0x3d57c102	0.0526743
74	0xbe4d4cf0	-0.2004888
75	0x3c324e1b	0.01088288
76	0x3ea6cfc9	0.32580402
77	0x3e36cb1c	0.17850918
78	0xbec30b3b	-0.38094506
79	0xbea72eb8	-0.3265283
80	0x3d5dc84c	0.054146096
81	0x3d35d0a8	0.044388443
82	0xbb892fb8	-0.0041865967
83	0xbe8102af	-0.2519736
84	0xbec1eaa6	-0.37874335
85	0x3e0bd155	0.13654073
86	0x3ce1509d	0.02750426
87	0xbc924033	-0.017852878
88	0xbd339815	-0.04384621
89	0x3ec0b9ef	0.37641856
90	0x3cdb3b30	0.026761621
91	0x3e21155c	0.15730804
92	0xbe6ec1b2	-0.23316076
93	0x3de12a54	0.109944016
94	0x3d77b5a8	0.060475975
95	0xbe99c9e1	-0.30036834
96	0xbbd94f23	-0.0066317483
97	0x3e28d7d2	0.16488579
98	0xbe193fc6	-0.14965734
99	0xbe7c3374	-0.24629003
100	0xbd80ea3e	-0.06294678
101	0x3db47995	0.088122524
102	0x3e185ab3	0.14878349
103	0x3e3e40b2	0.18579367
104	0xbe85df31	-0.26146844
105	0xbe16b50d	-0.14717503
106	0x3db14074	0.086548716
107	0x3de2e063	0.110779546
108	0xbd820e04	-0.063503295
109	0x3e780c26	0.24223384
110	0xbb124d05	-0.002232374
111	0x3e212222	0.15735677
112	0xbe2854f7	-0.16438662
113	0xbe591b8b	-0.21201913
114	0x3ed67667	0.4188721
115	0x3c567b4d	0.013090921
116	0x3cd4cf3e	0.025977727
117	0x3dd606ac	0.10450491
118	0x3da30b32	0.0796112
119	0x3e54ecd9	0.20793475
120	0xbd8df41c	-0.06931326
121	0xbe3b8b39	-0.18314828
122	0x3b228cf1	0.0024803246
123	0x3e07d16b	0.1326348
124	0xbe3792e8	-0.17927134
125	0x3e89fa41	0.2694874
126	0x3d83bacd	0.06432114
127	0x3e1ddeb8	0.15416992
128	0xbca1a396	-0.019731324
129	0x3e6f677e	0.23379323
130	0xbe704209	-0.2346269
131	0x3dbd9e2c	0.092586845
132	0xbd450961	-0.048104648
133	0x3e21ec94	0.15812904
134	0x3d3de3ab	0.0463597
135	0x3d4e7e47	0.050413396
136	0xbe001cd9	-0.12511005
137	0x3d90fd6a	0.07079585
138	0xbb3b6309	-0.0028592965
139	0x3e610271	0.21973588
140	0x3e291c77	0.16514765
141	0x3cba3def	0.02273461
142	0xbd352658	-0.04422602
143	0x3e6f7681	0.2338505
144	0x3eae10db	0.33997235
145	0xbd6303b1	-0.055423442
146	0x3d55ef8f	0.052230414
147	0x3ea6056c	0.32426012
148	0x3db74b41	0.089499004
149	0xbed84b7a	-0.42245084
150	0xbd321ad4	-0.043482617
151	0xbe1c0d3f	-0.15239428
152	0xbe2272b9	-0.15864076
153	0x3e3ebf3e	0.1862764
154	0x3d0877c5	0.033317346
155	0x3d093880	0.03350115
156	0x3e2dd5b9	0.1697606
157	0xbda0cd0f	-0.07851612
158	0x3cc7179f	0.024303256
159	0xbd214b9a	-0.03937874
160	0xbd781037	-0.06056234
161	0xbe0855e9	-0.13314022
162	0xbe270a35	-0.16312487
163	0x3cc75882	0.024334196
164	0xbe5aaee2	-0.21355775
165	0xbc8ebc78	-0.017423853
166	0x3e17bac7	0.14817344
167	0x3ed8339b	0.42226872
168	0x3e62aada	0.22135487
169	0xbe99a13d	-0.30005828
170	0xbec24e5d	-0.3795041
171	0xbe1494cf	-0.14509891
172	0x3d92571d	0.07145522
173	0xbd185419	-0.037189577
174	0xbe25755d	-0.16158052
175	0xbe6e7cb5	-0.2328976
176	0xbdee17c0	-0.11625624
177	0xbe4c7746	-0.19967374
178	0x3e582c76	0.2111071
179	0xbe2f6f2c	-0.17132252
180	0xbe33d7b6	-0.17562756
181	0x3e865727	0.26238367
182	0x3bd40990	0.0064708665
183	0x3e10cfeb	0.14141814
184	0x3e90daf2	0.28292042
185	0x3da1e32c	0.07904658
186	0xbe33bb4e	-0.1755192
187	0xbe375956	-0.17905173
188	0x3d730c28	0.059337765
189	0x3e83cee8	0.25743794
190	0xbe96149f	-0.29312608
191	0xbd872714	-0.065992504
192	0xbda31c28	-0.07964355
193	0xbdd749ec	-0.10512146
194	0xbed7fbd2	-0.4218431
195	0x3dc57a41	0.09642459
196	0x3e83ecf4	0.25766718
197	0x3dd13713	0.10215583
198	0xbe262791	-0.16226031
199	0x3dc35fb3	0.095397376
200	0x3d901002	0.07034303
201	0x3d8dcebf	0.06924199
202	0xbdc1c157	-0.09460705
203	0x3df18eb2	0.11794795
204	0x3e4399b2	0.19101599
205	0x3e6d3334	0.23164064
206	0x3d4026fa	0.04691217
207	0x3dd5712c	0.104219764
208	0xbe70cc49	-0.23515429
209	0x3e1f7b72	0.15574434
210	0xbda8a38f	-0.08234321
211	0xbcfb70d2	-0.030693445
212	0x3e2d2cbd	0.16911598
213	0x3e0a1e7b	0.1348819
214	0x3d2c0a6c	0.042002127
215	0xbe0805fc	-0.13283533
216	0x3cb6e47c	0.022325747
217	0x3cf69cdc	0.030104093
218	0x3d7fad73	0.062421273
219	0xbe427943	-0.1899157
220	0xbd4c25c7	-0.049840715
221	0xbe132c72	-0.14372423
222	0xbe71c3a4	-0.23609787
223	0xbe77148b	-0.2412893
224	0x3e82d269	0.25551155
225	0x3ecf0ec5	0.40440956
226	0xbe428a76	-0.18998131
227	0xbe36da58	-0.17856729
228	0x3e19a627	0.15004788
229	0x3ea96367	0.3308365
230	0xbeabc956	-0.33552045
231	0x3e55df3a	0.20885935
232	0xbd44e80c	-0.04807286
233	0x3cd54601	0.026034357
234	0xbeabf640	-0.3358631
235	0x3e07355a	0.13203946
236	0x3e6fe323	0.2342649
237	0xbd408c8b	-0.047009032
238	0xbd9c36ec	-0.07627663
239	0xbda48288	-0.08032709
240	0xbec99f14	-0.3937918
241	0x3e2b54a6	0.1673151
242	0xbe763677	-0.24044214
243	0x3e101c8c	0.1407339
244	0x3d6e5f51	0.05819637
245	0xbe7ce468	-0.24696505
246	0xbe375146	-0.17902097
247	0xbdbc7b1f	-0.09203171
248	0xbd6b89aa	-0.057504334
249	0x3c213f4f	0.009841754
250	0xbdd6776e	-0.10471998
251	0xbd002b04	-0.031291023
252	0xbdc0b270	-0.09409034
253	0x3dbea255	0.09308306
254	0x3e4eedda	0.2020792
255	0x3d3195cf	0.04335576

base.mlp.fc2.0.0.bias f4 [64]
0	0x3c22ce79	0.009936922
1	0xbbef7a82	-0.0073083052
2	0x3c69bbb5	0.014265944
3	0xbc448267	-0.011993981
4	0x00000000	0.0
5	0xbc002646	-0.007821625
6	0x00000000	0.0
7	0x00000000	0.0
8	0xbae9a71f	-0.0017826295
9	0x3bc51d01	0.0060154204
10	0x00000000	0.0
11	0x3acd8646	0.0015680275
12	0x00000000	0.0
13	0x00000000	0.0
14	0x3a692130	0.000889319
15	0x00000000	0.0
16	0xbb1af89b	-0.0023646716
17	0x3ab63b70	0.0013903212
18	0x3c874e7c	0.016516916
19	0x00000000	0.0
20	0xbbc1c673	-0.0059135496
21	0x00000000	0.0
22	0xbb07f760	-0.0020746812
23	0x3c5c303a	0.0134392325
24	0x3ba38ba7	0.004991013
25	0xbc139575	-0.009007801
26	0xbb11f3ca	-0.0022270554
27	0xb8cbce88	-9.718264e-05
28	0xb94ed9d1	-0.00019726834
29	0x3b27b363	0.00255891
30	0xbc13c4d4	-0.009019095
31	0xbb74bbfc	-0.0037343493
32	0xbb56a9b8	-0.003275497
33	0xbc998b69	-0.018743234
34	0xbb739d9d	-0.0037172802
35	0xbb05ef60	-0.0020436868
36	0x00000000	0.0
37	0x3ca6e4f0	0.020372838
38	0xbc24f267	-0.010067559
39	0x00000000	0.0
40	0x00000000	0.0
41	0x3b6399df	0.0034729165
42	0x3bbe3e7b	0.005805788
43	0xbbcc86c7	-0.0062416526
44	0x3a1c1b5a	0.00059550034
45	0x00000000	0.0
46	0x3b144835	0.0022626047
47	0x00000000	0.0
48	0x37f31f64	2.8982475e-05
49	0x3c2ce291	0.0105520645
50	0xbc36556f	-0.011128767
51	0xbc9fde2c	-0.01951512
52	0xbc399c5d	-0.011328784
53	0x3b36f7df	0.0027918739
54	0xbb6d0f2b	-0.003617237
55	0xba9068ec	-0.0011017597
56	0x3c032c4a	0.008006165
57	0x00000000	0.0
58	0x3b18363d	0.0023225688
59	0xbb388086	-0.0028152778
60	0xbc6c4582	-0.014420869
61	0x3bcb5c59	0.006206077
62	0x3bcd09bb	0.0062572635
63	0xbc442f22	-0.011974128

base.mlp.fc2.0.2.weight f4 [64]
0	0x3f7fa373	0.9985878
1	0x3f7fcf00	0.9992523
2	0x3f81e4e1	1.0147973
3	0x3f7e7ca8	0.9940896
4	0x3f7cc03d	0.9873083
5	0x3f7e0025	0.9921897
6	0x3f81711a	1.0112641
7	0x3f81c75b	1.0138963
8	0x3f814a5a	1.0100815
9	0x3f807cac	1.0038047
10	0x3f81b131	1.01322
11	0x3f78dfc3	0.97216433
12	0x3f7e7b3e	0.994068
13	0x3f826638	1.0187445
14	0x3f7f5584	0.9973986
15	0x3f7c4463	0.9854185
16	0x3f7d7b39	0.9901615
17	0x3f7edf96	0.99559915
18	0x3f8273c7	1.0191582
19	0x3f7fc7f4	0.9991448
20	0x3f815cdc	1.0106463
21	0x3f7faf42	0.998768
22	0x3f7d3055	0.98901874
23	0x3f8249f1	1.0178815
24	0x3f7e4591	0.993249
25	0x3f81ea61	1.0149652
26	0x3f8218ea	1.0163853
27	0x3f813f05	1.0097357
28	0x3f7ff774	0.9998696
29	0x3f802532	1.0011351
30	0x3f82619c	1.0186038
31	0x3f81ede7	1.0150727
32	0x3f803d73	1.0018753
33	0x3f80bd1b	1.005771
34	0x3f7e1f94	0.99266934
35	0x3f803c6e	1.0018442
36	0x3f7b6b68	0.98210764
37	0x3f827f52	1.0195105
38	0x3f7a473b	0.9776494
39	0x3f7d8220	0.9902668
40	0x3f7fa7f2	0.9986564
41	0x3f7f972f	0.9984006
42	0x3f7e9ffb	0.9946286
43	0x3f7e20f1	0.99269015
44	0x3f8103c4	1.0079274
45	0x3f8090e0	1.0044212
46	0x3f7fd2f5	0.9993127
47	0x3f8010b0	1.0005093
48	0x3f7cbe40	0.987278
49	0x3f808043	1.0039142
50	0x3f822ba2	1.0169566
51	0x3f7bb237	0.9831881
52	0x3f7bbe22	0.98336995
53	0x3f808f01	1.0043641
54	0x3f7c1ebc	0.98484397
55	0x3f7db646	0.9910625
56	0x3f7d9c4c	0.99066615
57	0x3f8040f5	1.0019823
58	0x3f7c9b2a	0.9867426
59	0x3f7f16c7	0.9964413
60	0x3f7e39bb	0.9930684
61	0x3f80bc6d	1.0057503
62	0x3f80f816	1.007571
63	0x3f7e97a0	0.9945011

base.mlp.fc2.0.2.bias f4 [64]
0	0x3c3463bb	0.011010106
1	0x3a6ea239	0.00091031526
2	0x3c6c77bc	0.014432844
3	0xba4561c3	-0.0007529521
4	0x3c602a83	0.013682011
5	0x3c055d57	0.00813993
6	0xbc4e529e	-0.01259294
7	0xbc74d0f1	-0.014942394
8	0xbc31cbab	-0.010851781
9	0x3bd03d0b	0.006354933
10	0xbc676a07	-0.0141244
11	0x3c80fd42	0.015745763
12	0x3bc7cf70	0.0060977265
13	0xbca46230	-0.02006635
14	0x3b5466b8	0.0032409858
15	0x3c873986	0.016506921
16	0x3c1c55be	0.009541927
17	0x3b1feeae	0.0024403739
18	0x3ca26f45	0.019828448
19	0x3abe3cd4	0.0014513978
20	0xbc4d8ada	-0.012545312
21	0x3a50eac1	0.00079695514
22	0x3c3bddf3	0.011466491
23	0x3c603dd0	0.013686612
24	0x3c20ae6b	0.0098072095
25	0xbc9a8daf	-0.018866388
26	0xbc8dec3e	-0.017324563
27	0xbc2f77da	-0.010709727
28	0x39359ea3	0.00017320602
29	0xba8c66dc	-0.0010711807
30	0xbc9d3b99	-0.019193457
31	0xbc7ae952	-0.015314417
32	0xbb050cf1	-0.0020301903
33	0xbcc3bb29	-0.023892956
34	0x3be32772	0.0069321925
35	0xbbb84622	-0.005623595
36	0x3c99c607	0.018771185
37	0x3ca1195f	0.019665418
38	0xb943a0b8	-0.00018656522
39	0x3c1c04bc	0.009522613
40	0x3b00c4bb	0.001964851
41	0x3bd81cfd	0.0065952525
42	0xbc4b26e2	-0.012399407
43	0x3be48f70	0.006975107
44	0xbbc68715	-0.0060585835
45	0xbb807e3d	-0.003921299
46	0x3b7efae3	0.0038906864
47	0xb9bf0617	-0.00036434896
48	0x3afa6495	0.0019103462
49	0x3c330257	0.010925851
50	0xbcbd4014	-0.023101844
51	0xbb9473ca	-0.0045304047
52	0xbc35c509	-0.01109434
53	0x3b9f2eca	0.0048578726
54	0x3c868a42	0.016423348
55	0xbab349ee	-0.0013678649
56	0x3c0270f8	0.007961504
57	0xbad371e8	-0.0016131969
58	0x3bb36bee	0.0054755127
59	0x3b46862b	0.0030292373
60	0xbc0a36b8	-0.0084358975
61	0x3bf47631	0.0074603786
62	0x3bc87f4e	0.0061186915
63	0x3bbb2480	0.0057111382
