MAPPO/results/MyEnv/MyEnv/rmappo/check/run4/models/actor_agent3.pt (torch, 257699 bytes, 22 tensors)

base.feature_norm.weight f4 [411]
00000000: 2c09 803f b4bd 7c3f 6903 803f 6a39 813f
00000010: 4fac 803f 8318 813f cf36 7f3f 2371 7e3f
00000020: 0e3d 813f 6edc 7e3f ca7b 813f fba0 803f
00000030: a061 7c3f 68b4 823f 83f6 7f3f de94 803f
00000040: 7021 7f3f 31ba 7e3f f53e 803f ab76 7f3f
00000050: c488 7e3f 8303 803f d54e 803f ddb6 7d3f
00000060: 0776 803f 4064 7f3f 0cc6 7e3f af35 823f
00000070: c2d2 7e3f 337f 7d3f c901 7f3f 3949 7c3f
00000080: c712 7e3f e78f 803f 5d46 813f 78b3 803f
00000090: 9d62 7d3f 50f7 813f f1cd 803f ae23 7c3f
000000a0: c52a 813f a183 803f 634e 7e3f 51d4 813f
000000b0: 73fe 7e3f b909 803f ffca 803f 656d 7f3f
000000c0: 6b21 823f 35d9 7c3f 86cb 7b3f b5b5 803f
000000d0: 9c47 803f b05b 813f 7946 7f3f fe2f 7e3f
000000e0: 1eec 7e3f 0db1 7c3f d555 803f bda8 803f
000000f0: 79fe 7f3f 077d 813f 41d3 823f 0bd0 813f
00000100: b375 7f3f 2a11 803f fe75 813f bf59 813f
00000110: a868 7d3f d070 803f ffe6 803f b6d5 7d3f
00000120: d343 7c3f afdd 7e3f aaef 803f ca2b 7f3f
00000130: 80d3 803f d4ae 7d3f 291e 7f3f a4e8 803f
00000140: b1a4 803f 27d7 803f ec39 7c3f b178 7e3f
00000150: ab7a 7f3f c4df 803f 529b 803f d011 813f
00000160: d02e 803f 1912 833f f90d 803f f28f 7e3f
00000170: f801 7e3f 5a16 813f aa18 7f3f ab34 7f3f
00000180: 0ed5 813f b322 833f 0008 7f3f 205f 813f
00000190: 67a0 7e3f c06a 803f c85c 813f 463d 803f
000001a0: 6b88 813f a3f9 803f 66e9 7d3f 6aef 7d3f
000001b0: 94f6 7f3f 0ac3 7c3f cc0a 813f 3fbc 7e3f
000001c0: 41ae 803f b088 823f b6f1 803f 6fa5 7e3f
000001d0: 720b 803f 0701 833f be53 803f f21f 823f
000001e0: 8967 803f 82de 7e3f 3add 803f e11b 7f3f
000001f0: aed4 7e3f 6924 813f ca19 813f 2be8 7f3f
00000200: 723a 7f3f 4156 803f e7be 7d3f 18d9 7e3f
00000210: 5c9f 823f f3fa 803f 2738 803f 861b 813f
00000220: cdef 813f 7835 803f 1bdd 7d3f 3239 813f
00000230: 8eb8 7e3f f794 7c3f d155 813f 2849 803f
00000240: 58b3 813f fa11 7e3f d37d 823f 83dd 7f3f
00000250: 0d17 803f 5eb4 803f 3739 803f 7b6c 7d3f
00000260: 051b 7f3f f3b7 7f3f 83e4 7d3f eb4b 7e3f
00000270: 6bb7 7c3f 7a7a 803f b03a 7e3f 4698 803f
00000280: 76c3 7f3f 4e3d 7e3f 24c8 7f3f b29d 813f
00000290: d6e1 7f3f 586d 7f3f 8e80 813f eaff 813f
000002a0: 5a15 7c3f 6e33 803f 2d2a 7c3f a2fd 7e3f
000002b0: f3f8 7d3f be45 803f 1505 7e3f b10e 803f
000002c0: b34c 7c3f 97b3 803f f292 803f c7a1 7f3f
000002d0: 23ea 7c3f 5d7c 7d3f 94fe 7d3f 48b0 7d3f
000002e0: fcf8 7d3f ecad 7e3f 8c1f 7e3f a609 813f
000002f0: 807d 7c3f 4663 803f e1e8 803f c58f 7a3f
00000300: b289 803f d129 7f3f 6f15 7d3f 29f0 7f3f
00000310: 5262 803f 294c 7f3f ac6e 7e3f b6f5 7f3f
00000320: be10 7f3f 1fa4 803f a5a0 803f 46f1 7f3f
00000330: 2812 7f3f 5cd7 803f 38a0 7e3f d481 7e3f
00000340: 0850 7e3f 5672 7b3f 8a19 7e3f 4df6 7c3f
00000350: b6b7 7f3f 7966 7f3f c97f 7d3f 4973 7f3f
00000360: bc02 7e3f 6b11 7f3f d11a 7d3f 0b65 7d3f
00000370: 9b65 803f a27b 803f 7d88 803f 2fc1 803f
00000380: 7e33 803f a221 803f 238d 803f 7e18 7f3f
00000390: b9ad 7f3f 095e 7d3f 4f49 7d3f 6652 803f
000003a0: 7990 7f3f 8cc6 7e3f 8ca1 803f 10e8 803f
000003b0: 761d 803f 3f49 803f 0849 7e3f abbe 7f3f
000003c0: ce10 7d3f 267a 803f 0a27 7f3f 912a 7f3f
000003d0: e08c 803f 69f7 7f3f 48a2 7e3f c27e 7d3f
000003e0: 7e21 803f 1191 803f 9d36 803f 294d 803f
000003f0: 0902 803f 4182 7f3f 295f 813f 9383 7d3f
1.0002799 0.98726964 1.0001041 1.0095646 1.0052584 1.0085605 0.99693006 0.9939138
1.0096757 0.995551 1.0115902 1.0049127 0.98586464 1.0211306 0.9998552 1.0045431
0.99660397 0.99502856 1.0019213 0.9979045 0.9942744 1.0001072 1.0024058 0.9910715
1.0036019 0.99762344 0.99520946 1.0172633 0.9954034 0.99022216 0.996121 0.9854923
0.992474 1.0043916 1.0099598 1.005477 0.98978597 1.0153599 1.0062848 0.9849194
1.0091177 1.004017 0.9933836 1.0142919 0.9960701 1.0002967 1.006195 0.997763
1.0166448 0.9876893 0.9835743 1.0055453 1.0021853 1.0106106 0.9971691 0.9929198
0.99579036 0.9870766 1.0026194 1.0051495 0.9999767 1.011628 1.022072 1.0141615
0.9978897 1.0005238 1.0114133 1.0105513 0.9898782 1.0034428 1.0070494 0.9915422
0.9854099 0.9955701 1.007314 0.9967619 1.0064545 0.9909489 0.99655396 1.0070996
1.005026 1.0065659 0.9852588 0.9940291 0.9979655 1.0068288 1.00474 1.0083561
1.0014286 1.0239898 1.0004264 0.99438393 0.99221754 1.0084946 0.9964701 0.9968974
1.0143144 1.0244964 0.9962158 1.0107155 0.99463505 1.0032578 1.010644 1.0018699
1.0119756 1.0076183 0.9918426 0.9919344 0.99985623 0.98735106 1.008142 0.9950599
1.0053178 1.0197964 1.0073764 0.9947118 1.0003493 1.0234689 1.0025556 1.0165999
1.0031596 0.9955827 1.0067513 0.99651915 0.99543273 1.0089236 1.0085995 0.99963635
0.99698555 1.0026323 0.9911942 0.9955001 1.0204883 1.0076584 1.0017136 1.0086524
1.0151306 1.0016317 0.99165505 1.009558 0.9950036 0.986648 1.0104314 1.0022326
1.0132856 0.9924618 1.0194649 0.99947375 1.0007035 1.0055044 1.001746 0.98993653
0.99650604 0.9989006 0.99176806 0.9933459 0.98717374 1.0037377 0.993083 1.004647
0.99907625 0.99312294 0.99914765 1.012625 0.99953973 0.9977622 1.0117357 1.0156224
0.9847008 1.0015695 0.98501855 0.9960576 0.9920799 1.0021284 0.99226505 1.0004483
0.98554534 1.0054806 1.0044844 0.9985623 0.98794764 0.9901789 0.9921658 0.9909711
0.99208045 0.99484134 0.99266887 1.008107 0.98629 1.0030296 1.0071069 0.97875625
1.0042021 0.9967318 0.9886083 0.9997583 1.0030005 0.99725586 0.9938762 0.999843
0.9963492 1.0050086 1.0049025 0.9997753 0.9963708 1.0065722 0.99463224 0.9941685
0.9934087 0.9822134 0.9925772 0.98813325 0.99889696 0.99765736 0.9902311 0.99785286
0.9922292 0.9963595 0.98869044 0.98982304 1.0031008 1.003773 1.0041653 1.0058955
1.0015714 1.0010264 1.0043072 0.9964675 0.99874455 0.9897161 0.98939985 1.0025146
0.9982982 0.9952171 1.00493 1.007082 1.0008991 1.0022353 0.99330187 0.9990031
0.98853767 1.0037277 0.99668944 0.99674326 1.0042992 0.9998689 0.9946637 0.9902154
1.0010221 1.0044271 1.0016667 1.0023547 1.0000621 0.99808127 1.0107166 0.9902889

base.feature_norm.bias f4 [411]
00000000: a9e7 383b 6440 943c 6d99 26b9 686e 5bbc
00000010: 3913 2fbc c5ea 4abb 0a16 963b 7ec7 353c
00000020: f970 73bc 25ba bb3b ecee 8ebc c41b 17bc
00000030: 6c70 ce3c 0686 e9bc db8e 68bb 7011 f8bb
00000040: eb79 023b d88a 2a3c 780b c3ba 06a2 1439
00000050: 5973 f43b 523a 19bb aa6a b6bb e238 603c
00000060: 14fd d5bb a1ee 693b a9fd ea3b d965 88bc
00000070: 2520 c53b 65a2 5b3c 39a9 b53b 0a47 7d3c
00000080: 7ff8 3d3c 4528 60bb c993 a0bc f4ac d8bb
00000090: cbb7 643c 87a8 87bc 8f21 9fbb f536 d63c
000000a0: d81f 94bc 8c51 48bb 16b6 4e3c 4f28 c1bb
000000b0: 86a3 ab3b 2074 86b9 71c8 1fbc 81ad 91bb
000000c0: b4db 2c3a e812 4a3c 85c7 8e3c df99 04bc
000000d0: a6ce 31bb 9bc6 83bc d691 543b b00a 163c
000000e0: 6d58 da3b 0de7 9c3c c975 203c 4562 57bc
000000f0: d0d6 bd3b db3e 5bbc 1afd 9fbc 17d5 b7bb
00000100: ede5 ae3b bfed c0b9 4b47 8cbc f177 24bc
00000110: fdc3 b13c a877 22bb 7745 50bc ba7a 563c
00000120: e8b3 ba3c b6f7 193c 90df f7bb d996 8d3c
00000130: 432d c9bb bc53 943c 1893 bd3b ba59 37bc
00000140: 51f4 b3bb a13c f1bb 22ff be3c 8e04 163c
00000150: 90a3 cf3b 9b5a 36bc a783 12bc 4dbb f5bb
00000160: 2733 5c3b 3541 45bc 99eb a0bc 416a be3b
00000170: a465 863c e762 76bc 49cd 873c 269b 6d3b
00000180: 33fc 68bc c2f2 953c 001c 003c db4d 58bc
00000190: 23ca b23b 3290 93ba fa54 293b 1c4c e4bb
000001a0: 29e6 bdbc 3a66 3f3b 9b4b 563c 1d13 5a3c
000001b0: e2ab 323a 02a2 233c 9bd9 0ebc 834d e73a
000001c0: 4a93 2cbc f4b1 b5bb 10a6 35bc 49b7 053c
000001d0: 42f5 47bb c7d6 0cbc 5ca3 17ba 5573 443c
000001e0: 61a8 aebb 5be1 9c3b ae3d acbb db91 843c
000001f0: 0a10 273c 13ba 573b 65f7 4bbc 1040 25ba
00000200: c3ad 773b 2338 c5bb d468 8d3c 6c2f e73b
00000210: 7c9b a53b f305 1fbc 080b 393c 75c9 71bc
00000220: e18b c3bc 1f8c 35bb 94e8 863c 53e0 79bc
00000230: f541 563c ef5e 3d3b 2c10 dd3b 15ec 79bb
00000240: aa91 c8bc 2cc5 193c 9f33 86bc e3d1 bb3b
00000250: 0e2f 15bb 5cf1 0fbc 7357 943b d16f 503c
00000260: fbf9 883b 0885 7b3b 61dd d8ba c7d4 1d3c
00000270: 72fe a23c ae50 55bb 240d 6ebc ba7a febb
00000280: f06b e23a 3260 c9ba 2720 373c 1619 263c
00000290: c87d 263b 30f6 903b d88b e63b d578 b0bb
000002a0: 97d2 ae3c 5ad0 44bb 6545 3abc 1642 e73b
000002b0: e56c 763c 20f9 ff3b b40f 39b8 6780 68bc
000002c0: a88e c33b adff 61bc 2fc2 0bbc 38fc 3e38
000002d0: 108c c33c a713 643c 41b2 1b3c 4741 743c
000002e0: d590 5f3c 83e1 403c b3ab 463c 2ce1 28bc
000002f0: 038a a03c 7515 3abb e325 47bc 4823 143d
00000300: 0190 4bbb a74a 823b 8df6 a73c cdcc bf3a
00000310: 1a28 a7bb 83ee d03a 5f36 243c 1e73 faba
00000320: e436 783b 80a3 e1bb b14d 07bc 1b54 70ba
00000330: 0890 a43b 892d 25bc a372 953b ea58 083c
00000340: 4f59 1a3c ee7e d83c f836 2b3c 5e9f 823c
00000350: 3b60 543b 088f a73b 1391 513c 9f37 fc3a
00000360: ee14 563c bbd6 cd3b d432 903c 57b5 503c
00000370: fd9f 90bb 1b6d b7bb f6b4 d2bb b254 29bc
00000380: 884f 26bb bb21 99b8 7227 d4bb f2e6 8a3b
00000390: 45e8 a1ba a813 713c 78ee 493c bc73 c8ba
000003a0: b29b 583b 8923 0d3c 4201 19bc 63d7 03bc
000003b0: f42f 4dba a004 9ebb be84 183c ecd6 1e3b
000003c0: 8ce3 973c 3a9f 48bb 2371 3c3b 0360 953b
000003d0: b574 a0bb 304e e0b9 c8cc 0c3c b2b0 723c
000003e0: 81da 90ba 68fa e0bb f2f4 89bb 03b3 f4ba
000003f0: 74f7 81ba 5e2d 673b 2cea 82bc ed4a 4d3c
0.0028214252 0.01809711 -0.00015888149 -0.013393022 -0.010685735 -0.0030962687 0.004580264 0.011094926
-0.014858478 0.0057289773 -0.017447911 -0.009222928 0.025200091 -0.02850629 -0.003548554 -0.007570438
0.0019909095 0.0104090795 -0.0014880737 0.00014174738 0.0074600396 -0.002338071 -0.0055669146 0.013685437
-0.0065304134 0.0035695212 0.007171352 -0.016650127 0.006015795 0.013405417 0.0055438546 0.015458832
0.011594891 -0.003420369 -0.01960172 -0.0066124145 0.013959835 -0.016559852 -0.0048562954 0.026149252
-0.01808159 -0.0030566184 0.012616655 -0.0058946977 0.0052379994 -0.00025644992 -0.009752379 -0.004445732
0.00065940176 0.012333609 0.017429123 -0.008093326 -0.0027131229 -0.016085913 0.0032435558 0.009157822
0.006663373 0.019153142 0.009793707 -0.013145988 0.00579343 -0.013381685 -0.019529868 -0.005610119
0.005337468 -0.00036798228 -0.017123839 -0.010038362 0.0216999 -0.002479056 -0.012711874 0.013090784
0.022790864 0.009397438 -0.0075644925 0.017283844 -0.006139429 0.018106334 0.005785357 -0.011190826
-0.0054917713 -0.007361964 0.023315016 0.009156359 0.006336637 -0.01113 -0.008942521 -0.0074991346
0.0033599825 -0.012039472 -0.019643592 0.0058110063 0.016405888 -0.015038229 0.01657738 0.0036255806
-0.014220285 0.018304233 0.007819176 -0.013202156 0.0054562255 -0.0011258184 0.0025838003 -0.0069670808
-0.023181038 0.002920522 0.013079549 0.013310221 0.00068157737 0.009987356 -0.008718873 0.0017647002
-0.010533163 -0.0055448953 -0.011086956 0.008161374 -0.0030511175 -0.008596129 -0.00057845353 0.011990388
-0.005330131 0.0047876067 -0.005256376 0.01618283 0.010196695 0.0032917305 -0.01244912 -0.00063037965
0.003779278 -0.006018655 0.0172619 0.0070552137 0.0050539356 -0.009706008 0.011294134 -0.014757504
-0.02387041 -0.0027701927 0.016468324 -0.015251237 0.013077249 0.0028895696 0.0067463126 -0.00381351
-0.02448352 0.009385388 -0.016382037 0.0057318076 -0.0022763642 -0.008785572 0.0045270263 0.012721972
0.0041801906 0.0038378853 -0.0016545468 0.00963325 0.01989672 -0.003254931 -0.0145295 -0.007766095
0.00172746 -0.0015363751 0.011177099 0.010137817 0.0025404561 0.004423879 0.0070357136 -0.005385498
0.021340651 -0.0030031414 -0.011369084 0.0070574386 0.015040611 0.0078116804 -4.412206e-05 -0.01419077
0.0059679337 -0.013793868 -0.008530184 4.5534427e-05 0.023870498 0.013920701 0.009502948 0.014908141
0.0136453705 0.011772516 0.012125897 -0.010307591 0.01959706 -0.0028394137 -0.012155029 0.03616646
-0.0031061175 0.0039761844 0.020503307 0.0014633179 -0.005101216 0.0015940223 0.010022729 -0.0019107794
0.0037874514 -0.006885946 -0.008258269 -0.0009167806 0.0050220527 -0.010081657 0.004560785 0.00832198
0.009420707 0.026427712 0.010450117 0.015945133 0.003240599 0.005113486 0.012790936 0.0019242651
0.013066513 0.0062817014 0.017602362 0.012738547 -0.0044136033 -0.005597723 -0.0064302636 -0.010335134
-0.0025376994 -7.301891e-05 -0.006474429 0.0042389566 -0.0012352547 0.014714159 0.012324922 -0.0015293281
0.0033051786 0.008614429 -0.009338679 -0.008046958 -0.0007827275 -0.0048223287 0.009308992 0.002423699
0.01854112 -0.0030612485 0.0028753958 0.0045585646 -0.004896725 -0.00042782864 0.0085937455 0.014812635
-0.0011051447 -0.0068657883 -0.004210108 -0.0018669072 -0.0009915666 0.0035274844 -0.015980802 0.012530071

base.mlp.fc1.0.weight f4 [64, 411]
00000000: 4944 1bbe 1acb 873d 2d49 e0bb 629b 23bd
00000010: 0e9d 433d 7862 f23d 5b58 143e 9261 d1bd
00000020: e97e 5f3d e79e a7bd 2836 b73d d300 05bd
00000030: 184c 5abd 03c3 273c 947b b13c 6047 b13d
00000040: c5a7 6abd 5d28 e43c dc5d 85bd 7094 de3d
00000050: 8367 8dbc 0a8a a9bd 2976 e0bd ee84 633d
00000060: dba4 893d 1bb9 0bbc df85 ae3d 1f42 f53b
00000070: 471b 8d3d 6279 483c b650 12bd c7e3 163d
00000080: 185f 94bd 8cd5 aabd c014 ad3d 49eb 3abd
00000090: 18bc 65bd e75d 163e 005b 92bd feb9 ba3d
000000a0: a6f0 a0bd 9e37 03bd b6db 043e b53b 0d3d
000000b0: c394 ebbc 6388 8cbd d873 dc3d ac35 47bd
000000c0: 1ccc 7cbd 4ebd 5ebc b172 81bd a876 9d3d
000000d0: adeb 103c 9bbd 753d 0fd7 2fbd 8ba7 69bc
000000e0: 2cfa 813d 6603 f5b9 9610 3fbd 5253 cabc
000000f0: 9f2e 613c ca3e ddbd bd5d d6bc bd7d 003d
00000100: e497 1e3d 64a7 9b3d 61c0 b7ba 48cc ec3d
00000110: 8034 7ebd 06bc 57ba ed47 583c 6832 a53d
00000120: ed4e f7bc 43fb e4bc 0ad5 53bc 9b02 abbd
00000130: 0358 8fbd 74fe 5dbe a517 b4bc 715d da3c
00000140: 7712 a7bc 216f c3bb c33e 913d fffd cd3c
00000150: d34f 9dbd 7855 78bc af21 663d f051 533d
00000160: c2ba eebc 24d3 a6bb 57d7 b0bc a9e4 24bb
00000170: e6d1 f3ba 8868 2abe 4be0 303d 2150 49bd
00000180: 5d13 893d 0985 f93c cb11 a9bd 71fc 813d
00000190: 284e b23d 8000 d7bd ef17 c5bd 357d c73d
000001a0: f95d 433e fe36 8c3c 4dca 6c3c 8e26 d43d
000001b0: cf09 973d b2e7 28bd 77e6 46bd eeae 223e
000001c0: 48ac 023e 619c c1bd 7b80 7d3d 445f 75bd
000001d0: 9edd a93a f5a5 a6bc ee60 e0bc 4262 c23c
000001e0: e9be 2c3d 2693 0d3d 7987 883d 600b e7bd
000001f0: 8551 68bd d109 483c 47d0 363c 00b0 983d
00000200: 925f 62bd 3335 8cbd 3a1b 87bd e8d0 043e
00000210: 5736 dbbd cab2 bcbd 69eb 2c3d 8149 26bb
00000220: 9f88 963d 7036 53be f55f 963d a509 30be
00000230: ae93 43bd 2c91 12be c288 413d 0aeb 143d
00000240: cbed 21bd a2d7 c13d 3f3d 0c3d c1a7 92bd
00000250: d81e 7f3c c508 cebd 2c64 cebd 08f3 3f3c
00000260: ece5 4fbd efcd 9a3d 2e53 073e fda1 28be
00000270: f422 ca3c c45c 9f3c 5d2e 053d 5fcf 8b3c
00000280: 3ab2 c03d d54d a33c 0422 79bb fb7c 71bd
00000290: b803 1fbd 86f1 7d3d 98cc a03c 0061 ce3c
000002a0: 461f 3b3d 5de7 19bd 15a6 bb3d 6c64 c23d
000002b0: 2692 14bc c8c5 bbb9 2b97 3e3b 8a6f 06be
000002c0: 0cca 91bc 2c4c c53d f3f9 f2bb 7877 8d3d
000002d0: 6448 93bc f2b9 9b3c cce9 f1bc 3b47 843c
000002e0: afc6 bc3d 1225 d2bd da99 0f3e c167 3bbd
000002f0: b59f 35bd c9ff 013e dea9 afbd 1395 c03d
00000300: fdc5 d33c b6cc be3b d0ef 04bd 377c 863c
00000310: e054 b3bb 9cdc 40bd 080d 79bc 3291 48bd
00000320: 67a7 f13d bcad 7ebb c73d 96bc 9c3f 58bc
00000330: 3b60 043e 9143 233d 9f4a 4b3d 00a2 063d
00000340: e58f 4cbd f382 56bd 1a9c 92bd 9929 133d
00000350: ef1a fe3d cd09 2dbd e109 4dbd 5c14 12be
00000360: 4805 143e e310 02bd e361 1c3c 9075 813d
00000370: d46e 3dbd fa08 c4bc 73b2 8fbd f34a 623d
00000380: 9304 e73d 3d05 6bbd 0c6d 25bd 6390 8b3d
00000390: 8d5f 223d 1815 84bb bec4 933d a825 7b3d
000003a0: 48aa b43c 9f5b 8fbc 4fdd 773c 30b1 0bbe
000003b0: b23a 743c b85b 473d 2a37 043e a6c2 a03d
000003c0: 7cf2 e8bd 2354 bcbb f5a7 8abc 1e73 88bd
000003d0: 4684 03bd c463 0f3c d9d2 8cbd 8a37 6c3d
000003e0: 704b 8c3c d2e2 99bb 0398 6ebd 541e bb3c
000003f0: cda2 e73d 1358 9a3a f72e fd3c 2ca1 98bc
-0.15162767 0.066305354 -0.0068446607 -0.039943106 0.0477572 0.11835188 0.1448683 -0.10223688
0.05456439 -0.08184605 0.08945876 -0.03247149 -0.053295225 0.0102393655 0.021665372 0.08656192
-0.057288904 0.027851278 -0.06512043 0.10868156 -0.017261272 -0.08278282 -0.10960037 0.055546694
0.06720897 -0.008528019 0.08521628 0.007484689 0.06889968 0.012235971 -0.035721503 0.03683832
-0.072447 -0.08341512 0.084512234 -0.04563454 -0.056087583 0.14684258 -0.07146263 0.091175064
-0.078584 -0.032035463 0.12974438 0.03448077 -0.028757459 -0.06861951 0.10764283 -0.04863517
-0.06171809 -0.013594938 -0.06320704 0.076886475 0.008845252 0.059995275 -0.042929705 -0.014261137
0.063465446 -0.00046732574 -0.046646677 -0.024697933 0.0137440255 -0.10802992 -0.026167745 0.031369913
0.038719073 0.076002866 -0.0014019125 0.11562401 -0.062061787 -0.0008229617 0.013200742 0.08066255
-0.030189002 -0.027951842 -0.01292921 -0.08350106 -0.06999209 -0.21679097 -0.02198393 0.026655884
-0.020394547 -0.0059641753 0.07092049 0.025145529 -0.07681241 -0.015157096 0.056184467 0.051591814
-0.029141787 -0.005091088 -0.021587057 -0.0025160706 -0.0018601983 -0.16641438 0.043182652 -0.049148683
0.066931464 0.030458944 -0.08255347 0.063469775 0.08706313 -0.10498142 -0.096237056 0.09740678
0.19078816 0.017116066 0.014452529 0.10358916 0.07374918 -0.041236587 -0.048559632 0.15887043
0.12761033 -0.09453655 0.061890107 -0.059905306 0.0012959724 -0.020342806 -0.02738997 0.023728494
0.042174254 0.03456416 0.06666464 -0.112814665 -0.056718368 0.012209372 0.011158056 0.07455444
-0.055266924 -0.068460844 -0.0659699 0.12970316 -0.10703724 -0.09213789 0.042216692 -0.0025373402
0.07350277 -0.20626235 0.07342521 -0.17191179 -0.04774826 -0.14313191 0.047249563 0.036356963
-0.039533418 0.09464957 0.034238096 -0.07160903 0.015571319 -0.100602664 -0.100777 0.011715658
-0.05075638 0.0755881 0.13215324 -0.16468044 0.02467487 0.019453414 0.03251492 0.017066656
0.09408994 0.019934574 -0.003801466 -0.05895708 -0.038821906 0.061997913 0.019628808 0.025192738
0.04568412 -0.03757416 0.09162537 0.0949181 -0.009068048 -0.00035814778 0.0029081802 -0.13128486
-0.017796539 0.09633669 -0.00741505 0.069075525 -0.017978854 0.019009564 -0.029530428 0.016147247
0.092175834 -0.10260977 0.14023533 -0.045753244 -0.04434176 0.1269523 -0.085773215 0.09403434
0.025851244 0.0058227433 -0.032455266 0.016416652 -0.0054727644 -0.04708539 -0.015200861 -0.048966594
0.117995076 -0.0038860878 -0.018340005 -0.013198759 0.12927334 0.03985936 0.04963171 0.03286934
-0.049941916 -0.052370977 -0.0715868 0.035928342 0.12407481 -0.042245675 -0.05005825 -0.14265579
0.1445514 -0.031754386 0.009544822 0.063212514 -0.046248272 -0.023930062 -0.07016458 0.05524726
0.11280169 -0.057378042 -0.0403872 0.06814649 0.039641906 -0.004030835 0.0721526 0.06131521
0.022053853 -0.017499743 0.015128448 -0.1364181 0.014906572 0.048671454 0.12911668 0.07849626
-0.11374375 -0.0057473346 -0.016925791 -0.06662582 -0.032108568 0.008751813 -0.068761535 0.057670154
0.017125815 -0.0046962285 -0.05825044 0.02284161 0.11310349 0.0011775516 0.030906184 -0.01863154

base.mlp.fc1.0.bias f4 [64]
00000000: 0000 0000 85f2 53bb 0000 0000 aa49 cdbb
00000010: a6c3 d23b 0000 0000 c247 7d3c 0a88 eabb
00000020: 5daa 5abc 0000 0000 b311 e6bb 0000 0000
00000030: 60c1 d1bb 32bb e33a 74a2 063c be81 79bc
00000040: ee64 0cbc cfb8 f53a 2104 643c e0fd 22bb
00000050: 0000 0000 acb9 6b3c 0000 0000 0000 0000
00000060: 7234 a6bb 574d 18bc 0000 0000 360f 923b
00000070: ac57 9eba bd8c 3fbb 2fae e23b 5994 b73a
00000080: 9502 d9bb 0000 0000 b4cc ac3c 0000 0000
00000090: 565f e639 73f3 88bb 9d50 90bb 0000 0000
000000a0: ce56 00bb 1020 a73c 0000 0000 9028 81bc
000000b0: 0c53 9aba d01d 383c 3aea bcbb 72ce 063c
000000c0: 139b 60bc 0000 0000 0000 0000 0000 0000
000000d0: 0000 0000 f2c1 b7bb baff 6cbc 88e0 e73c
000000e0: b7e9 89bc 0000 0000 11be 38ba e72f b4bb
000000f0: 0000 0000 405d 9eba 0000 0000 aeab 923b
0.0 -0.0032340598 0.0 -0.006264885 0.0064320145 0.0 0.015459003 -0.0071573304
-0.013346282 0.0 -0.007021153 0.0 -0.006401226 0.0017374514 0.008217443 -0.015228687
-0.008568985 0.0018747094 0.013917 -0.002487056 0.0 0.014387529 0.0 0.0
-0.00507217 -0.009295783 0.0 0.0044573797 -0.0012080572 -0.0029228174 0.006917737 0.0014006003
-0.0066226223 0.0 0.021093704 0.0 0.0004394005 -0.004179412 -0.004404141 0.0
-0.001958299 0.02040103 0.0 -0.015766412 -0.0011774017 0.011237577 -0.0057652267 0.008227931
-0.013708848 0.0 0.0 0.0 0.0 -0.005607837 -0.014465267 0.028305307
-0.016835077 0.0 -0.0007047365 -0.0054988745 0.0 -0.0012082234 0.0 0.004476032

base.mlp.fc1.2.weight f4 [64]
00000000: 899a 803f 30c6 7c3f e4ef 7e3f 56ea 7e3f
00000010: 117c 7e3f 3170 833f bb19 803f 4da7 803f
00000020: fc83 7b3f 8553 813f 2c24 7e3f cf32 803f
00000030: dd35 803f f1e9 7f3f 48d0 803f e7b1 7e3f
00000040: cff0 7c3f 1038 803f 48b3 803f 0462 7e3f
00000050: b85a 813f edb2 813f 2ac0 7e3f 2407 803f
00000060: df91 7e3f 7c43 7d3f 42e0 7d3f 2906 803f
00000070: 2a5a 7f3f ce3f 7e3f 3ed0 7c3f 623b 7d3f
00000080: 2606 7c3f 2c91 7f3f 3241 823f 820b 813f
00000090: 8bbf 7f3f 0b43 7d3f 3198 803f 7ac7 7d3f
000000a0: 7806 7f3f 548d 803f bb9a 7e3f d8aa 803f
000000b0: 90a1 813f 310d 823f 7d62 823f 742b 823f
000000c0: 5357 833f 37c7 803f d5d6 7e3f b34b 803f
000000d0: dd5a 813f 9ea0 823f fc5c 7d3f 87b8 843f
000000e0: 38bd 7c3f 0291 813f b49d 7e3f dd75 7a3f
000000f0: 7f65 7e3f 599b 803f a7a0 7c3f ceea 7e3f
1.004716 0.9873991 0.99584794 0.9957632 0.9940806 1.0268613 1.0007852 1.0051056
0.9824827 1.0103613 0.99273944 1.0015506 1.0016438 0.9996634 1.0063562 0.9949021
0.98804945 1.0017109 1.0054712 0.9936831 1.010581 1.0132729 0.9951197 1.0002179
0.9944133 0.989311 0.99170315 1.000188 0.99746954 0.9931611 0.9875525 0.98918736
0.9844688 0.9983089 1.0176146 1.0081637 0.99901646 0.98930424 1.0046445 0.991325
0.99619246 1.004313 0.9945485 1.0052137 1.012743 1.0160276 1.0186306 1.0169511
1.0261024 1.0060796 0.9954656 1.0023102 1.0105854 1.0205266 0.9897001 1.0368813
0.98726225 1.0122378 0.99459386 0.97836095 0.9937362 1.0047408 0.98682636 0.99577034

base.mlp.fc1.2.bias f4 [64]
00000000: 26db bcbb 0584 de3a 6e2f 893b e01a 1bbc
00000010: 9cf6 d83b 836b f3bc a959 8b3c afd1 deba
00000020: 05d2 c9ba e4eb 2dbc e3fb dc3b 7976 b9ba
00000030: bd89 e5bb 1cdb 6b39 c0a5 ef3b 7671 a9bc
00000040: 37ec 04bc 7dc0 f13a 747e 333c 3796 2cbb
00000050: af08 36bc d522 613c f9e6 893b 5914 8eba
00000060: 5857 0fbc d29b 45bc 9621 113c ef37 8b3b
00000070: 9e6d 353b 2693 e23b fd90 f03b 84af 263b
00000080: 716c 8b3c f06d d53a 5032 983c f458 28bc
00000090: ad9d 3eba c62a dfbb e845 12bc 7d7a 1e3c
000000a0: 023a 35bb e21a 653c c46b bb3b 7fb0 81bc
000000b0: a792 64bc b9a0 523c 178b 5cbc 9384 70bb
000000c0: 2695 d5bc 7625 d6bb 976b 933b 8903 e7ba
000000d0: d9fe 3bbc 29c2 9bbc ae33 54bc f5dc f83c
000000e0: e945 25bc 902e 55bc 709d 3dba 934d bf3c
000000f0: 4d9b f73b 3ed1 6bbb 2a3a 523c e9cd 973b
-0.005763429 0.0016976601 0.0041865623 -0.009466857 0.006621195 -0.029714352 0.017010527 -0.0016999746
-0.0015397674 -0.010615323 0.0067438944 -0.0014149687 -0.007004945 0.00022492971 0.00731346 -0.020683985
-0.008112959 0.0018444207 0.010955442 -0.0026334652 -0.011110469 0.013741215 0.0042084423 -0.0010839804
-0.008748852 -0.012061076 0.008858105 0.004248611 0.0027683745 0.006914514 0.0073415027 0.0025434205
0.017019482 0.0016283374 0.018578678 -0.010275114 -0.00072714203 -0.006810519 -0.0089278 0.009672758
-0.0027652984 0.01398346 0.005719634 -0.01583123 -0.01395098 0.012855702 -0.013460896 -0.0036700114
-0.026072096 -0.0065352274 0.0044989097 -0.0017624955 -0.011474335 -0.019013481 -0.0129517745 0.030378798
-0.010087469 -0.01301159 -0.0007233238 0.02335242 0.007556355 -0.0035982872 0.01283125 0.0046327007

base.mlp.fc_h.0.weight f4 [64, 64]
00000000: 8f33 5e3d 4e89 81be 8395 0bbe 5563 a3be
00000010: 3fad a43d ec5a 84be f04f 36be 1f5f 893e
00000020: fca2 053d 42d2 183d 9231 4dbd 5838 623e
00000030: bfc5 433e 1920 87bb 3fcc 773e 3693 17be
00000040: 78e0 98bc 1e2d 5d3e e458 343e 24b4 233e
00000050: ee36 d33d 26af 983e ce89 4e3e 3fe2 1d3e
00000060: ba65 ae3c 2552 893d 7fcb b4bb 4333 01be
00000070: a9b6 1e3d a3f8 67be 25d7 51bc d17f 2c3e
00000080: 2294 08bc a3a8 65bd da51 1a3e aced 553e
00000090: 968a 22be 903a a33d 2023 c23d dcf6 4dbe
000000a0: 07d4 333d 8c2b 8b3e 3c98 44bd f838 a2bd
000000b0: d8bc 423e b796 1bbe 3957 783e eee3 b4bd
000000c0: d326 b5bc 56c6 c5bc 84f9 b03d 66fd 8dbe
000000d0: 7375 583e 133e d33e b2a0 8abc 820b 1f3e
000000e0: 601e 413e 1850 f83d 941c 4c3e 47f9 4abe
000000f0: 6997 d43e 472f ca3b 4526 23be 92de 92be
00000100: f9ef 973d d5a2 323e ac0e e2bd 5e7a 6cbe
00000110: e61f f2bd 00d6 623e 900c 013e 4ca4 963d
00000120: 8fbd 5fbe 50a8 a03e 0a05 2fbe 31f0 503e
00000130: 65dc 743e 56f1 9bbc 2637 933b 4db1 8fbd
00000140: 065f d1bd 7540 13be 5e37 0e3e c291 f0bd
00000150: b8c5 dfbc 05cc 01be f672 0cbe e6fa ac3c
00000160: cf49 e9bd 7f59 913e 7a43 24be 5343 a1bd
00000170: 84cb cc3c 73d0 57be 6c34 d53d 713f 1e3e
00000180: 3b68 953e 2cdb ad3d 6664 13bd 419b 2e3e
00000190: bf7f 40be b913 52be bebd de3c 59cd 9cbc
000001a0: 6363 37bd c310 b73d d059 e13c 4a08 f93d
000001b0: ac1c 413e b195 cf3e 0c5e a7be d27d a6bd
000001c0: 50d0 eb3d d5ad a73e 2738 f1bc 39e6 693e
000001d0: 3a67 fb3d 7c91 6c3e 6a16 bfbe 26a3 dbbd
000001e0: 88cc 11bd 0999 0fbe 2dec 003e adbe b4be
000001f0: ca08 92be 8861 0abe 7658 a9bc feb1 3e3e
00000200: 9425 7a3d 9024 81be 2c49 293e 048e 6fbe
00000210: 3730 6a3d e9ef 30bd a1ae 383d 7390 62be
00000220: 57b3 813e 4a1f 3cbe 46c5 423e abac 0dbd
00000230: da18 f03b 2584 b13e dd26 28be 690c d2bd
00000240: e21d 073e e786 93bc 9f9c 42be 4c68 8dbe
00000250: cc40 53bd 271c 963d 6bfb c23d 48c3 6fbe
00000260: 76fe 75be 40a4 a23b ec6b e2bd d322 6b3c
00000270: 6f14 70be 979e b0bd db08 36be f11d a93e
00000280: 2ddd dbbd 36a3 d13c 4c73 89be 8772 fbbd
00000290: 5e33 dbbd 5b86 3cbe 7555 123c dfef 4bbd
000002a0: e970 a73d a254 3f3c be87 1c3d 63d9 7f3e
000002b0: 8850 f2bc aa6b 153e 1bc9 9d3e e0e9 ddbd
000002c0: e685 ae3e c41d 54be 2692 f3bc 9c0f 1c3e
000002d0: 37cf 893e 556f 00bd 7773 763d 00a6 90be
000002e0: 00ac 4e3e 686a bfbe a314 8e3c d7e4 f9bd
000002f0: 1500 c7bd 4b49 6b3e a8c3 86be 0748 e0bd
00000300: 8b20 603e cbcd 553e f31f 31be a577 103e
00000310: 0d41 89be f82c ad3d c579 363e 06cf 113e
00000320: 8876 67bd 5dcb abbc e8b9 fa3d d534 023e
00000330: 006f 403e aebc 863c 9071 9cbe d41d 7cbe
00000340: 741c aa3d 14d7 b23e ba57 8cbd 9ea9 513e
00000350: d3ca 973e f8ac 71be c578 8cbe ddb9 12bc
00000360: 9e16 55bd 9328 2e3e 0801 0bbe 8245 84be
00000370: eb0e ec3d 01a0 b13e 88d7 10be aa93 75bd
00000380: 7890 21be 511d c93d 5368 0e3e c120 d23d
00000390: 056a ac3e 249d 89be 8390 93bd 8585 34be
000003a0: aa38 4d3c 028d fabd e95a 1d3d 2ad2 99bd
000003b0: 7dc7 793e 74f2 7c3b fc02 4b3e a43c b63d
000003c0: 226b 15bd bdfb 88be 5765 b43e ae23 483d
000003d0: 6ea0 743e 0dec 273d 7032 e83d c984 973d
000003e0: 97c2 953e 5b12 dc3c eb01 7e3d a280 283d
000003f0: 0127 31be d36f fb3d 9fa1 953d 765f e63c
0.05424839 -0.25300068 -0.13631253 -0.31911722 0.080408566 -0.25850618 -0.17803931 0.26830384
0.032626137 0.037309892 -0.050096102 0.22091806 0.19118403 -0.0041236994 0.24199007 -0.1480225
-0.018661723 0.21599242 0.17612034 0.15986687 0.103132114 0.29821128 0.20169756 0.15418337
0.021288741 0.06705121 -0.0055174227 -0.12617211 0.038748417 -0.22653441 -0.012807642 0.16845633
-0.008336099 -0.056069028 0.15070286 0.20891446 -0.15873179 0.07970154 0.09479356 -0.201137
0.043903377 0.2718166 -0.047996745 -0.07921022 0.1901735 -0.15194212 0.24252023 -0.08832537
-0.02211324 -0.024142426 0.08641341 -0.2773239 0.21138553 0.41258296 -0.016922329 0.15531734
0.18859243 0.12124652 0.19932777 -0.19821654 0.41521767 0.0061701867 -0.15932567 -0.28685433
0.07418818 0.17444928 -0.11037955 -0.23093554 -0.118224904 0.22151947 0.12602448 0.07355556
-0.21849655 0.31378412 -0.17091766 0.20404126 0.23912199 -0.019035976 0.004492658 -0.07016239
-0.102232024 -0.14380057 0.13888308 -0.11746551 -0.02731596 -0.12675484 -0.13715729 0.021115731
-0.11391031 0.28388593 -0.16041365 -0.07874169 0.024999388 -0.21075611 0.10410389 0.15453888
0.29181084 0.08489069 -0.03598442 0.17051412 -0.18798731 -0.20515336 0.027190086 -0.019140886
-0.044772517 0.08938744 0.027508646 0.12159784 0.18858594 0.40543893 -0.3268894 -0.08129467
0.11514342 0.3274981 -0.02944572 0.22841729 0.12275548 0.23102373 -0.37321788 -0.107244775
-0.035595447 -0.14023222 0.12590094 -0.35301724 -0.2852233 -0.13513768 -0.020672064 0.18622586
0.061070994 -0.25223207 0.16531819 -0.23394018 0.057174888 -0.043197546 0.045088414 -0.22125416
0.25332138 -0.18371311 0.19020566 -0.034588497 0.0073271813 0.3467113 -0.16421075 -0.10256273
0.13194993 -0.018008662 -0.19005059 -0.27618635 -0.051575467 0.073295884 0.095206104 -0.23414338
-0.2402285 0.004963428 -0.11055741 0.014351564 -0.23445295 -0.086239986 -0.17776816 0.33030656
-0.10735545 0.02559052 -0.26845777 -0.12277704 -0.10703157 -0.18410628 0.008931507 -0.049789306
0.08175833 0.011677893 0.03821539 0.2498527 -0.029579416 0.14591852 0.30817494 -0.10835624
0.3408653 -0.2071448 -0.029732775 0.1524033 0.26915905 -0.031356174 0.06016871 -0.28251648
0.201828 -0.3738587 0.017343825 -0.12201851 -0.097168125 0.22977178 -0.2632115 -0.10951238
0.21887414 0.20879285 -0.17297344 0.14108141 -0.26807442 0.08455843 0.17819889 0.1423913
-0.056509525 -0.020970995 0.1224249 0.12715466 0.18792343 0.016447391 -0.3055539 -0.24620754
0.08306208 0.34929717 -0.0685267 0.2047486 0.2964693 -0.23601139 -0.2743589 -0.008955446
-0.052023523 0.17007665 -0.13574612 -0.2583428 0.11526283 0.34692386 -0.14144719 -0.059955277
-0.15777767 0.09820045 0.13906984 0.102601536 0.33674636 -0.268777 -0.07205298 -0.17629059
0.012525717 -0.12233926 0.038416777 -0.07510789 0.24392505 0.0038596662 0.19825357 0.08898285
-0.036479123 -0.2675456 0.35233566 0.04886215 0.23889324 0.0409966 0.11337745 0.07398374
0.29250023 0.026864221 0.062013548 0.0411383 -0.17300035 0.12277188 0.073062174 0.028121691

base.mlp.fc_h.0.bias f4 [64]
00000000: 0000 0000 0000 0000 0000 0000 0000 0000
00000010: 0000 0000 0000 0000 0000 0000 0000 0000
00000020: 0000 0000 0000 0000 0000 0000 0000 0000
00000030: 0000 0000 0000 0000 0000 0000 0000 0000
00000040: 0000 0000 0000 0000 0000 0000 0000 0000
00000050: 0000 0000 0000 0000 0000 0000 0000 0000
00000060: 0000 0000 0000 0000 0000 0000 0000 0000
00000070: 0000 0000 0000 0000 0000 0000 0000 0000
00000080: 0000 0000 0000 0000 0000 0000 0000 0000
00000090: 0000 0000 0000 0000 0000 0000 0000 0000
000000a0: 0000 0000 0000 0000 0000 0000 0000 0000
000000b0: 0000 0000 0000 0000 0000 0000 0000 0000
000000c0: 0000 0000 0000 0000 0000 0000 0000 0000
000000d0: 0000 0000 0000 0000 0000 0000 0000 0000
000000e0: 0000 0000 0000 0000 0000 0000 0000 0000
000000f0: 0000 0000 0000 0000 0000 0000 0000 0000
0.0 0.0 0.0 0.0 0.0 0.0 0.0 0.0
0.0 0.0 0.0 0.0 0.0 0.0 0.0 0.0
0.0 0.0 0.0 0.0 0.0 0.0 0.0 0.0
0.0 0.0 0.0 0.0 0.0 0.0 0.0 0.0
0.0 0.0 0.0 0.0 0.0 0.0 0.0 0.0
0.0 0.0 0.0 0.0 0.0 0.0 0.0 0.0
0.0 0.0 0.0 0.0 0.0 0.0 0.0 0.0
0.0 0.0 0.0 0.0 0.0 0.0 0.0 0.0

base.mlp.fc_h.2.weight f4 [64]
00000000: 0000 803f 0000 803f 0000 803f 0000 803f
00000010: 0000 803f 0000 803f 0000 803f 0000 803f
00000020: 0000 803f 0000 803f 0000 803f 0000 803f
00000030: 0000 803f 0000 803f 0000 803f 0000 803f
00000040: 0000 803f 0000 803f 0000 803f 0000 803f
00000050: 0000 803f 0000 803f 0000 803f 0000 803f
00000060: 0000 803f 0000 803f 0000 803f 0000 803f
00000070: 0000 803f 0000 803f 0000 803f 0000 803f
00000080: 0000 803f 0000 803f 0000 803f 0000 803f
00000090: 0000 803f 0000 803f 0000 803f 0000 803f
000000a0: 0000 803f 0000 803f 0000 803f 0000 803f
000000b0: 0000 803f 0000 803f 0000 803f 0000 803f
000000c0: 0000 803f 0000 803f 0000 803f 0000 803f
000000d0: 0000 803f 0000 803f 0000 803f 0000 803f
000000e0: 0000 803f 0000 803f 0000 803f 0000 803f
000000f0: 0000 803f 0000 803f 0000 803f 0000 803f
1.0 1.0 1.0 1.0 1.0 1.0 1.0 1.0
1.0 1.0 1.0 1.0 1.0 1.0 1.0 1.0
1.0 1.0 1.0 1.0 1.0 1.0 1.0 1.0
1.0 1.0 1.0 1.0 1.0 1.0 1.0 1.0
1.0 1.0 1.0 1.0 1.0 1.0 1.0 1.0
1.0 1.0 1.0 1.0 1.0 1.0 1.0 1.0
1.0 1.0 1.0 1.0 1.0 1.0 1.0 1.0
1.0 1.0 1.0 1.0 1.0 1.0 1.0 1.0

base.mlp.fc_h.2.bias f4 [64]
00000000: 0000 0000 0000 0000 0000 0000 0000 0000
00000010: 0000 0000 0000 0000 0000 0000 0000 0000
00000020: 0000 0000 0000 0000 0000 0000 0000 0000
00000030: 0000 0000 0000 0000 0000 0000 0000 0000
00000040: 0000 0000 0000 0000 0000 0000 0000 0000
00000050: 0000 0000 0000 0000 0000 0000 0000 0000
00000060: 0000 0000 0000 0000 0000 0000 0000 0000
00000070: 0000 0000 0000 0000 0000 0000 0000 0000
00000080: 0000 0000 0000 0000 0000 0000 0000 0000
00000090: 0000 0000 0000 0000 0000 0000 0000 0000
000000a0: 0000 0000 0000 0000 0000 0000 0000 0000
000000b0: 0000 0000 0000 0000 0000 0000 0000 0000
000000c0: 0000 0000 0000 0000 0000 0000 0000 0000
000000d0: 0000 0000 0000 0000 0000 0000 0000 0000
000000e0: 0000 0000 0000 0000 0000 0000 0000 0000
000000f0: 0000 0000 0000 0000 0000 0000 0000 0000
0.0 0.0 0.0 0.0 0.0 0.0 0.0 0.0
0.0 0.0 0.0 0.0 0.0 0.0 0.0 0.0
0.0 0.0 0.0 0.0 0.0 0.0 0.0 0.0
0.0 0.0 0.0 0.0 0.0 0.0 0.0 0.0
0.0 0.0 0.0 0.0 0.0 0.0 0.0 0.0
0.0 0.0 0.0 0.0 0.0 0.0 0.0 0.0
0.0 0.0 0.0 0.0 0.0 0.0 0.0 0.0
0.0 0.0 0.0 0.0 0.0 0.0 0.0 0.0

base.mlp.fc2.0.0.weight f4 [64, 64]
00000000: 4020 5e3d abfc 6dbe 989d 0bbe ade9 a0be
00000010: 77f8 a43d c75e 84be 1e0e 2ebe afdf 873e
00000020: 6359 9d3c 9a9a 183d 6638 4ebd 3f2c 623e
00000030: e711 323e 152b 53bb cfd2 793e dec5 1cbe
00000040: aeaa f0bc 2b1b 5d3e b795 3a3e a240 243e
00000050: 3c38 d33d 91cc a03e bea1 4e3e 72e8 1d3e
00000060: 1bdf 963c dcab 8a3d 3545 b9bb 5cfc ffbd
00000070: 1dac 1d3d 8d6d 67be edd2 62bc 01fc 1d3e
00000080: 612b 4ebc 041b 65bd 3b74 213e 08f0 553e
00000090: 83a9 1ebe 6cfa 823d 962c d43d 2810 4ebe
000000a0: 56a9 2b3d a603 923e 0703 45bd 2a61 adbd
000000b0: 0699 423e e7e4 1abe 5274 6f3e 53ed 93bd
000000c0: 7059 35bd 2ba5 c6bc aeed b03d 7607 8ebe
000000d0: 6e56 583e cff7 d13e 12f7 52bc d01a 243e
000000e0: ee35 323e 2721 f83d 27e4 493e 73fd 4abe
000000f0: 2793 d43e 36ee c53b 13ee 22be aa27 95be
00000100: 0a98 ab3d 295a 3f3e 8079 cebd 6aab 62be
00000110: f695 debd 96d5 6c3e e1cb e63d 8512 a93d
00000120: e8f8 55be aa96 a53e 6e44 25be 60c8 5a3e
00000130: 19a2 7f3e d8a9 e0bc 4608 dabb 46fa 75bd
00000140: 6fed cbbd 6f53 1fbe be63 003e 72b2 fcbd
00000150: 9693 90bc 98a6 0cbe d9bc 02be 1651 fb3c
00000160: ac35 d6bd bed0 8d3e 1581 1abe 653c bbbd
00000170: b9e5 0d3d f90f 4ebe da20 dc3d ca08 143e
00000180: 8c0d 9a3e 576f c13d 9049 40bd 2170 383e
00000190: bf39 4cbe 9621 4cbe 84be 043d 4385 1dbc
000001a0: 72a8 56bd 2bae 9d3d 4400 183d 845f 063e
000001b0: d202 4b3e 8efe c83e c755 a2be ebcc b6bd
000001c0: cdd6 ff3d d494 ac3e e80b a3bc f1b3 733e
000001d0: 2094 073e 7a89 763e be5c b9be 1469 f5bd
000001e0: d5d4 d4bc dac6 05be c904 eb3d 5ef6 afbe
000001f0: 0526 8dbe 3488 00be 7b19 38bc dc77 483e
00000200: 1fc6 8b3d e966 7bbe a8a5 303e ea20 6bbe
00000210: 08d1 833d 4e80 13bd 8f16 5b3d a6f5 5cbe
00000220: e966 823e 36c3 34be 792b 4a3e bb7d e0bc
00000230: 646d c73a aa08 ae3e 0f3d 2fbe 8f43 e1bd
00000240: 3e3d ff3d 37f1 cbbc c33e 3abe 9422 91be
00000250: 6dd5 35bd c877 a53d a9ae d13d 6069 68be
00000260: a439 7dbe 7435 34bb 45b9 d3bd 0b30 ed3b
00000270: b8b7 68be 1a70 a1bd c8f2 38be d650 a63e
00000280: a812 cbbd 8638 063d cd8f 84be 12be ecbd
00000290: 8548 eabd 8cb4 43be 3cf5 8b3c 6788 2ebd
000002a0: d699 983d 6a66 993c b1ef 393d cb43 783e
000002b0: fe6b b7bc c362 0d3e 1c86 9e3e 6752 cfbd
000002c0: 85c9 aa3e 2ac3 4cbe 5abe b8bc 7469 233e
000002d0: 597d 8d3e 9b8d cabc 3b7a 583d 3a69 94be
000002e0: e84c 483e 2dbc bbbe 0916 283c 102d ebbd
000002f0: fe47 b8bd 2ca4 723e a816 83be c33d d2bd
00000300: 0011 6f3e bde7 573e 9535 22be e11b 243e
00000310: 05cc 81be b317 cb3d 49d1 2b3e 3414 253e
00000320: f7bf 30bd b8e4 cebb df2d 0c3e 082d 113e
00000330: 3b4b 543e 2526 873b 875c a4be dae3 80be
00000340: 7fe8 a13d 1c41 aa3e 6054 adbd 76c3 493e
00000350: ec45 9f3e 6068 80be 2711 85be a000 b83b
00000360: 7c5e 81bd 74bd 1e3e ef20 f8bd 32b4 8bbe
00000370: 8f03 053e c52c b93e 7d02 06be cdda 96bd
00000380: eb3b 11be efea e63d d40d 013e 750c f03d
00000390: 8504 a53e 1e55 85be 1747 7bbd f69e 25be
000003a0: 02fc 5b3b 640e 09be 9f19 593d f81d 84bd
000003b0: b461 843e 916c 9ebc 2a92 533e 8b34 ab3d
000003c0: 9b93 0bbd 0580 81be 2fd0 bb3e 57f4 813d
000003d0: e4c8 813e d06c 673d 4195 dc3d 10f6 6f3d
000003e0: 59d3 993e 5421 2a3d a2c5 3a3d f6f7 643d
000003f0: 583c 22be 72ac 0c3e 2022 b33d 894e 493d
0.054229975 -0.23240916 -0.13634336 -0.3142828 0.080552034 -0.2585356 -0.16997573 0.26537845
0.019207662 0.037256815 -0.050346754 0.22087191 0.17389642 -0.0032221724 0.24396823 -0.15309855
-0.029378261 0.21592395 0.18221174 0.1604028 0.1031346 0.31406072 0.20178887 0.15420702
0.018416932 0.06771061 -0.005654002 -0.124993056 0.03849422 -0.22600384 -0.013844234 0.15428163
-0.0125835845 -0.055933967 0.15766995 0.20892346 -0.15494351 0.063954204 0.103600666 -0.2012335
0.04190954 0.2851841 -0.04809859 -0.08465798 0.19003686 -0.15126382 0.23384216 -0.072230004
-0.044274747 -0.02424868 0.08639084 -0.27740067 0.2112672 0.41009375 -0.012876289 0.16025853
0.17403385 0.12115698 0.1971594 -0.19823246 0.41518518 0.00604036 -0.1591113 -0.29131824
0.083786085 0.18686737 -0.10081768 -0.22135702 -0.108684465 0.23128352 0.112693556 0.082554854
-0.20895731 0.3234151 -0.16139385 0.213655 0.24964179 -0.027424738 -0.0066538183 -0.060053132
-0.09957396 -0.15559171 0.12538049 -0.12338723 -0.0176485 -0.13735425 -0.12767352 0.030678313
-0.10459456 0.2769832 -0.15088303 -0.09142379 0.03464291 -0.2012328 0.107484534 0.14456478
0.3008846 0.094450645 -0.046945155 0.18011524 -0.19943903 -0.19934687 0.032408252 -0.009614292
-0.052406736 0.076992355 0.03710963 0.13122374 0.19825295 0.3925671 -0.31706068 -0.08925804
0.12492142 0.33707297 -0.019903138 0.23799111 0.13240099 0.2407588 -0.3620357 -0.11982933
-0.025980392 -0.13064137 0.11475522 -0.3436765 -0.2756807 -0.12551957 -0.011236544 0.19576973
0.06824898 -0.24550976 0.17250693 -0.22961774 0.06436354 -0.036011033 0.05348831 -0.21578082
0.2546914 -0.17652592 0.19743146 -0.027403703 0.0015215096 0.33990985 -0.17113136 -0.10999214
0.12462853 -0.024895294 -0.18188004 -0.28346694 -0.04439299 0.08079487 0.10238392 -0.22696447
-0.2472902 -0.002749768 -0.10338072 0.007238393 -0.22726333 -0.0788271 -0.18061364 0.32483548
-0.09915668 0.03276875 -0.2589096 -0.115596905 -0.11439613 -0.19111842 0.01708471 -0.042610552
0.07451217 0.018725593 0.045394603 0.24244611 -0.022390362 0.13807206 0.30961692 -0.10123139
0.33356872 -0.19996324 -0.022551704 0.15958196 0.27634695 -0.024725726 0.052850943 -0.28986531
0.19560587 -0.36667004 0.01025916 -0.11483204 -0.089981064 0.23695439 -0.25603223 -0.10265686
0.23346329 0.21084495 -0.15840752 0.1602626 -0.25350967 0.0991663 0.16779055 0.16120988
-0.043151822 -0.0063138865 0.13689373 0.14177334 0.20731823 0.00412442 -0.32101843 -0.25173837
0.07905673 0.332528 -0.08463359 0.19703469 0.31108034 -0.25079632 -0.2598965 0.005615309
-0.063168496 0.15501958 -0.121156566 -0.27285916 0.12989639 0.3616697 -0.13086887 -0.07365952
-0.14183013 0.11275279 0.12602931 0.11721126 0.3223001 -0.26041502 -0.061347093 -0.1617392
0.0033566956 -0.13384396 0.05300295 -0.064510286 0.25855792 -0.019338878 0.20661226 0.08359631
-0.034076314 -0.25292984 0.3668227 0.06345432 0.2534858 0.056500256 0.107706554 0.058584273
0.30044058 0.04153569 0.045598634 0.055900536 -0.15843332 0.13737658 0.08746743 0.049147163

base.mlp.fc2.0.0.bias f4 [64]
00000000: e85a 313a 4873 32bc ad11 eabb 7821 80bc
00000010: 90ba c33c 91e9 31b9 0000 0000 f06e a33a
00000020: da49 3ebc a02c 3c3c 0a2d 183c c257 46bc
00000030: 7f45 a23c 74b4 e3bb 191f fcbb 1e07 673c
00000040: 7f29 6fbc 0000 0000 0000 0000 2e32 9ebb
00000050: 0000 0000 cc3b 963c d830 56bb 67ac 83bc
00000060: 8eb9 e53c 0000 0000 6eb5 913b 8c8a 133a
00000070: 8f03 1d3c 5d35 8bbb 0000 0000 0000 0000
00000080: b0f0 493a 0000 0000 3343 05bc 0530 993a
00000090: 72a6 8aba e33c 8b3b 44fb 39bb 58bb aebc
000000a0: 5154 10bc 1fbb 6cbb 0000 0000 2356 31bc
000000b0: 089d 0fbc 97a5 1fbc 47ff 3e3c b13b 103c
000000c0: f9d4 e3b9 0000 0000 6928 b93b ae78 74bc
000000d0: 0000 0000 c515 30bc 5076 7bbb 1f96 583c
000000e0: e1a2 37bc 0e34 c0bb 0000 0000 e594 5cbb
000000f0: c80b d7bb 1f7c 2c3c 3685 793c d257 72bb
0.000676556 -0.010891743 -0.0071432204 -0.01564096 0.02389267 -0.00016967046 0.0 0.0012468975
-0.011614287 0.011485249 0.009288082 -0.012105884 0.019808529 -0.006949002 -0.007694137 0.014100818
-0.014597296 0.0 0.0 -0.004827759 0.0 0.01833906 -0.0032682922 -0.016073419
0.028042581 0.0 0.004446677 0.000562825 0.009583368 -0.0042483048 0.0 0.0
0.0007703407 0.0 -0.008133697 0.0011687285 -0.0010578169 0.0042492016 -0.0028378526 -0.021329567
-0.008809165 -0.0036122275 0.0 -0.010823759 -0.0087654665 -0.00974407 0.011657543 0.008803294
-0.0004345549 0.0 0.005650569 -0.01492135 0.0 -0.010747378 -0.003837008 0.013219385
-0.011208267 -0.0058655804 0.0 -0.0033658084 -0.0065626837 0.01052764 0.015229514 -0.0036978615

base.mlp.fc2.0.2.weight f4 [64]
00000000: 6d66 7f3f 106e 7e3f fd2f 7d3f 2d3b 803f
00000010: ebd1 803f ccb2 803f b7e3 7c3f 0813 803f
00000020: d980 7d3f cd52 813f a38e 813f 2d3b 803f
00000030: ca45 823f 5200 7e3f 7180 803f a3cc 803f
00000040: b8b6 803f 272e 803f dfab 813f b254 7d3f
00000050: 48ce 7e3f 2f48 823f 4b24 7f3f 8c4c 803f
00000060: 4d72 843f 99bc 7c3f ded9 7c3f c7e7 7e3f
00000070: 08f0 813f 5b7b 7c3f 4e48 7f3f bdd3 7f3f
00000080: 6f5c 823f f93c 7b3f 804b 813f 0879 7e3f
00000090: 1aa6 7e3f 3942 7d3f e390 7d3f f49f 7f3f
000000a0: 5d19 803f dedb 7f3f 4f87 7d3f 372c 7f3f
000000b0: 92d2 7f3f bc85 7e3f f66d 823f ebef 813f
000000c0: 3ccc 803f 610a 803f c30b 813f 71f2 813f
000000d0: a61c 7d3f ba5e 7c3f 49e4 7f3f bfec 803f
000000e0: 1ed2 7c3f 4d21 803f f1c9 7d3f 0ed2 803f
000000f0: 4cff 7d3f 013a 803f 19f6 823f 636b 833f
0.99765664 0.9938669 0.9890135 1.0018059 1.0064062 1.0054564 0.98784965 1.0005808
0.9902473 1.0103394 1.0121654 1.0018059 1.0177548 0.9921924 1.0039197 1.006245
1.0055761 1.0014085 1.0130576 0.9895736 0.9953351 1.0178279 0.99664754 1.002336
1.0347382 0.9872528 0.9876994 0.99572414 1.0151377 0.98625726 0.99719703 0.9993246
1.0184458 0.9813991 1.0101166 0.9940343 0.994722 0.9892917 0.99049205 0.99853444
1.000774 0.99944866 0.9903459 0.9967684 0.9993068 0.9942281 1.0189807 1.0151342
1.0062327 1.0003167 1.0081714 1.0152112 0.9887184 0.9858204 0.9995771 1.0072249
0.98758113 1.0010163 0.99136263 1.0064104 0.9921768 1.0017701 1.0231353 1.0267147

base.mlp.fc2.0.2.bias f4 [64]
00000000: 5125 323b 482e 513b 8af5 b73b c3b7 f7bb
00000010: a63c c63c 99cc 27bc 8f03 4c3c 136b 49bb
00000020: 538a 4dbc 9c25 623c 40b3 143c f723 03bc
00000030: f5c4 bd3c ec87 87bb 70de 09bc d9ad 933c
00000040: d375 dfbb ac95 baba 888e 69bc e7d0 2f3c
00000050: a7d9 9a3b e292 a33c 8153 713b fb4f 6cbc
00000060: de06 033d 68b5 5d3c 5fce 973c 2a99 6f3b
00000070: c32d 573c 4213 13bb 58a4 223b 9b3b c3b8
00000080: bd83 9fbc c839 9f3c 8a1b 24bc 77ae 1e3b
00000090: a2ad ba3b 6391 263c c043 2b3c 1c7d cebc
000000a0: c3e0 2dbc 1a47 03bc 0cfb 2a3c 8b3e bc3b
000000b0: cf97 70bb 4f8c 05bc e1ea 873c aa99 593c
000000c0: 8a47 d8bb 92b7 c239 91ef a73b e453 88bc
000000d0: 5424 423c 0c19 403b a6a5 fabb 51f1 dabb
000000e0: ca32 903a df3a b13b 7dbb 113c c62a 82bb
000000f0: 21d9 0c3c 16be 603c 0bdb 5f3c 7bfc e0bc
0.0027182887 0.0031918455 0.0056139873 -0.007559748 0.024198841 -0.010241651 0.01245202 -0.0030733987
-0.012545186 0.013802912 0.00907594 -0.00800418 0.023165205 -0.004136076 -0.00841485 0.018027233
-0.0068194657 -0.001423528 -0.0142551735 0.010730959 0.004725653 0.0199675 0.0036823454 -0.014423366
0.03198897 0.01353202 0.018531023 0.0036559799 0.013133469 -0.0022441898 0.0024817195 -9.309427e-05
-0.019471997 0.019436732 -0.010016331 0.0024212876 0.005696968 0.010166499 0.010453165 -0.025206141
-0.010612669 -0.008012557 0.010435831 0.0057447604 -0.0036711579 -0.008151128 0.016591491 0.013281265
-0.006600325 0.00037139334 0.005124994 -0.016641565 0.011849482 0.0029311804 -0.0076491414 -0.006681599
0.0011001464 0.0054086293 0.008894798 -0.003972384 0.008596689 0.013717195 0.013663064 -0.027464142

rnn.rnn.weight_ih_l0 f4 [192, 64]
00000000: e459 833c d6e1 88bc 3652 0dbd 7a21 86bd
00000010: 315f 1ebd ece5 953d bff3 b7bc 1a49 80bd
00000020: 1be4 ae3d 747a cc3d f4e7 90bc d615 633a
00000030: 3fdd a83d 8107 ab3d a178 9e3d 7c34 93ba
00000040: 3d7f ddbc e856 7d3d b7e1 513c 8d59 5b3d
00000050: 88c0 c83d a9dd 0d3e 5b27 99bb 7bda 5f3d
00000060: 7478 853d 52f8 023d 0623 6abd 21ad 9b3d
00000070: 456a c23d 37f1 84bd c81a ecbd 6e89 de3c
00000080: 3d6f cc3c 3f9e f83c d62e 3f3d ddf7 e43c
00000090: 6eef 763d b40c ddbb a309 c4bd 2e92 593d
000000a0: 14a3 8bbd e783 803b 643d 6dbc 2573 89bd
000000b0: 355e 1c3d 5f03 c9bd 6cbc 883d 0bdf df3c
000000c0: 98b3 bdbd 0b10 bebd d483 323d b287 f4bc
000000d0: 2871 16be 13ae 43bd e49c f6bd c8ee b33d
000000e0: c2f6 06bd 37ed 07be 6c6f 213d 7774 583d
000000f0: 920f 9f3d 1e66 f6bd fb90 e3bd 58b9 39bd
00000100: 1b73 fcba 71a1 97bd 3beb 00bd 4e25 d3bd
00000110: ffe5 a1bc 4d43 363e 69ac a5bd f2da f03c
00000120: a295 a63b 0ef1 4b3d bf59 903d 5ecd 34bd
00000130: 6c22 c3bc f752 e0b8 bc47 95bd e037 633d
00000140: b797 d8bd 95db d1bd 4df9 2bbd 7eab 69bd
00000150: f402 1a3e 6ab8 483d 69b8 87bd c095 173d
00000160: d8f4 12bc da6d cebc 93bc cf3a 0048 41bd
00000170: 26ce 863c 8bbd 99bd 917d abbb 58d0 ccbc
00000180: 8d36 6bbd 64c5 81bd 8379 e0bd 8b38 be3d
00000190: 145e 84bd 95a4 dcbd 4da9 d6bd 1164 273e
000001a0: f3db 12be 22ab 8dbd 0b02 c3bc 10fc 0ebe
000001b0: e869 253d 9e60 9d3d bd9d c4bc b0e4 ef3d
000001c0: e61f 13bd 9f4f 303c d150 c5bd c614 4e3a
000001d0: f5e5 f03c 6a4f 93bc 8880 d83d a68a 66bb
000001e0: 7e8a 3d3d cd88 70bd a490 ba3d f96e bbbd
000001f0: d704 593c d6cd 5bbd 1995 f03b ab7c 8f3d
00000200: 03d2 2c3d 75f7 36bc c938 52bb ec53 793d
00000210: a892 7dbd 2c3c 4bbd 03a5 7abd 6cc8 33be
00000220: fbf8 77bc bd4a 28be e747 133e fb2c 9cbb
00000230: ff82 8d3d f5c9 7bbd 2c6d 02bc 8fc7 2f3d
00000240: 8b93 78bd 5458 c5bd 11ff 47be 14d7 793d
00000250: 16ec 4c3c c719 77bc 256d 723d f05e 0abc
00000260: d8cd 383e dcf8 64bc 7012 013e b546 c03d
00000270: 8d4c 8cbc 5332 efbc 7cb7 67bd 58d6 b53c
00000280: 55ed 0cbd 26a8 40bc f360 223d 5784 783c
00000290: 5063 3d3d ae4c fdbd b403 3d3d 8a04 b73b
000002a0: 3fe3 d13d 1927 a7bd 9a6a c3bd b4a3 53bc
000002b0: 9e19 773c 7a8d 0ebc a6ed a0bd e339 313d
000002c0: 8a05 ca3d 908b 8e3d 392f 613c e611 bdbd
000002d0: ea27 11be a0d6 5c3d c2e5 5cbe d7a5 26bd
000002e0: 3862 fa3b 1771 433d 32f5 453d 1842 66bc
000002f0: c057 3c3c d429 373c 9413 a6bc e051 973d
00000300: 818f 99bd d7a1 a83d bd4b 393d 0df8 6e3d
00000310: f86b c7bb fbf6 123e 0439 31bd 8a5c 96bd
00000320: c80d cebd 20f2 e7bc 3241 ddbd 93e8 113c
00000330: ee02 ddbd 91d6 6dbc e806 aabd e105 973b
00000340: 0e07 b03d 73af 503d b9d1 93bd ca7d d0bc
00000350: bc19 e5bd 4234 a0bd f9cb ea3d d8aa b0bd
00000360: 3e3a 64bd 6135 2d3e c856 f63c 8879 013c
00000370: 4ba4 3cbd 4e14 28bc 0c2b 6e3c 9c91 ca3d
00000380: 53aa c33d 5168 85bc 1c7b 67bd 8d7b 07be
00000390: 8072 b2bd 61dc 323a 6545 9cbb acf2 cf3c
000003a0: 7770 98bc d591 023c 1d41 4dbd 221f 8e3d
000003b0: 92f9 243e 3843 9a3d 0859 4e3d 15c3 f73c
000003c0: 9c24 ecbc 9d60 d6bd b742 75bd e2dd 95bc
000003d0: b852 18bd 5155 4b3c b594 00bd ada9 6e3c
000003e0: 8a88 d3bb 6815 acbd 0125 b8bc 12eb 8f3d
000003f0: 43a2 483d 4e5b 99bd 491e a7bc 909f b8bd
0.016034074 -0.01670925 -0.03450223 -0.06549354 -0.038665 0.07319245 -0.022455094 -0.06263943
0.085396014 0.099842936 -0.017688729 0.00086626166 0.08245324 0.08351041 0.07737852 -0.0011230852
-0.027038211 0.06185046 0.012810162 0.0535522 0.098023474 0.13854088 -0.004673881 0.05465172
0.06517115 0.031975098 -0.057162307 0.07601381 0.094929256 -0.064913206 -0.115285456 0.027165141
0.024955386 0.030348895 0.046675526 0.027950222 0.06028693 -0.006745899 -0.095721506 0.053117923
-0.06818214 0.003921974 -0.014479969 -0.06711415 0.03817578 -0.09815096 0.066765636 0.027328035
-0.092627704 -0.09280404 0.043582752 -0.02984986 -0.14691603 -0.047773432 -0.12041643 0.08785778
-0.03295017 -0.13274084 0.0394129 0.052845445 0.07766642 -0.12031196 -0.11111637 -0.045342773
-0.0019260378 -0.074038394 -0.031474333 -0.1030985 -0.019762991 0.1779911 -0.08089525 0.029401276
0.0050837556 0.049790435 0.07048368 -0.044141166 -0.023820125 -0.00010696606 -0.07289073 0.05547321
-0.10575812 -0.1024696 -0.0419858 -0.057048313 0.15040189 0.049003996 -0.0662697 0.037008047
-0.008969508 -0.025198866 0.0015849046 -0.047187805 0.016455721 -0.075068556 -0.0052334745 -0.02500169
-0.05742507 -0.063364774 -0.109606765 0.092881285 -0.064632565 -0.10773579 -0.1048151 0.16346766
-0.14341716 -0.069174066 -0.023804685 -0.13963342 0.040384203 0.07684444 -0.024000997 0.117135406
-0.035919093 0.010761171 -0.09634555 0.0007861372 0.029406527 -0.017982204 0.105713904 -0.0035177856
0.046274655 -0.058724213 0.09109619 -0.09152026 0.013245783 -0.053663097 0.0073419926 0.070062004
0.04219247 -0.011167397 -0.0032077304 0.06087105 -0.06190744 -0.04961793 -0.061192524 -0.17556924
-0.015135045 -0.1643476 0.14382897 -0.0047661043 0.06909751 -0.061471898 -0.007960599 0.042914923
-0.060687583 -0.09635988 -0.19530894 0.06099613 0.012507459 -0.015081829 0.05918612 -0.008445486
0.18047273 -0.013975348 0.1260469 0.09388486 -0.017126346 -0.029198801 -0.05657147 0.022196934
-0.034406025 -0.01175884 0.03964324 0.015168271 0.04623729 -0.12368141 0.04614611 0.005585258
0.10248422 -0.08161754 -0.09541817 -0.012917448 0.015081791 -0.008700723 -0.07857828 0.043268096
0.09864338 0.06960213 0.013744169 -0.092319295 -0.14175382 0.05391562 -0.2157202 -0.0406855
0.007641103 0.047715273 0.04832954 -0.014053844 0.011495531 0.011179406 -0.020273007 0.07388663
-0.07498074 0.082339935 0.045238245 0.05834203 -0.006085869 0.14352028 -0.043267265 -0.07341869
-0.10061222 -0.028313696 -0.10803451 0.008905548 -0.107915744 -0.014516489 -0.083020985 0.004608855
0.085950956 0.05094857 -0.07217736 -0.025450606 -0.11186549 -0.078224674 0.11464686 -0.08626336
-0.055719607 0.16914894 0.030070677 0.00790251 -0.04605512 -0.010258747 0.01453663 0.09891054
0.09553971 -0.016285094 -0.05651389 -0.13230725 -0.087132454 0.0006823 -0.0047690147 0.02538427
-0.018608315 0.007969339 -0.050110925 0.06939532 0.16110829 0.07532352 0.050377876 0.03024439
-0.02882605 -0.10467646 -0.059878077 -0.018294279 -0.03718826 0.012410478 -0.031391818 0.014566821
-0.0064554857 -0.084025204 -0.022478582 0.07027258 0.04898287 -0.07488118 -0.020400183 -0.09014809
