MAPPO/results/MyEnv/MyEnv/rmappo/check/run4/models/actor_agent1.pt (torch, 257699 bytes, 22 tensors)

base.feature_norm.weight f4 [411]
00000000: 834a 7e3f 71be 7f3f ed15 803f da00 803f
00000010: 8f9b 7f3f c72a 7f3f ef48 803f cb9d 7e3f
00000020: 7894 7f3f eac1 7f3f 47dd 803f e0e5 7e3f
00000030: c47e 7f3f 66c1 7f3f 89a6 7f3f 97e9 803f
00000040: 44da 7e3f e05f 803f ffbe 7f3f 173f 7e3f
00000050: dd6e 7e3f 8947 803f c320 803f a5d0 7f3f
00000060: df4d 803f 7b25 7f3f 9e68 803f 69db 7f3f
00000070: d58e 803f f909 803f 69ce 7f3f 9c68 7e3f
00000080: 765b 803f cc22 803f 622c 7f3f d089 7f3f
00000090: 547a 803f b6a9 803f 80af 803f 9796 7f3f
000000a0: c812 7d3f f842 803f c6f7 7e3f d873 7f3f
000000b0: 8ef8 7f3f 9e8d 7e3f 0c7b 803f 1c04 7e3f
000000c0: d6bc 7c3f 8bbf 803f 327a 7e3f 4110 803f
000000d0: ceb6 7e3f 2db1 803f 1b0e 803f bd25 803f
000000e0: 7bac 7f3f ebfa 7f3f 2f12 803f e64b 803f
000000f0: 6496 803f 8b69 803f 53b0 7f3f e275 803f
00000100: 60dd 7e3f 3fd1 7e3f 0765 7f3f 9f1a 7e3f
00000110: 1b26 813f 1011 823f 03b3 7e3f a6b5 7f3f
00000120: c2b6 7f3f 40a8 7f3f 1664 7f3f 8f2b 7f3f
00000130: 07ef 7e3f 7bc8 7f3f 7e0e 7e3f 05fb 7e3f
00000140: b56c 7f3f 6d10 803f 3ddd 7f3f aea9 7f3f
00000150: c3a3 803f 9aef 7e3f 2805 7e3f 8e4a 7f3f
00000160: baab 7f3f 34e7 803f 8795 7f3f 8a8f 7f3f
00000170: 7088 7f3f 4c62 7f3f e5cc 7e3f 8004 803f
00000180: c107 813f 581a 7e3f 07bb 803f 432b 803f
00000190: 0640 7e3f 548f 803f baf4 7f3f be6a 7d3f
000001a0: d363 813f f92e 803f 4bd1 7e3f e059 7e3f
000001b0: 6c7b 7f3f 80bd 803f b2e1 7e3f d1d7 7d3f
000001c0: 0c0c 823f bdab 813f bc08 813f 575a 803f
000001d0: 2b96 7f3f 0b7b 803f 4b64 803f f7a0 833f
000001e0: 1c0a 7e3f 778e 803f b020 803f 6d07 803f
000001f0: 4bb3 803f d962 833f 2098 7f3f f1e0 7c3f
00000200: 8b3d 803f 0ce2 803f 1880 7f3f e808 833f
00000210: 01bb 813f 6366 7e3f 793b 803f e99c 7f3f
00000220: 72c9 803f dcf1 7e3f 669f 7e3f bc03 803f
00000230: 15a7 7f3f 4f75 803f 03d2 7e3f b42e 803f
00000240: 33a1 803f cda7 7f3f 43a1 7e3f 7307 813f
00000250: b5d6 7f3f 76d9 7d3f 905a 803f fea9 823f
00000260: 2009 803f 6bb6 7e3f 55c2 7e3f 567b 803f
00000270: d7a2 7f3f dda8 7f3f 7798 803f ddb6 7e3f
00000280: fc59 803f a2d5 803f 3676 803f e39b 813f
00000290: 01a5 7f3f 9f3e 7f3f b4d9 823f 1f85 803f
000002a0: af44 7f3f fa1d 803f 722a 7e3f 9030 803f
000002b0: 2a0a 803f ebb3 7f3f b4c1 803f ce0f 803f
000002c0: 12f8 7e3f 8a37 803f 932d 7f3f 1120 803f
000002d0: d486 803f 4bb6 7f3f 3d28 803f 3e70 803f
000002e0: c193 803f 69d3 7f3f 4692 803f b4bd 7e3f
000002f0: 2337 7f3f ead9 7f3f da64 7f3f 5a39 7f3f
00000300: a92d 7e3f 0fe0 803f 5242 803f 2b60 7e3f
00000310: bc2a 7e3f e831 7e3f 0349 803f d938 7d3f
00000320: d29d 803f e5f3 7e3f d97f 7f3f 5b0d 803f
00000330: 4117 7e3f 2add 803f c05f 803f be96 7e3f
00000340: 69df 7d3f c04d 7e3f 55bd 803f a14e 7f3f
00000350: 9517 7d3f 22fd 7f3f 7fd1 7f3f f794 7d3f
00000360: 7f47 7f3f 0305 7e3f d763 7f3f b672 7f3f
00000370: f2ef 7f3f 7c8d 7f3f bb7d 7c3f efe1 7e3f
00000380: da2f 803f 6f9a 803f cd7b 7f3f 6cc0 7e3f
00000390: 8e80 7c3f 016f 7e3f 8c37 803f 1a5d 7e3f
000003a0: e7d5 7f3f 2184 813f e735 803f d731 803f
000003b0: cc7c 7e3f 0939 7d3f 0c46 7f3f d5f2 7e3f
000003c0: 3eaf 803f 506e 7e3f a58d 7f3f 82b2 803f
000003d0: 12cf 7e3f 6a9d 803f 46e9 7e3f 1357 7f3f
000003e0: bfea 7e3f 4cb7 7f3f 7e1a 803f 4967 7e3f
000003f0: 1f6a 803f 5b44 803f 4871 803f c706 803f
0.99332446 0.99899966 1.0006691 1.000026 0.9984674 0.9967465 1.0022258 0.9945952
0.9983592 0.99905264 1.0067528 0.9956951 0.99802804 0.9990448 0.9986349 1.0071286
0.99551797 1.0029259 0.9990081 0.9931502 0.99387914 1.0021831 1.0009998 0.9992774
1.0023764 0.99666566 1.0031927 0.9994417 1.0043589 1.0003043 0.9992433 0.9937837
1.0027912 1.0010619 0.996771 0.9981966 1.0037332 1.0051792 1.0053558 0.99839157
0.9885678 1.0020437 0.9959682 0.9978614 0.9998864 0.9943484 1.0037551 0.9922502
0.9872564 1.0058454 0.99405205 1.000496 0.9949769 1.005407 1.0004305 1.0011517
0.9987256 0.99992245 1.0005549 1.0023162 1.0045896 1.0032209 0.99878424 1.0035975
0.9955654 0.99538034 0.9976353 0.9925937 1.0089754 1.0161457 0.994919 0.9988655
0.9988824 0.99866104 0.99762094 0.9967584 0.99583477 0.99915284 0.99240863 0.99601775
0.9977525 1.0005013 0.9994696 0.99868286 1.0049976 0.9958435 0.9922662 0.99723136
0.9987141 1.0070558 0.99837536 0.998284 0.9981756 0.99759364 0.99531394 1.0001373
1.0080491 0.9925895 1.0057076 1.0013202 0.9931644 1.004374 0.999828 0.98991
1.0108589 1.0014335 0.99538106 0.9935589 0.997977 1.0057831 0.99563134 0.99157435
1.0159926 1.0130535 1.008079 1.002757 0.99838513 1.003755 1.0030607 1.0283498
0.99234176 1.0043477 1.0009975 1.0002266 1.0054716 1.0264541 0.998415 0.98780733
1.0018781 1.0068984 0.9980483 1.0237093 1.0135194 0.9937498 1.001815 0.998488
1.0061476 0.995878 0.9946197 1.000114 0.9986432 1.00358 0.995392 1.0014253
1.0049194 0.9986542 0.99464816 1.0080398 0.9993699 0.99159944 1.0027637 1.0208127
1.0002785 0.994971 0.9951528 1.0037639 0.9985785 0.9986704 1.0046529 0.9949778
1.0027461 1.0065196 1.0036075 1.0125698 0.9986115 0.9970493 1.0222688 1.0040625
0.9971418 1.0009148 0.99283516 1.001482 1.0003102 0.9988391 1.0059114 1.0004823
0.99597275 1.0016949 0.99678916 1.0009786 1.0041146 0.9988753 1.001228 1.0034254
1.0045091 0.9993196 1.0044639 0.99508214 0.99693507 0.99941885 0.9976326 0.99696887
0.9928842 1.0068377 1.0020239 0.9936549 0.9928396 0.992949 1.0022281 0.9891487
1.0048163 0.99590904 0.99804455 1.0004076 0.9925423 1.0067494 1.002922 0.99448764
0.9916902 0.9933739 1.005778 0.99729353 0.9886411 0.99995625 0.9992904 0.9905543
0.9971847 0.992264 0.9976172 0.9978441 0.999755 0.99825263 0.9862935 0.995635
1.0014603 1.0047129 0.9979828 0.9951236 0.9863366 0.9938813 1.0016952 0.9936081
0.99935764 1.0118448 1.001645 1.001521 0.99409175 0.98915154 0.9971626 0.9958928
1.005348 0.99387074 0.9982551 1.0054476 0.99534714 1.0048039 0.99574697 0.9974224
0.99576944 0.99889064 1.0008085 0.9937635 1.0032386 1.002086 1.0034571 1.0002068

base.feature_norm.bias f4 [411]
00000000: 7b11 373c 0ec9 c8b8 8b6a beba f5d3 e8b9
00000010: ede3 093b 7029 e33b 671f 81bb 5083 303c
00000020: b269 443b f08f 07b8 3abc 4dbc 4c4d 043c
00000030: 4536 a53b 1824 d63a 4172 1f3c 1e4f 3bbc
00000040: 9a4d f63b eb6d 82bb 5875 2e3b e083 413c
00000050: 249a 0c3c 385d 0ebb eafd aa3b 9250 283a
00000060: d734 8dbb 3fbb f63b e37c 1cbc d9a0 fe3b
00000070: eb77 eebb f62a 21bb a80e b53a 7b10 713c
00000080: d59d d4bb 9f02 00bb bbc2 61b9 68e3 7abb
00000090: 1250 f9bb 9224 85bb 686f b9bb f847 8d3b
000000a0: c9ae 0f3c fe31 583b 7d6c d53a 7c69 843b
000000b0: 34f3 973a 73a2 443c 9b47 e1ba be37 7d3c
000000c0: 7fc5 983c 45c2 a639 de9d 073c 5980 eab9
000000d0: 4b35 f93b d8ce 22bc 9848 a338 da43 82bb
000000e0: cb2f 243b a21c f33b 2707 8a3a 7b7c 32bc
000000f0: 6bd8 113a ded0 32bc 16e4 8b3b c2db 57bc
00000100: e7b7 0d3c d43a eb3b 6f7e 963b d31f 453c
00000110: e269 15bc b6cc 3ebc d50e bd3a fedb a73a
00000120: d849 2f3b 3c14 603b 684d 533b 8761 823b
00000130: 763b 473c 8964 073b 1ef6 8f3c fbfa a93b
00000140: 5ead 893b 2ed8 f5b9 393f 05ba 1e37 303b
00000150: 05f8 c0bb 73be d33b f8a1 4a3c ebd7 483b
00000160: 2f64 cb3a e911 4cba 26b4 31bc dde9 0d3b
00000170: 22cf a03b 5b49 3b3b a91c ec3b f4aa 38ba
00000180: d8ae 82bc 328c 43bc 148e 03bc 90b0 18bb
00000190: 422b 773c cf0e 05bc 4995 093a 03e7 77bb
000001a0: 4f09 94bb c9df 11bc 26f3 f73b 59d9 3a3c
000001b0: b9c5 943b 9d29 26bc 1ca5 013c 9ee2 a83b
000001c0: 2d67 e53a 8328 153c 1870 6bbc 0917 b0bb
000001d0: 4051 073a 1634 ec3b deed 253c 68da 24bb
000001e0: 0798 683c e1df e5bb 58c3 3ebb b38d a139
000001f0: d077 4fbc 401d 343b c49b 203b f911 9e3c
00000200: e423 4ebb 3973 43bc 090d 703b 3e84 2abc
00000210: dec7 b9bb 0c70 fa3b f2f8 a7bb a311 6739
00000220: 5bca 39bc edcc 1e3c f2f6 3d3c 305b 7937
00000230: 06d7 fbb9 ca8f b6bb e8e6 093c e44b d3ba
00000240: 40f3 12bc 2fd1 2c3a 7d40 133c de6b 1dbc
00000250: 506e 0c3b e655 4c3c 9fc9 0abb 207e 323c
00000260: 7f58 9aba 84bb e43b c6bf 403c 8e86 dfbb
00000270: c12c 393b 669d 843b efd0 78bb 0946 063c
00000280: 272b 59bb 6c54 a03a 2947 f9bb 0c8e b63a
00000290: 5287 833a 6ec6 d63b e92d 3a3a f4a4 6a3b
000002a0: b355 ed3b 49ce b0ba c1fd 693c 37a5 a9ba
000002b0: f127 f7b9 62d1 6cbc 5b66 c33a 51aa 14bb
000002c0: 7ddf 76ba a067 d4bb 1238 b53b 03f2 92b9
000002d0: fcb6 f3bb 2d3d 2b3b d8dc 23bb b1e7 bbbb
000002e0: d509 fdbb 0746 85ba 5bce e6bb 35a8 073c
000002f0: 76a4 983b f4c5 883a d4ae db3a c61a 723b
00000300: f19e 323c bfcb 27bc 0f15 85bb ef03 3f3c
00000310: bc5f 563c 736f 6d3c 4cc9 6cbb d84d 8f3c
00000320: d0a2 00bc ab8e e73b 951a 683b 9010 dfba
00000330: 2155 463c 8595 30bc 85c6 8bbb 4ae8 083c
00000340: 67f3 4b3c 3ba3 0e3c 885b 28bc 5206 8f3b
00000350: a831 923c ad28 01ba cbd3 aa39 67f4 803c
00000360: 8b1d 8e3b c9c6 6d3c a1bf a53b 2381 553b
00000370: d895 243a 44a5 733b 1794 b43c ba7c d43b
00000380: c146 21bb c487 0bbc 0ad3 a33b c794 0f3c
00000390: 0f77 c23c 9baf 4d3c 5478 17bb ee31 1e3c
000003a0: 6c34 dab9 d000 acbc 2cce 81ba 8508 fdba
000003b0: ca4a 043c c179 b93c 28f3 623b 8e65 aa3b
000003c0: bbda 1dbc 5711 2e3c ec1f 5a3b 0261 2abc
000003d0: 7cb8 e73b 25e7 01bc 6b65 ba3b e7be 4b3b
000003e0: 0cc9 123c 8978 023b 30a6 28bb 38f7 5a3c
000003f0: 7565 62bb 016f babb 668c f4bb 11a0 54bb
0.011173601 -9.5741925e-05 -0.0014527602 -0.0004440841 0.0021040395 0.00693243 -0.003940511 0.010773495
0.0029970226 -3.232056e-05 -0.012557084 0.00807507 0.00504187 0.0016337661 0.00973183 -0.011432437
0.007516575 -0.0039803884 0.0026620235 0.011811227 0.008581672 -0.0021723043 0.005218257 0.00064206973
-0.0043092775 0.0075296457 -0.00955126 0.0077706394 -0.007277479 -0.0024592257 0.0013813572 0.014713402
-0.0064885416 -0.0019532812 -0.00021530215 -0.0038282517 -0.007608422 -0.0040631974 -0.0056590326 0.004311558
0.008769699 0.0032988782 0.0016282942 0.004040895 0.0011592866 0.012001622 -0.0017187478 0.0154551845
0.018648861 0.0003180673 0.008277385 -0.00044727584 0.00760523 -0.009937011 7.785967e-05 -0.0039753737
0.00250529 0.007419185 0.0010530696 -0.010893936 0.000556356 -0.010914056 0.0042691333 -0.013174953
0.008649803 0.0071786437 0.004592709 0.012031513 -0.009119483 -0.011645487 0.0014423976 0.0012806652
0.0026746895 0.0034191748 0.0032242183 0.0039789113 0.012160173 0.002065929 0.017573413 0.00518739
0.004201575 -0.00046891108 -0.0005082968 0.002688832 -0.005888941 0.0064619123 0.012367718 0.0030646275
0.0015517528 -0.0007784651 -0.010846173 0.0021654286 0.0049075047 0.0028577659 0.007205565 -0.0007044517
-0.015952513 -0.011935281 -0.0080294795 -0.0023298599 0.015085997 -0.008121206 0.00052483805 -0.0037826903
-0.0045177112 -0.008903452 0.0075668273 0.011404359 0.004540172 -0.010141757 0.0079129 0.005153968
0.0017502062 0.009103897 -0.014369987 -0.0053738398 0.00051619485 0.0072083576 0.010127513 -0.0025154594
0.014196402 -0.007015214 -0.0029108133 0.00030813887 -0.012662843 0.0027483255 0.0024506906 0.01929568
-0.0031454498 -0.011929327 0.0036628863 -0.010407506 -0.005669578 0.0076427516 -0.005126112 0.00022036447
-0.011339749 0.009692413 0.011594521 1.4862788e-05 -0.00048034656 -0.00557134 0.008416869 -0.001612064
-0.008969128 0.000659245 0.008987543 -0.009608237 0.0021428056 0.012471652 -0.0021177304 0.010894328
-0.0011775641 0.0069803614 0.011764472 -0.00682146 0.0028255435 0.0040470837 -0.003796633 0.008195409
-0.0033137293 0.0012232191 -0.00760736 0.0013927831 0.0010034835 0.0065544164 0.0007102178 0.0035803886
0.007242882 -0.0013489212 0.014281691 -0.0012942915 -0.0004714127 -0.014454218 0.0014907824 -0.0022684524
-0.00094174576 -0.0064820796 0.0055303657 -0.00028027603 -0.007437585 0.0026128993 -0.002500346 -0.005734407
-0.0077221193 -0.0010167965 -0.0070436425 0.00827985 0.004658277 0.0010434971 0.0016760477 0.0036942228
0.010902152 -0.010241448 -0.0040613483 0.011658653 0.013084348 0.014491904 -0.0036130724 0.017493173
-0.0078513175 0.007066568 0.0035416235 -0.0017018486 0.012105257 -0.010777836 -0.0042656087 0.008356163
0.012448168 0.008705909 -0.010275729 0.004364767 0.017845944 -0.00049270206 0.00032582725 0.01574154
0.004337018 0.014512726 0.0050582443 0.0032578192 0.0006278432 0.0037177363 0.022043271 0.006484595
-0.0024608823 -0.008516256 0.004999523 0.008763499 0.023738412 0.012554075 -0.0023112493 0.009655459
-0.00041619258 -0.020996481 -0.0009903363 -0.0019304907 0.008074472 0.022641065 0.0034629796 0.0052000945
-0.009634669 0.010624251 0.0033283187 -0.010399105 0.007071553 -0.007928644 0.0056883595 0.0031089128
0.008959066 0.001990827 -0.002573382 0.013364606 -0.0034545336 -0.005689502 -0.007463026 -0.003244404

base.mlp.fc1.0.weight f4 [64, 411]
00000000: 1abf d03b 765f 523c f262 b2bc 2ee7 9e3c
00000010: 416c 91bd b90b 213c 8f8d b73d aa75 a73d
00000020: 51fe 5abd 1220 c63a 66e8 593d 7df9 563d
00000030: e8d2 ba3d 6ca2 c5bd 3ecb b0bc d92f 32be
00000040: 803a e93c bedc acbd 3921 5dbd a10c 81bd
00000050: bf16 45be c832 933d 3833 2dbd 6dc3 5abd
00000060: 1dd0 c1bd d02f 7a3c a355 8a3d 5371 0bbd
00000070: dfd8 7dbd 19e7 54bd a1fc 083d b039 9bbd
00000080: 8101 cc3d f943 05be afa9 ed3d 1160 ad3c
00000090: 1ffe ab3d 6b1e 033e c8a8 173e 3685 6abd
000000a0: d6b2 e5bc 9dce 893d 6f05 a5bd ee48 223d
000000b0: ec00 433c 015e 4d3c 8b31 a63c 45e8 3f3d
000000c0: 9a70 0dbe 4fd1 58bd a820 36bd b326 74bc
000000d0: 9ed1 59bc 2077 bdbd 7963 143e b0f4 c53c
000000e0: a9bb d93d 96f5 6e3c 2c31 873b 6ac1 1fbd
000000f0: 7bee abbc 05b7 f83d e828 5e3c ad70 19bc
00000100: e4cf ebbd 1e58 a1bd 53b1 2abd 389e 8bbd
00000110: 04ba 8b3d e771 fc3b 419a 413d b7bf 133e
00000120: e672 6dbd 5218 14bd 0cc6 0cbd 2827 8abd
00000130: 3912 3dbd cd9c 363c f2b3 d53d 6d38 ccbc
00000140: f3dd 1b3d eec6 9d3c 40a3 0abe 3615 543e
00000150: 3a19 dc3d 96a1 56bd 968d e8bb 3ce5 a3b7
00000160: 80fb b2b9 6a62 2dbd ee07 8b3c 2b7a 27bd
00000170: 2aa0 3f3e ab77 c0bb 5ba1 833d 10d2 68bd
00000180: 8305 dd3d 7298 903c fb15 9c3d e374 89bd
00000190: f73d 97bd 9a52 51bb 28ac 80bb 16c7 913d
000001a0: 9358 823d 8c5b ddbc 0d5f 83bd 5526 1e3c
000001b0: 4f21 933c 10c5 f43c 0dfd acbc 365d 9bbc
000001c0: e1b9 febc 3c12 ea3c a4e0 12bc d9b5 183c
000001d0: 3b2f 943d c644 103c a336 663c f625 53bb
000001e0: 7d1d a73d 28eb 0ebc c14e 85bc a7b3 0a3e
000001f0: 3ab2 2fbd a228 e93d b458 a33d ff2b b53d
00000200: 044e 1e3c 71ba 713d d56e b53d 33c0 8bbc
00000210: 4e9e 20bc 0d38 23be f2e0 bb3c d713 ffbb
00000220: 1c0c 3b3d d033 fabb 25d6 cc3b 3d6f b23b
00000230: 4c00 f53d ce2a dd3d 7991 d53d 9dc7 1bbd
00000240: 5b18 463d 2f7d 9a3b 8ae2 763c b6e5 633d
00000250: 129e 17bd 67a1 e2bc de1c 8fbd 3b72 913d
00000260: 5100 91bd 53ae 933d e490 b03d bd2d 6abd
00000270: de2a 013e 84e8 73bd 07f0 8abc f3a6 8cbb
00000280: 54f4 61bd 251f 753d d894 143a 574e a9bd
00000290: 8b18 863d 04ce fe3b a538 ae3c ffe1 0bbe
000002a0: 5e87 1f3d 1c88 cabc a787 6b3d e6a2 bc3d
000002b0: 5b68 30bc b26b ba3c 42ea 103c 775e 563d
000002c0: 9227 51bd b6cc d5bb 4b1b 92ba 65da 703d
000002d0: 2077 bf3d 6c75 56bd e259 f3bd 3a5d a83c
000002e0: 81d8 903c 7532 933d caec 18bd 1975 cdbd
000002f0: 5686 d03c bb94 673c 0dd9 c1bd 56ce dabc
00000300: 1e58 64bd 148e 973c 2e16 dc3d 29b9 18be
00000310: 0270 8dbd d1a9 34ba 83ce e73c 7496 d4bd
00000320: 7d7c 01be 7a97 083d da3d 47bd 3cf5 c53d
00000330: f190 81bc 3b6b b73d 25e2 ca3d 03f6 01bd
00000340: addd 38bd c926 2f3d 8230 a3bd fb83 243d
00000350: f6b2 babd 0b70 dc3b e7e1 cf3d ef2a 71bd
00000360: 5ef4 23bd 2381 0c3d eb74 b83d 687f 673d
00000370: a4b4 c73c 771b 183d 3b28 803d 360d a1bd
00000380: 24e4 70bd c76f cb3d 45dd b7bd c2eb 4d3d
00000390: 0a52 d2bb 77ed e03c b8c5 233b 42ec 9cbc
000003a0: e887 753c 28c6 3b3d 29bb c3bd 5315 87bd
000003b0: bc51 bebc d942 7b3d 6c6f cfbd f915 84bd
000003c0: 969a 803b 97be 88bd 98f7 34bc b1c4 2a3d
000003d0: 5497 1dbc 3132 963d 62b5 963c b122 6bbd
000003e0: adb4 953c ccaf 02ba ae3f c73b 3fe3 0fbd
000003f0: 70d6 513c 7492 44bb c755 8a3d 5f37 d33d
0.0063704373 0.0128401425 -0.021775696 0.019397344 -0.07100726 0.009829455 0.08962547 0.081767395
-0.05346519 0.0015115759 0.053200148 0.052484024 0.091222584 -0.0965012 -0.021581288 -0.17401065
0.028470278 -0.08440541 -0.05398676 -0.06301237 -0.19246958 0.0718742 -0.042285174 -0.05340903
-0.094635226 0.015270188 0.06754615 -0.03404362 -0.061974403 -0.051978204 0.03344405 -0.075793624
0.09961224 -0.13014211 0.1160463 0.021163972 0.08398079 0.12804572 0.14810479 -0.057255946
-0.028039377 0.067288615 -0.08057677 0.039620332 0.011902075 0.012534619 0.020287296 0.04685237
-0.13812485 -0.052933987 -0.044464737 -0.014901805 -0.013294606 -0.09251237 0.14491071 0.024164528
0.106314965 0.014584919 0.004125735 -0.039002813 -0.02098774 0.12144283 0.0135595575 -0.009365243
-0.11514261 -0.07878135 -0.041673016 -0.06817287 0.06822589 0.007704008 0.04726625 0.14428602
-0.057970904 -0.036156006 -0.03436856 -0.0674575 -0.046159957 0.011145783 0.104347125 -0.02492925
0.038053464 0.019259896 -0.13538837 0.20711216 0.10746999 -0.052400194 -0.0070969565 -1.953786e-05
-0.00034138188 -0.042330183 0.016971555 -0.040887993 0.18713441 -0.0058736405 0.064272605 -0.056840956
0.10792067 0.017650817 0.0762138 -0.067117475 -0.07384866 -0.0031940104 -0.0039267726 0.07118051
0.063645504 -0.027021192 -0.06414614 0.009652694 0.017960219 0.029879123 -0.021116758 -0.018965345
-0.031094493 0.028573148 -0.008964691 0.0093207 0.07235571 0.008805459 0.014051112 -0.0032218671
0.08159921 -0.008723058 -0.016272904 0.13545094 -0.04289458 0.11384703 0.07975903 0.08846282
0.009662155 0.059015695 0.0885903 -0.017059421 -0.009803368 -0.1593935 0.02293441 -0.0077843475
0.045665845 -0.007635571 0.006251114 0.0054453895 0.11962947 0.1079918 0.10428137 -0.038032163
0.04836307 0.00471463 0.01506866 0.05563899 -0.037015982 -0.027664853 -0.06987928 0.07101866
-0.070801385 0.07210984 0.08621386 -0.057172526 0.12614009 -0.059547916 -0.016960157 -0.004292363
-0.05516465 0.059844155 0.00056679314 -0.08266895 0.0654765 0.007776024 0.021267245 -0.1366043
0.038947456 -0.024723105 0.057502415 0.09210758 -0.010767068 0.022756431 0.008844914 0.052336182
-0.051063128 -0.0065246476 -0.001114705 0.058802027 0.09348893 -0.052358076 -0.11882378 0.020552266
0.017681362 0.07187358 -0.037335195 -0.100321 0.025454681 0.014134581 -0.09465227 -0.026709717
-0.055748098 0.018500365 0.10746418 -0.14914383 -0.069061294 -0.00068917597 0.028296715 -0.10380259
-0.12645145 0.033347584 -0.04864297 0.09665915 -0.015816184 0.089559995 0.09906415 -0.031728756
-0.04513328 0.042761598 -0.079682365 0.04016493 -0.09116165 0.0067272238 0.10150509 -0.058878835
-0.04002797 0.034302842 0.09006675 0.05651799 0.024378128 0.037135568 0.06257673 -0.07863848
-0.05881132 0.09933429 -0.08977751 0.050273664 -0.006418471 0.027456982 0.0024989676 -0.019155625
0.014986016 0.045843273 -0.09557182 -0.06595864 -0.023232333 0.061343048 -0.10128674 -0.064495035
0.003924678 -0.06676977 -0.011045359 0.041691486 -0.009618599 0.07333792 0.018397037 -0.05740613
0.01827463 -0.0004985302 0.0060805893 -0.03512883 0.012807474 -0.002999452 0.06754642 0.103132956

base.mlp.fc1.0.bias f4 [64]
00000000: 1183 c4bb 0000 0000 d3c0 473c dae9 68bc
00000010: 95ee 72ba f987 b03b febc 6fbc dc9f a1bb
00000020: 0000 0000 0000 0000 1646 06bb c9b2 b6bb
00000030: 8a1f 71bb 0d76 97ba 0bab 03bb 18dd 413b
00000040: 0cad 09bb 9d0e a33b 68a0 b7bb 2a28 943b
00000050: 3850 a23b 9301 af3b 35b9 7abb 87d9 6d3c
00000060: 0000 0000 0000 0000 0b46 97bb 41d5 a9bb
00000070: 1f17 1eba 0000 0000 ce66 6d3b 0336 5a3b
00000080: 0000 0000 e9b2 5dbb 0000 0000 3a7e a33b
00000090: 15a4 443c 773c b73c 337c abbb a8e3 c33b
000000a0: d0f2 18ba 766e 82bb 999e b3ba 0000 0000
000000b0: c80e ae3a fda4 313b 04b3 39ba 3bc9 b0bb
000000c0: e48b cbbb 0000 0000 f1ca 023c 05b5 4d3b
000000d0: 4cd9 333c 0000 0000 8140 e3ba 0000 0000
000000e0: fea4 15bc 0000 0000 bf0a 9b3c 8d59 54bb
000000f0: 09d4 05bc 4354 2c3c bf12 15bc 5679 923a
-0.0059970696 0.0 0.012191969 -0.014215911 -0.0009267119 0.005387303 -0.014632462 -0.004932387
0.0 0.0 -0.0020488552 -0.005575512 -0.003679248 -0.0011555568 -0.0020090963 0.0029581245
-0.0021007685 0.0049761073 -0.0056038387 0.0045213895 0.0049534105 0.005340764 -0.0038257365 0.014517195
0.0 0.0 -0.004616504 -0.0051828925 -0.0006030667 0.0 0.0036224606 0.0033296354
0.0 -0.0033828563 0.0 0.0049894126 0.012002011 0.0223677 -0.0052333116 0.0059780665
-0.0005834522 -0.003980453 -0.0013703882 0.0 0.0013279552 0.0027106397 -0.00070838653 -0.0053950823
-0.0062117446 0.0 0.007982955 0.0031388414 0.010977101 0.0 -0.0017337949 0.0
-0.0091335755 0.0 0.018926023 -0.003240201 -0.008168229 0.010518136 -0.009098708 0.0011175077

base.mlp.fc1.2.weight f4 [64]
00000000: 365f 7e3f d21d 803f 931b 7f3f 12bb 813f
00000010: a3f5 813f 552b 803f 9da8 803f 5313 803f
00000020: b63d 813f c9e3 7f3f f3a2 7f3f 786e 7e3f
00000030: 733a 803f e789 7d3f fee3 7e3f 0b37 803f
00000040: bf27 803f 08a1 7f3f fec2 7e3f 3f03 7d3f
00000050: d9c9 7f3f 7b01 7c3f 1658 803f d0b4 813f
00000060: a543 813f e4d8 813f 0fdf 803f 6d10 7e3f
00000070: 632c 803f 849f 7e3f ff21 803f 5743 7b3f
00000080: 563d 7c3f 384b 803f 5c43 803f f6f8 7a3f
00000090: 8f30 813f 4099 803f 41d3 803f 45bf 803f
000000a0: ca5d 7f3f 3a8f 7f3f b11b 803f 33b2 803f
000000b0: 7910 7e3f 0fc8 7d3f 2e29 813f f18b 7e3f
000000c0: bc82 823f c5d0 7e3f 3cff 7d3f 1235 7c3f
000000d0: 74a5 813f e0d7 803f 2784 7e3f 0ce7 803f
000000e0: 61a2 7d3f b77e 7e3f 0e2c 823f 3992 803f
000000f0: 9888 7b3f 979b 7f3f 6b3b 803f 8fc7 7f3f
0.9936403 1.00091 0.9965145 1.0135214 1.0153087 1.0013224 1.0051457 1.0005897
1.0096958 0.9995695 0.99858016 0.9938731 1.0017837 0.9903855 0.9956664 1.0016798
1.001213 0.9985509 0.99516284 0.9883308 0.9991737 0.9843976 1.0026882 1.0133305
1.0098768 1.0144315 1.0068072 0.99243814 1.0013546 0.9946215 1.0010375 0.9814963
0.9853109 1.0022955 1.0020556 0.98036134 1.0092944 1.0046768 1.006447 1.0058371
0.99752486 0.9982792 1.0008451 1.0054382 0.99243885 0.9913339 1.0090692 0.99432284
1.0196147 0.9953731 0.9921758 0.9851848 1.0128617 1.006588 0.994204 1.007051
0.99075896 0.994121 1.0169694 1.0044624 0.982553 0.99846786 1.0018133 0.9991388

base.mlp.fc1.2.bias f4 [64]
00000000: 33c2 ebbb ea9a 15ba 555d 4b3c 1167 6abc
00000010: 8598 81bc db9b 7c3b 30ca b1bc 968b 34ba
00000020: dc27 1bbc bee6 3c3a 5632 d93a 86a2 d2bb
00000030: 6711 25bb 5a78 1a3c ec23 24bb 914c 2b3b
00000040: 2498 6dbb 53fb 8d3b 7460 b4bb 9b13 163c
00000050: 650e 943b c135 b63b 24e0 24bb 0619 5b3c
00000060: 5d02 23bc 84b3 71bc 7107 e5bb 0bb8 dcbb
00000070: eb96 99ba e85c ad3b f470 4f3b 9a6e 833b
00000080: eaa1 723c 6145 1bbb e0de 13bb 0a4e 6e3c
00000090: 08e6 203c 801c 873c 3fe1 dcbb 1d90 c23b
000000a0: d108 40ba 145f b8ba fa1d 8cba 03a2 babb
000000b0: 77df be3b 9289 213b 83b1 19bc 8adc af3a
000000c0: 0812 98bc f5cf 943b 39b9 073c 8899 2a3a
000000d0: 37f0 3f3c 932a e0bb e3b5 3ebb df17 f3bb
000000e0: d5e3 18bc a7b6 c73b fdf1 933c b0fd 86bc
000000f0: a3f8 05bc 097a 423c 48f6 50bb 1b70 09b9
-0.007194781 -0.0005706983 0.012412389 -0.0143067995 -0.015819797 0.0038545046 -0.021702856 -0.0006887255
-0.009469952 0.0007206014 0.0016570787 -0.0064280657 -0.0025187375 0.009428108 -0.0025045825 0.0026138166
-0.0036254013 0.0043329387 -0.005504662 0.009159948 0.0045183175 0.005560607 -0.0025158012 0.013372665
-0.009949294 -0.0147522725 -0.0069894125 -0.006735807 -0.0011717951 0.0052906163 0.0031653019 0.0040109875
0.014809111 -0.0023692476 -0.0022563264 0.014544973 0.009820469 0.016493082 -0.0067407186 0.00593759
-0.00073255325 -0.0014066421 -0.0010690086 -0.005695583 0.005824979 0.0024648649 -0.009380701 0.0013417166
-0.018563285 0.004541392 0.008283907 0.0006507863 0.0117149865 -0.0068410127 -0.0029100112 -0.007418617
-0.009331663 0.006094772 0.018059725 -0.01647839 -0.008176955 0.011869916 -0.0031885076 -0.000131071

base.mlp.fc_h.0.weight f4 [64, 64]
00000000: d7a2 343d a8a6 37be b1c0 1a3e a48d 6f3c
00000010: c9d0 52be 0bdb 643d 9bdd 92bd 64ab 8b3d
00000020: cfd1 553e bb18 d3bd abb2 a2bd 6f14 89bd
00000030: 67c0 a03e dd43 b23e acce 443e 0f9f 443e
00000040: e773 693e 39a3 1dbc c202 e2bd a9c6 55bc
00000050: eb9f 163e 2e1b b43d 9315 423d 2c26 b9bc
00000060: 25b2 d13d 2986 a03c 7ff8 a03e 10bb 743e
00000070: 00f0 333e 62b3 d53e dccd c43d d928 5e3e
00000080: 058c 99be b02d df3d 0a37 223e 7427 4bbe
00000090: 1d87 11be 2455 833e cef4 1dbe 977f 7f3d
000000a0: 65f2 afbd 179c cdbc e52e ba3e c082 78be
000000b0: d2f4 2a3e c785 bdba fe3b 09bd 035f 0a3e
000000c0: 428d 323e 8dc5 123e 1eaf b23d 6add b0bd
000000d0: b833 5bbe 8ac8 933d 4098 a93e 7aff 5fbe
000000e0: 30b0 1abb 54dc c63d 6017 56be 0d5e 833e
000000f0: be23 4abe f7de b6bd 9c00 413e 80ff 2a3d
00000100: 8a6f edbc b336 213e 7fdc 7bbd c109 df3c
00000110: c8ee 703d 0de9 91bd 12e7 27be 6c26 94bd
00000120: 2e0d 033e a7e4 673e 3c4d 1abe 10cc 8fbc
00000130: a023 553e 27ce 223e e692 a03b cfe4 c0be
00000140: 0ec3 ebbd 20ac 163e 6855 763d 23ea af3e
00000150: eb0b 62be e6cd 713e 30bb 82bd 47f1 0dbe
00000160: 6e9f eebd acff dbbd a7c0 d6bd dd51 9a3d
00000170: d996 373d 3af5 32bd 2c68 e33e cdd9 7d3d
00000180: 5a73 24bc 2652 633e 221c 813e a09b 72be
00000190: a985 973d 2e3f 6dbe afa5 47be 8e52 b4be
000001a0: c24a 513e a38e 503c b571 dd3d b410 5dbe
000001b0: b594 ffbd 80c6 11be af80 d23c 8979 b7be
000001c0: 4891 0bbe 8682 f5bd e1a0 f63c dfa3 a5bd
000001d0: d571 e1bd 3a54 59be d39a 053d 1b50 e8bc
000001e0: a14f 113d 0265 a8be 4ee6 5b3d dbd7 513e
000001f0: 8dcb dcbc b076 0abe 8560 82be 97ea a4be
00000200: 03bf 193e 8077 443d 2ab5 d23d 5f17 d1bb
00000210: 05e0 cabd 0102 203e 38f5 7c3e 5ff5 6fbe
00000220: 2879 efbc c125 1d3e 208e 903d d4f1 b43c
00000230: e5ac fe3c 8e91 613e abb6 0ebe c84a efbd
00000240: 69d8 39be ead5 6bbd ee11 b03e f840 d4bd
00000250: 6427 7a3d 9823 173e 5f00 bd3c b0b7 38be
00000260: 091d 063f 092b 063e c52d 04bd b5ef 5bbc
00000270: 08f7 f63d 4d10 873c a383 b6bd e57a c3be
00000280: 68d0 ec3c 7ccd 263e f532 b7bd d90c d2be
00000290: 8c91 11bd 7898 0f3e be90 70be ba18 b83e
000002a0: ca2b d2bd ddf7 90be 6f3e c43b 364b 163d
000002b0: 8e3a 85bd be12 17bd c72e de3c b8d3 2cbe
000002c0: 4d57 f0bd a07c 6e3c bbba cdbd 24f0 23be
000002d0: d7bd 21be b883 99be 66d3 943b fb10 003e
000002e0: fb04 72bd a924 383e cfeb c4bb ee79 a6be
000002f0: a301 7b3e af29 9abe cbf3 b53d fe55 8dbc
00000300: 24ca 683e 2ca0 263e 1a68 7f3e 3bf9 0c3e
00000310: 13be a7bc 95e5 a9be 2be5 06bf 959b 4f3e
00000320: 36c7 333e be62 97bb 314e 1d3e 4d54 0ebd
00000330: f8d0 fb3d 16c5 56ba e34f 2e3d e940 c4bd
00000340: dd7b 00be c455 ebbe bc44 4f3e 3b04 0e3e
00000350: 6e03 37be ef75 0d3d ea64 62bd 9f64 633d
00000360: a844 823d 8d10 3abe 74da 2b3d 852b cebd
00000370: 898f 95bd 7b48 2bbe 861a cdbd f913 a5be
00000380: ac30 9b3e 1b7f 803d d35f 74bd 85af 693e
00000390: 9c16 fd3d 2d91 053e c0e2 c0bc 6a1d f8bd
000003a0: b39b 6dbc 03f9 af3d 467d 723e 249f 143d
000003b0: 984a 733e b01f 323b 84b5 29be a3fa b53d
000003c0: d398 493d 8a34 17be b6f4 a5be 6f68 50be
000003d0: 0811 9bbe eb62 103e 9354 493e 4b3c cabd
000003e0: 00ed 183b 88b6 90bd 0d4b 33be 2c16 b3bd
000003f0: 190e 1d3e 4991 bc3d 6be3 533d 2fde 523e
0.04410061 -0.17934668 0.15112568 0.014621172 -0.20587458 0.05587296 -0.07171174 0.068197995
0.20880817 -0.10307451 -0.079442345 -0.066933505 0.3139679 0.348174 0.19219464 0.19201301
0.2279812 -0.009621435 -0.11035682 -0.013047853 0.14709441 0.087942466 0.047383856 -0.02260121
0.102390565 0.019595223 0.31439587 0.23899484 0.17572021 0.4173842 0.09609577 0.2169527
-0.2998964 0.10897386 0.15841308 -0.19839269 -0.14211698 0.25650895 -0.15425417 0.06237754
-0.08591155 -0.025098844 0.36363903 -0.24268627 0.16694954 -0.0014459424 -0.03350448 0.13512807
0.17436698 0.14333172 0.08724807 -0.086359814 -0.21406448 0.07215984 0.3312397 -0.218748
-0.002360355 0.09709993 -0.20907354 0.25657693 -0.19740197 -0.08929246 0.18847889 0.04174757
-0.02898385 0.15743522 -0.06148958 0.02722633 0.05882147 -0.07124529 -0.1639674 -0.07233891
0.12797996 0.22645818 -0.15068525 -0.01755336 0.20814371 0.15898953 0.004900324 -0.37674567
-0.11511813 0.14714098 0.060140043 0.3435832 -0.22074859 0.236137 -0.063833594 -0.13861571
-0.116515025 -0.10742125 -0.10485964 0.075351454 0.044821594 -0.043690898 0.44415414 0.06197529
-0.010037268 0.22199306 0.25216776 -0.23692179 0.073985405 -0.23168632 -0.19496797 -0.35219234
0.20438674 0.01272932 0.108127035 -0.21588403 -0.124795355 -0.14235878 0.025696127 -0.3583491
-0.13629639 -0.11987786 0.03010601 -0.080878966 -0.1100804 -0.21223536 0.032618355 -0.02835851
0.03547633 -0.32889563 0.053686433 0.20492499 -0.02695253 -0.13521838 -0.25464264 -0.32210228
0.15014271 0.047965527 0.102884606 -0.00638096 -0.099060096 0.15625764 0.24702919 -0.23433445
-0.029232576 0.15346433 0.07058358 0.022087969 0.031088302 0.22028181 -0.1393687 -0.11684185
-0.1814896 -0.05757705 0.3438868 -0.10363954 0.061072722 0.14759672 0.023071466 -0.18038821
0.52388054 0.13102354 -0.03227021 -0.01342385 0.12058836 0.016487265 -0.089118265 -0.381797
0.02890797 0.16289324 -0.08945266 -0.41025427 -0.035539195 0.14023006 -0.23492715 0.35956365
-0.10262258 -0.28314105 0.005988888 0.03669282 -0.06505309 -0.03688311 0.027121915 -0.1687764
-0.11735401 0.01455608 -0.10045382 -0.16009575 -0.15795074 -0.29983306 0.004541802 0.12506478
-0.05908678 0.17982735 -0.006009556 -0.325149 0.24512343 -0.30109927 0.088843904 -0.017252918
0.2273336 0.16272038 0.24942055 0.13766949 -0.020476377 -0.3318297 -0.5269343 0.20274194
0.17556462 -0.0046199253 0.15361859 -0.034748364 0.12295717 -0.000819282 0.042556655 -0.09582693
-0.1254725 -0.4596387 0.20241064 0.13868801 -0.17872402 0.0345363 -0.05527202 0.05551588
0.063607514 -0.18170376 0.04195638 -0.100668944 -0.07302768 -0.16726868 -0.100148246 -0.322418
0.3031057 0.062742434 -0.059661698 0.22820862 0.12357828 0.13043661 -0.023545623 -0.12114985
-0.014502454 0.08592417 0.236806 0.03628458 0.23758924 0.0027179532 -0.16573149 0.08885696
0.04921801 -0.14766136 -0.32413262 -0.20352338 -0.3028643 0.14100234 0.19661169 -0.09874781
0.0023334622 -0.07066065 -0.17509098 -0.08744463 0.15337409 0.092073984 0.051730555 0.20592569

base.mlp.fc_h.0.bias f4 [64]
00000000: 0000 0000 0000 0000 0000 0000 0000 0000
00000010: 0000 0000 0000 0000 0000 0000 0000 0000
00000020: 0000 0000 0000 0000 0000 0000 0000 0000
00000030: 0000 0000 0000 0000 0000 0000 0000 0000
00000040: 0000 0000 0000 0000 0000 0000 0000 0000
00000050: 0000 0000 0000 0000 0000 0000 0000 0000
00000060: 0000 0000 0000 0000 0000 0000 0000 0000
00000070: 0000 0000 0000 0000 0000 0000 0000 0000
00000080: 0000 0000 0000 0000 0000 0000 0000 0000
00000090: 0000 0000 0000 0000 0000 0000 0000 0000
000000a0: 0000 0000 0000 0000 0000 0000 0000 0000
000000b0: 0000 0000 0000 0000 0000 0000 0000 0000
000000c0: 0000 0000 0000 0000 0000 0000 0000 0000
000000d0: 0000 0000 0000 0000 0000 0000 0000 0000
000000e0: 0000 0000 0000 0000 0000 0000 0000 0000
000000f0: 0000 0000 0000 0000 0000 0000 0000 0000
0.0 0.0 0.0 0.0 0.0 0.0 0.0 0.0
0.0 0.0 0.0 0.0 0.0 0.0 0.0 0.0
0.0 0.0 0.0 0.0 0.0 0.0 0.0 0.0
0.0 0.0 0.0 0.0 0.0 0.0 0.0 0.0
0.0 0.0 0.0 0.0 0.0 0.0 0.0 0.0
0.0 0.0 0.0 0.0 0.0 0.0 0.0 0.0
0.0 0.0 0.0 0.0 0.0 0.0 0.0 0.0
0.0 0.0 0.0 0.0 0.0 0.0 0.0 0.0

base.mlp.fc_h.2.weight f4 [64]
00000000: 0000 803f 0000 803f 0000 803f 0000 803f
00000010: 0000 803f 0000 803f 0000 803f 0000 803f
00000020: 0000 803f 0000 803f 0000 803f 0000 803f
00000030: 0000 803f 0000 803f 0000 803f 0000 803f
00000040: 0000 803f 0000 803f 0000 803f 0000 803f
00000050: 0000 803f 0000 803f 0000 803f 0000 803f
00000060: 0000 803f 0000 803f 0000 803f 0000 803f
00000070: 0000 803f 0000 803f 0000 803f 0000 803f
00000080: 0000 803f 0000 803f 0000 803f 0000 803f
00000090: 0000 803f 0000 803f 0000 803f 0000 803f
000000a0: 0000 803f 0000 803f 0000 803f 0000 803f
000000b0: 0000 803f 0000 803f 0000 803f 0000 803f
000000c0: 0000 803f 0000 803f 0000 803f 0000 803f
000000d0: 0000 803f 0000 803f 0000 803f 0000 803f
000000e0: 0000 803f 0000 803f 0000 803f 0000 803f
000000f0: 0000 803f 0000 803f 0000 803f 0000 803f
1.0 1.0 1.0 1.0 1.0 1.0 1.0 1.0
1.0 1.0 1.0 1.0 1.0 1.0 1.0 1.0
1.0 1.0 1.0 1.0 1.0 1.0 1.0 1.0
1.0 1.0 1.0 1.0 1.0 1.0 1.0 1.0
1.0 1.0 1.0 1.0 1.0 1.0 1.0 1.0
1.0 1.0 1.0 1.0 1.0 1.0 1.0 1.0
1.0 1.0 1.0 1.0 1.0 1.0 1.0 1.0
1.0 1.0 1.0 1.0 1.0 1.0 1.0 1.0

base.mlp.fc_h.2.bias f4 [64]
00000000: 0000 0000 0000 0000 0000 0000 0000 0000
00000010: 0000 0000 0000 0000 0000 0000 0000 0000
00000020: 0000 0000 0000 0000 0000 0000 0000 0000
00000030: 0000 0000 0000 0000 0000 0000 0000 0000
00000040: 0000 0000 0000 0000 0000 0000 0000 0000
00000050: 0000 0000 0000 0000 0000 0000 0000 0000
00000060: 0000 0000 0000 0000 0000 0000 0000 0000
00000070: 0000 0000 0000 0000 0000 0000 0000 0000
00000080: 0000 0000 0000 0000 0000 0000 0000 0000
00000090: 0000 0000 0000 0000 0000 0000 0000 0000
000000a0: 0000 0000 0000 0000 0000 0000 0000 0000
000000b0: 0000 0000 0000 0000 0000 0000 0000 0000
000000c0: 0000 0000 0000 0000 0000 0000 0000 0000
000000d0: 0000 0000 0000 0000 0000 0000 0000 0000
000000e0: 0000 0000 0000 0000 0000 0000 0000 0000
000000f0: 0000 0000 0000 0000 0000 0000 0000 0000
0.0 0.0 0.0 0.0 0.0 0.0 0.0 0.0
0.0 0.0 0.0 0.0 0.0 0.0 0.0 0.0
0.0 0.0 0.0 0.0 0.0 0.0 0.0 0.0
0.0 0.0 0.0 0.0 0.0 0.0 0.0 0.0
0.0 0.0 0.0 0.0 0.0 0.0 0.0 0.0
0.0 0.0 0.0 0.0 0.0 0.0 0.0 0.0
0.0 0.0 0.0 0.0 0.0 0.0 0.0 0.0
0.0 0.0 0.0 0.0 0.0 0.0 0.0 0.0

base.mlp.fc2.0.0.weight f4 [64, 64]
00000000: d7a2 343d a8a6 37be b1c0 1a3e a48d 6f3c
00000010: c9d0 52be 0bdb 643d 9bdd 92bd 64ab 8b3d
00000020: cfd1 553e bb18 d3bd abb2 a2bd 6f14 89bd
00000030: 67c0 a03e dd43 b23e acce 443e 0f9f 443e
00000040: e773 693e 39a3 1dbc c202 e2bd a9c6 55bc
00000050: eb9f 163e 2e1b b43d 9315 423d 2c26 b9bc
00000060: 25b2 d13d 2986 a03c 7ff8 a03e 10bb 743e
00000070: 00f0 333e 62b3 d53e dccd c43d d928 5e3e
00000080: 058c 99be b02d df3d 0a37 223e 7427 4bbe
00000090: 1d87 11be 2455 833e cef4 1dbe 977f 7f3d
000000a0: 65f2 afbd 179c cdbc e52e ba3e c082 78be
000000b0: d2f4 2a3e c785 bdba fe3b 09bd 035f 0a3e
000000c0: 428d 323e 8dc5 123e 1eaf b23d 6add b0bd
000000d0: b833 5bbe 8ac8 933d 4098 a93e 7aff 5fbe
000000e0: 30b0 1abb 54dc c63d 6017 56be 0d5e 833e
000000f0: be23 4abe f7de b6bd 9c00 413e 80ff 2a3d
00000100: 28fb edbc afec 213e 7000 7abd 6755 e33c
00000110: 78c5 733d cecc 91bd 7a48 28be 7cb6 92bd
00000120: 59c5 033e 419d 683e 299a 19be d080 98bc
00000130: 06d8 553e 578d 233e 11df 7d3b 7b62 c1be
00000140: 2706 ebbd 61d6 163e d136 7c3d 6bdb af3e
00000150: 04d0 62be cf4f 743e 4f87 81bd fdd3 0fbe
00000160: d735 edbd d496 dabd 3354 d5bd 6313 9a3d
00000170: d268 3a3d 4526 30bd 5010 e33e 077e 773d
00000180: 6280 19bc 6a3c 643e 1876 813e 94e7 71be
00000190: f4db 953d 5904 6dbe 180d 47be bcab b4be
000001a0: 86f4 4f3e dad6 4f3c 6ed4 de3d 0c5f 5cbe
000001b0: 43f7 fbbd 383d 11be 5330 d83c 051e b7be
000001c0: 5ce1 09be 4219 f4bd ed47 e53c b1a2 a9bd
000001d0: 828d e4bd e0a1 58be a061 fe3c 5b9a e2bc
000001e0: 58af 093d 2e09 a8be 7f9f 5b3d 8a39 503e
000001f0: 718f e5bc 0b56 0abe 3208 82be feef a5be
00000200: 128f 1e3e f454 6b3d 99ea d73d 9a57 c2ba
00000210: 4b5a b7bd 60dc 143e e0c7 7a3e f93a 66be
00000220: f62a a1bc e5e9 263e 2704 a43d 7f5d 643c
00000230: 9558 253d 103a 6b3e 812c 18be 4d2c 02be
00000240: 3b4c 3bbe a5e8 86bd e61c ac3e c343 c1bd
00000250: 9437 533d 0b7f 1d3e dcc0 053d 8ee3 43be
00000260: 208f 083f 4dfb 0f3e bb2a babc b90c 24bc
00000270: 1832 053e 0704 d53c 7207 cbbd 4383 c4be
00000280: 4c55 1d3d e189 303e 8d9d a3bd 4824 cdbe
00000290: d4e9 3dbd 83c2 123e 6161 67be 3d52 b23e
000002a0: 15d5 e4bd f0f5 8bbe 23bc 7e3c 225e 3d3d
000002b0: b1af 6cbd eb5e 26bd 752f 163d b33b 23be
000002c0: 48fc dbbd a0cd c43c bd0c cdbd e709 1dbe
000002d0: 465f 2cbe 12a7 94be c2df d3bb 51d4 093e
000002e0: f614 8dbd 18ec 413e b4f6 97bc f150 a0be
000002f0: 6096 743e de3c 9cbe 8548 cc3d 93b3 ddbc
00000300: 24ca 683e 2ca0 263e 1a68 7f3e 3bf9 0c3e
00000310: 13be a7bc 95e5 a9be 2be5 06bf 959b 4f3e
00000320: 36c7 333e be62 97bb 314e 1d3e 4d54 0ebd
00000330: f8d0 fb3d 16c5 56ba e34f 2e3d e940 c4bd
00000340: dd7b 00be c455 ebbe bc44 4f3e 3b04 0e3e
00000350: 6e03 37be ef75 0d3d ea64 62bd 9f64 633d
00000360: a844 823d 8d10 3abe 74da 2b3d 852b cebd
00000370: 898f 95bd 7b48 2bbe 861a cdbd f913 a5be
00000380: ac30 9b3e 1b7f 803d d35f 74bd 85af 693e
00000390: 9c16 fd3d 2d91 053e c0e2 c0bc 6a1d f8bd
000003a0: b39b 6dbc 03f9 af3d 467d 723e 249f 143d
000003b0: 984a 733e b01f 323b 84b5 29be a3fa b53d
000003c0: d398 493d 8a34 17be b6f4 a5be 6f68 50be
000003d0: 0811 9bbe eb62 103e 9354 493e 4b3c cabd
000003e0: 00ed 183b 88b6 90bd 0d4b 33be 2c16 b3bd
000003f0: 190e 1d3e 4991 bc3d 6be3 533d 2fde 523e
0.04410061 -0.17934668 0.15112568 0.014621172 -0.20587458 0.05587296 -0.07171174 0.068197995
0.20880817 -0.10307451 -0.079442345 -0.066933505 0.3139679 0.348174 0.19219464 0.19201301
0.2279812 -0.009621435 -0.11035682 -0.013047853 0.14709441 0.087942466 0.047383856 -0.02260121
0.102390565 0.019595223 0.31439587 0.23899484 0.17572021 0.4173842 0.09609577 0.2169527
-0.2998964 0.10897386 0.15841308 -0.19839269 -0.14211698 0.25650895 -0.15425417 0.06237754
-0.08591155 -0.025098844 0.36363903 -0.24268627 0.16694954 -0.0014459424 -0.03350448 0.13512807
0.17436698 0.14333172 0.08724807 -0.086359814 -0.21406448 0.07215984 0.3312397 -0.218748
-0.002360355 0.09709993 -0.20907354 0.25657693 -0.19740197 -0.08929246 0.18847889 0.04174757
-0.029050425 0.15812944 -0.061035573 0.027750684 0.059514493 -0.071191415 -0.16433898 -0.071637124
0.12868251 0.22716238 -0.15000214 -0.01861611 0.20883188 0.15971886 0.0038737694 -0.37770447
-0.11475783 0.14730217 0.061575714 0.3434709 -0.22149664 0.2385857 -0.06324636 -0.14045711
-0.11582535 -0.106732994 -0.1041645 0.07523229 0.04551012 -0.043005247 0.44348383 0.060422923
-0.009368988 0.22288671 0.2528541 -0.23623496 0.07317343 -0.2314619 -0.19438589 -0.35287273
0.20308122 0.012685502 0.108803615 -0.21520633 -0.12303021 -0.1418351 0.02639023 -0.3576509
-0.13464874 -0.1191888 0.027988398 -0.08282984 -0.11159803 -0.211555 0.03105241 -0.027661493
0.033614486 -0.32819504 0.053618904 0.2033445 -0.0280225 -0.13509385 -0.25396878 -0.32409662
0.15484264 0.057454064 0.10542793 -0.0014827133 -0.08952769 0.14537191 0.24490309 -0.22483434
-0.019673806 0.16300161 0.080086045 0.013938307 0.04036768 0.22971368 -0.14860727 -0.12712212
-0.18290798 -0.06587342 0.33615798 -0.09436753 0.051566675 0.15380494 0.03265463 -0.19129774
0.5334339 0.14060707 -0.022725454 -0.010012799 0.1300739 0.026002897 -0.099135295 -0.38381395
0.038411424 0.17240097 -0.07989035 -0.40066743 -0.046365574 0.14332013 -0.22595741 0.34828368
-0.11173455 -0.27336073 0.015547785 0.04623235 -0.05778474 -0.040617865 0.036666352 -0.15940742
-0.10741478 0.02402383 -0.10012195 -0.15335809 -0.16833219 -0.29033715 -0.006465883 0.13459899
-0.068887636 0.18937719 -0.018550254 -0.31311753 0.23885489 -0.30515188 0.099747695 -0.027063167
0.2273336 0.16272038 0.24942055 0.13766949 -0.020476377 -0.3318297 -0.5269343 0.20274194
0.17556462 -0.0046199253 0.15361859 -0.034748364 0.12295717 -0.000819282 0.042556655 -0.09582693
-0.1254725 -0.4596387 0.20241064 0.13868801 -0.17872402 0.0345363 -0.05527202 0.05551588
0.063607514 -0.18170376 0.04195638 -0.100668944 -0.07302768 -0.16726868 -0.100148246 -0.322418
0.3031057 0.062742434 -0.059661698 0.22820862 0.12357828 0.13043661 -0.023545623 -0.12114985
-0.014502454 0.08592417 0.236806 0.03628458 0.23758924 0.0027179532 -0.16573149 0.08885696
0.04921801 -0.14766136 -0.32413262 -0.20352338 -0.3028643 0.14100234 0.19661169 -0.09874781
0.0023334622 -0.07066065 -0.17509098 -0.08744463 0.15337409 0.092073984 0.051730555 0.20592569

base.mlp.fc2.0.0.bias f4 [64]
00000000: 0000 0000 aec3 33ba 62af 1fbc 0000 0000
00000010: 226d 44bc f008 2cbc 6a89 0f39 0969 b63b
00000020: 8b56 98ba 7048 863a 0000 0000 0674 9eba
00000030: d53c 4dbb 0000 0000 5a08 153c 700e f5bb
00000040: 0000 0000 9a61 c9bb 299e 87bb 6e5d da3c
00000050: 6bfa d73b 0988 703c dfb4 e2ba 6c46 c13a
00000060: 5c5d 38bb 0000 0000 5637 a03c 2c39 9a3a
00000070: 0000 0000 0000 0000 0000 0000 6c8d 1f3c
00000080: fa80 b83c 8e41 eaba 0000 0000 efdb 0dbc
00000090: bee1 17bb 4407 fd3b fb3e 803b 0000 0000
000000a0: a43b 84bb 3673 b43b 5076 67bb 6c0e 13bc
000000b0: 17e6 d0bb 5956 be3b 0f02 5a3b 5539 e93b
000000c0: fc29 7a3b 61c9 f5bb 3a87 9ebb 6cfd dd3b
000000d0: 7d8b 0fbb 40ad d93a 4b66 c03b 40e8 09bb
000000e0: 016b 0ab9 1212 d7bb 0000 0000 6076 7dbb
000000f0: 47e7 1dba 5feb 33bc 0000 0000 c806 a3bc
0.0 -0.00068574667 -0.009746404 0.0 -0.01198891 -0.010500178 0.00013688733 0.0055667204
-0.0011622472 0.0010244977 0.0 -0.0012089021 -0.0031316776 0.0 0.009096229 -0.0074785277
0.0 -0.006145668 -0.004138727 0.026655879 0.0065911314 0.014680871 -0.0017296335 0.0014745719
-0.0028131818 0.0 0.019557636 0.0011766306 0.0 0.0 0.0 0.009738307
0.022522438 -0.001787232 0.0 -0.008658393 -0.0023175324 0.0077218134 0.003913758 0.0
-0.00403543 0.0055068983 -0.0035318322 -0.008975606 -0.006375085 0.0058086333 0.0033265387 0.00711743
0.0038171997 -0.007500813 -0.0048378976 0.006774595 -0.002190321 0.0016607419 0.0058715693 -0.0021042973
-0.00013200568 -0.0065634334 0.0 -0.0038675293 -0.0006023538 -0.01098141 0.0 -0.019900694

base.mlp.fc2.0.2.weight f4 [64]
00000000: 30eb 813f c7a8 7d3f 199e 823f 8207 803f
00000010: f326 7f3f 4731 7e3f b228 803f 0014 813f
00000020: 773b 813f a31b 823f 3df3 7e3f ba28 803f
00000030: c09a 793f 9739 7f3f 349f 813f 5c96 813f
00000040: df09 803f d612 7b3f c437 7e3f f790 843f
00000050: 4e3e 803f bbf5 823f 88d4 813f 3581 7d3f
00000060: 390a 7e3f 0d9f 813f e6b4 803f b02c 7d3f
00000070: c6c3 813f 9dcb 7c3f ed0a 7d3f d01e 813f
00000080: 43db 833f 2a45 803f 1993 7f3f f72b 813f
00000090: c324 803f 7965 803f e562 803f b350 7e3f
000000a0: ebe7 7e3f 6067 803f 3351 813f 8320 813f
000000b0: 8479 7c3f 5b4d 813f ae7e 803f 6c8c 7e3f
000000c0: cf57 803f 6d86 7c3f 8c09 803f 4b37 813f
000000d0: 1eff 7c3f 97e3 7e3f 21bd 7f3f 3dc7 803f
000000e0: bc2e 803f a549 7f3f b7da 803f 7503 813f
000000f0: 4157 7d3f a669 7c3f 9b1e 7b3f aef0 803f
1.0149899 0.9908566 1.0204498 1.0002291 0.99668807 0.9929394 1.0012419 1.0084229
1.0096272 1.0164684 0.995899 1.0012429 0.97501755 0.9969725 1.012671 1.0124011
1.0003012 0.98075616 0.9930384 1.035674 1.0019014 1.0231241 1.0142984 0.9902528
0.9923435 1.0126663 1.0055206 0.9889631 1.013787 0.9874819 0.98844796 1.0087528
1.0301288 1.0021107 0.9983383 1.0091542 1.0011219 1.0030967 1.003018 0.9934189
0.9957263 1.0031548 1.0102905 1.0088047 0.9862292 1.0101732 1.003866 0.99433017
1.0026797 0.9864262 1.0002913 1.0094999 0.9882678 0.99566025 0.9989796 1.0060803
1.0014262 0.9972175 1.0066746 1.007918 0.98961264 0.98598707 0.98093575 1.007345

base.mlp.fc2.0.2.bias f4 [64]
00000000: f157 85bc aff3 1e3c a2ed b6bc d60f 2dba
00000010: 7901 b43a ba46 24bc 12ae 0abb 5b1f 1b3c
00000020: be32 32bc 4a3b 49bc e33b 853b f111 f0ba
00000030: acdd d43c 786b 533b bbe2 703c cf1c 7abc
00000040: 4f9b 25ba 91e7 8ebb 706b f137 9d67 053d
00000050: a7fb 213c 70c1 6f3c 80e5 3bbc fbd3 f53a
00000060: 6c3c 13bc 114e 5abc 9a78 ad3c bc1d 4f3c
00000070: abbc 72bc c09d 5a3c f6fd 533c b64c 463c
00000080: 2efa db3c e5f6 c839 f17a 2d3a fa6b 48bc
00000090: 6cf7 2abb f714 4f3c 2f5e a93b 5efc 013c
000000a0: 33a7 2c3a c806 43bb 9993 28bc 968a 00bc
000000b0: 0f81 9fbb c62b 333c bbf7 e0bb a893 063c
000000c0: a4a3 ae3b 4990 ee3b 4cde 5bba 29f3 483c
000000d0: f169 d33a eaa3 6f3b 8954 213c d3ef b4bb
000000e0: eb31 01bb 98c2 02bb 4569 d7bb 173a 0abc
000000f0: ef38 e13a 5b2c cdbb 5587 a53c 8dc6 12bc
-0.016277285 0.009701653 -0.022330109 -0.0006601786 0.0013733349 -0.010026628 -0.0021160883 0.009467925
-0.010876356 -0.012282202 0.004065977 -0.0018315894 0.025984608 0.0032260101 0.014702494 -0.015265658
-0.0006317393 -0.004361101 2.8779468e-05 0.032569516 0.009886659 0.014633521 -0.011468291 0.0018755192
-0.008986574 -0.013324277 0.021175671 0.012641367 -0.01481549 0.013343275 0.012938967 0.01210325
0.026852693 0.00038330923 0.0006617746 -0.012232775 -0.0026087416 0.012639276 0.0051686983 0.007933704
0.0006586194 -0.002975868 -0.010289096 -0.007845541 -0.00486768 0.010935729 -0.0068654693 0.008213915
0.005329566 0.0072803837 -0.0008387312 0.012265005 0.0016129595 0.0036566206 0.009846815 -0.0055217533
-0.0019713591 -0.0019952413 -0.0065738284 -0.008436701 0.0017183105 -0.006261391 0.020206133 -0.008958471

rnn.rnn.weight_ih_l0 f4 [192, 64]
00000000: 4115 0f3d e0c6 5f3d c713 1b3d 7c87 aa3d
00000010: 0b8e 4dbe 0c69 8e3d 6526 c5bc 6de0 6abd
00000020: 7ac0 593d 9f0b 63bc 1b9b 433d 6d43 6f3d
00000030: 76ba 903d 99e4 b63b 28ad b03d b28e 1dbe
00000040: 7f75 0f3d edbb b6bc 0006 4c3d 9fba 8abd
00000050: b229 9dbc 943b 823d d3d5 bebb 98c5 13be
00000060: b4d9 f3bc ea76 cc3d 2568 79bd ddca 80bd
00000070: ed0e 4ebd ffeb 0bbd 4297 ebbc fc62 8abd
00000080: fac9 90bd 8cb8 813d 9a15 50bd 1203 7f3c
00000090: 2c11 023e c679 43bd 08ac ecbb 6944 4f3d
000000a0: 7370 613d 9832 873b 664a 53bd fe42 853b
000000b0: 08d3 7abd 32e8 81bd c33b bcbd d861 053c
000000c0: fde4 b7bd e241 06be 20f4 cabd 2f90 50bb
000000d0: 5efb ae3d 813a 433d 94fc 083d ea6b 20bc
000000e0: 28ee 2fbe ce92 33bd f45b b2bd 0ba0 e53c
000000f0: 96b6 143d 0a69 a13d 08fe 00be 1b38 dcbd
00000100: 9a1a c53d 9438 79bd be68 c23d 4b82 313c
00000110: 096c ec3d da82 2b3c 75ff 70bb 6e10 143e
00000120: febb 21be 61d9 8b3a 6715 4e3d 569c 06bb
00000130: 1f13 abbd 10d0 90bd 6fb7 43bd 39d5 96bd
00000140: c79a 5fbd d06d 12be 2933 183d 79eb 8ebd
00000150: 7e6f ea3d 330b 8dbd b604 3d3d 4c7c 91bd
00000160: ba76 853d cac7 21bc 49cb 123d 5e49 153e
00000170: 8924 aebd 1e1a 683d 1df7 063e 7c96 9dba
00000180: db9a bb3d 0ebb 793c 3f1b 48bb 5390 44bd
00000190: 37d7 35bc 8531 4dbd aec1 47bc 41b1 5f3d
000001a0: aaaf 1d3e 1723 b1bd 08f4 213d 32d6 3d3c
000001b0: 0489 3abd 0fbf 10be ea43 413c d168 293e
000001c0: 04dd 133d 9a99 78bd 1d4b 3dbd 53b6 9bbd
000001d0: 9168 fcbd 0a55 6c3d 70ae 103b 25e4 6b3d
000001e0: 2b72 2f3d a5d1 49bd 5fb7 6dbd d431 35bd
000001f0: 6494 1ebd 20db 6d3d 6b49 f13d 1db0 d93d
00000200: e0f7 2c3c d397 54bd 8ffd c7bd b9e2 d73b
00000210: c4a6 743c 7e62 a33c 01a8 25bd c614 fb3c
00000220: b6d4 60bd aef9 2b3d 6738 e6bc 44b4 513d
00000230: 864b 47bd d52e 77bd 83cc 09be 420a ea3b
00000240: 3cb4 973d 5e20 4abc 8429 a4bd 2fef dbbd
00000250: afc5 84bd 86ec 153c 0cf1 d43c e883 d9bc
00000260: 50f0 2ab9 abef f73d 8b1c 69bd c282 83bd
00000270: 215d 313e 6485 a83c 9138 783d 66dc 26be
00000280: 7465 5d3c 8d9e 9d3c 846f 04be 1331 93bd
00000290: 5b40 c23c a2fb 90bd 96e8 f73d 5f03 883d
000002a0: 818c 12bd 3c06 bdbd 1db8 eebc 342a a23c
000002b0: 83ec fdbd 6ce3 b43d 31b7 24bd a6f5 c8bd
000002c0: 9a8c 26bd c628 e4bc 17fd 66bd 26c3 a4bc
000002d0: 86c5 cb3d 8706 dabd 75f6 533d f0c0 9a3d
000002e0: 8208 b43c fcdf 81bd 9dcd 6abd 8900 26be
000002f0: a127 353d 6058 ac3c 0179 5cbd 6eb5 71bd
00000300: 0214 5f3e e0c0 6c3d 0c8b a6bc 7410 6dbd
00000310: 3b07 8f3d 1804 1c3d ae7b 16ba 19c0 5ebd
00000320: 370b 143d 964c c83d 9a74 393d 9f1f 243d
00000330: 77e4 71bd 8b6e 67bd 9205 17be 8839 4dbc
00000340: 6eed 153d 81a2 9a3d eb38 b5bc 3c7f 8bbc
00000350: ca71 833d 1dc2 efbd a682 ea3d f32f cf3d
00000360: 01f4 2ebd 639a 873d 26c6 14bc 0e87 d03c
00000370: 0563 89bc 7124 8ebd 0341 efbb dd4f e8bc
00000380: 1618 50bd 9e83 38bc 1b0e 0d3d abdf 403d
00000390: fca8 c4bc 6f41 c9bc 3b7a dfbd 015a c83d
000003a0: 4e65 6abd 2c73 533d b042 ee3c 6608 103d
000003b0: 5a17 593d c201 953d 4ba2 55bd e76e 96bc
000003c0: c815 d33c 858a 68bd c87f be3b 1523 d23d
000003d0: c930 a2bd c894 57bd d331 2dbd e01a b1bc
000003e0: 1773 d03c 120e 5fbd aa88 893d 2d0e d2ba
000003f0: 16e4 5c3d ce4c f33d e2de 4c3d e8af a5bd
0.03493238 0.05463302 0.037860658 0.08326623 -0.20073716 0.0695363 -0.02406616 -0.057342935
0.053162076 -0.013857751 0.047755342 0.05841391 0.070668146 0.00558145 0.08626777 -0.15386465
0.035024162 -0.022306407 0.04981041 -0.067738764 -0.019184921 0.0635902 -0.0058238297 -0.14430845
-0.029766895 0.099836186 -0.060890336 -0.06288693 -0.050307203 -0.03416061 -0.028758649 -0.06757161
-0.07069774 0.06334028 -0.05080185 0.015564697 0.12701863 -0.047723554 -0.007222656 0.05060235
0.05503888 0.0041259043 -0.051584624 0.004066824 -0.06123641 -0.06343116 -0.09191086 0.008141004
-0.08979223 -0.1311107 -0.099098444 -0.0031824221 0.08544038 0.047663216 0.033444002 -0.009791354
-0.17180693 -0.043841176 -0.08708945 0.028030416 0.03630694 0.07881363 -0.12596905 -0.10752889
0.096242145 -0.060844973 0.09492634 0.010834287 0.115440436 0.010468209 -0.0036773358 0.14459392
-0.1579437 0.0010669642 0.05031338 -0.002053996 -0.083532564 -0.07070935 -0.047782358 -0.07364888
-0.054590967 -0.14299703 0.037158165 -0.069785066 0.11447047 -0.06886902 0.04614707 -0.07103786
0.06516786 -0.009874294 0.0358384 0.14578769 -0.08503062 0.056665532 0.13180204 -0.0012022997
0.09160396 0.015242351 -0.0030533818 -0.0479892 -0.0110986745 -0.050096054 -0.012192173 0.054612402
0.15399042 -0.08649271 0.039539367 0.011586713 -0.045540825 -0.14135383 0.011795977 0.1654389
0.03609945 -0.06069336 -0.04621421 -0.07603135 -0.12324632 0.057698287 0.002207663 0.057590622
0.04283349 -0.0492722 -0.058036204 -0.044236973 -0.038715735 0.058070302 0.117815815 0.10629294
0.010557145 -0.051902603 -0.09765159 0.0065883067 0.014932338 0.019944426 -0.040443424 0.030649554
-0.054890357 0.04198616 -0.028103067 0.051197305 -0.04865601 -0.060347397 -0.13456921 0.007142336
0.07407424 -0.0123368185 -0.08015731 -0.1073898 -0.06483018 0.00915063 0.025993846 -0.026552156
-0.00016301987 0.1210626 -0.056911986 -0.064214244 0.17320682 0.020571418 0.06060082 -0.16295013
0.013512958 0.019240642 -0.12933165 -0.071870945 0.023712328 -0.07079245 0.12104909 0.06641268
-0.035778526 -0.09229705 -0.029140526 0.019795515 -0.12398627 0.0883244 -0.040213767 -0.09812479
-0.04066143 -0.027851474 -0.05639371 -0.020112585 0.09949784 -0.10645776 0.05174871 0.07556331
0.021976713 -0.0634155 -0.057324994 -0.16211142 0.044227246 0.021038234 -0.053826336 -0.059010915
0.21784976 0.057801127 -0.020329975 -0.05787702 0.06983801 0.03808984 -0.00057404756 -0.054382417
0.036143508 0.097802326 0.045277216 0.04006922 -0.05905577 -0.056501906 -0.14748219 -0.012525924
0.036603384 0.075505264 -0.022121867 -0.017028444 0.06418188 -0.11706946 0.114507005 0.101165675
-0.04271317 0.06621244 -0.009080445 0.025455024 -0.016770849 -0.069405444 -0.007301451 -0.028358394
-0.05080422 -0.011261849 0.03443728 0.047088306 -0.02400636 -0.024567334 -0.109119855 0.09782792
-0.057225518 0.05162351 0.029084533 0.03516426 0.053000785 0.07275726 -0.052156728 -0.01836343
0.025767222 -0.056772728 0.0058135726 0.102605976 -0.07919461 -0.052632123 -0.042283844 -0.02161926
0.025445504 -0.054456778 0.0671552 -0.0016025953 0.053928457 0.11879884 0.050017245 -0.08090192
