MAPPO/results/MyEnv/MyEnv/rmappo/check/run4/models/actor_agent4.pt (torch, 257699 bytes, 22 tensors)

base.feature_norm.weight f4 [411]
1.0030695 0.98799753 0.9993962 0.9985856 0.9940738 1.0055478 0.99954414 0.98784953
1.0055234 0.99358624 1.0003173 0.9965158 0.9967926 0.99692994 0.9914771 0.99568945
0.9928177 1.0184352 1.0032717 1.0092081 1.0026965 0.99965894 0.9873058 1.0073115
0.9965581 0.996897 1.0053166 1.0000325 1.0126318 0.9980519 1.0077361 0.9939383
1.0051653 0.9969818 1.0173781 0.9943648 0.99773735 1.0112844 1.0001417 1.0064057
0.99390453 0.9999593 1.0074115 1.001541 1.0029413 0.9992953 0.9983444 1.000005
0.99271864 1.004441 0.9943709 1.0010892 1.0105095 0.9928013 1.0010922 1.0007539
1.0059302 1.0016646 1.0048169 0.9909033 1.0098403 1.0088896 0.99396724 0.9997804
1.0056862 0.9870543 0.9961645 1.0037392 1.0029565 0.9956285 1.0009464 1.0012864
1.0006708 0.99130595 0.9887292 1.0016357 0.99113315 0.9897866 1.0013441 0.99948794
0.9872911 1.0059025 1.0022534 0.9968268 0.98579234 0.99889994 1.0048109 1.0019435
1.0026706 1.0070182 1.0083125 0.9936236 1.0002587 0.99790347 0.999987 1.0047756
0.9908217 1.0073082 0.9996139 0.99102277 1.0041828 0.9968336 0.99987787 1.0013627
1.0000069 1.0016446 0.99580765 0.99582464 0.99402845 1.008108 1.0071341 0.99454314
1.000947 1.019517 1.0039793 0.9954186 0.9995008 0.995111 1.0008764 0.996502
0.998199 0.99563146 1.0008196 0.98625094 1.0080645 1.011684 1.0010703 0.99256843
0.9939496 1.0071892 0.9953089 1.0022421 1.0056727 1.002446 1.0112399 0.99817514
0.99365187 1.0041131 0.9956093 0.9996114 1.0003009 1.0215597 1.0000434 0.9990162
0.9943322 1.0082138 1.0096153 1.0168866 1.0073009 0.9934468 0.99619895 1.0061733
0.9954598 0.99538314 1.0040817 0.9978583 0.9963684 0.9997144 1.0192733 0.9934954
1.0082098 1.006168 1.0239207 1.0178767 1.0022485 1.0003908 0.9981957 0.99745655
0.9983949 1.0009898 0.98878056 0.9953587 1.0037525 1.0058942 1.0029593 0.9988967
1.0061356 1.0055537 1.0000733 0.9952892 0.9971021 1.0031528 1.00511 0.99390095
1.0000801 0.995066 0.99648505 0.99318004 0.98610044 0.9957407 1.0062237 0.99550056
0.99881554 1.001458 0.99761957 0.9948022 0.99197406 1.0035231 0.99913037 0.99224204
1.0031211 1.0068933 0.9979632 0.9971218 0.99193126 0.99728304 0.9993349 0.9928938
1.0023246 0.99670255 1.0031841 0.99580723 1.0025218 1.0061564 1.0131934 0.9929097
1.0134504 1.0040419 1.0065279 1.001534 1.0010211 0.9976902 1.0098534 1.0044814
1.0055588 0.99825007 0.9970428 0.98786694 0.99466556 0.99727106 1.0046145 1.0036136
0.99313825 1.0042374 0.99438393 1.0042473 1.0084888 1.0066973 1.0054896 0.9916705
0.99841833 0.9875725 1.002892 1.001403 1.000006 1.006176 1.0091071 1.013886
1.0040711 0.9987372 0.9909878 1.0043178 0.98720944 1.0017428 0.99293876 1.005718
00000000: 9564 803f 68ed 7c3f 6ed8 7f3f 4ea3 7f3f
00000010: 9f7b 7e3f cab5 803f 20e2 7f3f b5e3 7c3f
00000020: feb4 803f ab5b 7e3f 660a 803f a91b 7f3f
00000030: cd2d 7f3f cd36 7f3f 71d1 7d3f 81e5 7e3f
00000040: 4d29 7e3f 165c 823f 356b 803f bb2d 813f
00000050: 5c58 803f a6e9 7f3f 13c0 7c3f 95ef 803f
00000060: 6f1e 7f3f a434 7f3f 37ae 803f 1101 803f
00000070: eb9d 813f 5480 7f3f 7ffd 803f be72 7e3f
00000080: 42a9 803f 333a 7f3f 7239 823f b18e 7e3f
00000090: b76b 7f3f c471 813f a504 803f e7d1 803f
000000a0: 8770 7e3f 55fd 7f3f dcf2 803f 7f32 803f
000000b0: 6160 803f d1d1 7f3f 8093 7f3f 2a00 803f
000000c0: cf22 7e3f 8691 803f 178f 7e3f b123 803f
000000d0: 6058 813f 3a28 7e3f ca23 803f b418 803f
000000e0: 52c2 803f 8c36 803f d79d 803f d7ab 7d3f
000000f0: 7242 813f 4b23 813f a374 7e3f 9cf1 7f3f
00000100: 53ba 803f 97af 7c3f a304 7f3f 877a 803f
00000110: e160 803f 82e1 7e3f 031f 803f 272a 803f
00000120: fb15 803f 3ac6 7d3f 5b1d 7d3f 9935 803f
00000130: e7ba 7d3f a862 7d3f 0b2c 803f 71de 7f3f
00000140: 1cbf 7c3f 6ac1 803f d749 803f 0b30 7f3f
00000150: e35c 7c3f e8b7 7f3f a59d 803f af3f 803f
00000160: 8357 803f f9e5 803f 6210 813f 1e5e 7e3f
00000170: 7a08 803f 9a76 7f3f 26ff 7f3f 7d9c 803f
00000180: 7ea6 7d3f 7aef 803f b2e6 7f3f abb3 7d3f
00000190: 1089 803f 7d30 7f3f fff7 7f3f a72c 803f
000001a0: 3a00 803f e435 803f 40ed 7e3f 5dee 7e3f
000001b0: a678 7e3f af09 813f c5e9 803f 619a 7e3f
000001c0: 081f 803f 887f 823f 6582 803f c1d3 7e3f
000001d0: 49df 7f3f 98bf 7e3f b81c 803f c11a 7f3f
000001e0: f889 7f3f b4e1 7e3f db1a 803f f17a 7c3f
000001f0: 4208 813f dc7e 813f 1223 803f f718 7e3f
00000200: 7b73 7e3f 93eb 803f 90cc 7e3f 7849 803f
00000210: e2b9 803f 2750 803f 4f70 813f 6888 7f3f
00000220: f85f 7e3f c786 803f 40e0 7e3f 88e6 7f3f
00000230: dc09 803f 78c2 823f 6c01 803f 87bf 7f3f
00000240: 8e8c 7e3f 260d 813f 133b 813f 5729 823f
00000250: 3cef 803f 8852 7e3f e506 7f3f 49ca 803f
00000260: 74d6 7e3f 6ed1 7e3f c085 803f a473 7f3f
00000270: 0012 7f3f 48ed 7f3f 8c77 823f b755 7e3f
00000280: 050d 813f 1dca 803f d50f 833f c949 823f
00000290: ae49 803f ce0c 803f c189 7f3f 5059 7f3f
000002a0: cf96 7f3f 6f20 803f b920 7d3f d4cf 7e3f
000002b0: f67a 803f 24c1 803f f860 803f b2b7 7f3f
000002c0: 0dc9 803f fcb5 803f 6702 803f 46cb 7e3f
000002d0: 1542 7f3f 5067 803f 72a7 803f 4b70 7e3f
000002e0: a002 803f a5bc 7e3f a519 7f3f 0c41 7e3f
000002f0: 1471 7c3f dde8 7e3f f0cb 803f 20d9 7e3f
00000300: 60b2 7f3f c72f 803f ff63 7f3f 5bab 7e3f
00000310: 03f2 7d3f 7273 803f 02c7 7f3f 9303 7e3f
00000320: 4666 803f e1e1 803f 847a 7f3f 6043 7f3f
00000330: 35ef 7d3f f14d 7f3f 69d4 7f3f 4a2e 7e3f
00000340: 2c4c 803f e627 7f3f 5668 803f 39ed 7e3f
00000350: a252 803f bcc9 803f 52b0 813f 552f 7e3f
00000360: beb8 813f 7284 803f e8d5 803f 4432 803f
00000370: 7621 803f a068 7f3f e042 813f d992 803f
00000380: 27b6 803f 518d 7f3f 323e 7f3f d9e4 7c3f
00000390: 67a2 7e3f 284d 7f3f 3597 803f 6976 803f
000003a0: 4f3e 7e3f da8a 803f f28f 7e3f 2d8b 803f
000003b0: 2916 813f 75db 803f e2b3 803f 1ede 7d3f
000003c0: 5898 7f3f 8dd1 7c3f c45e 803f f92d 803f
000003d0: 3200 803f 60ca 803f 6c2a 813f 04c7 813f
000003e0: 6785 803f 3ead 7f3f 60b1 7d3f 7c8d 803f
000003f0: c2b9 7c3f 1c39 803f 3c31 7e3f 5ebb 803f

base.feature_norm.bias f4 [411]
-0.006298288 0.021017507 0.0037468781 0.0019689705 0.013319722 -0.008384612 -0.005125164 0.019437883
-0.00666805 0.009283546 -0.001428186 0.0068677384 0.00080929726 -0.0032031024 0.0112750465 0.011258139
0.012555239 -0.0057951612 -0.003062112 -0.010783387 -0.0018802102 0.011138982 0.017005194 -0.005764506
0.0032785272 -0.0006679933 0.0057209064 -0.0028349976 -0.021222971 -0.004141058 -0.0020753099 0.0037556435
-0.002257167 -0.0012131255 -0.007904879 0.0021665301 0.003213402 -0.0004216829 -0.01087741 -0.009568039
0.009914633 0.0030515345 -0.0018224062 -0.0022110916 -0.004720709 0.0013365434 0.0041932403 0.0020542266
0.010683769 0.0121138105 0.013044909 -0.0012415544 -0.018840378 0.010929389 -0.001404493 -0.0005816192
-0.011184071 -0.00835721 -0.0036483428 6.0490383e-06 0.00538083 -0.007187371 0.012826263 0.003053554
-0.002787128 0.018986642 0.005816155 -0.0012289397 -0.006936903 0.0016487153 0.0041941074 0.0010010307
-0.0019759617 0.017039998 0.017082158 -0.0021487095 0.0023377456 0.018556051 -0.0019551252 0.0016890083
0.022094361 -0.010131049 -0.004024771 0.0027108744 0.019966383 -0.011407823 -0.007692639 -0.0040645897
-0.0048229983 0.0116268955 -0.004902925 0.01163228 -0.000665188 0.005799404 0.0021252963 -0.009622649
0.0033257888 -0.0010643775 0.0006356612 0.015573827 -0.007964021 0.0053219115 0.0007164455 1.2567154e-05
0.01408846 -0.010077004 0.008346602 0.006063881 0.0102520315 -0.011632547 -0.013336624 0.0035031454
0.0066670566 -0.0051307166 -0.0040776175 0.0080266185 0.0002225026 0.0006623208 0.0014848441 -0.010021856
0.0043640947 0.008858222 -0.0013049097 0.019145686 -0.0077326917 -0.006357883 -0.0019407831 0.013257102
0.010747171 -0.00947836 0.0064637037 0.01416302 -0.004918854 -0.0067656 -0.01755378 3.7245394e-05
0.011518288 -0.005223273 0.0084502185 0.002226694 0.0028791265 -0.0050354814 -0.008430222 -0.0005286356
0.0093083335 -0.013134039 -0.005417296 -0.008265318 -0.01179988 0.008732215 0.0152487755 0.01231925
0.010244358 0.009221292 -0.0073303347 0.0047113695 0.0070024957 -0.004796349 0.01362053 0.009416217
-0.015076584 0.007680935 -0.0019301567 -0.006330703 -0.0036338796 -0.003228919 0.0060926545 -0.004249308
0.003061836 -0.0027012648 0.016727543 0.0074258526 -0.0057116523 -0.011573794 -0.021079311 -5.7526137e-05
0.0056389007 0.003589115 -0.0014140916 0.010129643 0.0057225823 -0.0066886367 -0.00908031 0.011609583
0.00084136776 0.006754864 0.0072141727 0.012693248 0.020797212 0.008321184 -0.010790848 0.007676827
0.0013768257 -0.0026672068 0.0040585888 0.0063645476 0.012956314 -0.0045521464 0.002892507 0.011554039
-0.004536803 -0.008698316 0.0025407453 0.005142233 0.010718877 0.006141571 0.0020365524 0.013547292
-0.004553765 0.0032376184 -0.0040994724 0.007946302 -0.002469436 -0.008199493 -0.023075417 0.011491085
-0.020626685 -0.006980366 -0.008293996 -0.0034585588 -0.0009910768 0.004260876 -0.015263249 -0.004701777
-0.009254787 0.0018692822 0.004075281 0.017792013 0.009029047 0.0020193832 -0.0059481356 -0.004283099
0.012119912 -0.0072549214 0.008195732 -0.0077493503 -0.01408479 -0.011240068 -0.009541841 0.009815599
0.002164279 0.018673593 -0.0053350097 -0.0024018888 0.0016033726 -0.007864958 -0.017377175 -0.022279317
-0.007426141 -0.00039624175 0.01505662 -0.0069316607 0.019690048 -0.0037538449 0.011303558 -0.01225844
00000000: de61 cebb e82c ac3c 2f8e 753b d809 013b
00000010: f73a 5a3c 9d5f 09bc fef0 a7bb 323c 9f3c
00000020: a87f dabb 041a 183c f831 bbba c40a e13b
00000030: 0527 543a 24eb 51bb f9ba 383c 0f74 383c
00000040: 7db4 4d3c 56e5 bdbb b7ad 48bb ceac 30bc
00000050: 6371 f6ba 4780 363c 7a4e 8b3c 2ee4 bcbb
00000060: 8fdc 563b 461c 2fba 7176 bb3b 5ecb 39bb
00000070: ccdb adbc b6b1 87bb ec01 08bb 3e21 763b
00000080: faec 13bb bd01 9fba 7783 01bc 58fc 0d3b
00000090: f097 523b 5215 ddb9 2a37 32bc 44c3 1cbc
000000a0: fc70 223c 41fc 473b cedd eeba f6e7 10bb
000000b0: 2db0 9abb f42e af3a 7367 893b 34a0 063b
000000c0: fa0a 2f3c 0179 463c 50ba 553c a7bb a2ba
000000d0: 2357 9abc 2e11 333c f716 b8ba ce77 18ba
000000e0: 653d 37bc aeec 08bc 0919 6fbb d8f8 ca36
000000f0: ac51 b03b 0a84 ebbb 3f25 523c 231e 483b
00000100: 40a8 36bb e089 9b3c 7295 be3b 6014 a1ba
00000110: f64e e3bb b519 d83a b96e 893b 0435 833a
00000120: 237f 01bb 7797 8b3c e2ef 8b3c 5dd1 0cbb
00000130: dd34 193b dc02 983c 8f21 00bb b761 dd3a
00000140: 3cff b43c b3fc 25bc 3ae2 83bb eda8 313b
00000150: 8a90 a33c e1e7 3abc 8812 fcbb 4030 85bb
00000160: 3e0a 9ebb bc7e 3e3c b7a8 a0bb 5295 3e3c
00000170: 0360 2eba ed08 be3b 8e48 0b3b 51a8 1dbc
00000180: 7af5 593b 9582 8bba 80a2 263a 5d29 7f3c
00000190: 867b 02bc 6e63 ae3b d8cf 3b3a 84d7 5237
000001a0: 49d3 663c 051a 25bc 30c0 083c 85b3 c63b
000001b0: 23f8 273c 7096 3ebc db81 5abc 0795 653b
000001c0: 5377 da3b 921f a8bb 899d 85bb 1482 033c
000001d0: 964f 6939 999f 2d3a 1a9f c23a b632 24bc
000001e0: ae00 8f3b 1322 113c 8109 abba 6ad7 9c3c
000001f0: 8562 fdbb ca55 d0bb e061 feba 5134 593c
00000200: e714 303c 204b 1bbc 7acd d33b 030c 683c
00000210: 572e a1bb f7b1 ddbb f2cc 8fbc f037 1c38
00000220: 34b7 3c3c fd27 abbb c972 0a3c baed 113b
00000230: baaf 3c3b ae00 a5bb ea1e 0abc 2294 0aba
00000240: fb81 183c 2730 57bc 9383 b1bb 426b 07bc
00000250: 4954 41bc 9011 0f3c 00d6 793c aed6 493c
00000260: f4d7 273c e714 173c 4e33 f0bb d561 9a3b
00000270: 3175 e53b b12a 9dbb a528 5f3c 7a46 1a3c
00000280: c703 77bc 5ab0 fb3b 50fd fcba c971 cfbb
00000290: 6226 6ebb 469c 53bb e4a4 c73b c73d 8bbb
000002a0: 15a9 483b b407 31bb 3308 893c 9154 f33b
000002b0: d028 bbbb 03a0 3dbc 85ae acbc 3848 71b8
000002c0: 87c6 b83b 5c37 6b3b 0a59 b9ba cdf6 253c
000002d0: 8084 bb3b 5a2c dbbb 95c5 14bc 1f36 3e3c
000002e0: 3c8f 5c3a e857 dd3b de64 ec3b 57f7 4f3c
000002f0: ea5e aa3c 9355 083c 19cc 30bc e48d fb3b
00000300: 9b76 b43a 4ecc 2ebb e9fd 843b b28d d03b
00000310: b846 543c 2c2a 95bb 3790 3d3b 274d 3d3c
00000320: 76a9 94bb 6283 0ebc a282 263b 2d80 a83b
00000330: 3b9e 2f3c 3b3f c93b ae77 053b 76f5 5d3c
00000340: c037 95bb 392e 543b de54 86bb 3531 023c
00000350: 43d6 21bb 2b57 06bc a808 bdbc 1b45 3c3c
00000360: 4bf9 a8bc 8ebb e4bb 8ae3 07bc fda8 62bb
00000370: 05e7 81ba d29e 8b3b b512 7abc 5d11 9abb
00000380: 64a1 17bc b402 f53a ef89 853b 8ec0 913c
00000390: 91ee 133c a157 043b 94e8 c2bb 3d59 8cbb
000003a0: 9892 463c b1ba edbb 6447 063c 43ee fdbb
000003b0: e4c3 66bc 4328 38bc 6255 1cbc 9bd1 203c
000003c0: 94d6 0d3b 5df9 983c 4ed1 aebb 0269 1dbb
000003d0: 4228 d23a 06dc 00bc 945a 8ebc 1d83 b6bc
000003e0: fc56 f3bb abbe cfb9 0bb0 763c fc22 e3bb
000003f0: 064d a13c 1103 76bb 8f32 393c a0d7 48bc

base.mlp.fc1.0.weight f4 [64, 411]
0.057084426 -0.1171467 0.03159257 0.09711789 -0.015149257 0.048887547 0.103923626 -0.13401759
0.095785 -0.04346636 -0.025049947 0.0057702656 0.032989334 0.005258465 0.0541359 -0.038548354
0.011824283 0.05445803 -0.08040227 0.06179002 0.04609524 -0.0335196 0.018795641 0.015016621
-0.056721535 0.16467641 0.086133346 -0.008167954 0.04210844 0.06458726 -0.006123022 -0.09940018
0.07805067 -0.05151435 -0.081758544 0.058778156 -0.08538449 -0.048265748 0.07844999 -0.04106915
0.040953793 -0.045652285 -0.05900189 0.053883217 0.10381158 -0.09388393 -0.17548491 0.06643673
-0.04063896 0.0056460146 0.0564742 -0.095702454 -0.051498316 -0.051565185 0.01751649 0.037982777
-0.0116321845 -0.08697752 -0.05547883 0.017850854 0.03486434 0.06245218 -0.0044959467 -0.035828028
0.10990479 -0.08020471 -0.039690077 -0.08150129 -0.01809321 -0.025644997 -0.01505794 -0.015121041
0.039181475 -0.07761987 0.048101094 -0.05947924 -0.09693726 0.041483406 0.078121215 0.059693806
-0.028405704 0.028436748 -0.0008093895 -0.00017545247 -0.021992419 -0.040434014 -0.032067753 0.049877957
0.04171276 -0.00077417685 -0.02259912 0.09966525 0.00018958749 -0.0012461519 -0.019230643 -0.019183185
0.16377825 0.034254357 0.0041070892 0.04074858 0.009278452 0.043245938 -0.044611674 -0.009829355
0.08625828 -0.00011508713 -0.05160323 -0.073280916 -0.0153332455 -0.017075518 -0.034643956 -0.1374368
-0.080389574 0.091135986 0.010620332 -0.00039531066 0.05558275 -0.11820188 -0.07541104 0.087472185
-0.0046163453 0.014892855 0.006834587 -0.036811627 0.028629957 -0.09103767 0.0682188 0.019392692
0.09837378 0.038656987 0.06453193 0.07485775 -0.12742923 0.021221196 -0.026059343 -0.024613151
0.15591262 0.103074655 0.14845413 -0.06968436 0.06834554 -0.006817635 -0.041502055 0.007849136
-0.047742438 -0.08424165 -0.08408748 0.077509396 0.012684051 0.048069112 0.003914906 0.031672567
-0.16823462 0.06344078 -0.015209071 0.10030248 0.04431634 -0.02052631 -0.0064826775 0.08191402
-0.018646903 0.05980851 0.033123333 -0.065606035 -0.043501347 0.0016448188 0.011309434 0.052968666
0.03841648 0.035331894 -0.0778694 0.111468695 0.0038592892 0.015797632 0.009069609 -0.03889668
-0.045992292 0.07819143 0.0063372296 -0.047747787 0.0669419 -0.030781558 0.027942488 0.09678037
-0.02689564 0.037950996 -0.13470314 0.04424397 0.055567324 -0.021266073 -0.0184798 -0.038223896
0.028817086 -0.025675971 0.05550303 0.07471203 0.10494707 0.033777613 0.0049332697 -0.046488408
-0.08412807 0.03021161 -0.0040355083 0.023250313 0.018333556 -0.008066985 -0.00303787 -0.1280474
0.048666805 0.18450116 0.19288336 -0.100501366 0.10712172 0.031295694 0.057833772 -0.13602334
-0.047838505 -0.032258917 0.119002365 -0.00049847347 -0.03512355 -0.09149373 0.2112614 -0.044660926
0.07016862 -0.06308666 0.065610565 -0.12269117 0.0087914355 0.07517423 0.020066604 0.0010127729
0.03960184 -0.040998336 -0.07846889 -0.024497 -0.064209834 0.16891433 0.067542665 0.026044637
-0.042739894 0.18327555 -0.078170694 0.11125672 -0.06946085 -0.09611052 0.09705533 -0.093995914
-0.085197076 0.09250393 0.011021392 -0.10219451 -0.0016212802 0.04956552 -0.009679644 0.028273929
00000000: 5cd1 693d 9cea efbd 3667 013d bfe5 c63d
00000010: 9734 78bc 4f3e 483d e9d5 d43d e83b 09be
00000020: ed2a c43d c809 32bd 8c35 cdbc 7f14 bd3b
00000030: d31f 073d 344f ac3b 9bbd 5d3d e1e4 1dbd
00000040: a3ba 413c 620f 5f3d f2a9 a4bd 8817 7d3d
00000050: 5dce 3c3d d94b 09bd 51f9 993c 4608 763c
00000060: d754 68bd efa0 283e ae66 b03d e2d2 05bc
00000070: e679 2c3d 5346 843d a2a3 c8bb 5292 cbbd
00000080: 08d9 9f3d b600 53bd 0671 a7bd 5dc1 703d
00000090: 10de aebd 4eb2 45bd 63aa a03d 2038 28bd
000000a0: 2abf 273d e4fd 3abd f7ab 71bd a6b4 5c3d
000000b0: 2a9b d43d 3846 c0bd 51b2 33be fb0f 883d
000000c0: 0a75 26bd 3402 b93b 7e51 673d a6ff c3bd
000000d0: e6ef 52bd 0436 53bd be7e 8f3c d493 1b3d
000000e0: eb94 3ebc 4521 b2bd c53d 63bd f43b 923c
000000f0: e9cd 0e3d dbcd 7f3d bc52 93bb 69c0 12bd
00000100: c315 e13d 5e42 a4bd 1092 22bd 26ea a6bd
00000110: 3638 94bc 7515 d2bc 94b5 76bc 3ebe 77bc
00000120: c17c 203d 2bf7 9ebd a705 453d 81a0 73bd
00000130: 0b87 c6bd 81ea 293d 04fe 9f3d 7e81 743d
00000140: 14b3 e8bc 2ff4 e83c 362d 54ba aaf9 37b9
00000150: 7229 b4bc 239e 25bd 7a59 03bd d44c 4c3d
00000160: 00db 2a3d 21f2 4aba ca21 b9bc 4b1d cc3d
00000170: 01cc 4639 eb55 a3ba 9589 9dbc 0e26 9dbc
00000180: 7cb5 273e 4c4e 0c3d c394 863b fce7 263d
00000190: a604 183c a722 313d bbba 36bd 4e0b 21bc
000001a0: 2ea8 b03d ef5a f1b8 e95d 53bd 4e14 96bd
000001b0: 4b38 7bbc f5e1 8bbc d2e6 0dbd 3cbc 0cbe
000001c0: 4aa3 a4bd 81a5 ba3d e700 2e3c b341 cfb9
000001d0: bdaa 633d d413 f2bd 1a71 9abd 9e24 b33d
000001e0: b644 97bb 2901 743c acf4 df3b cac7 16bd
000001f0: 5f89 ea3c f571 babd 4cb6 8b3d 6cdd 9e3c
00000200: 3178 c93d ca56 1e3d 5129 843d 054f 993d
00000210: cf7c 02be 13d8 ad3c 677a d5bc 85a1 c9bc
00000220: 8fa7 1f3e ce18 d33d 5c04 183e acb6 8ebd
00000230: bff8 8b3d 7866 dfbb 0ffe 29bd aa99 003c
00000240: 938d 43bd e386 acbd 0f36 acbd 3fbd 9e3d
00000250: c4d0 4f3c 1ee4 443d 9d48 803b 18bb 013d
00000260: b245 2cbe 3ded 813d 782f 79bc 636b cd3d
00000270: 0d85 353d cb26 a8bc a46c d4bb 8ac2 a73d
00000280: 64c1 98bc c5f9 743d 55ac 073d 755c 86bd
00000290: 782e 32bd f696 d73a 344b 393c acf5 583d
000002a0: 995a 1d3d 2db8 103d fe79 9fbd b349 e43d
000002b0: 21ec 7c3b 096a 813c b398 143c 2052 1fbd
000002c0: 6a62 3cbd d422 a03d 89a8 cf3b 2f93 43bd
000002d0: d618 893d 9b29 fcbc a5e7 e43c c934 c63d
000002e0: 3f54 dcbc 8172 1b3d 9fef 09be 2a39 353d
000002f0: 909a 633d 3036 aebc f362 97bc a990 1cbd
00000300: cf11 ec3c 6a56 d2bc 2557 633d 9f02 993d
00000310: 7dee d63d 655a 0a3d 44a7 a13b a16a 3ebd
00000320: 564b acbd 577e f73c 4c3c 84bb 7177 be3c
00000330: 4130 963c 632b 04bc 0017 47bb dc1e 03be
00000340: d856 473d dfed 3c3e 3783 453e a9d3 cdbd
00000350: a262 db3d ea2f 003d 1be3 6c3d b449 0bbe
00000360: 4ff2 43bd ed21 04bd 83b7 f33d fdab 02ba
00000370: b6dd 0fbd 1161 bbbd e954 583e 60ee 36bd
00000380: 91b4 8f3d 9433 81bd d55e 863d 8245 fbbd
00000390: f409 103c f2f4 993d b862 a43c 05bf 843a
000003a0: 8a35 223d dfed 27bd 4cb4 a0bd efad c8bc
000003b0: 7280 83bd e1f7 2c3e cf53 8a3d 905b d53c
000003c0: 0710 2fbd 96ac 3b3e f517 a0bd 90da e33d
000003d0: 7d41 8ebd 98d5 c4bd f2c4 c63d ee80 c0bd
000003e0: ce7b aebd b372 bd3d 1293 343c 5b4b d1bd
000003f0: 2381 d4ba 3705 4b3d 5f97 1ebc ba9e e73c

base.mlp.fc1.0.bias f4 [64]
0.0012084758 0.019203639 0.0 0.020527098 0.018658446 -0.0017267525 -0.006109914 0.0
-0.0037634606 -0.00263455 0.0 0.00836042 -0.0016751202 -0.002085369 0.0066810763 0.005800714
0.011457244 0.0 0.0011587946 0.0 0.0 0.0 0.0 -0.0075498438
-0.00081270613 0.0 -0.007331777 0.01685868 0.0040575434 -0.013853785 0.0 0.008284423
-0.010168817 -0.0025611236 0.0033266991 -0.006827446 0.013599527 -0.012125058 0.009527361 -0.012470822
0.0043075657 0.0042579076 0.005709359 0.0 0.0036649073 0.0 -0.0040981257 -0.004569641
0.0 0.0 0.0 0.0 -0.012592411 0.007756742 -0.0006906384 -0.0027434228
0.0 0.0 -0.010795225 0.0005216726 0.0 0.0 0.008022356 0.0
00000000: b865 9e3a f350 9d3c 0000 0000 7228 a83c
00000010: 99d9 983c 3354 e2ba ac35 c8bb 0000 0000
00000020: 64a4 76bb 6aa8 2cbb 0000 0000 25fa 083c
00000030: b58f dbba b0aa 08bb eeec da3b ea13 be3b
00000040: 2ab7 3b3c 0000 0000 b2e2 973a 0000 0000
00000050: 0000 0000 0000 0000 0000 0000 ae64 f7bb
00000060: c90b 55ba 0000 0000 673f f0bb 371b 8a3c
00000070: 24f5 843b fcfa 62bc 0000 0000 63bb 073c
00000080: 1c9b 26bc 86d8 27bb c004 5a3b c5b8 dfbb
00000090: 8dd0 5e3c 2ea8 46bc a618 1c3c 6b52 4cbc
000000a0: 7b26 8d3b eb85 8b3b 9315 bb3b 0000 0000
000000b0: f12e 703b 0000 0000 9249 86bb edbc 95bb
000000c0: 0000 0000 0000 0000 0000 0000 0000 0000
000000d0: 6650 4ebc 452c fe3b f50b 35ba ffca 33bb
000000e0: 0000 0000 0000 0000 75de 30bc dbc0 083a
000000f0: 0000 0000 0000 0000 3370 033c 0000 0000

base.mlp.fc1.2.weight f4 [64]
1.0194635 0.9869074 0.99139684 1.0237322 1.0153128 0.9965702 1.0017275 1.0028393
1.0234135 1.0249983 0.9929854 1.0078993 0.99888355 0.99744844 0.9843481 1.0032971
1.015759 0.995381 0.9984756 1.0207547 0.9994938 0.9951967 1.0026217 1.0089566
0.97720486 1.010933 0.9992212 1.0193787 1.0034235 0.98881996 0.9975711 1.005035
1.003169 0.999185 1.0006671 0.98674023 0.9747297 1.0008188 1.0102053 0.9877913
0.997185 0.9989191 0.9917793 0.9957873 0.9976259 0.99676174 0.9864111 1.0017765
0.9991406 1.0043133 1.0107397 0.9990969 0.98806334 0.9741472 0.9989509 0.999711
1.0086673 0.989995 1.0069267 0.98477405 0.9999112 1.0063132 1.0075907 0.99965554
00000000: c87d 823f f7a5 7c3f 2fcc 7d3f a809 833f
00000010: c5f5 813f 3a1f 7f3f 9b38 803f 0a5d 803f
00000020: 37ff 823f 2533 833f 4b34 7e3f d802 813f
00000030: d5b6 7f3f c858 7f3f 3dfe 7b3f 0a6c 803f
00000040: 6404 823f 4ad1 7e3f 199c 7f3f 17a8 823f
00000050: d3de 7f3f 36c5 7e3f e855 803f 7d25 813f
00000060: 192a 7a3f 4166 813f f6cc 7f3f 007b 823f
00000070: 2e70 803f 4e23 7d3f d260 7f3f fda4 803f
00000080: d767 803f 97ca 7f3f dc15 803f 029b 7c3f
00000090: e387 793f d51a 803f 684e 813f e4df 7c3f
000000a0: 8447 7f3f 2ab9 7f3f 40e5 7d3f ebeb 7e3f
000000b0: 6964 7f3f c72b 7f3f 7085 7c3f 363a 803f
000000c0: aec7 7f3f 578d 803f eb5f 813f d0c4 7f3f
000000d0: b8f1 7c3f b661 793f 3fbb 7f3f 0fed 7f3f
000000e0: 031c 813f 5070 7d3f f9e2 803f 271a 7c3f
000000f0: 2efa 7f3f dfce 803f bbf8 803f 6de9 7f3f

base.mlp.fc1.2.bias f4 [64]
-0.020039627 0.0204466 0.008639968 0.020266829 0.018968087 -0.0008651047 -0.002940447 -0.0031439406
-0.024893686 -0.023259489 0.0072985697 -0.0014840809 -0.0001314214 -0.0019492923 0.0069048284 0.006620172
0.011730683 0.005001171 0.0010053656 -0.02115973 4.3067033e-05 0.0047881952 -0.0029283958 -0.008903227
-0.00037137046 -0.011442673 -0.0017804116 0.016924243 0.005025413 -0.00717451 0.0019288454 0.009324261
-0.0059751747 -0.0027905123 0.0033448536 -0.008829822 0.015636431 -0.01630474 0.010919684 -0.0056644254
0.004716558 0.005036959 0.0071070483 0.004096914 0.004536235 0.0031458172 0.0060291444 -0.001446502
0.000874249 -0.004909978 -0.011269285 0.00091219624 -0.011722756 0.016512338 -0.00075644307 8.637731e-05
-0.008804393 0.010582132 -0.007518769 0.0013180433 0.00026443653 -0.0064598313 0.009926086 0.00054003345
00000000: 252a a4bc a17f a73c a78e 0d3c 9f06 a63c
00000010: f662 9b3c 32c8 62ba 84b4 40bb 920a 4ebb
00000020: d8ed cbbc af8a bebc d728 ef3b 7e85 c2ba
00000030: 2ace 09b9 657f ffba e641 e23b 07ee d83b
00000040: 0d32 403c dde0 a33b 79c6 833a 2c57 adbc
00000050: e0a2 3438 4be6 9c3b 54ea 3fbb d7de 11bc
00000060: 80b4 c2b9 0d7a 3bbc b35c e9ba b6a4 8a3c
00000070: 38ac a43b 2718 ebbb 50d1 fc3a c9c4 183c
00000080: 66cb c3bb 07e1 36bb 5535 5b3b f5aa 10bc
00000090: f917 803c 8591 85bc 79e8 323c a59c b9bb
000000a0: 5b8d 9a3b 130d a53b 3ee2 e83b 683f 863b
000000b0: b2a4 943b 0e2a 4e3b 2190 c53b 8e98 bdba
000000c0: db2d 653a e1e3 a0bb cfa2 38bc 7420 6f3a
000000d0: cd10 40bc e244 873c 094c 46ba 7725 b538
000000e0: 4d40 10bc ae60 2d3c 0160 f6bb 32c2 ac3a
000000f0: 12a4 8a39 feac d3bb 06a1 223c 0891 0d3a

base.mlp.fc_h.0.weight f4 [64, 64]
-0.084741466 0.2546369 0.14722417 -0.22476016 0.15072697 -0.029139353 0.2627517 0.11051859
-0.29833376 -0.025152387 -0.24315567 -0.25751325 -0.19696385 0.045560542 -0.20679933 0.25739747
0.19252798 -0.08979099 -0.25798377 0.13364145 0.029352056 -0.017602723 -0.07379904 0.16445498
0.28412956 0.34072015 -0.017822042 -0.49730018 -0.061768692 0.21547192 0.05689673 -0.09364709
-0.20590585 0.06462876 0.16092159 0.009162541 0.36977768 -0.21036176 -0.051897414 0.10691758
0.008204295 -0.059908383 0.2761709 0.13456792 -0.10267836 0.053358182 0.11809795 0.1131037
-0.13746066 0.22365512 -0.03707976 0.11842978 0.060881697 0.31127217 -0.2397102 0.1139983
0.087404646 -0.047635425 -0.09914646 -0.13622658 -0.041236833 -0.063642204 0.019967733 -0.10223202
0.15355234 -0.07725252 -0.006853498 0.021587111 -0.04993212 0.002410587 0.11462873 0.0018966411
0.118836164 0.32181898 -0.17036405 0.12599623 0.10945938 0.31996354 0.11130992 0.09014765
-0.18366547 -0.067547485 -0.14226128 -0.16104408 -0.1922301 -0.35527596 0.30742428 -0.25407094
0.03377649 0.23242423 0.08972771 -0.063005455 0.096104726 -0.15211187 0.12398575 -0.15162659
-0.22961715 0.26166221 -0.0406072 0.15406995 0.09268163 0.27992198 -0.23592277 0.0681869
-0.0491031 0.053590298 0.22352028 -0.36737186 -0.10578987 -0.074038 -0.04600022 -0.04283475
-0.066285774 0.12713306 -0.108262196 -0.24957901 0.24280299 -0.21531639 -0.16332328 -0.09699116
-0.21339625 -0.19923903 -0.40550524 0.15973479 -0.15925075 0.03173851 -0.10624472 0.24237308
-0.17418222 0.010846594 0.24662997 -0.15003082 -0.26286936 0.03416077 -0.22346872 -0.14612849
-0.08786048 0.36184767 0.09750754 -0.09430139 -0.09469964 -0.08639369 0.117509454 0.20947966
-0.33145365 -0.0519938 0.3461597 0.07283116 -0.31189537 0.08461473 0.060164627 -0.18266442
0.11371268 0.3326078 0.22816847 0.16615449 0.04581211 -0.23885186 0.11713909 0.12680984
-0.020750958 -0.06501242 0.23118053 -0.20775427 0.11539304 0.05800422 0.053198494 -0.19867797
0.09368616 0.037983313 -0.3754779 0.1069522 -0.08291275 0.12699546 -0.1980363 0.29325798
0.10186605 0.0072774594 -0.10169359 0.14326617 0.10181767 0.2536844 -0.2451826 0.32943678
0.042263377 -0.12847127 0.086398184 -0.010983157 0.18311454 0.014020826 -0.14887686 0.06807561
0.15897277 -0.2518569 -0.0012576317 -0.08877618 0.030590374 0.17658119 -0.38172302 0.06022793
-0.060575746 -0.03256309 0.2908828 0.3420871 -0.40521514 0.27591416 0.06853136 -0.03178083
-0.28434354 -0.11166716 -0.25245684 -0.18658692 0.16295482 0.0650987 -0.14481354 0.009740355
0.2452845 -0.015720733 0.13459784 -0.118937805 -0.11311974 0.102487676 -0.06543637 0.08559716
0.10562561 -0.06161923 -0.18818635 0.04341218 -0.015729997 -0.015187533 0.29241368 0.23614512
0.16404533 0.039473142 0.063586496 -0.07827673 0.08033775 -0.28133222 -0.31644627 0.033530828
-0.042944107 0.29336408 0.0912355 -0.14396977 -0.36657313 0.15682012 -0.24204615 0.13888808
-0.11653645 -0.07419439 -0.03646907 -0.14153817 -0.11891728 0.22511017 -0.04214305 -0.13377734
00000000: ef8c adbd c55f 823e efc1 163e 8727 66be
00000010: 2c58 1a3e a7b5 eebc 6487 863e 9257 e23d
00000020: 34bf 98be 610c cebc cdfd 78be c7d8 83be
00000030: e4b0 49be b19d 3a3d 34c3 53be 9ac9 833e
00000040: 0e26 453e 57e4 b7bd 7316 84be 4ed9 083e
00000050: b973 f03c 9633 90bc f323 97bd e366 283e
00000060: 6e79 913e df72 ae3e 88ff 91bc 219e febe
00000070: 2b01 7dbd aca4 5c3e 8c0c 693d 0cca bfbd
00000080: fcd8 52be 155c 843d a1c8 243e 7b1e 163c
00000090: 8053 bd3e 1369 57be 6292 54bd 9bf7 da3d
000000a0: 4f6b 063c 7e62 75bd 4666 8d3e 2ccc 093e
000000b0: 0849 d2bd 1c8e 5a3d 57dd f13d eaa2 e73d
000000c0: 7dc2 0cbe d905 653e f2e0 17bd 508b f23d
000000d0: 165f 793d 115f 9f3e 9776 75be f177 e93d
000000e0: 3501 b33d 5d1d 43bd 4d0d cbbd fb7e 0bbe
000000f0: f4e7 28bd d856 82bd 5f93 a33c 055f d1bd
00000100: d33c 1d3e 9236 9ebd 4f93 e0bb 74d7 b03c
00000110: 9f85 4cbd f0fa 1d3b 78c2 ea3d b798 f83a
00000120: 6060 f33d 75c5 a43e ea73 2ebe 2805 013e
00000130: 3d2c e03d 43d2 a33e 75f6 e33d 559f b83d
00000140: cd12 3cbe 5656 8abd f1ac 11be bde8 24be
00000150: f8d7 44be bbe6 b5be b766 9d3e 9615 82be
00000160: 3759 0a3d 9e00 6e3e 29c3 b73d 0109 81bd
00000170: 8ed2 c43d 37c3 1bbe 3eec fd3d 0044 1bbe
00000180: c220 6bbe 97f8 853e bc53 26bd 83c4 1d3e
00000190: decf bd3d ef51 8f3e bd95 71be 93a5 8b3d
000001a0: 5520 49bd 8081 5b3d 80e2 643e 2a18 bcbe
000001b0: 5ca8 d8bd 3ca1 97bd ba6a 3cbd 7e73 2fbd
000001c0: d6c0 87bd 2b2f 023e 92b8 ddbd a491 7fbe
000001d0: 59a1 783e e67b 5cbe 383e 27be 4da3 c6bd
000001e0: 8c84 5abe 5105 4cbe 629e cfbe 8491 233e
000001f0: a112 23be 3d00 023d d596 d9bd a630 783e
00000200: d35c 32be eab5 313c 918c 7c3e aea1 19be
00000210: d096 86be 2aec 0b3d fcd4 64be b5a2 15be
00000220: 32f0 b3bd 1944 b93e 08b2 c73d 1621 c1bd
00000230: e3f1 c1bd 2def b0bd cca8 f03d d681 563e
00000240: 4bb4 a9be 73f7 54bd d83b b13e 8128 953d
00000250: c0b0 9fbe 7d4a ad3d 2f6f 763d 620c 3bbe
00000260: 32e2 e83d 924b aa3e ffa4 693e 6724 2a3e
00000270: 7ba5 3b3d 9595 74be 9fe6 ef3d 70da 013e
00000280: eafd a9bc 3b25 85bd 97ba 6c3e 89bd 54be
00000290: 3053 ec3d d595 6d3d aae6 593d 3d72 4bbe
000002a0: 88de bf3d 6494 1b3d a43e c0be c109 db3d
000002b0: 29ce a9bd 190b 023e 07ca 4abe e925 963e
000002c0: 269f d03d c177 ee3b bb44 d0bd 5eb4 123e
000002d0: c885 d03d ece2 813e 2611 7bbe f0ab a83e
000002e0: 5d1c 2d3d f98d 03be 88f1 b03d b3f2 33bc
000002f0: 6182 3b3e 9bb7 653c 2d73 18be 3a6b 8b3d
00000300: c2c9 223e 63f3 80be 1ed7 a4ba 49d0 b5bd
00000310: aa98 fa3c b3d1 343e 3371 c3be 90b1 763d
00000320: 461e 78bd e060 05bd 97ee 943e 0a26 af3e
00000330: 5c78 cfbe 9f44 8d3e 2b5a 8c3d 9e2c 02bd
00000340: 7a95 91be c1b1 e4bd 0642 81be a410 3fbe
00000350: a1dd 263e 7852 853d 004a 14be 0396 1f3c
00000360: dc2b 7b3e c4c8 80bc 04d4 093e aa95 f3bd
00000370: 52ab e7bd 0fe5 d13d 8103 86bd 904d af3d
00000380: 3d52 d83d 7264 7cbd ecb3 40be f8d0 313d
00000390: 32dc 80bc 21d5 78bc 3fb7 953e 07d0 713e
000003a0: 80fb 273e 97ae 213d a339 823d 8d4f a0bd
000003b0: 1e88 a43d c70a 90be 3f05 a2be 9f57 093d
000003c0: 29e6 2fbd d133 963e aed9 ba3d d06c 13be
000003d0: 79af bbbe 7495 203e f2da 77be ad38 0e3e
000003e0: aaaa eebd 3af3 97bd 9760 15bd 62ef 10be
000003f0: e78a f3bd 4883 663e 319e 2cbd edfc 08be

base.mlp.fc_h.0.bias f4 [64]
0.0 0.0 0.0 0.0 0.0 0.0 0.0 0.0
0.0 0.0 0.0 0.0 0.0 0.0 0.0 0.0
0.0 0.0 0.0 0.0 0.0 0.0 0.0 0.0
0.0 0.0 0.0 0.0 0.0 0.0 0.0 0.0
0.0 0.0 0.0 0.0 0.0 0.0 0.0 0.0
0.0 0.0 0.0 0.0 0.0 0.0 0.0 0.0
0.0 0.0 0.0 0.0 0.0 0.0 0.0 0.0
0.0 0.0 0.0 0.0 0.0 0.0 0.0 0.0
00000000: 0000 0000 0000 0000 0000 0000 0000 0000
00000010: 0000 0000 0000 0000 0000 0000 0000 0000
00000020: 0000 0000 0000 0000 0000 0000 0000 0000
00000030: 0000 0000 0000 0000 0000 0000 0000 0000
00000040: 0000 0000 0000 0000 0000 0000 0000 0000
00000050: 0000 0000 0000 0000 0000 0000 0000 0000
00000060: 0000 0000 0000 0000 0000 0000 0000 0000
00000070: 0000 0000 0000 0000 0000 0000 0000 0000
00000080: 0000 0000 0000 0000 0000 0000 0000 0000
00000090: 0000 0000 0000 0000 0000 0000 0000 0000
000000a0: 0000 0000 0000 0000 0000 0000 0000 0000
000000b0: 0000 0000 0000 0000 0000 0000 0000 0000
000000c0: 0000 0000 0000 0000 0000 0000 0000 0000
000000d0: 0000 0000 0000 0000 0000 0000 0000 0000
000000e0: 0000 0000 0000 0000 0000 0000 0000 0000
000000f0: 0000 0000 0000 0000 0000 0000 0000 0000

base.mlp.fc_h.2.weight f4 [64]
1.0 1.0 1.0 1.0 1.0 1.0 1.0 1.0
1.0 1.0 1.0 1.0 1.0 1.0 1.0 1.0
1.0 1.0 1.0 1.0 1.0 1.0 1.0 1.0
1.0 1.0 1.0 1.0 1.0 1.0 1.0 1.0
1.0 1.0 1.0 1.0 1.0 1.0 1.0 1.0
1.0 1.0 1.0 1.0 1.0 1.0 1.0 1.0
1.0 1.0 1.0 1.0 1.0 1.0 1.0 1.0
1.0 1.0 1.0 1.0 1.0 1.0 1.0 1.0
00000000: 0000 803f 0000 803f 0000 803f 0000 803f
00000010: 0000 803f 0000 803f 0000 803f 0000 803f
00000020: 0000 803f 0000 803f 0000 803f 0000 803f
00000030: 0000 803f 0000 803f 0000 803f 0000 803f
00000040: 0000 803f 0000 803f 0000 803f 0000 803f
00000050: 0000 803f 0000 803f 0000 803f 0000 803f
00000060: 0000 803f 0000 803f 0000 803f 0000 803f
00000070: 0000 803f 0000 803f 0000 803f 0000 803f
00000080: 0000 803f 0000 803f 0000 803f 0000 803f
00000090: 0000 803f 0000 803f 0000 803f 0000 803f
000000a0: 0000 803f 0000 803f 0000 803f 0000 803f
000000b0: 0000 803f 0000 803f 0000 803f 0000 803f
000000c0: 0000 803f 0000 803f 0000 803f 0000 803f
000000d0: 0000 803f 0000 803f 0000 803f 0000 803f
000000e0: 0000 803f 0000 803f 0000 803f 0000 803f
000000f0: 0000 803f 0000 803f 0000 803f 0000 803f

base.mlp.fc_h.2.bias f4 [64]
0.0 0.0 0.0 0.0 0.0 0.0 0.0 0.0
0.0 0.0 0.0 0.0 0.0 0.0 0.0 0.0
0.0 0.0 0.0 0.0 0.0 0.0 0.0 0.0
0.0 0.0 0.0 0.0 0.0 0.0 0.0 0.0
0.0 0.0 0.0 0.0 0.0 0.0 0.0 0.0
0.0 0.0 0.0 0.0 0.0 0.0 0.0 0.0
0.0 0.0 0.0 0.0 0.0 0.0 0.0 0.0
0.0 0.0 0.0 0.0 0.0 0.0 0.0 0.0
00000000: 0000 0000 0000 0000 0000 0000 0000 0000
00000010: 0000 0000 0000 0000 0000 0000 0000 0000
00000020: 0000 0000 0000 0000 0000 0000 0000 0000
00000030: 0000 0000 0000 0000 0000 0000 0000 0000
00000040: 0000 0000 0000 0000 0000 0000 0000 0000
00000050: 0000 0000 0000 0000 0000 0000 0000 0000
00000060: 0000 0000 0000 0000 0000 0000 0000 0000
00000070: 0000 0000 0000 0000 0000 0000 0000 0000
00000080: 0000 0000 0000 0000 0000 0000 0000 0000
00000090: 0000 0000 0000 0000 0000 0000 0000 0000
000000a0: 0000 0000 0000 0000 0000 0000 0000 0000
000000b0: 0000 0000 0000 0000 0000 0000 0000 0000
000000c0: 0000 0000 0000 0000 0000 0000 0000 0000
000000d0: 0000 0000 0000 0000 0000 0000 0000 0000
000000e0: 0000 0000 0000 0000 0000 0000 0000 0000
000000f0: 0000 0000 0000 0000 0000 0000 0000 0000

base.mlp.fc2.0.0.weight f4 [64, 64]
-0.084741466 0.2546369 0.14722417 -0.22476016 0.15072697 -0.029139353 0.2627517 0.11051859
-0.29833376 -0.025152387 -0.24315567 -0.25751325 -0.19696385 0.045560542 -0.20679933 0.25739747
0.19252798 -0.08979099 -0.25798377 0.13364145 0.029352056 -0.017602723 -0.07379904 0.16445498
0.28412956 0.34072015 -0.017822042 -0.49730018 -0.061768692 0.21547192 0.05689673 -0.09364709
-0.20590585 0.06462876 0.16092159 0.009162541 0.36977768 -0.21036176 -0.051897414 0.10691758
0.008204295 -0.059908383 0.2761709 0.13456792 -0.10267836 0.053358182 0.11809795 0.1131037
-0.13746066 0.22365512 -0.03707976 0.11842978 0.060881697 0.31127217 -0.2397102 0.1139983
0.087404646 -0.047635425 -0.09914646 -0.13622658 -0.041236833 -0.063642204 0.019967733 -0.10223202
0.16505492 -0.0781023 0.0046096407 0.009671417 -0.05750658 -0.010926174 0.12583496 0.013250377
0.123116285 0.3339556 -0.15904301 0.123850435 0.10130011 0.3062724 0.09991763 0.077319376
-0.19446434 -0.05623594 -0.15128003 -0.14955685 -0.18078004 -0.34384882 0.31872532 -0.2402304
0.031005003 0.24393752 0.10315413 -0.07772174 0.08330396 -0.14589676 0.13527098 -0.16067569
-0.21747535 0.28103146 -0.050468788 0.1463163 0.09936792 0.26365715 -0.24855188 0.073004924
-0.0675019 0.045398235 0.23312825 -0.35588694 -0.09898784 -0.06259051 -0.032686237 -0.031308237
-0.054887176 0.13859901 -0.09679834 -0.23815347 0.23460498 -0.20690468 -0.17006084 -0.08556531
-0.20191157 -0.1878454 -0.3939274 0.16251032 -0.14793304 0.043174457 -0.11669767 0.25373223
-0.17665513 0.008343569 0.24409243 -0.14988098 -0.26661468 0.038408976 -0.2277135 -0.14860184
-0.0859488 0.3593529 0.09502668 -0.09126647 -0.090452895 -0.08213938 0.12316428 0.21216285
-0.3304784 -0.0545168 0.3446456 0.07033019 -0.31436914 0.082143545 0.057688463 -0.1851424
0.10925184 0.33016858 0.22604544 0.16708846 0.04964019 -0.23608807 0.11465494 0.12639289
-0.02073595 -0.06649153 0.23470344 -0.20130591 0.11466065 0.06002893 0.056012448 -0.2049302
0.09745028 0.039148647 -0.3787365 0.10449915 -0.086835936 0.12449313 -0.20367227 0.290797
0.09938293 0.0048021013 -0.1041347 0.14074281 0.10738164 0.25112927 -0.25404948 0.3269378
0.03979122 -0.13098447 0.08554061 -0.0018017187 0.18065083 0.011540232 -0.14481898 0.06557273
0.15981029 -0.241778 -0.0003364495 -0.08707516 0.030932643 0.17418803 -0.38129994 0.06110607
-0.064934246 -0.0289529 0.29184553 0.3481054 -0.40908092 0.27474546 0.07257067 -0.035863537
-0.28180346 -0.110828064 -0.25054607 -0.18582694 0.16388817 0.066058435 -0.14389363 0.010619418
0.24079803 -0.014819166 0.1333555 -0.11813451 -0.11467802 0.09757463 -0.06450676 0.08146471
0.10579612 -0.061209023 -0.1901126 0.04188773 -0.012217667 -0.021758977 0.29206446 0.23150235
0.16153495 0.039903153 0.06624325 -0.077289425 0.08649895 -0.28037077 -0.31802 0.034450766
-0.042030614 0.29431054 0.09210042 -0.1431061 -0.37278593 0.15805806 -0.24409088 0.13975315
-0.115694664 -0.07330476 -0.03643296 -0.14417367 -0.117997795 0.225902 -0.04095457 -0.13292281
00000000: ef8c adbd c55f 823e efc1 163e 8727 66be
00000010: 2c58 1a3e a7b5 eebc 6487 863e 9257 e23d
00000020: 34bf 98be 610c cebc cdfd 78be c7d8 83be
00000030: e4b0 49be b19d 3a3d 34c3 53be 9ac9 833e
00000040: 0e26 453e 57e4 b7bd 7316 84be 4ed9 083e
00000050: b973 f03c 9633 90bc f323 97bd e366 283e
00000060: 6e79 913e df72 ae3e 88ff 91bc 219e febe
00000070: 2b01 7dbd aca4 5c3e 8c0c 693d 0cca bfbd
00000080: fcd8 52be 155c 843d a1c8 243e 7b1e 163c
00000090: 8053 bd3e 1369 57be 6292 54bd 9bf7 da3d
000000a0: 4f6b 063c 7e62 75bd 4666 8d3e 2ccc 093e
000000b0: 0849 d2bd 1c8e 5a3d 57dd f13d eaa2 e73d
000000c0: 7dc2 0cbe d905 653e f2e0 17bd 508b f23d
000000d0: 165f 793d 115f 9f3e 9776 75be f177 e93d
000000e0: 3501 b33d 5d1d 43bd 4d0d cbbd fb7e 0bbe
000000f0: f4e7 28bd d856 82bd 5f93 a33c 055f d1bd
00000100: 2804 293e 19f4 9fbd 780c 973b dd74 1e3c
00000110: 058c 6bbd b203 33bc e1da 003e 1c18 593c
00000120: 6424 fc3d 3afc aa3e 2cdc 22be 4ca5 fd3d
00000130: 6f76 cf3d bccf 9c3e 9da1 cc3d 9f59 9e3d
00000140: a921 47be a857 66bd 27e9 1abe 6e25 19be
00000150: 671e 39be f40c b0be f72f a33e f5fe 75be
00000160: 34fe fd3c c2ca 793e 7942 d33d 932c 9fbd
00000170: 449b aa3d f665 15be 7a84 0a3e 2b88 24be
00000180: dcb1 5ebe 5be3 8f3e 5cb8 4ebd f1d3 153e
00000190: 6881 cb3d 12fe 863e 6284 7ebe 9b83 953d
000001a0: 703e 8abd 80f3 393d 2cb9 6e3e d036 b6be
000001b0: 23ba cabd 742f 80bd 01e2 05bd 113d 00bd
000001c0: 60d1 60bd e6ec 0d3e 353e c6bd 81de 73be
000001d0: 4a3c 703e d2de 53be 6e24 2ebe de3c afbd
000001e0: e8c1 4ebe 8b5a 40be dab0 c9be 1b69 263e
000001f0: c27b 17be b3d7 303d 30ff eebd 31e9 813e
00000200: 15e5 34be 77b3 083c 5ef3 793e 667a 19be
00000210: b881 88be bb52 1d3d ba2d 69be 152b 18be
00000220: ed05 b0bd 1afd b73e 599d c23d eae9 babd
00000230: 5e3f b9bd b138 a8bd 8e3d fc3d 3841 593e
00000240: 7734 a9be 024d 5fbd 6375 b03e 4609 903d
00000250: fef4 a0be e03a a83d bd4a 6c3d f895 3dbe
00000260: 6ebf df3d db0b a93e 7578 673e 3d19 2b3e
00000270: 8353 4b3d 12c1 71be 36d0 ea3d 236d 013e
00000280: 70de a9bc b62c 88bd 1956 703e 2323 4ebe
00000290: 34d3 ea3d e5e0 753d 4f6d 653d 39d9 51be
000002a0: 0394 c73d 555a 203d c0e9 c1be a603 d63d
000002b0: 0ad7 b1bd 41f6 fe3d 778f 50be 58e3 943e
000002c0: 4789 cb3d f25a 9d3b 9344 d5bd e21e 103e
000002d0: e8ea db3d 0494 803e c612 82be 6464 a73e
000002e0: 1efc 223d cb20 06be ea2f af3d a627 ecba
000002f0: 88fc 383e 3e13 3d3c 6d4b 14be ff4a 863d
00000300: 4fa5 233e a794 77be 7d65 b0b9 7654 b2bd
00000310: 7466 fd3c 595e 323e bf39 c3be 5c4a 7a3d
00000320: 3ffc 84bd a22e edbc c76c 953e df3a b23e
00000330: 0e73 d1be 70ab 8c3e ee9f 943d a5e5 12bd
00000340: 8b48 90be d3f9 e2bd 9347 80be 6b49 3ebe
00000350: 4dd2 273e a549 873d da58 13be 11fd 2d3c
00000360: c293 763e 16cc 72bc 588e 083e 82f0 f1bd
00000370: 4fdc eabd 35d5 c73d 1f1c 84bd f8d6 a63d
00000380: a3ab d83d 50b6 7abd e1ac 42be 7892 2b3d
00000390: 9c2c 48bc e23f b2bc 7989 953e f40e 6d3e
000003a0: 6b69 253e 7d71 233d 8baa 873d eb49 9ebd
000003b0: 5d26 b13d c28c 8fbe 84d3 a2be 3f1c 0d3d
000003c0: 4b28 2cbd dfaf 963e 259f bc3d 688a 12be
000003d0: ccdd bebe f9d9 213e f6f2 79be 731b 0f3e
000003e0: 53f1 ecbd ce20 96bd ba3a 15bd 43a2 13be
000003f0: d4a8 f1bd db52 673e fbbf 27bd eb1c 08be

base.mlp.fc2.0.0.bias f4 [64]
0.0 -0.0116751315 0.0029078664 -0.00078620546 -0.0074132495 -0.0016081068 -0.006444788 0.0021076652
0.00085366063 -0.007295064 0.0048951204 0.0 -0.008478285 0.015550339 -0.0046436894 -0.0023397096
0.0020974728 0.0036648817 0.016084025 -0.008180079 0.018853793 -0.0058377003 -0.00771792 -0.00828229
-0.0012815109 -0.0066896016 2.4130042e-05 0.010449361 0.011650528 -0.004351951 -0.002681607 0.001248964
0.0018231629 0.008926147 -0.0023036478 -0.009062972 0.0054807556 0.00939254 -0.010934863 0.0
-0.0017836209 0.0 0.0 -0.00706372 0.0054229484 0.012418322 -0.0063915346 0.0033332407
0.014808702 -0.0075619034 0.008806736 0.0077201086 0.015746482 -0.0061490717 0.00876203 -0.0047947983
0.0010649193 -0.014991772 -0.004563047 0.007645802 0.0 0.0 -0.010197225 -0.0074042864
00000000: 0000 0000 0d49 3fbc e791 3e3b 5b19 4eba
00000010: d8ea f2bb 1cc7 d2ba cd2e d3bb c120 0a3b
00000020: 32c8 5f3a 6f0b efbb 3f67 a03b 0000 0000
00000030: 81e8 0abc d9c6 7e3c 172a 98bb d055 19bb
00000040: c175 093b 832e 703b a5c2 833c bd05 06bc
00000050: 4573 9a3c 2e4a bfbb 9be6 fcbb 71b2 07bc
00000060: 5ff8 a7ba 7234 dbbb df6a ca37 cc33 2b3c
00000070: dbe1 3e3c d09a 8ebb e6bd 2fbb 47b4 a33a
00000080: 32f7 ee3a f93e 123c ccf8 16bb dc7c 14bc
00000090: e997 b33b 2be3 193c 2428 33bc 0000 0000
000000a0: 63c8 e9ba 0000 0000 0000 0000 c776 e7bb
000000b0: fdb2 b13b 3876 4b3c 1470 d1bb 8072 5a3b
000000c0: 33a0 723c d8c9 f7bb 214a 103c f7f8 fc3b
000000d0: c4fe 803c 277e c9bb 9e8e 0f3c af1d 9dbb
000000e0: c394 8b3a 0da0 75bc 9d85 95bb a389 fa3b
000000f0: 0000 0000 0000 0000 4312 27bc a89f f2bb

base.mlp.fc2.0.2.weight f4 [64]
0.9901702 0.9907676 1.0305029 1.006809 0.995415 1.0081185 0.9824697 0.989334
0.999539 1.0260768 1.0063545 1.0103604 1.0061094 1.0153066 1.0117155 1.0020262
0.99489707 0.9977136 1.0210005 0.9825035 1.0242908 1.0151681 1.0005665 1.0278363
1.003342 0.99093854 0.9762197 0.9990368 1.0113627 1.0010309 1.0133785 0.9981825
0.9976777 0.99390155 1.0051982 1.0130252 1.0093392 1.0092885 0.9827048 1.0099332
0.99296856 0.9988989 0.9988098 1.0058218 0.9936733 1.0051438 0.97738606 0.9972259
1.0064564 1.0201194 0.9925044 1.0013791 1.0096358 1.0104188 1.0066202 1.0052698
0.9934928 1.0232401 1.0137721 1.0042224 1.004758 0.9981707 1.0067537 0.9933942
00000000: cb7b 7d3f f2a2 7d3f 85e7 833f 1edf 803f
00000010: 84d3 7e3f 070a 813f 2283 7b3f fe44 7d3f
00000020: cae1 7f3f 7c56 833f 39d0 803f 7d53 813f
00000030: 31c8 803f 91f5 813f e57f 813f 6542 803f
00000040: 93b1 7e3f 296a 7f3f 25b0 823f 5985 7b3f
00000050: f61b 833f 07f1 813f 9012 803f 2490 833f
00000060: 836d 803f 26ae 7d3f 89e9 793f e0c0 7f3f
00000070: 5574 813f c821 803f 63b6 813f e388 7f3f
00000080: ce67 7f3f 5570 7e3f 56aa 803f cfaa 813f
00000090: 0732 813f 5e30 813f 8b92 7b3f 7e45 813f
000000a0: 3033 7e3f d7b7 7f3f 00b2 7f3f c5be 803f
000000b0: 6061 7e3f 8da8 803f f935 7a3f 324a 7f3f
000000c0: 90d3 803f 4693 823f c514 7e3f 312d 803f
000000d0: bf3b 813f 6755 813f eed8 803f aeac 803f
000000e0: 8b55 7e3f 88f9 823f 49c3 813f 5c8a 803f
000000f0: e99b 803f 1d88 7f3f 4edd 803f 154f 7e3f

base.mlp.fc2.0.2.bias f4 [64]
0.0105529195 -0.013845868 -0.02963531 -0.0068207015 0.002730204 -0.008268534 0.018274007 0.0023287756
-0.011102254 -0.026791718 -0.006774932 -0.010385544 -0.0074648513 0.017446877 -0.01211895 -0.0019713233
0.005316461 0.0036063106 0.020347621 0.00701088 0.020258 -0.01566134 -0.00066346466 -0.030138578
-0.0031304816 -0.0054636295 0.024321424 0.011502632 0.014171884 -0.0026062166 -0.009333897 0.0008575389
0.0042793592 0.0029581878 -0.004886408 -0.015175286 0.008649121 0.011100035 -0.004469058 -0.010212444
0.001660466 0.0012430201 0.0008339376 -0.0038859516 0.0011942266 0.008308456 0.010231611 0.00029719638
0.013711385 -0.021826653 0.005412993 -0.0131833255 0.018963462 -0.011389518 0.0117555745 -0.008600336
0.00041224656 -0.025948714 -0.013025662 0.008320391 -0.0053402595 0.0022799964 -0.0063117645 0.007424903
00000000: 27e6 2c3c c8d9 62bc c0c5 f2bc 3180 dfbb
00000010: 39ed 323b bf78 07bc 5fb3 953c 5f9e 183b
00000020: 3ae6 35bc 4e7a dbbc 4000 debb 2128 2abc
00000030: b69b f4bb c1ec 8e3c 8f8e 46bc 5131 01bb
00000040: b535 ae3b da57 6c3b 0eb0 a63c 86bb e53b
00000050: 1bf4 a53c 364c 80bc 5cec 2dba 2ee5 f6bc
00000060: c428 4dbb 3f08 b3bb b93d c73c 8975 3c3c
00000070: 3131 683c 0fcd 2abb 34ed 18bc 76cc 603a
00000080: de39 8c3b 28de 413b 291e a0bb c3a1 78bc
00000090: 0bb5 0d3c ecdc 353c 2d71 92bb 1852 27bc
000000a0: fea3 d93a d5ec a23a 9b9c 5a3a 73ab 7ebb
000000b0: 9887 9c3a 3120 083c 7da2 273c 06d1 9b39
000000c0: b8a5 603c cfcd b2bc 7a5f b13b e0fe 57bc
000000d0: 4359 9b3c 1a9b 3abc 749a 403c 6ce8 0cbc
000000e0: cc22 d839 6692 d4bc 9669 55bc 4052 083c
000000f0: 58fd aebb fe6b 153b ebd2 cebb 9a4c f33b

rnn.rnn.weight_ih_l0 f4 [192, 64]
-0.052946832 -0.055157356 -0.01585728 -0.112345666 -0.040805843 -0.013487678 0.10689494 -0.045826808
-0.033874154 -0.021086078 0.07427429 0.07707315 0.08404262 -0.027994394 0.058698736 -0.092817485
-0.02151185 -0.04468711 -0.05823251 -0.103305854 0.04070908 0.043946337 0.0032380961 0.008818805
-0.03270579 0.011043671 0.0038082805 -0.06441045 -0.099779606 0.087224446 -0.055007968 0.071082
0.103262596 -0.061736334 0.062587894 -0.034982234 0.14344753 -0.057282016 -0.071994066 -0.09518612
0.00752975 -0.14929584 -0.059050366 0.097084 -0.015038985 -0.1560561 -0.025412206 -0.0781418
-0.0073594074 -0.07806563 0.11454152 0.09496455 0.024781005 0.04552422 -0.03277728 -0.04993808
0.08703439 -0.044620644 0.01183304 0.01742305 0.051257815 0.028732134 -0.017344518 0.11406864
0.010302263 0.06496271 0.039709594 -0.013941199 0.027884496 0.009026144 -0.04434367 -0.039507158
-0.1071043 -0.020998722 -0.036774173 0.033745065 -0.14317839 -0.09310136 -0.014453148 0.14423895
0.061014596 -0.008057391 -0.0727554 -0.11500178 -0.0010671015 0.09637644 -0.012661578 -0.072364576
-0.07336406 -0.11873609 -0.057796706 0.08414455 0.04313381 -0.04822953 0.03056333 -0.05890361
-0.056869034 0.081747405 -0.08660873 -0.036334097 0.0045343963 -0.17830166 0.18882646 0.001008301
0.023984835 0.008200502 0.018217543 -0.04382754 0.09184563 -0.0007726914 0.06721315 0.02247135
0.07408262 0.07769144 -0.08148505 0.07392606 -0.083069615 -0.017769864 -0.08302967 0.018228792
-0.040879842 0.0269778 -0.059638366 -0.044723775 0.020177413 -0.0149175115 -0.10368971 -0.040185418
0.0054860194 0.007843811 -0.01024685 -0.004240888 -0.04513879 -0.0027434358 -0.0041044597 0.06682679
0.056591272 -0.049604714 0.18976331 0.15305173 -0.030421806 -0.09968787 0.022570543 0.14069371
-0.030546023 0.009954497 0.16195276 -0.0085548265 0.010110747 0.103091784 -0.012473086 -0.017749937
0.09373877 0.11286473 0.007498604 -0.12235314 -0.00896624 -0.024280488 0.062772386 0.21238343
-0.13866925 0.091544844 0.06763253 -0.05271696 -0.11596786 0.048610955 0.022539014 -0.08249628
0.09783346 0.073710814 0.052691177 -0.031507 -0.08684191 -0.08137828 -0.024009187 -0.090240315
-0.0058169146 -0.099467926 -0.0103427125 0.03473893 0.054972943 0.038474094 0.00443132 -0.011874774
0.018159602 0.10477816 -0.13342193 0.09607919 -0.11547142 -0.046034213 -0.06808883 -0.05858822
0.040737953 -0.024411662 0.056294806 0.08462882 -0.013292903 -0.14441669 -0.019156564 0.072587624
-0.05278692 0.011211747 0.11951265 0.09774151 0.11104906 -0.05923017 -0.085215874 -0.019406008
0.0756275 0.08122758 0.06914304 -0.021217985 0.047497682 0.044350065 -0.10585306 -0.06031064
0.022860084 -0.06712319 -0.022666859 -0.09428592 -0.122765966 0.11596921 -0.11363352 -0.05051102
0.023694076 0.011969374 0.14295954 -0.049917277 -0.08845107 0.0024728035 -0.010072212 0.18447857
0.042208683 0.03617576 -0.055379853 0.023521248 -0.0962295 0.03832384 -0.050566036 -0.057522282
0.04373093 0.05332385 -0.05579908 0.061761267 0.0031918816 0.12717971 -0.014269074 -0.15726157
0.060804196 0.08809516 -0.03562646 0.14515369 0.036871903 -0.05815602 -0.13734338 -0.0009026077
00000000: c7de 58bd aeec 61bd 20e7 81bc 7c15 e6bd
00000010: 0724 27bd 6cfb 5cbc bceb da3d e4b4 3bbd
00000020: a0bf 0abd b6bc acbc 1e1d 983d 87d8 9d3d
00000030: 8a1e ac3d 8054 e5bc 166e 703d 1817 bebd
00000040: 9f39 b0bc d509 37bd 3685 6ebd 0592 d3bd
00000050: 90be 263d 1301 343d 3d36 543b c07c 103c
00000060: 82f6 05bd 83f0 343c 5894 793b a0e9 83bd
00000070: 4059 ccbd bba2 b23d 0950 61bd 7193 913d
00000080: 577b d33d 3ddf 7cbd 152e 803d 8849 0fbd
00000090: e9e3 123e 8ca0 6abd a071 93bd f1f0 c2bd
000000a0: 1fbc f63b 02e1 18be ccde 71bd fad3 c63d
000000b0: 1366 76bc 2ccd 1fbe 422d d0bc cf08 a0bd
000000c0: 2f27 f1bb dfe0 9fbd bf94 ea3d c67c c23d
000000d0: 8901 cb3c 9b77 3a3d 7841 06bd df8b 4cbd
000000e0: 163f b23d 23c4 36bd 5edf 413c c9ba 8e3c
000000f0: b7f3 513d a75f eb3c 1716 8ebc d29c e93d
00000100: d3ca 283c 2b0b 853d 87a6 223d a069 64bc
00000110: 076e e43c 64e2 133c b5a1 35bd 42d2 21bd
00000120: 8059 dbbd 8305 acbc 84a0 16bd 4438 0a3d
00000130: 5b9d 12be edab bebd e5cc 6cbc 60b3 133e
00000140: 71ea 793d 2603 04bc c800 95bd 0e86 ebbd
00000150: fcdd 8bba 0361 c53d 8272 4fbc e133 94bd
00000160: e53f 96bd e82b f3bd 3dbc 6cbd fa53 ac3d
00000170: 14ad 303d 548c 45bd f35f fa3c e944 71bd
00000180: 81ef 68bd 2f6b a73d eb5f b1bd 10d3 14bd
00000190: 4695 943b b694 36be b95b 413e f828 843a
000001a0: d87b c43c 665b 063c f53c 953c 8284 33bd
000001b0: 9019 bc3d 718e 4aba 0ca7 893d d615 b83c
000001c0: a1b8 973d b11c 9f3d a2e1 a6bd 8c66 973d
000001d0: 6720 aabd 1b92 91bc 760b aabd 8c54 953c
000001e0: 9f71 27bd 8c00 dd3c 5c47 74bd 4730 37bd
000001f0: 1a4b a53c 9468 74bc 455b d4bd 7799 24bd
00000200: 11c4 b33b 5483 003c 67e2 27bc 26f7 8abb
00000210: 74e3 38bd 37cb 33bb b47e 86bb 7cdc 883d
00000220: 40cc 673d 502e 4bbd 5051 423e 98b9 1c3e
00000230: 2737 f9bc 2729 ccbd dce5 b83c 0312 103e
00000240: a73b fabc 3018 233c f2d6 253e 8b29 0cbc
00000250: 8ca7 253c c921 d33d ea5b 4cbc 5168 91bc
00000260: 1dfa bf3d a025 e73d d9b6 f53b 4894 fabd
00000270: 23e7 12bc e0e7 c6bc cf8e 803d 0b7b 593e
00000280: 50ff 0dbe dd7b bb3d ed82 8a3d bded 57bd
00000290: 8f80 edbd 481c 473d bda3 b83c cff3 a8bd
000002a0: e95c c83d b2f5 963d b4d2 573d 7c0d 01bd
000002b0: 2cda b1bd a8a9 a6bd eaae c4bc eacf b8bd
000002c0: d19b bebb d7b5 cbbd 7b74 29bc 694a 0e3d
000002d0: 4f2b 613d 0397 1d3d 9b34 913b 698e 42bc
000002e0: 72c3 943c ef95 d63d c29f 08be 2bc5 c43d
000002f0: 487c ecbd 5f8e 3cbd 2872 8bbd 34fa 6fbd
00000300: d7dc 263d f7fa c7bc 6295 663d e051 ad3d
00000310: 7aca 59bc f8e1 13be 3aee 9cbc d2a8 943d
00000320: 1937 58bd 7ab1 373c 0cc3 f43d b32c c83d
00000330: b16d e33d 569b 72bd a985 aebd 59f9 9ebc
00000340: 97e2 9a3d a55a a63d de9a 8d3d 57d1 adbc
00000350: ee8c 423d 6aa8 353d 7dc9 d8bd 4a08 77bd
00000360: 1245 bb3c e277 89bd d9af b9bc fa18 c1bd
00000370: b96c fbbd 4481 ed3d b1b8 e8bd a5e4 4ebd
00000380: 141a c23c 311b 443c fc63 123e 0f76 4cbd
00000390: d625 b5bd c20e 223b eb05 25bc f3e7 3c3e
000003a0: 03e3 2c3d 092d 143d fcd5 62bd a2af c03c
000003b0: f913 c5bd 75f9 1c3d 551e 4fbd 7c9c 6bbd
000003c0: 341f 333d 1c6a 5a3d 938d 64bd 62f9 7c3d
000003d0: e32e 513b 663b 023e d6c8 69bc 2d09 21be
000003e0: d20d 793d 3c6b b43d 0ded 11bd 2ba3 143e
000003f0: fe06 173d 0235 6ebd bea3 0cbe fa9c 6cba
