MAPPO/results/MyEnv/MyEnv/rmappo/check/run4/models/critic_agent3.pt (torch, 250595 bytes, 21 tensors)

base.feature_norm.weight f4 [411]
000000 5f 96 7f 3f aa 09 80 3f 1b 13 80 3f 5c f2 7f 3f
       0.99838823 1.0002949 1.000583 0.99979186
000010 6d a4 7f 3f 56 d0 7f 3f da f5 7f 3f e6 55 7e 3f
       0.9986027 0.9992727 0.99984515 0.9934982
000020 c1 4e 80 3f d7 2a 7f 3f a2 23 7f 3f e6 9c 7f 3f
       1.0024034 0.99674743 0.99663746 0.99848783
000030 2d 02 80 3f 0e 19 80 3f 58 b1 7f 3f 98 00 80 3f
       1.0000664 1.0007646 0.9987998 1.0000181
000040 58 2b 80 3f 5e 74 80 3f 56 23 80 3f c1 8c 7e 3f
       1.0013227 1.0035512 1.0010784 0.99433523
000050 10 ea 7f 3f 87 48 7e 3f 2d 36 80 3f 43 c4 7f 3f
       0.99966526 0.9932942 1.0016533 0.99908847
000060 f9 ee 7f 3f ef 0e 80 3f 38 6b 80 3f a5 cf 7e 3f
       0.9997402 1.0004557 1.003272 0.9953559
000070 3d 77 7f 3f e2 3a 80 3f 76 8f 7e 3f 46 6d 7f 3f
       0.9979132 1.001797 0.99437654 0.99776113
000080 24 d4 7f 3f 3f ff 7e 3f e8 1a 80 3f 3d a5 7f 3f
       0.99933076 0.99608225 1.0008211 0.9986151
000090 30 ac 7f 3f 31 08 80 3f c3 d3 7f 3f b1 bd 7f 3f
       0.9987211 1.00025 0.999325 0.9989882
0000a0 a0 0d 7f 3f f9 2c 80 3f 2e c7 7f 3f fb 9f 7e 3f
       0.99630165 1.0013725 0.999133 0.9946286
0000b0 0b 8d 7e 3f cb d6 7f 3f 58 02 80 3f f3 19 7e 3f
       0.99433964 0.99937123 1.0000715 0.99258345
0000c0 47 a8 7f 3f 99 8a 7f 3f 4e e1 7f 3f 8a b3 7f 3f
       0.99866146 0.9982086 0.9995316 0.9988333
0000d0 07 20 80 3f 89 e7 7f 3f 1e 07 80 3f 58 3a 7f 3f
       1.0009774 0.9996267 1.0002172 0.996984
0000e0 83 12 80 3f e4 5f 7f 3f dc 12 80 3f cf e8 7f 3f
       1.0005649 0.9975569 1.0005755 0.9996461
0000f0 bf 48 80 3f 5d ad 7f 3f 90 9b 7f 3f c0 5e 7f 3f
       1.00222 0.99873906 0.99846745 0.9975395
000100 44 9f 7f 3f 8f 97 7f 3f ab 89 7f 3f c0 02 80 3f
       0.99852395 0.99840635 0.9981944 1.0000839
000110 be 44 7f 3f 74 ff 7f 3f 28 69 7f 3f b2 be 7f 3f
       0.9971427 0.99999166 0.9976983 0.9990035
000120 11 1b 80 3f c0 03 80 3f 7f ea 7f 3f c8 2e 80 3f
       1.000826 1.0001144 0.9996719 1.0014277
000130 ca 77 7f 3f 59 1e 80 3f e4 aa 7f 3f f3 99 7d 3f
       0.9979216 1.0009261 0.99870133 0.9906303
000140 08 74 7e 3f 99 c0 7f 3f 67 9d 7f 3f de ee 7f 3f
       0.993958 0.99903256 0.9984955 0.9997386
000150 5b c9 7f 3f 82 11 80 3f f2 03 80 3f c1 75 7f 3f
       0.9991662 1.0005343 1.0001204 0.99789053
000160 31 9f 7f 3f e0 7a 7d 3f 12 7b 7f 3f 40 97 80 3f
       0.9985228 0.9901562 0.99797165 1.0046158
000170 99 42 80 3f b9 59 7f 3f 02 1f 80 3f 0a 12 80 3f
       1.0020324 0.9974628 1.0009463 1.0005505
000180 42 14 80 3f bc e4 7f 3f 48 2d 80 3f 7f ff 7f 3f
       1.0006182 0.99958396 1.0013819 0.9999923
000190 66 1b 80 3f e8 9f 7f 3f b9 a1 80 3f 08 36 80 3f
       1.0008361 0.9985337 1.0049354 1.0016489
0001a0 ba 89 7f 3f ef 50 7f 3f 35 ea 7f 3f fb ed 7f 3f
       0.9981953 0.9973287 0.99966747 0.99972504
0001b0 f1 0f 80 3f 0a f1 7f 3f 71 22 80 3f a7 05 7e 3f
       1.0004865 0.9997717 1.0010511 0.99227375
0001c0 b3 04 80 3f 1a 0c 80 3f 66 36 7f 3f 3d 2e 80 3f
       1.0001434 1.0003693 0.9969238 1.0014111
0001d0 b7 d4 7d 3f 76 76 80 3f c2 59 7f 3f 47 fe 7d 3f
       0.991527 1.0036151 0.99746335 0.9921612
0001e0 b6 46 7f 3f 7d e9 7f 3f 45 2d 80 3f e8 26 7f 3f
       0.9971727 0.9996565 1.0013815 0.9966874
0001f0 6d 69 7f 3f f5 bf 7f 3f 58 15 80 3f ff 6a 7f 3f
       0.9977024 0.9990228 1.0006514 0.9977264
000200 d8 20 80 3f 6b 5c 7e 3f 34 ca 7c 3f 05 97 7f 3f
       1.0010023 0.9935977 0.9874604 0.9983981
000210 6e 03 7e 3f b5 04 80 3f 10 9d 80 3f 05 cc 7f 3f
       0.99223983 1.0001436 1.0047932 0.99920684
000220 7a 24 80 3f 5c a0 7f 3f e4 e5 7f 3f c9 bc 80 3f
       1.0011132 0.99854064 0.9996016 1.0057613
000230 98 fb 7f 3f a7 d8 7f 3f ac 62 80 3f dd ef 7f 3f
       0.99993277 0.9993996 1.0030112 0.9997538
000240 b8 d9 7f 3f b3 b7 7f 3f 87 70 7f 3f 37 7a 7f 3f
       0.9994159 0.9988968 0.9978108 0.9979586
000250 29 b0 80 3f c7 28 80 3f 36 00 80 3f b9 69 7f 3f
       1.005376 1.0012444 1.0000064 0.99770695
000260 13 dd 7f 3f bc e9 7f 3f 95 f2 7f 3f 23 2a 80 3f
       0.9994671 0.99966025 0.99979526 1.0012859
000270 4d 6e 7f 3f a1 e4 7d 3f b0 40 7f 3f 87 a2 80 3f
       0.9977768 0.99176985 0.9970808 1.00496
000280 af 22 81 3f 64 96 7f 3f a9 32 7f 3f 70 aa 7f 3f
       1.008871 0.9983885 0.99686676 0.9986944
000290 d3 23 80 3f d6 9c 7f 3f 05 58 7f 3f 09 bf 7f 3f
       1.0010933 0.9984869 0.9974368 0.9990087
0002a0 3f c3 7f 3f e3 17 80 3f db be 7e 3f 66 02 80 3f
       0.99907297 1.000729 0.9950997 1.0000732
0002b0 5b 1f 80 3f c2 f6 7f 3f 09 8e 7f 3f d9 5f 80 3f
       1.0009569 0.999859 0.99826103 1.002925
0002c0 32 d0 7f 3f c1 f6 7f 3f 06 ed 7f 3f 85 25 80 3f
       0.99927056 0.9998589 0.99971044 1.001145
0002d0 4f ac 7f 3f 86 0b 80 3f aa ed 7e 3f ca 72 80 3f
       0.998723 1.0003517 0.99581397 1.0035031
0002e0 f3 85 80 3f 33 83 7f 3f 09 66 80 3f ef f1 7f 3f
       1.0040878 0.9980957 1.0031139 0.99978536
0002f0 07 cf 7f 3f 60 ff 7f 3f 8e 5b 7f 3f 3b 55 80 3f
       0.99925274 0.99999046 0.99749076 1.002601
000300 32 7b 80 3f f3 1b 80 3f a6 06 80 3f cf 4c 80 3f
       1.0037596 1.000853 1.0002029 1.002344
000310 59 38 80 3f f8 23 80 3f 87 2d 7f 3f 5a 4f 80 3f
       1.0017196 1.0010977 0.99678844 1.0024216
000320 13 c8 7f 3f f8 34 7f 3f 23 e4 7f 3f e2 e7 7e 3f
       0.99914664 0.996902 0.99957484 0.99572575
000330 c8 05 80 3f c1 6f 81 3f 82 1a 80 3f 9a 60 80 3f
       1.0001764 1.011223 1.000809 1.002948
000340 0d 0f 80 3f 0e 13 80 3f 5e c0 7e 3f d4 35 80 3f
       1.0004593 1.0005815 0.9951228 1.0016427
000350 a0 b5 7d 3f 1c 7c 7e 3f bf 02 7e 3f 33 e5 7f 3f
       0.9910526 0.99408126 0.9922294 0.99959105
000360 f4 c7 7f 3f 87 de 7e 3f da c5 7f 3f 18 35 80 3f
       0.9991448 0.995583 0.9991127 1.0016203
000370 e8 83 7f 3f 90 d0 7f 3f cc c7 7f 3f 2f 56 7f 3f
       0.9981065 0.99927616 0.9991424 0.9974088
000380 1a 35 80 3f 22 b3 7f 3f 01 c4 7f 3f 23 f2 7f 3f
       1.0016205 0.9988271 0.99908453 0.99978846
000390 45 10 80 3f 58 2c 80 3f 06 07 7f 3f ec 18 7f 3f
       1.0004965 1.0013533 0.9962009 0.996474
0003a0 d5 ee 7f 3f c2 f9 7f 3f 81 99 7f 3f d0 a5 7f 3f
       0.99973804 0.99990475 0.99843603 0.99862385
0003b0 3c 4a 7f 3f 19 e4 7d 3f db 93 7f 3f 08 a1 7f 3f
       0.9972265 0.99176174 0.99834985 0.9985509
0003c0 06 79 7f 3f 87 0b 80 3f 41 67 7f 3f 40 30 80 3f
       0.9979404 1.0003518 0.9976693 1.0014725
0003d0 e5 0f 80 3f 3b 7d 7f 3f fd 7f 7f 3f 9a c0 7f 3f
       1.0004851 0.9980046 0.9980467 0.9990326
0003e0 ca 0f 80 3f e1 bd 7d 3f d2 06 80 3f ce 95 80 3f
       1.0004818 0.9911786 1.0002081 1.0045717
0003f0 07 21 80 3f bc f8 7e 3f 62 f1 7f 3f 90 c3 7f 3f
       1.0010079 0.9959829 0.99977696 0.9990778

base.feature_norm.bias f4 [411]
000000 f3 05 dd 3a f8 46 a6 b9 c0 1c 15 ba 50 b2 88 b9
       0.0016862735 -0.00031714863 -0.0005688183 -0.00026072795
000010 fe 35 97 3a 2c 4a 61 b9 9f 90 62 b8 0a b7 de 3b
       0.0011536477 -0.00021485303 -5.4017288e-05 0.0067967223
000020 0f cb 21 bb ba 6c 57 3b 27 f8 5e 3b bb 0d f4 3a
       -0.0024687683 0.0032871203 0.0034022422 0.0018619815
000030 86 e3 38 b8 be a0 5c ba 37 86 15 3b c0 0b 91 ba
       -4.4080916e-05 -0.00084162864 0.0022815594 -0.0011066124
000040 66 df 9f ba a8 ae 5b bb ab 81 8e ba b2 b5 b9 3b
       -0.0012197315 -0.0033520851 -0.0010872384 0.0056674117
000050 46 66 cf 39 59 0f dd 3b a3 d7 c0 ba 4c a3 7c 3a
       0.00039558316 0.0067462143 -0.0014712702 0.000963737
000060 d7 e1 8c 39 c3 22 ff b9 d1 60 80 bb 80 29 80 3b
       0.00026871145 -0.0004866329 -0.0039177914 0.003911197
000070 6b 6d 09 3b c8 a1 eb ba cd bb bd 3b 3c c1 9b 3a
       0.002096976 -0.0017977292 0.00579021 0.001188315
000080 dc ac c4 39 cc c6 80 3b 65 63 95 ba 73 ce b2 3a
       0.00037512823 0.0039299484 -0.001139742 0.0013641849
000090 74 3c a5 3a 6a 0b 15 b9 ea 47 37 3a 15 20 87 3a
       0.0012606517 -0.00014214 0.0006991612 0.0010309244
0000a0 ae bb 81 3b f2 29 a4 ba fe ed 7d 3a bd ed b0 3b
       0.0039591407 -0.0012524708 0.00096866477 0.0053994344
0000b0 a9 ca ba 3b 98 49 17 3a 7c c4 6c b8 87 eb 00 3c
       0.0057004285 0.0005771159 -5.6449775e-05 0.007868654
0000c0 a4 f7 57 3a f9 0d aa 3a b3 d0 d6 39 e6 69 9a 3a
       0.00082385004 0.0012974135 0.00040972754 0.0011780828
0000d0 2c 98 82 ba 9e b9 cc 39 42 73 7b b9 9b 01 2b 3b
       -0.0009963564 0.00039048208 -0.00023980162 0.0026093486
0000e0 39 35 c3 b9 b1 d9 0f 3b 88 fd 88 b9 7b bd 2a 3a
       -0.00037232952 0.0021949823 -0.00026128837 0.000651322
0000f0 69 b3 e6 ba 4e c5 d4 3a fe ee a8 3a 40 8a 0b 3b
       -0.0017601076 0.0016233118 0.0012888608 0.002129212
000100 a0 f4 c0 3a f8 9a d4 3a 86 76 ed 3a 55 d6 a9 39
       0.0014721341 0.0016220501 0.0018116988 0.00032393882
000110 f4 2e 29 3b a8 f6 8a 39 06 2e 0d 3b 61 cd 72 3a
       0.002581534 0.00026505184 0.0021542325 0.0009262171
000120 cd 2f 5f ba dc d1 4e b7 1a 0f 13 3a 65 4c 98 b9
       -0.0008513898 -1.23274185e-05 0.0005609855 -0.00029048618
000130 31 d2 a9 39 77 2a 7a ba f1 4b ad 3a 37 39 1b 3c
       0.00032390797 -0.0009543071 0.0013221485 0.00947409
000140 a6 56 cf 3b 57 7f 75 3a 05 84 dd 3a cf b6 6f 39
       0.006327468 0.00093649834 0.0016900307 0.00022860918
000150 fe db f0 37 94 a7 b9 ba c6 4f aa b8 11 51 6c ba
       2.8712671e-05 -0.0014164322 -8.121091e-05 -0.00090147654
000160 8d 74 99 3a cb e8 42 3c b0 1e d3 ba 65 27 99 bb
       0.0011707708 0.0118963225 -0.0016107168 -0.0046738856
000170 e6 84 05 bb 00 8c 27 3b f9 1b 0c b9 47 77 a0 37
       -0.0020373403 0.0025565624 -0.00013361861 1.912903e-05
000180 ae 96 60 ba a7 27 2a 3b f6 5b b5 ba 64 48 d2 b7
       -0.0008567375 0.0025963576 -0.0013836611 -2.506766e-05
000190 21 00 5b ba 1b d8 a0 3a 11 b6 e2 b7 d6 3e 08 bb
       -0.0008354206 0.0012271436 -2.702608e-05 -0.0020789406
0001a0 e2 ac f0 3a 9b 31 af 38 4b 27 c6 39 66 45 a4 39
       0.001836207 8.35389e-05 0.00037794778 0.00031332223
0001b0 48 35 0b ba f2 48 53 ba 18 cb 17 39 6c 3d 7e 39
       -0.0005310369 -0.0008059881 0.0001447614 0.00024246209
0001c0 81 50 8d ba 7c 36 db ba a6 b4 4a 3b a2 ad bd ba
       -0.0010781438 -0.0016724612 0.0030930429 -0.0014471302
0001d0 f5 77 05 3c 41 bd 80 38 95 2d 86 3b bb d7 fe 3b
       0.008146276 6.138767e-05 0.0040947893 0.007777182
0001e0 c8 40 3c 3b b8 53 24 39 5f ac db 3a 84 f8 73 3b
       0.0028725136 0.00015671446 0.0016759745 0.0037226984
0001f0 62 8f b0 ba 82 15 5f 3a 71 ae 33 ba 75 69 17 3b
       -0.0013470466 0.000850998 -0.0006854302 0.0023103629
000200 c0 4c 86 ba 8c 31 d7 3b a3 d2 21 3c 5f e1 64 bb
       -0.0010246262 0.0065671857 0.00987688 -0.003492437
000210 af 59 0e bc 06 74 a2 3a 2e 34 9f bb fd ab 5c 3a
       -0.008688374 0.0012394197 -0.004858515 0.0008417962
000220 85 b0 96 ba b1 02 bd 3a bb a6 c5 39 25 a4 bd bb
       -0.0011496699 0.0014420358 0.00037698992 -0.00578739
000230 be 38 11 ba a9 c9 05 ba 2d dd d6 bb 31 e9 74 39
       -0.0005539766 -0.0005103597 -0.006557128 0.00023356524
000240 83 fb 1d 3a 8f 87 51 39 29 db ac 3a 14 50 a1 3a
       0.0006026553 0.00019982293 0.0013187873 0.001230719
000250 a4 4f b3 bb 28 e2 a9 ba 1f db 42 ba 32 95 01 3b
       -0.0054721404 -0.0012961077 -0.0007433164 0.0019772765
000260 a8 db 16 3a fe 98 9a 39 56 7d 1d ba 8a dc a5 ba
       0.0005754777 0.00029487157 -0.0006007751 -0.0012654227
000270 e6 a4 11 3b b5 36 a4 3a 4b 02 15 ba 45 67 a4 bb
       0.0022223531 0.0012528511 -0.00056842406 -0.0050171935
000280 af a9 17 bc 5b 72 9b bb a7 d9 9b 3b 67 b7 6b b8
       -0.009256764 -0.004743857 0.004756171 -5.6199173e-05
000290 64 19 8c ba 4a bd c5 3a 81 3f 96 3b 69 3c e0 3a
       -0.0010688719 0.001508632 0.004585207 0.0017107847
0002a0 71 fc 75 3a 91 05 43 ba 6e f0 7f 3b 1a cf 7d b8
       0.0009383625 -0.0007439489 0.003905322 -6.051278e-05
0002b0 96 2e 80 ba af 7c 94 ba 12 ce 1b 3b 6e 99 32 bb
       -0.0009779509 -0.0011328663 0.002377395 -0.0027252096
0002c0 c9 c1 28 b9 48 0f 40 3a be d2 89 39 36 1a 97 ba
       -0.00016093919 0.0007326496 0.0002628769 -0.0011528197
0002d0 cd db a4 3a e2 20 c1 b9 c5 b4 8a 3b 15 be 69 bb
       0.0012577713 -0.00036836328 0.004232975 -0.0035666276
0002e0 2d 65 84 bb b1 29 02 3b eb c2 53 bb d3 7a 22 39
       -0.0040403814 0.0019861276 -0.0032312225 0.0001549528
0002f0 a3 1f 43 3a 39 87 25 38 55 bb 28 3b d6 d5 2b bb
       0.0007443374 3.9465e-05 0.0025746424 -0.0026219985
000300 39 47 78 bb 9c 8a 65 ba 18 68 9a 37 54 ed 1a bb
       -0.003788425 -0.0008756311 1.8406703e-05 -0.0023639994
000310 20 c4 e6 ba 4b 1b 94 ba 7d db 52 3b c2 1f 1d bb
       -0.0017606057 -0.0011299638 0.0032174282 -0.0023975228
000320 04 08 6e 3a 2e c6 4a 3b 14 ae c3 39 bf 24 8d 3b
       0.0009080174 0.0030940878 0.00037322997 0.004307359
000330 c2 a1 3c b9 2e 6d 3b bc 9a 0e 59 ba 0f 00 3f bb
       -0.00017989337 -0.011439605 -0.0008280069 -0.0029144322
000340 4f b5 f0 b9 95 6a 1b ba bb ab a0 3b ed 68 e6 ba
       -0.00045911453 -0.0005928663 0.0049032844 -0.0017578878
000350 43 1d 16 3c 24 57 c1 3b 07 5c 00 3c 5d a6 ce 39
       0.00916225 0.0059002806 0.007834441 0.00039415332
000360 aa 1e 69 3a f5 95 91 3b 3b 4b 6a 3a 5f 25 d7 ba
       0.0008892814 0.004442925 0.0008937602 -0.0016414336
000370 59 e5 f8 3a 38 e1 4e 3a 99 67 62 3a 5b a4 2e 3b
       0.0018989249 0.00078918366 0.0008636653 0.0026648256
000380 64 78 d6 ba ca d4 9b 3a cd af 7b 3a 0f 70 38 39
       -0.0016362783 0.0011888978 0.00096010865 0.00017589353
000390 8a c3 0b ba b3 46 b3 ba b6 fe 7e 3b cc de 78 3b
       -0.0005331567 -0.0013677686 0.0038909144 0.0037974594
0003a0 a5 cb a5 39 37 21 16 b9 d2 0b d1 3a d2 ab b9 3a
       0.0003162298 -0.00014317488 0.0015948957 0.0014165586
0003b0 05 1b 37 3b c7 91 0a 3c 0d 97 d9 3a 94 b4 c1 3a
       0.002793969 0.008457608 0.0016600803 0.0014778548
0003c0 e4 65 02 3b b7 06 c6 b9 72 f5 1b 3b 6a fd b9 ba
       0.0019897157 -0.00037770506 0.002379742 -0.0014189903
0003d0 20 54 09 ba 0c be 0b 3b bf 2d 06 3b 3b d6 85 3a
       -0.0005238671 0.0021322994 0.0020474044 0.001021094
0003e0 da 59 00 ba 4b b4 13 3c f8 6a e8 b9 aa db 96 bb
       -0.00048962014 0.009015153 -0.00044330186 -0.0046038227
0003f0 bc af 7b ba db e0 83 3b b9 b7 52 39 d3 d9 77 3a
       -0.00096010766 0.0040246076 0.00020095603 0.00094547606

base.mlp.fc1.0.weight f4 [64, 411]
000000 2c 67 0b ba 7b bd 06 be e7 92 27 bd bc 0f de bd
       -0.0005317803 -0.13158219 -0.04091158 -0.10842845
000010 53 7c b6 3d 1a e3 c4 bd 67 d0 cc bb 06 15 0a be
       0.08910432 -0.09613629 -0.0062504294 -0.13484582
000020 0b 21 0c 3e 8b 16 3a bd 4d 0c d3 bc 07 bd 68 bc
       0.1368448 -0.045431655 -0.025762701 -0.014205224
000030 23 17 02 3e 76 04 0f be 8b 0e 8f bd 52 b3 02 bd
       0.12704138 -0.13966545 -0.06985196 -0.031909294
000040 71 65 e1 3c eb d3 de 3c 67 f5 f1 3c 89 cd b6 3a
       0.027514191 0.02720066 0.029535962 0.0013946752
000050 96 5b 4c 3d 52 80 0d be b1 f8 9e 3d 5f 93 f3 bc
       0.04989203 -0.13818482 0.07762278 -0.029733358
000060 8f db b3 3c be a5 1f 3b 73 2b 0d be 28 3d 8d 3d
       0.02195528 0.0024360265 -0.13786106 0.0689643
000070 b6 11 a7 3d 1f 17 87 3d c2 7d db 3c 89 3f 98 bc
       0.08157675 0.06596207 0.026793364 -0.018584983
000080 27 94 1e be e9 84 3d 3d 23 bb bd bd 3c e5 37 bd
       -0.15486203 0.04626933 -0.09264209 -0.04489635
000090 96 a5 08 3c d9 8a 0c bd 40 82 cd 3d 71 5f 0c bc
       0.00834026 -0.034312103 0.10034609 -0.008567677
0000a0 3b a9 29 3d 4f 56 d8 bd 9d fb 02 bd fb 9f 6f bd
       0.041421156 -0.10563337 -0.03197824 -0.05850218
0000b0 ee dd 59 bc 71 fb ba bc 0d 75 28 3d 3c ca 1c 3c
       -0.013297541 -0.022824975 0.041127253 0.009569701
0000c0 c9 f9 28 bd db e3 85 bd 16 66 4b be 70 6c 23 be
       -0.04125384 -0.065376006 -0.19863161 -0.15959334
0000d0 35 05 0e bd 59 df a5 3d 4c 12 b2 3d f4 7b 9c 3b
       -0.034672935 0.08099241 0.08694896 0.0047755186
0000e0 a9 8a 72 3d d0 cf 35 3d e0 b8 33 3d 5c c9 17 bc
       0.059214268 0.04438764 0.043877482 -0.009264316
0000f0 1c f7 2b 3d 4d 09 12 3e 8a c6 a7 bd c6 d8 a3 bd
       0.04198371 0.1426136 -0.08192165 -0.080003306
000100 b2 ce 54 3d fd 70 fc 3b b6 56 6a 3c a6 66 57 bd
       0.051954933 0.007703899 0.0143029 -0.052588128
000110 e8 bf b8 ba c5 ac 13 3a 59 be ea 3d b4 f3 33 3c
       -0.0014095278 0.00056333496 0.11462087 0.010983396
000120 80 95 bb bb 89 ee a8 3c 7d c8 32 bb 4c 1f a0 bc
       -0.005724609 0.020621555 -0.0027280145 -0.019546174
000130 73 b4 0d be 1b 8e 5a bd 04 e9 83 bc c9 ab 9c bd
       -0.13838367 -0.05335818 -0.016102321 -0.07649953
000140 0e 6b 65 3c d1 4a 95 3d ac 64 dd 3d d3 c1 a5 3d
       0.014002575 0.07289661 0.10810217 0.0809361
000150 97 09 2e bd 16 b8 97 3d 21 5e 7b 3c c4 27 85 bd
       -0.042489614 0.074081585 0.015342266 -0.06501725
000160 2e 1f bb bd 08 48 e9 bd 51 13 99 3c 46 8e 37 3c
       -0.091368064 -0.11390692 0.018685969 0.011203354
000170 bd 09 6d 3d dc eb 65 bc 26 46 77 3c 66 0c db 3c
       0.057870615 -0.014033284 0.015092408 0.02673931
000180 6a 53 13 bd 80 bc 1c 3c 4c 19 a4 bd 45 fb ce b9
       -0.03596822 0.009566426 -0.080126375 -0.00039478592
000190 28 44 d5 3d 04 1c 82 bd 20 e6 5b 3c 7c 4d ca 3c
       0.104133904 -0.06353 0.013421565 0.02469515
0001a0 89 68 28 3c ef b8 af bd 7e ca 7e 3d 27 ec f2 bd
       0.010278829 -0.08580195 0.06220483 -0.11861449
0001b0 b7 e8 bb 39 57 2b 1c 3d 10 bf 84 3d f0 9a bc 3d
       0.00035840806 0.03812727 0.06481755 0.092092395
0001c0 f5 f6 82 3d 28 9c 22 3c 4b 8b 38 3d 5b 0c 8d bd
       0.063947596 0.009924926 0.045054715 -0.06887122
0001d0 7e f2 b5 3c b9 88 97 bd 7f 1e 19 be 79 52 95 3c
       0.022210356 -0.07399125 -0.1495304 0.018227803
0001e0 0b fe 05 3d 93 49 89 bd 74 42 24 bd 51 f5 8f bd
       0.032712977 -0.06703486 -0.040102437 -0.07029212
0001f0 5f 94 27 3c a5 22 c5 3c e4 99 14 3d d2 27 72 bd
       0.0102282455 0.024064371 0.036279574 -0.059120007
000200 3b 87 1e bd 9d 7c 53 3d 38 d1 4a bd 28 79 94 3c
       -0.038703185 0.051632512 -0.049515933 0.018124178
000210 6d e4 63 3d 5e 30 60 bd 96 6d 5e be a3 8e d8 3c
       0.055637766 -0.054733627 -0.21721491 0.026435202
000220 71 15 04 bd 3b b1 2f bd 67 20 b8 3d 8c b1 eb 3d
       -0.03224701 -0.04289363 0.08990555 0.11508474
000230 26 ee 3f bd 05 31 b3 bd ea 12 41 bd 70 61 4f bd
       -0.046857975 -0.08749584 -0.04713718 -0.050630033
000240 43 37 bc bd ae 5e f8 3a 9a b3 d8 3c 6e e7 a7 3c
       -0.09190228 0.0018949115 0.026452828 0.020496096
000250 01 d7 79 3d 1a b2 2f bd 7f 3d f9 3c fb b5 c4 bb
       0.06099606 -0.04289446 0.030424831 -0.006003139
000260 df 3b 1d bd e5 e1 bf bc d9 a7 de 3d 6f 3b 67 3d
       -0.038387176 -0.023423145 0.10871858 0.056453165
000270 10 fc 14 3d 10 49 05 3d d3 e9 58 bd 5b e5 7c bd
       0.036373198 0.03254038 -0.052957367 -0.061742168
000280 76 bb 71 bd 40 4f e3 3c 42 2e 8c 3d 96 18 20 bc
       -0.059016667 0.02774775 0.068447605 -0.009771487
000290 0c 87 86 3d 77 e1 d0 ba 79 b8 f3 bd 49 cb ef 3d
       0.06568727 -0.0015936334 -0.1190042 0.117086954
0002a0 73 01 42 3d 2f 54 36 3d 21 a3 e3 bd ec ce 86 3c
       0.047364663 0.044513877 -0.11115099 0.01645609
0002b0 59 8f b9 3d ac 3b a8 3d cf 01 66 3d e3 20 f8 bc
       0.090605445 0.082145065 0.05615407 -0.03028912
0002c0 31 81 24 3c 40 6b f8 3c ab 0e 08 bd d6 d2 f5 3d
       0.010040567 0.030324578 -0.033217113 0.120031044
0002d0 ad 11 ce bc 2a ec 94 bd 8b 6c 56 bd 36 a9 41 bd
       -0.025154913 -0.07271607 -0.05234961 -0.047280513
0002e0 94 39 3f bd 4c dc 10 3d b8 8e 08 bd 90 2e a4 bc
       -0.04668577 0.03536634 -0.033339232 -0.020041734
0002f0 b0 7b b5 bd b1 d9 09 bd 59 db 8c 3d 05 92 3f bc
       -0.08861482 -0.033654872 0.06877775 -0.011692529
000300 a6 bc 30 bb 7b 93 5f 3b 03 36 93 3c 3f 9a 8e bd
       -0.0026967912 0.0034115005 0.01797009 -0.06963014
000310 d9 91 4b 3d 85 3e 10 3d 40 ff fe bc 1f 04 59 3c
       0.049699638 0.035215873 -0.031127572 0.013245611
000320 2b 41 95 3d f6 d5 51 bd c7 74 29 3e 3b 5d 5c bd
       0.072878204 -0.05122944 0.16548453 -0.05379985
000330 c3 29 af bc 9a 5b cf 3d 2e 0f 01 bd 5d 0d e4 bc
       -0.021382218 0.101248935 -0.031508617 -0.027838403
000340 6f 80 86 3c d3 cd 23 bd 53 86 75 3d df c0 1b 3c
       0.016418664 -0.03999121 0.059942555 0.009506433
000350 88 f0 04 3c 39 2e 19 3e 7f a0 ce 3c d5 4c 68 3d
       0.008113988 0.14959039 0.025223015 0.056713898
000360 3c f3 e3 3b a3 63 ee 3c ba 3b bb bd d9 e6 44 3d
       0.006956486 0.029100245 -0.09142251 0.048071716
000370 e3 71 52 3c bc 5f 90 bd 33 b5 b9 3c 8b f5 9b 3d
       0.0128445355 -0.0704951 0.02266941 0.07615193
000380 eb b5 c5 bd 92 0c fe 3d 14 a4 76 bd 6a 09 9b 3d
       -0.09653839 0.12404741 -0.06021507 0.07570155
000390 6e be 6e bd f1 df 49 bd 28 cc 04 bd d2 d3 9f bd
       -0.058287077 -0.049285833 -0.03242126 -0.078040734
0003a0 c4 e7 9e 3c 1f 17 bb 3c 6d 77 89 3d 3c 38 f8 bc
       0.019397624 0.022838173 0.06712232 -0.030300252
0003b0 cb 6a c3 bc 06 90 cf 3b ff ad 8e 3d 81 21 70 bd
       -0.023854634 0.0063343076 0.06966781 -0.0586257
0003c0 41 81 8d ba 05 b1 55 3e 22 1c 71 bd 62 5b 48 bd
       -0.0010795967 0.20868309 -0.05886472 -0.048915274
0003d0 98 15 d2 3d e9 73 2e 3d 88 ff d2 3d 62 61 8b 3c
       0.10258025 0.04259101 0.10302645 0.01701421
0003e0 10 55 7f 3c e8 bc c8 bd 14 4d 16 3d 43 b0 5b bd
       0.015584245 -0.09801656 0.0366946 -0.053634893
0003f0 e1 69 a6 bc 8f d6 de bd 4f 87 bc 3d 0c 3e a7 bd
       -0.020314159 -0.108807676 0.092054956 -0.081661314

base.mlp.fc1.0.bias f4 [64]
000000 e3 70 21 b7 00 00 00 00 43 57 b4 3b d5 5b 30 3a
       -9.622631e-06 0.0 0.0055035665 0.0006727551
000010 00 00 00 00 9c 34 41 bb 00 00 00 00 db 5a aa b7
       0.0 -0.002948082 0.0 -2.0307887e-05
000020 82 bf ea 3a 0c 86 04 bb 02 ff 01 bb 00 00 00 00
       0.0017909857 -0.00202215 -0.0019835834 0.0
000030 ee e9 67 3a 00 00 00 00 00 00 00 00 00 00 00 00
       0.0008846809 0.0 0.0 0.0
000040 00 00 00 00 00 00 00 00 83 33 b9 bb db dd f3 3a
       0.0 0.0 -0.0056518926 0.0018605547
000050 8b c0 78 ba 00 00 00 00 00 00 00 00 2f 08 2e 3b
       -0.00094891404 0.0 0.0 0.002655517
000060 7d 98 dc 39 86 98 9f 38 df 1b ca 3a 08 12 0c 3b
       0.00042075283 7.6101205e-05 0.0015419683 0.0021373052
000070 00 00 00 00 01 f8 a3 3a 79 31 48 3a b3 aa f3 ba
       0.0 0.0012509824 0.00076367665 -0.0018590301
000080 00 00 00 00 97 e7 5a bb e8 bd 1c bb 2d c6 06 3b
       0.0 -0.0033402198 -0.0023916904 0.00205649
000090 1f f1 66 bb cb d0 98 3a 70 ce f8 b9 50 04 61 bb
       -0.0035238934 0.0011658905 -0.00047456054 -0.0034334846
0000a0 03 71 30 3b 00 00 00 00 aa 30 3e bb 9e 9b 44 ba
       0.002692283 0.0 -0.0029020705 -0.00074999954
0000b0 95 ad bb 3a f8 1e 4c ba 64 ae a6 bb da db 3e bb
       0.0014318699 -0.0007786597 -0.005086707 -0.002912274
0000c0 00 00 00 00 eb ad ff ba 77 ea 9d ba 00 00 00 00
       0.0 -0.0019506788 -0.0012048025 0.0
0000d0 00 00 00 00 f2 8d 8c ba 18 16 a8 3a cb 88 fa bb
       0.0 -0.0010723455 0.0012823967 -0.0076457015
0000e0 00 00 00 00 00 00 00 00 00 00 00 00 e9 2b ad ba
       0.0 0.0 0.0 -0.0013211939
0000f0 ae 23 c4 ba 00 00 00 00 19 27 1f ba 00 00 00 00
       -0.0014964247 0.0 -0.00060711947 0.0

base.mlp.fc1.2.weight f4 [64]
000000 fd 6e 7f 3f 0e 0e 80 3f 9d 3b 7f 3f d2 0d 80 3f
       0.9977873 1.0004289 0.9970034 1.0004218
000010 81 ba 7f 3f d6 38 7f 3f 8b 0b 80 3f a0 c0 7f 3f
       0.9989396 0.996961 1.0003523 0.999033
000020 cc 6a 7e 3f 89 41 7f 3f 9f b0 7f 3f 94 08 80 3f
       0.9938171 0.99709374 0.9987888 1.0002618
000030 80 03 80 3f 5d d8 7f 3f 11 2d 80 3f 1c d4 80 3f
       1.0001068 0.9993952 1.0013753 1.0064731
000040 3b df 7f 3f 78 6b 80 3f e5 3c 7e 3f 54 37 80 3f
       0.9995 1.0032797 0.9931167 1.0016885
000050 8a 97 7f 3f 1c db 7f 3f d7 49 80 3f 65 09 80 3f
       0.99840605 0.9994371 1.0022534 1.0002867
000060 c2 b0 7e 3f af 7f 7e 3f ba 17 80 3f c7 3b 80 3f
       0.9948846 0.9941358 1.0007241 1.0018243
000070 e6 90 80 3f 40 7a 7f 3f 29 d8 7f 3f 6d f2 7e 3f
       1.004422 0.99795914 0.9993921 0.9958866
000080 8e 37 80 3f d6 21 80 3f 1b 39 7e 3f 2d 37 80 3f
       1.0016954 1.0010326 0.99305886 1.0016838
000090 0a 15 80 3f bf f3 7f 3f c9 32 80 3f 53 22 80 3f
       1.0006421 0.999813 1.0015498 1.0010475
0000a0 35 50 80 3f 4f ed 7f 3f 47 18 80 3f d3 2d 80 3f
       1.0024477 0.9997148 1.0007409 1.0013984
0000b0 5f 1e 80 3f b9 99 7f 3f 07 e1 80 3f 38 69 80 3f
       1.0009269 0.9984394 1.0068673 1.003211
0000c0 88 09 80 3f b7 1d 7f 3f 02 84 7f 3f 29 8f 7f 3f
       1.0002909 0.99654716 0.998108 0.9982782
0000d0 20 2b 80 3f cd 0d 80 3f 51 ec 7e 3f 78 fb 7e 3f
       1.0013161 1.0004212 0.9957934 0.9960246
0000e0 df 0d 80 3f 56 00 80 3f 6a 08 80 3f e0 93 7e 3f
       1.0004233 1.0000103 1.0002568 0.9944439
0000f0 6a 6b 7e 3f 63 32 80 3f fc 98 7e 3f 2e 25 80 3f
       0.9938265 1.0015377 0.99452186 1.0011346

base.mlp.fc1.2.bias f4 [64]
000000 a0 dc d7 39 ae c7 fd b9 59 56 c3 3b f5 82 16 3a
       0.00041172374 -0.00048404693 0.005961221 0.000574156
000010 06 00 93 3a 4f 20 1c bb af ed 9e b9 27 fe 7b b8
       0.0011215217 -0.0023822968 -0.00030313196 -6.007976e-05
000020 bb 4c f8 3a d1 5e e1 ba c8 e7 b4 ba ee 26 a0 b9
       0.0018943766 -0.0017194395 -0.0013801986 -0.00030546583
000030 7d 01 67 3a 11 75 09 3a 53 5f bc ba 1f 55 d8 bb
       0.00088121725 0.00052435795 -0.001437167 -0.006601944
000040 e2 11 de 39 38 f6 5b bb 6a ae c0 bb 3e 7f d8 3a
       0.00042356463 -0.0033563506 -0.005880167 0.0016517413
000050 bf 56 86 ba fd df 25 3a f8 0f 0e bb ea 0d d0 b9
       -0.0010249241 0.00063276273 -0.0021676999 -0.00039683218
000060 4e 7d c7 39 e6 9f bd b6 3c 1f cd 3a 3d 9b 12 3b
       0.00038049597 -5.6512536e-06 0.0015649567 0.0022370361
000070 ed 5b 94 bb c8 27 c2 3a ae 91 1e 3a 73 c9 89 b6
       -0.00452756 0.0014812881 0.00060489296 -4.10637e-06
000080 e1 a9 eb ba 20 85 9a ba 2d 1d df 3b 75 b2 ea 3a
       -0.0017979705 -0.0011788942 0.006808898 0.0017905968
000090 7f 28 3e ba 88 ba 92 3a d6 69 d2 ba 7d d2 0d bb
       -0.0007253959 0.0011194507 -0.001605327 -0.0021640353
0000a0 c1 9b 46 3b 3c 72 83 39 e0 ca 5a ba 60 b8 b7 ba
       0.003030524 0.00025071378 -0.0008346271 -0.001401674
0000b0 a9 45 be 3a 73 a7 55 ba 2f a4 d0 bb 19 10 4d bb
       0.001451661 -0.0008150257 -0.0063672285 -0.0031290113
0000c0 1b c2 c2 b9 25 91 1e bb 9e 2f 99 ba 8f 73 e6 3a
       -0.00037147183 -0.00241954 -0.0011687165 0.0017582047
0000d0 ec 42 bc ba 16 2a 99 ba 38 cc a9 3a 10 e0 85 3b
       -0.0014363206 -0.0011685516 0.0012954539 0.004085548
0000e0 00 1c b7 b9 82 fe 9f 38 b3 6e 2e b9 6c b2 ba ba
       -0.00034925342 7.6291166e-05 -0.00016635172 -0.0014243848
0000f0 4d 0d c3 ba ce de be ba b8 a0 2c ba e1 54 9c ba
       -0.0014881283 -0.001456225 -0.0006585228 -0.0011927151

base.mlp.fc_h.0.weight f4 [64, 64]
000000 a6 38 3f 3d ad 1e 59 be 58 91 16 be eb 60 9e bd
       0.046684884 -0.21203108 -0.14703882 -0.077333294
000010 c0 71 b0 bc 5f d9 40 3e 85 ea 54 be 2b aa fc 3c
       -0.021538615 0.1883292 -0.20792587 0.030842861
000020 0b 4f 40 be 9d 2a ff 3d 17 3e ce 3e 2e ec 29 bd
       -0.18780152 0.124593 0.40281746 -0.041485004
000030 8c 19 9d be f8 eb 4e be 73 4c 9f 3e 5e fb 01 3e
       -0.30683553 -0.20207202 0.31113014 0.12693545
000040 5a 3c 9b 3e 8c 21 ab bc 38 7d 9d 3d f2 72 0f be
       0.30319482 -0.02089002 0.07689899 -0.14008692
000050 56 a4 a0 be 56 7b e1 bd c4 e6 b0 be 21 4c 26 be
       -0.31375378 -0.110098526 -0.3455106 -0.16239978
000060 b0 45 c5 3d e5 40 35 3e 3f c4 ce bc a7 f4 f5 bc
       0.096324325 0.17700537 -0.025240062 -0.030023886
000070 0c e5 72 be b7 5a b4 3d 6b af cc 3d ec 91 60 3c
       -0.23720187 0.08806365 0.09994396 0.0137066655
000080 50 56 35 3e ac 12 e3 3d 7f ac 9c 3d 93 7f 3f 3e
       0.17708707 0.11087546 0.076500885 0.1870101
000090 a5 62 98 bd ab f2 07 3e 1a e6 04 be b9 bc 32 bd
       -0.0744069 0.13276164 -0.12978402 -0.04363701
0000a0 fa 4d 97 3e 27 48 a7 3c d5 3e c3 3d 77 9b 03 be
       0.2955168 0.020420147 0.09533469 -0.12852274
0000b0 e4 2c 3f 3e ba 05 5a 3d 26 4e bf bc ad f8 0a 3d
       0.18669468 0.053228118 -0.023352694 0.033928562
0000c0 56 86 9f be 00 84 10 be 6e 1d 90 3e 47 8c 16 3e
       -0.31157178 -0.14112854 0.28147453 0.14701949
0000d0 a7 71 e6 3c de 0b 24 3d 0f f6 57 3e fd f5 24 be
       0.028130366 0.04005038 0.21089958 -0.16109462
0000e0 c6 2b cb bd 83 fb 03 3e a4 4c ce 3e 36 49 58 be
       -0.099204585 0.12888913 0.40292847 -0.21121678
0000f0 91 68 a0 bd 7d 75 35 3e f7 1e 62 3e db 05 49 bd
       -0.078324445 0.177206 0.22082125 -0.04907785
000100 65 3a e9 3d e4 e4 8f bc 9c 1a c1 bd d9 a1 fb bd
       0.11388091 -0.017565198 -0.094289035 -0.12286729
000110 41 49 2f bd a8 5e 67 3d 12 0f 9d 3e 8c 6a e4 bd
       -0.04279447 0.056486756 0.3067556 -0.11153135
000120 7a 8d b3 3e dd 34 0e 3e 2f 1a ab 3d cf 63 a2 be
       0.35068876 0.13887353 0.083546035 -0.31716773
000130 1e 34 cd 3e e3 95 a5 bd 84 59 0a be f1 d2 70 3e
       0.40078825 -0.08085229 -0.1351071 0.23517968
000140 b8 d6 a5 3d 2b 36 ef be 90 4e 1e 3d de 15 3e be
       0.08097595 -0.46721014 0.03864914 -0.18563029
000150 98 ac f1 3b 4c 19 38 3e d5 63 7b be 97 79 78 3d
       0.007375311 0.179784 -0.24549802 0.060662832
000160 a2 28 02 be 91 37 14 3e 56 14 85 bc 61 c3 33 be
       -0.12710813 0.14474322 -0.016245048 -0.17555
000170 54 29 66 be 6b e4 b9 3d 24 c3 90 bc cf c2 cf bd
       -0.22476703 0.090767704 -0.017671175 -0.10144579
000180 cb 0d 01 3e e6 3c 1b bd 7a fc 60 be 24 ab ca bb
       0.12602918 -0.037899874 -0.21971312 -0.0061849523
000190 80 3f 7d be 0e 8a 12 be ac 0e 9d bb f5 94 e8 bd
       -0.24731255 -0.14310476 -0.004793009 -0.11356536
0001a0 1d ee 81 be ac 31 67 be 91 3b 74 3e 29 2f 30 3d
       -0.2537698 -0.22577542 0.23850848 0.043013725
0001b0 96 3d 6a be 78 a5 7c be 32 fd 8d 3e ad b6 7f be
       -0.22875056 -0.24672496 0.27732235 -0.24972029
0001c0 9d 1e 69 be 1d fb 86 bd 5b 18 b3 3d a8 8e 6e 3d
       -0.22765584 -0.06590865 0.0874488 0.058241516
0001d0 03 39 a4 3a fb 42 91 bd c8 56 88 be 62 37 a2 3d
       0.0012529198 -0.07092854 -0.2662871 0.0792072
0001e0 4d 88 73 3d 82 0b 27 3d 5e 5f 3f 3d f0 16 3b 3e
       0.05945616 0.04078246 0.04672181 0.18270469
0001f0 61 7c ee 3d cd 51 ed 3c 26 4e 8b 3e a2 69 be bc
       0.11644817 0.02896967 0.2720806 -0.023243729
000200 0e d3 91 bd 64 fd 00 3e b5 4c 1f 3e 2b fd 00 3e
       -0.071203336 0.12596661 0.15556605 0.12596576
000210 37 ae 7a 3e fe 4e 18 bd 96 7d 79 3d 9a 8e b2 3d
       0.2448052 -0.037184708 0.060910784 0.08718605
000220 b2 81 9a be 4b 80 a1 3c 61 e0 90 bd 6c 57 07 3e
       -0.30177075 0.019714495 -0.07074047 0.13216943
000230 a9 4f 07 3e 60 93 4b be bd f2 e3 3c 4d 12 23 3e
       0.13213982 -0.19880438 0.027825708 0.1592495
000240 56 e9 85 3e f9 a9 02 3e 3c 0f a3 bd 59 3f 80 3e
       0.26154584 0.12760152 -0.0796189 0.2504833
000250 18 15 cf 3d 17 4e 35 bd 0b bf 1f 3d 53 6a 2b 3e
       0.10111445 -0.044263925 0.039000552 0.16739778
000260 26 f0 b1 bd da 3a f7 3b 5c 70 a4 bc 62 f7 02 3e
       -0.08688383 0.0075448574 -0.020073108 0.12789682
000270 3b aa 13 be e5 72 3c be 7e 53 b6 be 97 b1 69 bd
       -0.14420407 -0.18403204 -0.35610574 -0.05705413
000280 5c 35 fb 3d dc 68 b4 bc 8b 60 e1 be 6f f5 d6 bd
       0.12266037 -0.022022657 -0.4401897 -0.104960315
000290 2d 02 a9 3c fa 63 46 be 8c b0 08 3e af 25 fd bd
       0.02063092 -0.19374076 0.13348597 -0.12360703
0002a0 be 76 52 3e 94 9c 9a 3d 63 83 fd bd 90 11 2c 3e
       0.20553109 0.07549396 -0.12378576 0.16803575
0002b0 66 9c 80 3e 54 d9 89 bd d4 53 13 3d f7 a5 13 bf
       0.25119323 -0.06730905 0.035968617 -0.5767512
0002c0 8e 37 54 be ae 7c 1f 3e 30 8d d7 bc ec dc 21 be
       -0.20724317 0.15574905 -0.02631244 -0.15806931
0002d0 c9 15 12 3d bd 48 0c be 82 fe 2f 3e 90 66 ae bc
       0.035665307 -0.13699622 0.17186931 -0.02128914
0002e0 bd f1 19 bd d5 bd b6 bc ff 4c df 3e 1b f0 d4 3d
       -0.037584055 -0.022307316 0.4361343 0.10397359
0002f0 e3 02 26 3e d4 bc 8c be d7 df 14 be 69 4b db bd
       0.16212039 -0.27487814 -0.14538513 -0.10707743
000300 5f ab 4f 3d a9 5a 25 3e b7 25 df bc 94 6b bf bd
       0.05070054 0.16147865 -0.027239664 -0.09346691
000310 eb 44 83 bd 6b 11 dd bc 76 bd 3a be de 42 e9 3e
       -0.064096294 -0.026985845 -0.18236336 0.45558828
000320 9d ab 17 3e 0b 42 1e bd 5e e7 f2 ba 1d 27 df 3d
       0.14811559 -0.038637202 -0.0018532088 0.10896132
000330 b7 af 84 3c c0 03 df bc e0 ab 23 3d 5e 99 77 bd
       0.016197069 -0.027223468 0.039958835 -0.060448997
000340 82 c1 25 be 2a 21 cd bd 96 16 87 be b0 f3 63 bd
       -0.16187099 -0.10016091 -0.2638442 -0.05565232
000350 dc ac 84 3d 5d 52 be bd ab ae 56 be 70 80 ee bd
       0.06478283 -0.09293053 -0.20965068 -0.11645591
000360 24 3f 5d bc da 49 3d 3c f5 a0 8f 3d e2 70 4e be
       -0.013503823 0.011553252 0.07013122 -0.20160249
000370 76 ce 9d 3d 59 3d cf bd 23 75 db bd 59 42 07 bf
       0.07705395 -0.10119123 -0.107157014 -0.52835613
000380 c9 91 51 3c 26 79 75 be 00 28 00 3e ab fb cb 3e
       0.012791106 -0.23971996 0.12515259 0.39840445
000390 64 4c 21 3e 1b d1 15 be 05 9b 8a be c1 05 65 bd
       0.15751797 -0.14630549 -0.27071396 -0.05591369
0003a0 d3 bd 35 3e 04 cf 3a be 90 b6 e1 be f6 08 8a bd
       0.17748193 -0.18243033 -0.44084597 -0.067399904
0003b0 3c 84 f2 3d bf ad 28 be 1b 4f 06 3d d0 90 93 bd
       0.11841628 -0.16472529 0.032790285 -0.07205355
0003c0 fc bd cd bc 3c 0f 4b bc 54 4a c7 3d 4d e3 73 3d
       -0.025115006 -0.012393769 0.09730974 0.059542943
0003d0 07 e1 22 3d b9 95 48 be 44 7f 14 be 29 e8 11 3d
       0.039765384 -0.19588365 -0.14501673 0.035621796
0003e0 6f 08 b2 bc 8f 45 b9 be 6b bb 80 3c 4f 78 96 3b
       -0.021732537 -0.36185881 0.015714368 0.0045919786
0003f0 0f 62 2e 3e c2 4e 9c 3d 6b 20 1c bd 9b 19 f7 3e
       0.17029594 0.07632209 -0.038116854 0.48261723

base.mlp.fc_h.0.bias f4 [64]
000000 00 00 00 00 00 00 00 00 00 00 00 00 00 00 00 00
       0.0 0.0 0.0 0.0
000010 00 00 00 00 00 00 00 00 00 00 00 00 00 00 00 00
       0.0 0.0 0.0 0.0
000020 00 00 00 00 00 00 00 00 00 00 00 00 00 00 00 00
       0.0 0.0 0.0 0.0
000030 00 00 00 00 00 00 00 00 00 00 00 00 00 00 00 00
       0.0 0.0 0.0 0.0
000040 00 00 00 00 00 00 00 00 00 00 00 00 00 00 00 00
       0.0 0.0 0.0 0.0
000050 00 00 00 00 00 00 00 00 00 00 00 00 00 00 00 00
       0.0 0.0 0.0 0.0
000060 00 00 00 00 00 00 00 00 00 00 00 00 00 00 00 00
       0.0 0.0 0.0 0.0
000070 00 00 00 00 00 00 00 00 00 00 00 00 00 00 00 00
       0.0 0.0 0.0 0.0
000080 00 00 00 00 00 00 00 00 00 00 00 00 00 00 00 00
       0.0 0.0 0.0 0.0
000090 00 00 00 00 00 00 00 00 00 00 00 00 00 00 00 00
       0.0 0.0 0.0 0.0
0000a0 00 00 00 00 00 00 00 00 00 00 00 00 00 00 00 00
       0.0 0.0 0.0 0.0
0000b0 00 00 00 00 00 00 00 00 00 00 00 00 00 00 00 00
       0.0 0.0 0.0 0.0
0000c0 00 00 00 00 00 00 00 00 00 00 00 00 00 00 00 00
       0.0 0.0 0.0 0.0
0000d0 00 00 00 00 00 00 00 00 00 00 00 00 00 00 00 00
       0.0 0.0 0.0 0.0
0000e0 00 00 00 00 00 00 00 00 00 00 00 00 00 00 00 00
       0.0 0.0 0.0 0.0
0000f0 00 00 00 00 00 00 00 00 00 00 00 00 00 00 00 00
       0.0 0.0 0.0 0.0

base.mlp.fc_h.2.weight f4 [64]
000000 00 00 80 3f 00 00 80 3f 00 00 80 3f 00 00 80 3f
       1.0 1.0 1.0 1.0
000010 00 00 80 3f 00 00 80 3f 00 00 80 3f 00 00 80 3f
       1.0 1.0 1.0 1.0
000020 00 00 80 3f 00 00 80 3f 00 00 80 3f 00 00 80 3f
       1.0 1.0 1.0 1.0
000030 00 00 80 3f 00 00 80 3f 00 00 80 3f 00 00 80 3f
       1.0 1.0 1.0 1.0
000040 00 00 80 3f 00 00 80 3f 00 00 80 3f 00 00 80 3f
       1.0 1.0 1.0 1.0
000050 00 00 80 3f 00 00 80 3f 00 00 80 3f 00 00 80 3f
       1.0 1.0 1.0 1.0
000060 00 00 80 3f 00 00 80 3f 00 00 80 3f 00 00 80 3f
       1.0 1.0 1.0 1.0
000070 00 00 80 3f 00 00 80 3f 00 00 80 3f 00 00 80 3f
       1.0 1.0 1.0 1.0
000080 00 00 80 3f 00 00 80 3f 00 00 80 3f 00 00 80 3f
       1.0 1.0 1.0 1.0
000090 00 00 80 3f 00 00 80 3f 00 00 80 3f 00 00 80 3f
       1.0 1.0 1.0 1.0
0000a0 00 00 80 3f 00 00 80 3f 00 00 80 3f 00 00 80 3f
       1.0 1.0 1.0 1.0
0000b0 00 00 80 3f 00 00 80 3f 00 00 80 3f 00 00 80 3f
       1.0 1.0 1.0 1.0
0000c0 00 00 80 3f 00 00 80 3f 00 00 80 3f 00 00 80 3f
       1.0 1.0 1.0 1.0
0000d0 00 00 80 3f 00 00 80 3f 00 00 80 3f 00 00 80 3f
       1.0 1.0 1.0 1.0
0000e0 00 00 80 3f 00 00 80 3f 00 00 80 3f 00 00 80 3f
       1.0 1.0 1.0 1.0
0000f0 00 00 80 3f 00 00 80 3f 00 00 80 3f 00 00 80 3f
       1.0 1.0 1.0 1.0

base.mlp.fc_h.2.bias f4 [64]
000000 00 00 00 00 00 00 00 00 00 00 00 00 00 00 00 00
       0.0 0.0 0.0 0.0
000010 00 00 00 00 00 00 00 00 00 00 00 00 00 00 00 00
       0.0 0.0 0.0 0.0
000020 00 00 00 00 00 00 00 00 00 00 00 00 00 00 00 00
       0.0 0.0 0.0 0.0
000030 00 00 00 00 00 00 00 00 00 00 00 00 00 00 00 00
       0.0 0.0 0.0 0.0
000040 00 00 00 00 00 00 00 00 00 00 00 00 00 00 00 00
       0.0 0.0 0.0 0.0
000050 00 00 00 00 00 00 00 00 00 00 00 00 00 00 00 00
       0.0 0.0 0.0 0.0
000060 00 00 00 00 00 00 00 00 00 00 00 00 00 00 00 00
       0.0 0.0 0.0 0.0
000070 00 00 00 00 00 00 00 00 00 00 00 00 00 00 00 00
       0.0 0.0 0.0 0.0
000080 00 00 00 00 00 00 00 00 00 00 00 00 00 00 00 00
       0.0 0.0 0.0 0.0
000090 00 00 00 00 00 00 00 00 00 00 00 00 00 00 00 00
       0.0 0.0 0.0 0.0
0000a0 00 00 00 00 00 00 00 00 00 00 00 00 00 00 00 00
       0.0 0.0 0.0 0.0
0000b0 00 00 00 00 00 00 00 00 00 00 00 00 00 00 00 00
       0.0 0.0 0.0 0.0
0000c0 00 00 00 00 00 00 00 00 00 00 00 00 00 00 00 00
       0.0 0.0 0.0 0.0
0000d0 00 00 00 00 00 00 00 00 00 00 00 00 00 00 00 00
       0.0 0.0 0.0 0.0
0000e0 00 00 00 00 00 00 00 00 00 00 00 00 00 00 00 00
       0.0 0.0 0.0 0.0
0000f0 00 00 00 00 00 00 00 00 00 00 00 00 00 00 00 00
       0.0 0.0 0.0 0.0

base.mlp.fc2.0.0.weight f4 [64, 64]
000000 7c 76 39 3d 58 95 59 be 7e 2e 15 be 42 5d 9c bd
       0.04527901 -0.21248376 -0.14568517 -0.07634975
000010 67 04 b4 bc d9 54 41 3e 32 5d 55 be 3a c4 01 3d
       -0.021974755 0.18880023 -0.20836332 0.031681277
000020 66 05 3b be d2 eb fe 3d df 0f cd 3e 89 ba 2b bd
       -0.18263778 0.12447323 0.4005117 -0.04192594
000030 26 af 9c be a5 62 4f be 10 11 9f 3e 10 83 01 3e
       -0.30602378 -0.20252474 0.31067705 0.12647653
000040 23 01 9b 3e c3 d5 ae bc 61 31 9d 3d 58 28 0f be
       0.30274305 -0.021342164 0.07675434 -0.13980234
000050 e2 c8 a0 be 99 5f e2 bd 38 20 b1 be ca d6 26 be
       -0.3140326 -0.1105339 -0.34594893 -0.16292873
000060 0e 2e c7 3d 5b b8 33 3e ac fa c1 bc d1 b9 ef bc
       0.09725581 0.17550795 -0.0236791 -0.029263409
000070 12 5c 73 be 86 d1 b4 3d 2a e4 c8 3d f3 19 6c 3c
       -0.23765591 0.08829026 0.09809144 0.014410484
000080 52 df 34 3e 6a fe e1 3d 5e b3 9b 3d 21 dc 3f 3e
       0.17663315 0.11034854 0.07602571 0.18736316
000090 7e 52 99 bd 2f 1a 09 3e 35 11 06 be b3 51 38 bd
       -0.07486437 0.13388894 -0.13092501 -0.04499979
0000a0 d5 73 97 3e 30 93 a3 3c 88 50 c2 3d 11 e6 03 be
       0.2958056 0.019967645 0.09488016 -0.12880732
0000b0 11 ae 40 3e 36 79 5a 3d 19 b1 cb bc 15 3d 09 3d
       0.18816401 0.053338252 -0.02486472 0.033505518
0000c0 47 c1 9f be 5f b2 11 be 6a 43 90 3e 72 19 16 3e
       -0.31202146 -0.142282 0.28176433 0.14658144
0000d0 cf b9 e2 3c 55 20 25 3d f4 91 5a 3e 0a 69 25 be
       0.027676491 0.040314037 0.21344739 -0.1615335
0000e0 df 10 cc bd 28 89 03 3e 57 13 ce 3e 82 f5 54 be
       -0.099641554 0.1284529 0.4024913 -0.20796779
0000f0 16 fe a0 bd bf 02 35 3e 81 a6 60 3e 05 e1 4a bd
       -0.07860963 0.17676829 0.21938516 -0.049531
000100 65 3a e9 3d e4 e4 8f bc 9c 1a c1 bd d9 a1 fb bd
       0.11388091 -0.017565198 -0.094289035 -0.12286729
000110 41 49 2f bd a8 5e 67 3d 12 0f 9d 3e 8c 6a e4 bd
       -0.04279447 0.056486756 0.3067556 -0.11153135
000120 7a 8d b3 3e dd 34 0e 3e 2f 1a ab 3d cf 63 a2 be
       0.35068876 0.13887353 0.083546035 -0.31716773
000130 1e 34 cd 3e e3 95 a5 bd 84 59 0a be f1 d2 70 3e
       0.40078825 -0.08085229 -0.1351071 0.23517968
000140 b8 d6 a5 3d 2b 36 ef be 90 4e 1e 3d de 15 3e be
       0.08097595 -0.46721014 0.03864914 -0.18563029
000150 98 ac f1 3b 4c 19 38 3e d5 63 7b be 97 79 78 3d
       0.007375311 0.179784 -0.24549802 0.060662832
000160 a2 28 02 be 91 37 14 3e 56 14 85 bc 61 c3 33 be
       -0.12710813 0.14474322 -0.016245048 -0.17555
000170 54 29 66 be 6b e4 b9 3d 24 c3 90 bc cf c2 cf bd
       -0.22476703 0.090767704 -0.017671175 -0.10144579
000180 cb 0d 01 3e e6 3c 1b bd 7a fc 60 be 24 ab ca bb
       0.12602918 -0.037899874 -0.21971312 -0.0061849523
000190 80 3f 7d be 0e 8a 12 be ac 0e 9d bb f5 94 e8 bd
       -0.24731255 -0.14310476 -0.004793009 -0.11356536
0001a0 1d ee 81 be ac 31 67 be 91 3b 74 3e 29 2f 30 3d
       -0.2537698 -0.22577542 0.23850848 0.043013725
0001b0 96 3d 6a be 78 a5 7c be 32 fd 8d 3e ad b6 7f be
       -0.22875056 -0.24672496 0.27732235 -0.24972029
0001c0 9d 1e 69 be 1d fb 86 bd 5b 18 b3 3d a8 8e 6e 3d
       -0.22765584 -0.06590865 0.0874488 0.058241516
0001d0 03 39 a4 3a fb 42 91 bd c8 56 88 be 62 37 a2 3d
       0.0012529198 -0.07092854 -0.2662871 0.0792072
0001e0 4d 88 73 3d 82 0b 27 3d 5e 5f 3f 3d f0 16 3b 3e
       0.05945616 0.04078246 0.04672181 0.18270469
0001f0 61 7c ee 3d cd 51 ed 3c 26 4e 8b 3e a2 69 be bc
       0.11644817 0.02896967 0.2720806 -0.023243729
000200 04 5e 90 bd 1f a5 ff 3d f8 3c 1a 3e 76 1d 03 3e
       -0.07049182 0.12482666 0.1506232 0.12804207
000210 7e 7f 79 3e 7a 06 13 bd 93 c3 74 3d b0 18 b3 3d
       0.2436504 -0.03589485 0.059756827 0.08744943
000220 b2 d5 9d be 37 0a a9 3c 36 59 8c bd 48 2a 06 3e
       -0.308271 0.020634754 -0.06852953 0.13102067
000230 e5 37 07 3e 1d be 4c be 2e 9c da 3c 37 e8 21 3e
       0.13204916 -0.19994397 0.0266858 0.15811239
000240 fa 53 85 3e 63 7e 01 3e a2 46 a1 bd 1f c8 80 3e
       0.26040632 0.12645869 -0.078748 0.2515268
000250 42 ae d4 3d bd 09 3a bd d5 03 1b 3d cf 2e 2a 3e
       0.103847995 -0.045419443 0.03784545 0.16619419
000260 91 07 c1 bd 94 f1 65 3c 00 0a 9a bc d0 e6 03 3e
       -0.09425271 0.0140346475 -0.018803596 0.12881017
000270 f1 d4 14 be b5 25 3e be 90 9a b5 be 0b 00 7d bd
       -0.14534356 -0.18569072 -0.35469484 -0.06176762
000280 56 e0 f8 3d 4e a1 bd bc 68 ef e1 be 89 2a d4 bd
       0.12152164 -0.023148205 -0.44127965 -0.103596754
000290 dc c8 9f 3c c5 98 46 be 18 28 07 3e 37 88 fd bd
       0.019504957 -0.19394214 0.13198888 -0.123794965
0002a0 c3 ab 52 3e b2 46 98 3d 1e d8 ff bd 83 d1 2a 3e
       0.20573334 0.07435359 -0.12492393 0.16681485
0002b0 3f e5 80 3e 9b f6 85 bd e2 83 0e 3d 74 f1 13 bf
       0.251749 -0.06541177 0.034793742 -0.57790303
0002c0 02 62 55 be bf 23 25 3e a4 d9 c8 bc f7 0a 23 be
       -0.20838168 0.16126917 -0.024517842 -0.15922152
0002d0 94 6c 0d 3d d7 bb 0d be a2 66 2b 3e 35 2a b8 bc
       0.034527376 -0.13841186 0.1673837 -0.022481063
0002e0 a1 ac 1e bd 76 36 c0 bc 7a b5 de 3e 83 65 ce 3d
       -0.03873885 -0.023463469 0.4349783 0.100779556
0002f0 79 97 2b 3e 3d 54 8d be 9d 8d 0d be e0 a0 dd bd
       0.16757001 -0.2760333 -0.13823552 -0.108217
000300 19 b0 3d 3d a1 6e 22 3e a0 34 c5 bc 0c fc bb bd
       0.046310518 0.15862514 -0.024072945 -0.091789335
000310 fb 15 89 bd 02 a6 c5 bc 69 a6 3d be 8e 41 eb 3e
       -0.066936456 -0.02412701 -0.18520512 0.45948452
000320 3f 98 1c 3e 57 9c 0f bd 65 6c db bb 3b 51 d9 3d
       0.15292452 -0.035061207 -0.0066962712 0.106111966
000330 cd 55 a3 3c 8a 65 f6 bc 64 fb 17 3d 5d a7 81 bd
       0.019938374 -0.030077714 0.03710498 -0.0633075
000340 83 ad 28 be 09 f7 d2 bd ac 7c 85 be 34 6a 57 bd
       -0.1647244 -0.103010245 -0.2607168 -0.052591518
000350 be 6f 84 3d cb 22 c4 bd 42 97 59 be e6 26 f4 bd
       0.06466626 -0.09576949 -0.21249107 -0.11921482
000360 00 97 22 bb ac cd 46 3b 30 e9 96 3d 2f 13 4b be
       -0.0024809241 0.0030334992 0.07368696 -0.19831537
000370 c7 f5 97 3d 89 40 d2 bd b5 1b d8 bd 3f 8b 06 bf
       0.07419925 -0.10266215 -0.1055216 -0.5255622
000380 fc c9 22 3c a9 73 78 be 45 51 fa 3d 97 58 cd 3e
       0.009935852 -0.24262871 0.12222532 0.4010665
000390 de 5c 1e 3e d3 8d 11 be 62 d9 8b be 05 d8 75 bd
       0.15465114 -0.14214258 -0.27314287 -0.060020465
0003a0 0c 93 39 3e ef ba 3d be c7 2c e3 be cd c0 8f bd
       0.181225 -0.18528341 -0.443701 -0.07019196
0003b0 5d 41 f8 3d 72 ac 26 be a6 5b f5 3c 92 5d 99 bd
       0.12121842 -0.1627672 0.029950928 -0.0748855
0003c0 33 21 e5 bc 82 24 aa bc e9 e3 cb 3d b2 3c 68 3d
       -0.027969932 -0.020769361 0.0995558 0.05669851
0003d0 79 2e 17 3d b2 bb 4a be 78 81 0c be 5f 69 06 3d
       0.036909554 -0.19798163 -0.13721263 0.032815333
0003e0 7b 4d c9 bc a2 b9 ba be a7 f2 52 3c 36 25 e4 3b
       -0.024573078 -0.36469752 0.012875236 0.0069624437
0003f0 c6 b2 25 3e bc 7d 96 3d 6c 6d 3d bd 82 a3 f5 3e
       0.16181478 0.07348201 -0.04624693 0.4797631

base.mlp.fc2.0.0.bias f4 [64]
000000 a3 3b d2 39 00 00 00 00 16 f7 9e 3a ab ec 37 3b
       0.00040098754 0.0 0.0012128081 0.002806465
000010 00 00 00 00 00 00 00 00 16 40 b9 b9 b7 3a 3a b9
       0.0 0.0 -0.00035333697 -0.00017760215
000020 e2 76 01 3a 00 00 00 00 fd f5 05 3b 4a 25 43 ba
       0.00049386744 0.0 0.002044081 -0.0007444216
000030 7c f5 1b ba 2b 1f 7d 3a 50 be f1 b8 00 00 00 00
       -0.0005949361 0.00096558285 -0.00011527224 0.0
000040 00 00 00 00 04 2b a1 3a bb c9 54 bb 87 16 4c 3a
       0.0 0.0012296145 -0.0032468874 0.0007785339
000050 00 00 00 00 2e 3f f0 b8 00 00 00 00 55 11 56 bb
       0.0 -0.0001145586 0.0 -0.003266414
000060 42 b3 e6 3a a3 7b 2f ba 00 9f 84 3a 67 42 2d bb
       0.001760103 -0.00066941435 0.0010118186 -0.0026437284
000070 fd e1 6c 3b 90 16 81 3b cc 0a 57 b8 e0 2b f3 3a
       0.0036145442 0.0039394572 -5.127005e-05 0.0018552504
000080 7b 27 1d bb 0f bf e6 3b 08 bd ad 37 f4 0e 04 bc
       -0.002397983 0.007041819 2.0711232e-05 -0.008060206
000090 e7 b0 44 bb b9 81 5d 3b 45 3a 06 bc 00 00 00 00
       -0.0030012669 0.0033799245 -0.0081926035 0.0
0000a0 00 00 00 00 bc 16 d9 b9 00 00 00 00 00 00 00 00
       0.0 -0.00041406404 0.0 0.0
0000b0 00 00 00 00 c7 a0 8a 3b 98 a3 16 3b 32 ce 1f 3a
       0.0 0.004230592 0.0022985693 0.0006096094
0000c0 43 60 43 bb 00 00 00 00 00 00 00 00 67 e8 6a b8
       -0.0029812015 0.0 0.0 -5.600639e-05
0000d0 b7 84 1c 3a 00 00 00 00 00 00 00 00 eb f5 4b 3a
       0.0005970704 0.0 0.0 0.000778048
0000e0 00 00 00 00 00 00 00 00 6a f3 13 3b c5 d2 85 39
       0.0 0.0 0.0022575506 0.00025524772
0000f0 d9 9a 27 bb 92 6f 64 3b ae 59 bc bb 00 00 00 00
       -0.0025574474 0.003485654 -0.0057479953 0.0

base.mlp.fc2.0.2.weight f4 [64]
000000 a6 05 80 3f 9d e3 7f 3f 18 ee 7f 3f c1 43 80 3f
       1.0001724 0.99956685 0.9997268 1.0020677
000010 65 1e 80 3f e4 fd 7f 3f 46 a4 7f 3f 20 6e 7f 3f
       1.0009276 0.9999678 0.99860036 0.9977741
000020 3b a3 7e 3f 4a 1f 80 3f 45 34 80 3f 9f 2d 7e 3f
       0.9946782 1.0009549 1.0015951 0.9928836
000030 eb 39 7e 3f 0c 24 80 3f a4 d9 7f 3f 4c 1a 80 3f
       0.99307126 1.0011001 0.9994147 1.0008025
000040 a8 88 7f 3f 26 c3 7f 3f f6 1d 80 3f 1a 8b 7f 3f
       0.99817896 0.9990715 1.0009143 0.9982163
000050 67 d4 7f 3f 91 72 7f 3f 68 13 80 3f ac 4d 80 3f
       0.99933475 0.9978419 1.0005922 1.0023704
000060 6d 62 80 3f ce 19 80 3f 53 bf 7e 3f 17 f9 7e 3f
       1.0030037 1.0007875 0.9951069 0.9959883
000070 3a 77 80 3f 81 03 7f 3f 58 2c 7f 3f c1 49 7f 3f
       1.0036385 0.9961472 0.9967704 0.99721915
000080 14 79 7f 3f 8b 27 81 3f 82 cd 7f 3f e5 4b 81 3f
       0.99794126 1.0090193 0.99922955 1.0101286
000090 26 03 80 3f d1 05 7f 3f f6 97 7e 3f ee e5 7f 3f
       1.0000961 0.9961825 0.99450624 0.9996022
0000a0 3f 01 80 3f e2 9a 7f 3f 26 30 80 3f bc f4 7f 3f
       1.000038 0.9984571 1.0014694 0.9998281
0000b0 90 48 80 3f 93 bf 80 3f 6c 54 80 3f db 0a 7e 3f
       1.0022144 1.0058464 1.0025764 0.99235314
0000c0 f4 c0 80 3f 74 0b 80 3f 29 13 80 3f 02 0d 7f 3f
       1.0058885 1.0003495 1.0005847 0.99629223
0000d0 a6 01 80 3f 45 7f 81 3f 4a 8d 80 3f 3b b9 7f 3f
       1.0000503 1.0116965 1.0043118 0.99892014
0000e0 aa fc 7d 3f 43 23 80 3f af 2b 80 3f 32 73 7f 3f
       0.9921366 1.0010761 1.0013331 0.9978515
0000f0 4f b1 80 3f cf 16 80 3f 9e 33 80 3f 2d be 7f 3f
       1.005411 1.0006961 1.0015752 0.9989956

base.mlp.fc2.0.2.bias f4 [64]
000000 9e cc 24 3a 29 aa 94 39 51 49 fb 3a 65 7f 1d 3b
       0.0006286594 0.0002835554 0.001917163 0.0024032232
000010 5f f5 4f ba 4e ca 32 39 c3 16 76 b8 32 29 b0 b9
       -0.00079329865 0.00017050767 -5.867217e-05 -0.0003360003
000020 73 92 a9 39 07 5c 5a ba 8d 55 02 3b f3 ea 23 ba
       0.00032343305 -0.0008329753 0.0019887418 -0.00062529667
000030 43 7d 46 ba a5 76 cb 3a 30 d1 c9 b8 4d 25 31 ba
       -0.0007571766 0.001552303 -9.623391e-05 -0.00067575724
000040 2a 95 00 3b 0e f8 8b 3a f9 59 8a ba 8a 5d 8f 3a
       0.0019620159 0.0010678784 -0.0010555378 0.0010937911
000050 92 8b 52 3a 95 59 5e 39 ed 1d 42 ba 49 48 2b bb
       0.0008031662 0.00021204942 -0.0007404972 -0.0026135615
000060 dc f7 ff 3a 80 d6 62 ba b3 4d bf 3a 71 65 87 3b
       0.0019528824 -0.0008653179 0.00145953 0.004131966
000070 7a b3 70 3b da 3d 7e 3b 6e a7 0b 3a c1 43 03 3b
       0.003672807 0.003879419 0.0005327378 0.0020029398
000080 02 f1 d6 ba 42 42 f1 3b ad cc f2 b7 20 46 31 bc
       -0.001639873 0.007362635 -2.8943958e-05 -0.010819942
000090 35 78 ed b9 b1 0d 56 3b bf fc ec bb f6 fc 0c 3a
       -0.00045293724 0.003266197 -0.007232278 0.000537827
0000a0 48 56 d2 38 63 b2 36 38 6c 69 af ba c9 37 b2 38
       0.000100296515 4.3558317e-05 -0.0013382859 8.498092e-05
0000b0 3b 84 18 bb d1 71 b5 bb ec 17 45 3b 84 25 5e 3a
       -0.0023272175 -0.0055372496 0.0030074073 0.0008474218
0000c0 81 db c3 bb 26 e8 4e b9 c0 6e 3c ba d5 a5 e2 36
       -0.0059770946 -0.00019732173 -0.0007188134 6.7546302e-06
0000d0 95 91 17 3a ae 0f 42 bc cf d2 91 bb 20 17 95 3a
       0.0005781886 -0.011844559 -0.004450179 0.001137469
0000e0 19 cb 00 3c 1b 92 9e ba 64 94 39 3b 8d d8 2f 3a
       0.007860922 -0.0012097986 0.0028317207 0.0006707989
0000f0 2b 63 ae bb 9c a4 5c 3b 69 76 e0 ba af bc 93 3a
       -0.0053218803 0.003366745 -0.0017125133 0.0011271442
