MAPPO/results/MyEnv/MyEnv/rmappo/check/run4/models/critic_agent0.pt (torch, 250595 bytes, 21 tensors)

base.feature_norm.weight f4 [411]
000000 6e 1b 7e 3f cb 2f 80 3f af d2 7f 3f b2 48 80 3f
       0.99260604 1.0014585 0.9993085 1.0022185
000010 5b b9 7f 3f 37 b9 7f 3f 36 22 80 3f 04 33 80 3f
       0.99892205 0.9989199 1.001044 1.0015569
000020 35 6e 7f 3f f5 05 80 3f 97 ac 7e 3f 3f f9 7f 3f
       0.9977754 1.0001818 0.994821 0.99989694
000030 80 06 80 3f 90 0d 80 3f 4e ec 7f 3f 54 10 80 3f
       1.0001984 1.0004139 0.9996995 1.0004983
000040 f6 93 7f 3f 3a 1b 80 3f ee aa 7f 3f ae da 7f 3f
       0.99835145 1.0008309 0.99870193 0.99943054
000050 70 04 80 3f db cd 7f 3f 8d cd 7f 3f 5f 38 80 3f
       1.0001354 0.99923486 0.9992302 1.0017203
000060 43 b8 7f 3f 9a 19 80 3f fe 03 80 3f 99 7c 7d 3f
       0.99890536 1.0007813 1.0001218 0.99018246
000070 7a 35 80 3f f2 42 80 3f 63 ef 7f 3f 6a ec 7f 3f
       1.001632 1.002043 0.9997465 0.99970114
000080 01 af 7f 3f 47 d3 7f 3f f5 d9 7f 3f 2e 8b 7f 3f
       0.9987641 0.9993176 0.9994195 0.99821746
000090 3c eb 7f 3f d3 08 80 3f 3a fc 7f 3f 8b bc 7f 3f
       0.99968314 1.0002693 0.9999424 0.9989707
0000a0 50 ee 7f 3f 77 ec 7f 3f 3d f1 80 3f ff 09 80 3f
       0.9997301 0.9997019 1.007362 1.000305
0000b0 12 14 80 3f 65 c3 7f 3f 70 4b 80 3f 01 b0 7f 3f
       1.0006125 0.99907523 1.0023022 0.99877936
0000c0 70 f0 7f 3f f0 bd 7f 3f 28 3c 7d 3f e1 30 7f 3f
       0.99976254 0.99899197 0.98919916 0.9968396
0000d0 04 2e 7f 3f 1d 05 7f 3f bc d5 7f 3f eb 3a 81 3f
       0.9967959 0.9961718 0.9993551 1.0096105
0000e0 1b 03 80 3f c7 57 7f 3f 84 dd 7f 3f f6 cc 7f 3f
       1.0000948 0.9974331 0.9994738 0.9992212
0000f0 65 39 80 3f 52 de 7f 3f c0 14 80 3f e5 af 7f 3f
       1.0017515 0.9994861 1.0006332 0.9987777
000100 15 de 7f 3f 96 11 80 3f f3 20 80 3f 6d d6 7f 3f
       0.99948245 1.0005367 1.0010055 0.9993656
000110 ef f1 7f 3f d8 aa 7f 3f a6 c8 80 3f 48 c4 7f 3f
       0.99978536 0.9987006 1.0061233 0.99908876
000120 05 2e 80 3f a5 29 7e 3f a1 1f 80 3f 8e 1c 7f 3f
       1.0014044 0.99282295 1.0009652 0.99652946
000130 ed ba 7f 3f 04 81 7f 3f a1 10 80 3f c0 f6 7f 3f
       0.998946 0.9980624 1.0005075 0.99985886
000140 86 cc 7e 3f a1 97 80 3f d8 60 81 3f e9 1d 80 3f
       0.9953083 1.0046273 1.0107679 1.0009128
000150 04 29 80 3f e9 a7 7f 3f ce 94 7f 3f b4 17 80 3f
       1.0012517 0.99865586 0.9983643 1.0007234
000160 a9 38 7f 3f a0 24 80 3f 1a 1c 80 3f 7f 69 7f 3f
       0.9969583 1.0011177 1.0008576 0.9977035
000170 5a f3 7f 3f 8c 5f 7d 3f 87 05 7f 3f 7a 07 80 3f
       0.999807 0.9897392 0.9961781 1.0002282
000180 a8 fb 7f 3f 58 5c 7e 3f fe cd 7f 3f e5 49 80 3f
       0.9999337 0.99359655 0.99923694 1.0022551
000190 8c a2 7e 3f 63 22 80 3f 4e f4 7f 3f c3 18 80 3f
       0.99466777 1.0010494 0.99982154 1.0007557
0001a0 60 1d 80 3f 57 77 7f 3f 9a b6 7e 3f ec 13 80 3f
       1.0008965 0.99791473 0.9949738 1.000608
0001b0 e0 26 80 3f 5a a5 7f 3f 42 db 7f 3f 6e 06 80 3f
       1.0011864 0.9986168 0.99943936 1.0001962
0001c0 df a7 7e 3f 9a 66 80 3f 80 ff 7f 3f 26 07 80 3f
       0.994749 1.0031312 0.9999924 1.0002182
0001d0 bf 21 80 3f 15 7b 7f 3f 44 13 80 3f 58 d2 7f 3f
       1.0010298 0.99797183 1.0005879 0.99930334
0001e0 9c d9 7f 3f 26 36 80 3f e1 cf 7e 3f 04 09 80 3f
       0.9994142 1.0016525 0.9953595 1.0002751
0001f0 d7 62 7f 3f 5c 5f 80 3f 21 d5 7f 3f 4a 75 7f 3f
       0.9976019 1.0029101 0.99934584 0.99788344
000200 24 05 80 3f cc 05 80 3f 63 bc 7f 3f 8c 6c 7f 3f
       1.0001569 1.0001769 0.9989683 0.99775004
000210 bc 73 7e 3f b4 26 80 3f ad 4d 7e 3f 42 f3 7f 3f
       0.99395347 1.0011811 0.99337274 0.99980557
000220 a0 06 80 3f d9 75 80 3f 74 8d 7f 3f 27 e3 7f 3f
       1.0002022 1.0035964 0.99825215 0.9995598
000230 8d 76 7f 3f d1 31 81 3f 6a df 7e 3f 65 e0 7f 3f
       0.9979027 1.0093328 0.9955965 0.99951774
000240 87 0e 80 3f 07 f8 7f 3f 0a 0c 81 3f 59 98 7e 3f
       1.0004433 0.99987835 1.0081799 0.99451214
000250 4b 49 7f 3f b5 32 80 3f 59 d7 7f 3f c6 b3 7e 3f
       0.9972121 1.0015475 0.9993797 0.9949306
000260 a1 8e 80 3f 76 6d 7e 3f b2 a5 7f 3f d0 9a 7f 3f
       1.0043527 0.99385774 0.99862206 0.998456
000270 ea 02 80 3f ed 1d 80 3f a8 74 7f 3f aa 97 7d 3f
       1.0000889 1.0009133 0.9978738 0.99059546
000280 26 1e 80 3f 13 3a 80 3f bb 69 80 3f 90 5f 7e 3f
       1.00092 1.0017723 1.0032266 0.99364567
000290 b6 7d 7e 3f c0 16 80 3f cb 84 7e 3f b5 77 7f 3f
       0.9941057 1.0006943 0.99421376 0.99792033
0002a0 11 ac 7f 3f 06 0f 80 3f cb a9 7f 3f 4c 79 80 3f
       0.9987193 1.0004585 0.9986846 1.0037017
0002b0 46 6b 7f 3f 0c a0 7f 3f 04 5f 80 3f 2a 05 80 3f
       0.9977306 0.9985359 1.0028996 1.0001576
0002c0 d4 eb 7f 3f f6 7f 7f 3f 17 e6 7f 3f 0b ee 7f 3f
       0.9996922 0.9980463 0.99960464 0.999726
0002d0 61 ed 7f 3f 2d f0 7f 3f b0 4a 80 3f 8d e3 7f 3f
       0.99971586 0.99975854 1.0022793 0.9995659
0002e0 42 b5 7f 3f 86 07 80 3f ae 3d 80 3f ec ac 7f 3f
       0.9988595 1.0002296 1.0018823 0.9987323
0002f0 a2 c2 7f 3f e5 6e 7e 3f 98 44 80 3f 9b e0 7f 3f
       0.9990636 0.9938796 1.0020933 0.99952096
000300 3f f0 7f 3f 07 82 7f 3f 81 56 7f 3f 03 97 7f 3f
       0.9997596 0.9980778 0.9974137 0.998398
000310 9b e0 7f 3f 5c b3 7f 3f d6 04 80 3f 58 16 80 3f
       0.99952096 0.99883056 1.0001476 1.0006819
000320 35 93 7f 3f 96 b9 7e 3f 32 9b 7f 3f ff fa 7f 3f
       0.99833995 0.9950193 0.99846184 0.99992365
000330 3a 21 80 3f 24 5e 81 3f 34 30 7e 3f e5 fc 7f 3f
       1.001014 1.0106854 0.992923 0.9999526
000340 14 5e 7f 3f 05 e6 7e 3f 60 52 7f 3f 2b 29 80 3f
       0.99752927 0.9956973 0.9973507 1.0012563
000350 49 28 80 3f 91 3f 7f 3f cc 53 7d 3f a1 30 80 3f
       1.0012294 0.9970637 0.9895599 1.001484
000360 c9 0f 80 3f c6 9e 7f 3f ea ff 7f 3f 40 fd 7f 3f
       1.0004817 0.99851644 0.9999987 0.99995804
000370 5f 02 80 3f c6 8a 80 3f bb f1 7f 3f da d6 7f 3f
       1.0000724 1.004235 0.99978226 0.9993721
000380 ca 17 80 3f e9 12 80 3f b2 c7 7f 3f 81 ea 7f 3f
       1.000726 1.0005771 0.99914086 0.999672
000390 d0 b2 7e 3f aa 41 80 3f c5 d2 7f 3f 8f 62 7f 3f
       0.99491596 1.0020039 0.99930984 0.99759763
0003a0 a4 2c 80 3f c9 13 80 3f 68 a2 7f 3f 4e b3 7f 3f
       1.0013623 1.0006038 0.9985719 0.9988297
0003b0 78 f4 7f 3f 07 06 80 3f 6e 0c 7f 3f 9a ff 7f 3f
       0.99982405 1.0001839 0.9962834 0.9999939
0003c0 3b 55 80 3f 9f 44 7f 3f 38 06 80 3f a8 8d 7f 3f
       1.002601 0.9971408 1.0001898 0.99825525
0003d0 70 01 80 3f 7b 08 7f 3f 48 98 7f 3f d1 5c 7f 3f
       1.0000439 0.99622315 0.9984174 0.99751
0003e0 04 6f 7f 3f 2e 01 80 3f e5 8d 7f 3f 03 81 7f 3f
       0.9977877 1.000036 0.9982589 0.9980623
0003f0 bd fb 7f 3f 4b 79 7f 3f 92 e9 7f 3f e4 1a 80 3f
       0.999935 0.99794453 0.99965775 1.0008206

base.feature_norm.bias f4 [411]
000000 d5 c2 ec 3b f6 b8 cf ba 8d 21 26 39 31 5c 0b bb
       0.007225374 -0.0015847969 0.00015843492 -0.0021264667
000010 31 95 9d 3a 27 5e 49 3a b3 a4 b0 ba 2f db 9f ba
       0.0012022612 0.00076815713 -0.0013476819 -0.0012196059
000020 d5 aa 14 3b 15 e6 22 b9 6c 1e ab 3b 2c c5 f1 37
       0.0022684832 -0.00015535236 0.0052221324 2.8821254e-05
000030 db 79 8b b9 eb c5 4c ba f2 1b 49 38 82 6b 01 ba
       -0.00026602935 -0.00078114745 4.794816e-05 -0.00049369794
000040 a1 dc da 3a bf 91 90 ba 25 15 97 3a b5 87 1a ba
       0.0016697833 -0.0011029764 0.0011526687 -0.0005894856
000050 e8 8a 2a b9 46 a2 04 3a 38 14 f4 b9 be 48 fb ba
       -0.0001626421 0.0005059581 -0.0004655437 -0.0019171459
000060 95 9f 60 3a 16 74 4f ba e3 d1 02 39 5a 5b 17 3c
       0.00085687015 -0.00079137215 0.00012475955 0.0092380885
000070 ae 1d c6 ba a5 b7 18 bb 51 41 91 39 7b e3 dd b8
       -0.0015115046 -0.002330282 0.0002770522 -0.00010580473
000080 e6 43 05 b8 f6 77 38 3a c3 df b0 b8 3e 69 86 3a
       -3.1772906e-05 0.00070369185 -8.434013e-05 0.0010254753
000090 9f ea a2 39 e1 26 d8 ba 76 f9 2b 37 14 cc 8b 3a
       0.00031073854 -0.0016491079 1.0250476e-05 0.0010665678
0000a0 5a 71 74 ba 92 c9 9b b9 02 1e 17 bc b6 f0 87 b9
       -0.0009324752 -0.00029714085 -0.009223463 -0.0002592855
0000b0 ee 34 29 ba e9 6a 7c 3a 7f 9d a7 bb 80 8a 83 34
       -0.00064547255 0.0009628968 -0.0051152105 2.4501423e-07
0000c0 66 97 0a b9 25 07 8c 3a fc 19 3f 3c 57 9a 47 3b
       -0.00013217106 0.0010683282 0.01166391 0.0030456984
0000d0 84 00 49 3b ef 21 79 3b e1 b7 31 3a 48 cb 27 bc
       0.0030670473 0.003801461 0.0006779414 -0.010241337
0000e0 90 18 06 38 1b 33 51 3b fb a3 a5 b9 6e c8 a1 3a
       3.1970965e-05 0.003192133 -0.00031593427 0.0012343058
0000f0 77 0a 87 ba 9c 3f 3e 3a f7 83 b8 ba 4c 6b 5a 3a
       -0.0010302801 0.00072574033 -0.0014077415 0.00083320285
000100 de 7d 06 3a f4 7e 18 ba f8 fe 89 ba b0 00 37 3a
       0.000513045 -0.00058172573 -0.0010528257 0.00069809984
000110 2c 62 21 ba 9a ec 95 38 ef aa 00 bc 9b 42 79 3a
       -0.00061562913 7.148944e-05 -0.007853254 0.0009508521
000120 24 df c0 ba 26 f9 f1 3b f4 51 75 ba 24 66 66 3b
       -0.0014714939 0.007384437 -0.000935822 0.0035156095
000130 62 0b bb 3a d3 40 06 3b 7a 45 0d ba 7e 22 cb 38
       0.001427036 0.0020485416 -0.0005389076 9.686219e-05
000140 3c d6 9e 3b ed 50 a3 bb 2b 29 39 bc ac 7f 70 ba
       0.004847316 -0.0049840123 -0.011301319 -0.0009174298
000150 a8 0a ab ba 41 ef 86 3a 89 9f d8 3a 92 49 43 ba
       -0.001304944 0.0010294692 0.0016527037 -0.00074496225
000160 3f 7e 55 3b c2 17 e4 ba 4d 05 fc ba 52 c7 17 3b
       0.003257647 -0.00174021 -0.0019227654 0.0023159576
000170 bf e6 1c 39 f7 bc 31 3c e8 a9 7d 3b dd 96 82 b9
       0.00014963279 0.010848275 0.0038706008 -0.00024907934
000180 78 fe 63 b9 46 7f 1e 3a 1b f5 47 3a ce 41 1f bb
       -0.00021743204 0.0006046187 0.0007627771 -0.0024300697
000190 78 de b2 3b 1b 7b 90 ba 5e d3 59 39 bd 71 94 ba
       0.0054586492 -0.0011023016 0.00020773473 -0.00113254
0001a0 2d ad 95 ba 12 29 70 39 51 5f ac 3b 4c 0a 29 ba
       -0.0011419408 0.00022903483 0.005260386 -0.0006448373
0001b0 0f bd a4 ba ed 1d b2 3a 09 25 0c 3a f1 8d 80 39
       -0.0012568551 0.0013589241 0.0005346095 0.00024519817
0001c0 9f ff 6f 3b 94 42 01 bc 77 60 16 38 1e 5e 84 b9
       0.0036620868 -0.007889409 3.5852627e-05 -0.00025247125
0001d0 de 97 85 ba 45 3f ca 39 f5 08 d1 39 ab fd fc b9
       -0.0010192355 0.00038575582 0.0003987026 -0.00048254183
0001e0 bb 2b 13 3a 3d 2b d5 ba 5c dd 82 3b 31 1f 1f ba
       0.00056141213 -0.0016263496 0.0039936733 -0.00060700165
0001f0 bc 7c 81 3a 01 d4 2b ba 4e 95 2e 3a 0f 0b 08 3b
       0.0009879093 -0.00065547234 0.00066598214 0.0020758545
000200 89 45 f1 b8 29 98 8b b9 15 3c c9 3a 9f 18 a7 b9
       -0.000115047274 -0.00026625514 0.0015352989 -0.00031871066
000210 a4 60 6f 3a ff 68 0f 3a 4c 61 fd 3a 2e b0 2a 39
       0.0009131527 0.0005470663 0.0019331365 0.00016278095
000220 ab 33 6b b9 40 5f 78 bb 0e bc ee 3a 27 15 08 3a
       -0.00022430594 -0.003789857 0.0018214004 0.000519114
000230 b9 5a 03 3b e4 05 63 bb 5d f3 bd 3a 4f 53 06 3a
       0.0020043089 -0.0034640962 0.0014492084 0.0005124108
000240 55 09 ce b9 f7 70 d9 3a 38 fc 1c bc 14 81 09 3a
       -0.00039298335 0.0016589452 -0.009581618 0.00052453694
000250 fc e1 39 3b 0e 81 c9 ba 78 93 13 ba 78 9e fb 38
       0.0028363457 -0.0015373544 -0.00056295795 0.0001199813
000260 e9 b8 a5 bb 7a 8d cc 3b 74 54 7f 3a f9 e4 ce 3a
       -0.0050574434 0.0062424513 0.00097400625 0.0015784792
000270 f5 bc 57 b8 37 55 2d ba 0d 91 d5 39 16 9a 1c 3c
       -5.1435974e-05 -0.0006612124 0.00040734597 0.009558221
000280 3e 67 7b ba d7 b6 72 bb 64 22 35 bb b7 07 d4 39
       -0.00095902744 -0.003703525 -0.0027638907 0.0004044154
000290 99 05 c6 3b 2f 2f 70 ba ec 4e e7 39 52 25 ff 3a
       0.0060431478 -0.00091623043 0.00044118555 0.0019466078
0002a0 47 e1 a9 3a 20 60 1c ba 65 5c cb b9 1e bb 75 bb
       0.0012960815 -0.00059652515 -0.00038788017 -0.0037495564
0002b0 57 68 13 3b 80 1a cf b9 7e 33 8c bb 23 f1 ca ba
       0.0022492611 -0.0003950186 -0.0042785993 -0.0015483241
0002c0 30 f3 15 35 dc d7 b9 3a 5b 1c cd 39 20 2c 99 39
       5.586071e-07 0.0014178711 0.00039121773 0.0002921531
0002d0 19 36 b6 39 9e 2c 8b 39 08 4a 18 bb 01 ac dd 39
       0.0003475405 0.00026545388 -0.0023237485 0.00042280558
0002e0 59 72 9d 3a 18 71 43 b9 83 68 f4 ba 2f 91 a5 3a
       0.0012012228 -0.0001863878 -0.001864687 0.0012631769
0002f0 42 16 79 3a b9 1e d0 3b b1 83 07 bb d2 b3 ec 39
       0.0009501913 0.0063513187 -0.002067786 0.00045147404
000300 b8 ed bc 39 8a 57 ff 3a b3 3a 2c 3b 0c 7d d7 3a
       0.0003603527 0.0019481045 0.0026280105 0.0016440465
000310 58 6c ee 39 9b 33 9b 3a e3 f2 b4 b8 03 ca 31 ba
       0.0004547562 0.0011840941 -8.62831e-05 -0.0006782116
000320 2c 94 d1 3a e0 52 a4 3b 2a 04 c9 3a 53 8a ee 38
       0.0015989593 0.0050147623 0.0015336324 0.00011374489
000330 b0 24 76 ba 5d 7b 3d bc b4 88 f5 3b 91 d7 06 39
       -0.0009389622 -0.011565057 0.007493103 0.0001285954
000340 2c 02 25 3b 98 25 90 3b 9a 75 2e 3b c8 15 b3 ba
       0.0025178296 0.004399013 0.002662039 -0.0013663108
000350 4b 43 a8 ba 43 b8 43 3b 4c c5 34 3c 4b e4 c8 ba
       -0.0012837438 0.0029864467 0.011033367 -0.0015326826
000360 34 cc 11 ba fb 40 b9 3a fc 8f 95 38 01 f5 7e 39
       -0.00055617397 0.0014133746 7.131693e-05 0.00024314599
000370 cd f5 c6 38 a5 fc 93 bb e6 20 8a 39 2a 9d 04 3a
       9.48716e-05 -0.0045162016 0.00026345922 0.00050588197
000380 e8 ea 52 ba 6f e5 2a ba 37 c5 56 3a 9c 1e a4 39
       -0.0008045868 -0.00065191736 0.00081928395 0.00031303323
000390 25 15 a2 3b 3d f6 ff ba 6a 51 f7 39 6d 2f 25 3b
       0.0049463683 -0.0019528341 0.0004717217 0.002520527
0003a0 00 c5 a6 ba 4a ac 2f ba b2 84 c3 3a e5 93 a4 3a
       -0.0012723505 -0.0006701393 0.0014916866 0.0012556283
0003b0 89 32 82 39 a6 d2 d2 b8 b3 6d 78 3b bb 81 17 39
       0.00024833184 -0.00010052817 0.0037907183 0.0001444881
0003c0 a7 1a 3c bb 89 1f 4e 3b ec 37 93 b9 05 3e eb 3a
       -0.002870241 0.0031451902 -0.0002807969 0.001794756
0003d0 52 82 35 b8 6f 36 7a 3b 4b d8 d5 3a df a5 25 3b
       -4.3275133e-05 0.0038179418 0.0016315071 0.0025275869
0003e0 dc 48 0c 3b e0 c5 55 b9 31 8c fb 3a 7b 73 01 3b
       0.0021405732 -0.00020386977 0.001919156 0.001975267
0003f0 a1 ca 02 39 3d 54 04 3b 5c 99 a6 39 af 6f 69 ba
       0.00012473251 0.0020191811 0.0003177625 -0.0008904887

base.mlp.fc1.0.weight f4 [64, 411]
000000 b2 e3 e2 bd 29 a7 79 bd a2 44 4c 3c ca 5b 0d 3e
       -0.11078586 -0.060950432 0.012467535 0.13804546
000010 eb ef 09 be 9b fd 2c 3d 96 4d 99 bd d8 a3 7f 3d
       -0.13470428 0.042234045 -0.074855015 0.062412113
000020 7f bc 0f be 51 ac 30 3e db db 02 bd 1d 5e d3 3d
       -0.1403675 0.17253233 -0.03194795 0.10320685
000030 83 e2 00 bd 76 05 ed bb 6c c1 0c 3d 34 f0 3a bd
       -0.03146602 -0.007233317 0.03436415 -0.04563923
000040 d7 62 c8 3b 08 3a f0 bd 41 2d 8e 3c 47 22 9a bd
       0.0061152983 -0.117298186 0.017355563 -0.07526069
000050 2e 03 a7 3a f6 7a d0 bc d5 52 fe bc c2 0a 76 bd
       0.0012742036 -0.025449257 -0.031045357 -0.060068853
000060 cd 69 f4 3c c8 6d cf bd 04 e9 a0 bd eb af f9 3b
       0.029835606 -0.10128361 -0.07856944 0.007619848
000070 cf 4c 70 bc b5 63 2a bd 79 00 6a 3d b7 d3 89 3d
       -0.01466675 -0.041598994 0.057129357 0.067298345
000080 40 5d 52 3d ab af 67 3c 5b 95 23 be 31 37 c8 bd
       0.05135846 0.014141004 -0.15974943 -0.09776152
000090 02 f4 8b 3d 75 82 53 3d 29 36 72 3d 3e 15 4e bc
       0.0683365 0.051638085 0.059133682 -0.012578307
0000a0 e5 9c c5 3b e5 14 2c 3e 45 a4 91 bd 6c a9 90 bc
       0.006030666 0.16804846 -0.0711141 -0.017658912
0000b0 a5 df 00 3c bf ab e5 3b 48 97 35 3d 3a a2 29 3d
       0.007865821 0.007008999 0.044333726 0.041414477
0000c0 6b 28 03 be 83 05 8f bd 7b 09 01 bd b4 e5 14 bd
       -0.12808387 -0.06983473 -0.031503182 -0.036351874
0000d0 92 9f 65 3d eb 53 60 bd c0 4b 30 3c f7 85 be 3c
       0.05606038 -0.05476753 0.010760248 0.023257239
0000e0 d2 16 c8 bd 6d 65 38 3e 43 f9 48 3d 09 af da 3d
       -0.09769978 0.18007441 0.04906584 0.106779166
0000f0 56 e5 94 bc f8 a6 41 bd 72 95 59 bd ff 80 92 3c
       -0.018175762 -0.047278374 -0.053121038 0.017883776
000100 1c b7 79 bc 28 14 19 3e 73 35 ba 3d f7 65 84 bc
       -0.015241411 0.14949095 0.09092226 -0.016161902
000110 c8 09 3c bd 4d 3f 35 3d 7e 6a 08 bd d7 43 75 3d
       -0.045907766 0.04424982 -0.033304684 0.05987915
000120 48 61 46 bd ee 3c 8a 3d 10 ce 90 bd 20 85 53 bd
       -0.04843262 0.06749903 -0.07070553 -0.05164063
000130 77 e2 6c 3c 8c 6d a7 bd 1d 29 4e 3e 00 4c 24 3d
       0.01445829 -0.08175191 0.20132871 0.04011154
000140 f7 fc e4 3d 05 bd a3 3c db 08 61 3d d6 ce bb 3d
       0.11181062 0.019987592 0.054940086 0.0917031
000150 5d 98 ca 3d c4 41 1c 3e 3e 80 52 bc d1 ac 80 3c
       0.09892342 0.15259463 -0.012847958 0.015707405
000160 9f e4 5f 3b 0a c9 10 3e 33 e8 82 bc 6e 15 02 3d
       0.0034163368 0.1413919 -0.015979862 0.03175872
000170 b9 4f 9b bd e0 fa cb bd 0b 39 5b bd f4 17 ba 3c
       -0.07583565 -0.0995996 -0.053521197 0.0227165
000180 ad 99 40 3d 26 b8 8b bd 44 f2 7d 3d 48 a8 b5 3d
       0.047021557 -0.06822233 0.06199862 0.08869988
000190 02 68 43 bd 7a 3c a6 3d 99 eb e9 3d ae 26 60 3d
       -0.04770661 0.08117004 0.1142189 0.054724388
0001a0 c1 2f fe 3d de 39 b1 3c 98 8c 23 3d 63 98 10 bd
       0.12411452 0.021634039 0.039929003 -0.035301577
0001b0 11 f1 02 3e 77 41 17 3e 15 cb 82 38 d3 d1 8b 3d
       0.12787272 0.14771067 6.23671e-05 0.0682713
0001c0 76 f6 fe 3c 62 2f 16 3d 44 46 7a 3d e8 59 02 be
       0.031123381 0.03666628 0.061102167 -0.12729609
0001d0 74 7e ad 3d 09 a3 ed bc e4 33 3d 3d 1f de a3 3c
       0.08471385 -0.029008405 0.046192065 0.020003377
0001e0 5e 5a cc bd 67 a0 37 bc 40 82 c5 bc f3 64 b8 bb
       -0.09978174 -0.0112076765 -0.02410996 -0.0056272685
0001f0 f4 61 68 3d 6a 24 49 3d ad 8b d9 bc 74 1d a4 3c
       0.05673404 0.049106993 -0.02655586 0.020033576
000200 2f 02 25 3e c7 b7 31 bd 6b 2e 93 bc 96 31 33 bd
       0.16114114 -0.043388154 -0.01796647 -0.04374846
000210 c4 19 f4 3d 6f e9 21 bd dd 20 60 3d 71 b3 11 be
       0.11918977 -0.03952926 0.05471884 -0.14228608
000220 dd eb 98 3c 0e d4 bd 3b 04 38 c8 3d 09 e8 49 bd
       0.018667156 0.005793101 0.09776309 -0.04929355
000230 65 41 fd bb 7a 32 5f 3d f7 50 11 3e f7 78 d9 3c
       -0.007728743 0.054491498 0.14191042 0.026546938
000240 95 79 c5 bc 43 46 9c bc d9 b6 ba 39 69 cf 78 3b
       -0.024105826 -0.019076472 0.00035612917 0.0037965423
000250 42 7d bb 3a fc c0 4c 3d 0a 78 57 3c a7 74 8e 3c
       0.0014304298 0.04998873 0.013151178 0.017389609
000260 3e 44 a5 bc 27 fd e7 3c 92 c1 32 bd d9 f5 54 3b
       -0.020174142 0.028318955 -0.043641634 0.003249517
000270 a8 5c 98 bc d8 8a 2f be 07 50 c0 3d f0 43 a6 3c
       -0.01859887 -0.17142808 0.09390264 0.020296067
000280 a7 b7 14 bb a8 77 2d 3c 55 7c 3b bc 81 f1 13 bc
       -0.0022692473 0.01058761 -0.011443217 -0.009029747
000290 fc 20 d8 bd eb 71 c4 3b 91 7b 43 3d 5c 33 28 bd
       -0.10553166 0.0059950254 0.047725264 -0.041064605
0002a0 85 70 23 3d 91 77 6c bd 53 2e 18 bd 3f 21 cc bd
       0.03990223 -0.057731215 -0.037153553 -0.09967279
0002b0 29 cc 85 3d d1 f4 d7 3c 4a 6f 9e bc 9d 77 a3 3d
       0.06533081 0.026361855 -0.019340176 0.07981799
0002c0 6d 0a 66 bd 06 7b 51 bc c2 6c ac bd ff 88 06 3c
       -0.056162287 -0.012785679 -0.084191814 0.008211373
0002d0 0d db 3d bd 58 b4 00 be c6 2d c2 3d 8f 1b 85 bd
       -0.04635148 -0.12568796 0.09481387 -0.06499397
0002e0 13 35 ea bc 91 2c 32 3c 34 e6 7f 3d d3 b7 c8 3d
       -0.02858976 0.010874883 0.0624754 0.09800687
0002f0 e7 61 14 ba 4e 2a a9 bd 96 2b 9c bc fa 04 56 bc
       -0.00056603405 -0.08260022 -0.019063752 -0.01306271
000300 0c f9 81 bc 44 d6 c9 bd 46 6a 0a bc f8 31 33 bd
       -0.015865825 -0.09855321 -0.008448189 -0.043748826
000310 92 7e 14 3c 52 e5 52 3d 96 39 87 bc be fe 4f 3d
       0.00906338 0.05148823 -0.016506951 0.05078005
000320 18 6f e8 3d df fb 07 3d a7 14 28 bd 9d 50 86 bd
       0.113493145 0.033199187 -0.04103532 -0.065583445
000330 69 7c 01 bd 0b 97 56 3b c2 ac 16 bc c5 76 48 bd
       -0.031612787 0.0032743837 -0.009196462 -0.048941392
000340 9d 77 09 3c 73 42 05 be 72 8f fd 3c 62 d7 1b bd
       0.008390334 -0.1301363 0.03095219 -0.038047202
000350 1a b4 03 3c 73 e1 9e 3d d3 2a 4d 3d d8 52 33 bc
       0.008038545 0.07757845 0.05008967 -0.010945044
000360 a5 d3 1e 3d 84 2b 77 bd 34 e8 b5 bd 9e 2e 57 bc
       0.03877606 -0.060344234 -0.0888218 -0.013133673
000370 8c 27 7d bd 93 ec 01 3d 1d d4 85 3c 2a 77 d2 3c
       -0.061805293 0.031719755 0.016336495 0.025691587
000380 85 6a 1a 3d b4 d3 2c bd cf 10 5f 3c 8e 07 43 3d
       0.03769924 -0.042194083 0.013614847 0.047614627
000390 2b 00 fb bd 7e 28 06 bc 8a 08 e0 3b 4d 0b 91 bb
       -0.122558914 -0.008188365 0.0068369554 -0.004426396
0003a0 94 90 7e 3d 23 13 80 3d 3e 80 16 bd 7a 2a b0 3d
       0.0621496 0.0625365 -0.036743395 0.08601852
0003b0 8b 14 09 3e 09 06 06 bd d6 43 5c bd a5 72 31 bd
       0.13386743 -0.0327206 -0.05377563 -0.043322224
0003c0 79 10 c8 3c 19 78 b6 3b 2c 0d f9 3b 9c 89 ce 3d
       0.024421917 0.005568516 0.007600447 0.10084841
0003d0 81 76 ed bc 78 67 9e 3c d7 d2 1a be da c6 e4 bb
       -0.028987171 0.019336447 -0.15119492 -0.0069817128
0003e0 5b a2 86 bd a8 18 af 3d 0c 31 be bd 0a 98 a6 3b
       -0.065739356 0.08549625 -0.09286699 0.0050840424
0003f0 46 5f a2 bc f8 1d 45 bd 5d cf 2d 3e a7 f4 1a bc
       -0.01982082 -0.048124284 0.16973634 -0.009457744

base.mlp.fc1.0.bias f4 [64]
000000 00 00 00 00 bf e2 6e bb 00 00 00 00 00 00 00 00
       0.0 -0.003645107 0.0 0.0
000010 00 00 00 00 e8 b8 81 ba cc cf fd ba 00 00 00 00
       0.0 -0.0009897025 -0.0019364296 0.0
000020 33 e6 83 bb 7a 83 e9 ba 83 5c 19 3b 64 1b d4 ba
       -0.0040252446 -0.0017815672 0.0023401089 -0.001618248
000030 38 5c 22 ba cd 32 6a bb c8 99 57 b9 00 00 00 00
       -0.0006193551 -0.0035735846 -0.00020561286 0.0
000040 00 00 00 00 00 00 00 00 f7 31 85 3b 99 e3 41 bb
       0.0 0.0 0.004064794 -0.0029585122
000050 0d 92 ee 3a 00 00 00 00 a4 a5 bf 37 2a a7 e4 ba
       0.0018201486 0.0 2.2846107e-05 -0.0017444838
000060 b7 4e 4f 39 43 fd 0f ba eb 37 55 b8 5d ea 92 39
       0.00019770382 -0.0005492756 -5.0835235e-05 0.00028021904
000070 00 00 00 00 61 77 28 38 0e 73 72 3a 12 51 b5 bb
       0.0 4.01655e-05 0.0009248712 -0.005533346
000080 c0 c5 22 39 58 f0 16 bb 08 a0 a0 bb 00 00 00 00
       0.00015523192 -0.002303144 -0.0049018897 0.0
000090 00 00 00 00 dd 0d 43 ba 16 be 63 ba 6c c4 c7 ba
       0.0 -0.00074407255 -0.0008687688 -0.0015241033
0000a0 10 31 ea b9 86 e0 9e bb c3 92 a3 b8 fa 2d 7e b9
       -0.00044668512 -0.0048485426 -7.799782e-05 -0.00024240455
0000b0 00 00 00 00 00 00 00 00 40 b6 3b bb 3d d4 c9 ba
       0.0 0.0 -0.0028642565 -0.0015398335
0000c0 34 f8 5b 38 00 00 00 00 3f 92 2f 39 66 b4 95 bb
       5.2444826e-05 0.0 0.00016743781 -0.0045686243
0000d0 26 63 92 39 f4 e8 d0 3b 00 00 00 00 6d a4 4c ba
       0.0002792116 0.0063754264 0.0 -0.0007806484
0000e0 4f 4a 3c 3a c1 dc 5c bb 68 f2 b6 3a 3a 87 7b bb
       0.00071827037 -0.0033700916 0.0013957741 -0.0038380162
0000f0 d3 21 dd ba 00 00 00 00 2c c4 b3 3b 00 00 00 00
       -0.0016871042 0.0 0.005486032 0.0

base.mlp.fc1.2.weight f4 [64]
000000 44 16 80 3f f0 f0 7f 3f 68 b8 7f 3f 49 08 80 3f
       1.0006795 0.99977016 0.99890757 1.0002528
000010 30 03 80 3f e5 ae 7f 3f 7b 30 80 3f 03 b3 7f 3f
       1.0000973 0.9987624 1.0014795 0.99882525
000020 76 a6 80 3f e3 79 7f 3f d4 33 80 3f 8c 50 7f 3f
       1.00508 0.9979536 1.0015817 0.9973228
000030 cf 23 80 3f 24 19 7f 3f a5 c8 7f 3f 15 02 80 3f
       1.0010928 0.99647737 0.99915534 1.0000635
000040 2e 0c 80 3f 6c d1 80 3f ce 79 80 3f e8 b8 7f 3f
       1.0003717 1.006391 1.0037172 0.9989152
000050 a1 28 80 3f 29 d2 7f 3f 75 c2 7f 3f 81 ea 7f 3f
       1.0012399 0.99930054 0.9990609 0.999672
000060 85 2d 7f 3f 8f 9f 7f 3f 5f 8d 7f 3f c6 f1 7f 3f
       0.9967883 0.9985284 0.9982509 0.9997829
000070 84 93 7f 3f 87 97 7f 3f 02 18 80 3f 28 3f 81 3f
       0.99834466 0.9984059 1.0007327 1.0097399
000080 63 21 7f 3f 10 94 7e 3f d4 b8 7d 3f 22 fc 7f 3f
       0.9966032 0.99444675 0.9911015 0.999941
000090 21 61 80 3f 3a ad 7e 3f e6 f0 7e 3f 48 08 7e 3f
       1.0029641 0.9948307 0.9958633 0.99231386
0000a0 d1 ac 7f 3f b6 e2 80 3f d1 66 7e 3f 4d ce 7f 3f
       0.9987307 1.0069187 0.99375635 0.99924165
0000b0 9d 8b 7f 3f dc 5d 80 3f af 0f 80 3f c0 3f 7d 3f
       0.9982241 1.0028644 1.0004786 0.989254
0000c0 d2 7e 7f 3f b9 5e 80 3f 3a c0 7f 3f dd fa 80 3f
       0.9980289 1.0028907 0.9990269 1.0076557
0000d0 9c ef 7f 3f 5a 8d 80 3f 17 69 7f 3f fe bd 7f 3f
       0.9997499 1.0043137 0.9976973 0.9989928
0000e0 a4 ef 7c 3f c5 55 80 3f 05 2a 7e 3f 6c fa 7f 3f
       0.9880316 1.0026175 0.99282867 0.9999149
0000f0 a6 fb 7f 3f 75 19 80 3f 72 3f 7f 3f f0 02 80 3f
       0.9999336 1.0007769 0.99706185 1.0000896

base.mlp.fc1.2.bias f4 [64]
000000 ac 7d 60 ba da f2 e3 39 65 53 72 3a 89 d7 d3 b9
       -0.00085636484 0.00043477752 0.0009243994 -0.00040405642
000010 41 c4 76 b9 39 59 7e ba 39 fa ae ba 3d 55 8a 3a
       -0.00023533498 -0.0009702626 -0.0013349719 0.0010553967
000020 a5 27 a7 bb 3e 38 01 bb 3f ff 03 3b a2 d8 23 3b
       -0.0051011615 -0.001971736 0.0020141152 0.002500095
000030 3c 0a a3 ba 0a 85 ee 3a 44 a8 70 b9 60 5c b7 38
       -0.0012438963 0.0018197608 -0.00022950867 8.743326e-05
000040 76 94 0a ba 1b dc d0 bb f3 c4 77 3b 53 24 a4 3a
       -0.00052864046 -0.006373895 0.00378066 0.0012523032
000050 34 89 e1 3a e7 0c 60 3a 61 2c 86 b8 5e a2 2c 39
       0.0017207027 0.00085468445 -6.397884e-05 0.00016463685
000060 1c c6 25 39 4a c3 46 ba 50 73 c3 b8 0e 9d d0 38
       0.00015809428 -0.0007582201 -9.319803e-05 9.9474666e-05
000070 0f d1 f6 3a ae 79 0a 3a 67 8c 70 3a 5f 97 1d bc
       0.0018830615 0.0005282414 0.0009176195 -0.009618609
000080 90 7d 86 39 56 39 9a ba 3c 08 e9 bb c7 1e 7d 39
       0.00025652023 -0.0011766355 -0.0071115773 0.00024139426
000090 21 33 44 bb 50 6c 94 b9 9f ff 97 ba a1 6b 09 bb
       -0.0029937702 -0.0002830946 -0.0011596567 -0.0020968693
0000a0 bd 59 02 3a 95 af ea bb 20 7f 8c 39 c4 e9 a2 b9
       0.00049724785 -0.0071620443 0.00026797596 -0.00031073217
0000b0 8c e0 d1 3a 15 35 49 bb ef 3d a9 b9 4b c1 34 3c
       0.0016012355 -0.0030701805 -0.00032280336 0.011032413
0000c0 00 3f 52 39 d2 9b 30 bb ae 3b fb 38 df fb f7 bb
       0.0002005063 -0.0026948345 0.00011979729 -0.007567867
0000d0 19 1a 42 39 5d 0a 9f 3b 0a 7b 0f 3b fb 99 71 3a
       0.00018511004 0.0048535303 0.0021893405 0.0009216365
0000e0 60 03 41 3a da 3b 2f bb 82 df b6 3a 03 f4 17 b9
       0.00073628686 -0.0026738555 0.0013952109 -0.00014491384
0000f0 2d 77 d3 b8 59 76 73 ba 89 81 60 3b 42 a2 94 38
       -0.00010083462 -0.00092873495 0.0034256896 7.087413e-05

base.mlp.fc_h.0.weight f4 [64, 64]
000000 15 a6 20 be 9d 92 01 3e 96 65 a9 bd 21 c4 f5 3d
       -0.15688355 0.12653585 -0.08271329 0.12000299
000010 df 90 3f bd de 01 9d bd 88 b8 6d 3d 46 3d 48 3e
       -0.04676902 -0.07666372 0.05803731 0.19554624
000020 fe 32 0c 3e e9 6f 33 3e 3d 4e 18 be a7 5c 25 bd
       0.13691327 0.17523159 -0.14873596 -0.040371563
000030 48 77 21 be 07 d2 f4 bd 64 ad 19 3e 9a 19 56 3e
       -0.15768158 -0.11954122 0.1500755 0.20908204
000040 f4 64 81 3e 06 ca b6 bd 70 0f 50 be 4b f5 a0 bd
       0.25272334 -0.08925252 -0.20318389 -0.07859286
000050 c6 5f c9 3d 26 41 4a be 3c 13 c9 3d dd aa 9c bd
       0.098327205 -0.19751415 0.09818122 -0.07649777
000060 82 4f 31 3e 2d 14 1c be a9 91 bb 3d f4 0d 56 be
       0.17315486 -0.15242071 0.09158642 -0.2090376
000070 8d d1 86 bc 65 86 09 be fb 91 8e 3d 84 f5 be 3d
       -0.016457343 -0.13430174 0.06961437 0.09324172
000080 95 88 13 3d dc 55 98 3d 65 6c b1 bd 7f 49 7b 3e
       0.036018927 0.074382514 -0.08663253 0.24539755
000090 6e dc 46 be fc 33 0a be e1 98 a6 bd 3e f5 44 be
       -0.19420025 -0.13496393 -0.08134628 -0.19234177
0000a0 9e fa 3e 3e eb fa e3 3e 8c dd 83 be 26 94 82 3d
       0.1865029 0.44527373 -0.25754964 0.06375913
0000b0 79 12 8c be 4b c0 41 bc 78 28 c4 3d 1c 59 3f 3e
       -0.27357844 -0.011825631 0.09578031 0.18686336
0000c0 20 39 16 3d ae 09 82 be fc 44 4f 3d 02 1a 1d be
       0.036675572 -0.2539801 0.050602898 -0.15341952
0000d0 cd 3a a8 3d 97 38 46 be 78 29 19 3e 92 c0 d1 be
       0.0821434 -0.19357525 0.14957225 -0.40967232
0000e0 bf 82 34 be 42 91 26 3e 64 3c 07 3c 83 5a 13 3c
       -0.17628 0.16266349 0.008254144 0.008993748
0000f0 dd a7 9f 3e 1a a9 41 3e 2a e1 e4 3e 42 e7 8c 3e
       0.31182757 0.18912163 0.44703037 0.27520186
000100 45 ac 88 3e 1d 00 9e be f7 a9 92 be 43 0f 8b 3d
       0.2669393 -0.3085946 -0.28645298 0.0679002
000110 5a 02 10 bc ea 0a 5a be 36 cd 91 3c c3 6f 80 be
       -0.008789623 -0.21293226 0.017798048 -0.25085267
000120 08 d3 eb 3d d1 e9 ab 3d 9f bd 36 3e 36 46 a7 bd
       0.115148604 0.08394206 0.17845772 -0.081676885
000130 78 7f f4 3c 0b 55 56 3e b3 62 7e 3e 15 d2 9b bd
       0.029845938 0.20930879 0.24842338 -0.07608429
000140 ca 96 55 be e4 01 b0 3d 79 be 4f 3e 65 6e a4 3e
       -0.20858303 0.085941106 0.20287503 0.32115474
000150 42 2f 34 3e 8d 95 94 bc b5 15 38 3d e4 f5 36 be
       0.17596152 -0.018137718 0.044942576 -0.17867237
000160 51 9b ab be 57 d1 f1 3d 95 ee 0d 3d 53 ac 16 3d
       -0.33516935 0.118075065 0.034651358 0.036785435
000170 72 45 28 bd 6f bd 7b bd 4d 63 45 be 1e 5f 04 3e
       -0.041081853 -0.061459955 -0.19276161 0.1292691
000180 54 6a 55 bb 81 75 08 3d 37 27 dd 3d d7 e8 90 3e
       -0.0032564597 0.033315185 0.10798495 0.28302643
000190 79 ff 01 be af f6 2e 3c fd eb e3 bc 3d 3a ea bd
       -0.12695111 0.010678931 -0.027822489 -0.11436889
0001a0 e8 e2 f6 3b ae 3d 8c 3c c5 79 18 be c4 d7 db 3c
       0.0075343736 0.017119255 -0.14890201 0.026836284
0001b0 6a 2a 8b be e8 9b c8 3e bb 62 83 be f1 5b 4d 3e
       -0.27180797 0.39181447 -0.25661263 0.20054604
0001c0 4a 19 24 bd e0 e1 35 be 3f 3e 0a 3d 12 79 b5 3d
       -0.04006318 -0.17761946 0.03375077 0.08860983
0001d0 ef df 93 ba f0 a7 34 be 7f b9 1c be 09 ca e7 bd
       -0.0011281947 -0.17642188 -0.15305136 -0.11317832
0001e0 98 53 80 3e 18 e9 06 3f 08 59 b1 bd d5 6b dd 3d
       0.25063777 0.5269942 -0.086595595 0.10811583
0001f0 df f1 2f be cf a8 b4 3d 35 b5 0d be 8a 43 eb bd
       -0.1718211 0.0882126 -0.13838656 -0.114874914
000200 8c db 5f 3e 54 e9 5f 3d 04 de f3 bd e0 58 94 3d
       0.21861094 0.05466588 -0.119075805 0.07243514
000210 be b3 70 3e 2e 11 4e 3d 77 c2 a2 3e a7 fa b0 3d
       0.23506066 0.050309353 0.3178899 0.08641558
000220 76 36 11 bc 64 96 8d 3d f9 35 2b bc e9 29 1a bc
       -0.008863082 0.0691345 -0.01044988 -0.009409406
000230 f4 cb 64 3e b8 2c fa bd 06 cb 23 3e 38 cc 09 be
       0.22343427 -0.12215561 0.15995416 -0.1345681
000240 1f 3d 73 3e d3 0b c4 bd d7 24 04 bd 74 2b cf bb
       0.23753785 -0.09572568 -0.032261696 -0.0063223187
000250 0d 1e ec bc 84 e1 6d 3d 5d eb 11 bd 77 d4 01 be
       -0.028822923 0.058076397 -0.03562485 -0.12678705
000260 2d 9e da 3d f6 f9 2b 3e 79 4a 0d be f4 87 50 3b
       0.10674701 0.16794571 -0.1379794 0.0031819316
000270 be 93 03 3f ff 3d 14 be 5a 2d 13 3e b2 32 5e be
       0.5139731 -0.14476775 0.14372769 -0.21699026
000280 c9 1d 97 be 65 bc a1 3c 59 6f 9f 3e 1b b2 96 bd
       -0.29514912 0.019743154 0.3113964 -0.0735819
000290 3f 99 1e be 6b 0f 5c 3e 5f d1 a0 be 9d 93 0f be
       -0.15488146 0.21490256 -0.31409737 -0.14021154
0002a0 ca 5f d8 3e 3b b3 0e 3e 51 0a bb bd 20 73 c8 bd
       0.4226058 0.13935558 -0.09132827 -0.09787583
0002b0 5e 18 e1 bd ca d2 db bd 71 29 ae bc 48 84 f9 3d
       -0.10990976 -0.10733564 -0.021259995 0.12183434
0002c0 71 0c ca be 76 52 a0 bd 2d af 00 be cc 9c 16 3e
       -0.39462617 -0.07828228 -0.12566824 0.14708251
0002d0 a2 78 23 3e a2 95 f7 bc 1a 4f dc bc c5 d1 d9 3d
       0.15963987 -0.030222718 -0.026893187 0.106357135
0002e0 21 08 6f 3d 40 1c aa be b3 3e d5 bd a9 c2 93 bd
       0.05835736 -0.33224678 -0.104123496 -0.07214863
0002f0 ec 46 d0 bd c4 d1 51 3e fe e6 9e be d6 1a e0 bc
       -0.10169777 0.20490175 -0.31035608 -0.027356546
000300 9c 80 4e 3e 08 fa 3e bd b4 ab e9 3d 92 fa 30 3e
       0.20166248 -0.046625167 0.11409703 0.17283085
000310 f0 bf 30 be d1 0e e6 bc 96 62 f4 3c 8c 7c 50 be
       -0.17260718 -0.028083237 0.029832166 -0.20360011
000320 94 de 93 be dd 4f 77 3c 55 36 b3 bd 02 6c 01 be
       -0.2888075 0.0150947245 -0.087505974 -0.12638858
000330 5d ff ee bd 60 b8 78 3e 8f 2f 1f 3e f6 c1 36 bd
       -0.116698004 0.24289083 0.15545486 -0.04461857
000340 fa 85 a7 bd 4d 1e 12 3e 0c 5c 81 be 3e 22 14 bd
       -0.08179851 0.14269371 -0.2526554 -0.03616547
000350 e3 40 08 be 73 0d 3d be 1a e9 24 3e 43 72 06 3e
       -0.13306002 -0.18462162 0.16104546 0.13129525
000360 79 bf 52 3d 47 ad c8 be 12 11 cb 3d 77 3b 92 bd
       0.051452134 -0.391947 0.09915365 -0.07140248
000370 1b e8 fd 3b 87 3d b4 3c 1e 9d 80 3e 60 47 99 3e
       0.0077486164 0.022001995 0.2511987 0.29937267
000380 31 b8 a0 be 05 4d aa bc 2a d5 5c 3e b0 b9 8b be
       -0.31390527 -0.020788679 0.2156569 -0.27290106
000390 28 05 93 3e f5 29 34 3c 3a 32 59 bc 90 e2 63 be
       0.2871487 0.010996331 -0.013256604 -0.22254395
0003a0 75 c6 8c 3d 66 78 89 3e c1 53 18 bd 0e da f3 bd
       0.0687379 0.2684967 -0.03718925 -0.11906825
0003b0 93 ca 34 be dc 98 45 3d b7 29 d5 bd c6 e5 34 bd
       -0.17655401 0.04824148 -0.10408347 -0.04416444
0003c0 91 6a 52 bd fe 49 3d 3d eb 98 a4 bd 06 e6 ab bc
       -0.05137116 0.046213143 -0.08036979 -0.020983707
0003d0 b8 16 50 bb 90 74 67 3e c6 e5 c4 3e 38 58 06 be
       -0.0031751823 0.22603059 0.38456553 -0.1311959
0003e0 0a 03 4b 3e 3e 22 21 3d 4d ed 4b 3e f8 a8 a4 bd
       0.19825378 0.039339297 0.19914742 -0.08040041
0003f0 0e 79 8c be ae e0 f9 be 94 26 64 bd cd e4 17 3d
       -0.27436107 -0.4880423 -0.055700853 0.037083436

base.mlp.fc_h.0.bias f4 [64]
000000 00 00 00 00 00 00 00 00 00 00 00 00 00 00 00 00
       0.0 0.0 0.0 0.0
000010 00 00 00 00 00 00 00 00 00 00 00 00 00 00 00 00
       0.0 0.0 0.0 0.0
000020 00 00 00 00 00 00 00 00 00 00 00 00 00 00 00 00
       0.0 0.0 0.0 0.0
000030 00 00 00 00 00 00 00 00 00 00 00 00 00 00 00 00
       0.0 0.0 0.0 0.0
000040 00 00 00 00 00 00 00 00 00 00 00 00 00 00 00 00
       0.0 0.0 0.0 0.0
000050 00 00 00 00 00 00 00 00 00 00 00 00 00 00 00 00
       0.0 0.0 0.0 0.0
000060 00 00 00 00 00 00 00 00 00 00 00 00 00 00 00 00
       0.0 0.0 0.0 0.0
000070 00 00 00 00 00 00 00 00 00 00 00 00 00 00 00 00
       0.0 0.0 0.0 0.0
000080 00 00 00 00 00 00 00 00 00 00 00 00 00 00 00 00
       0.0 0.0 0.0 0.0
000090 00 00 00 00 00 00 00 00 00 00 00 00 00 00 00 00
       0.0 0.0 0.0 0.0
0000a0 00 00 00 00 00 00 00 00 00 00 00 00 00 00 00 00
       0.0 0.0 0.0 0.0
0000b0 00 00 00 00 00 00 00 00 00 00 00 00 00 00 00 00
       0.0 0.0 0.0 0.0
0000c0 00 00 00 00 00 00 00 00 00 00 00 00 00 00 00 00
       0.0 0.0 0.0 0.0
0000d0 00 00 00 00 00 00 00 00 00 00 00 00 00 00 00 00
       0.0 0.0 0.0 0.0
0000e0 00 00 00 00 00 00 00 00 00 00 00 00 00 00 00 00
       0.0 0.0 0.0 0.0
0000f0 00 00 00 00 00 00 00 00 00 00 00 00 00 00 00 00
       0.0 0.0 0.0 0.0

base.mlp.fc_h.2.weight f4 [64]
000000 00 00 80 3f 00 00 80 3f 00 00 80 3f 00 00 80 3f
       1.0 1.0 1.0 1.0
000010 00 00 80 3f 00 00 80 3f 00 00 80 3f 00 00 80 3f
       1.0 1.0 1.0 1.0
000020 00 00 80 3f 00 00 80 3f 00 00 80 3f 00 00 80 3f
       1.0 1.0 1.0 1.0
000030 00 00 80 3f 00 00 80 3f 00 00 80 3f 00 00 80 3f
       1.0 1.0 1.0 1.0
000040 00 00 80 3f 00 00 80 3f 00 00 80 3f 00 00 80 3f
       1.0 1.0 1.0 1.0
000050 00 00 80 3f 00 00 80 3f 00 00 80 3f 00 00 80 3f
       1.0 1.0 1.0 1.0
000060 00 00 80 3f 00 00 80 3f 00 00 80 3f 00 00 80 3f
       1.0 1.0 1.0 1.0
000070 00 00 80 3f 00 00 80 3f 00 00 80 3f 00 00 80 3f
       1.0 1.0 1.0 1.0
000080 00 00 80 3f 00 00 80 3f 00 00 80 3f 00 00 80 3f
       1.0 1.0 1.0 1.0
000090 00 00 80 3f 00 00 80 3f 00 00 80 3f 00 00 80 3f
       1.0 1.0 1.0 1.0
0000a0 00 00 80 3f 00 00 80 3f 00 00 80 3f 00 00 80 3f
       1.0 1.0 1.0 1.0
0000b0 00 00 80 3f 00 00 80 3f 00 00 80 3f 00 00 80 3f
       1.0 1.0 1.0 1.0
0000c0 00 00 80 3f 00 00 80 3f 00 00 80 3f 00 00 80 3f
       1.0 1.0 1.0 1.0
0000d0 00 00 80 3f 00 00 80 3f 00 00 80 3f 00 00 80 3f
       1.0 1.0 1.0 1.0
0000e0 00 00 80 3f 00 00 80 3f 00 00 80 3f 00 00 80 3f
       1.0 1.0 1.0 1.0
0000f0 00 00 80 3f 00 00 80 3f 00 00 80 3f 00 00 80 3f
       1.0 1.0 1.0 1.0

base.mlp.fc_h.2.bias f4 [64]
000000 00 00 00 00 00 00 00 00 00 00 00 00 00 00 00 00
       0.0 0.0 0.0 0.0
000010 00 00 00 00 00 00 00 00 00 00 00 00 00 00 00 00
       0.0 0.0 0.0 0.0
000020 00 00 00 00 00 00 00 00 00 00 00 00 00 00 00 00
       0.0 0.0 0.0 0.0
000030 00 00 00 00 00 00 00 00 00 00 00 00 00 00 00 00
       0.0 0.0 0.0 0.0
000040 00 00 00 00 00 00 00 00 00 00 00 00 00 00 00 00
       0.0 0.0 0.0 0.0
000050 00 00 00 00 00 00 00 00 00 00 00 00 00 00 00 00
       0.0 0.0 0.0 0.0
000060 00 00 00 00 00 00 00 00 00 00 00 00 00 00 00 00
       0.0 0.0 0.0 0.0
000070 00 00 00 00 00 00 00 00 00 00 00 00 00 00 00 00
       0.0 0.0 0.0 0.0
000080 00 00 00 00 00 00 00 00 00 00 00 00 00 00 00 00
       0.0 0.0 0.0 0.0
000090 00 00 00 00 00 00 00 00 00 00 00 00 00 00 00 00
       0.0 0.0 0.0 0.0
0000a0 00 00 00 00 00 00 00 00 00 00 00 00 00 00 00 00
       0.0 0.0 0.0 0.0
0000b0 00 00 00 00 00 00 00 00 00 00 00 00 00 00 00 00
       0.0 0.0 0.0 0.0
0000c0 00 00 00 00 00 00 00 00 00 00 00 00 00 00 00 00
       0.0 0.0 0.0 0.0
0000d0 00 00 00 00 00 00 00 00 00 00 00 00 00 00 00 00
       0.0 0.0 0.0 0.0
0000e0 00 00 00 00 00 00 00 00 00 00 00 00 00 00 00 00
       0.0 0.0 0.0 0.0
0000f0 00 00 00 00 00 00 00 00 00 00 00 00 00 00 00 00
       0.0 0.0 0.0 0.0

base.mlp.fc2.0.0.weight f4 [64, 64]
000000 15 a6 20 be 9d 92 01 3e 96 65 a9 bd 21 c4 f5 3d
       -0.15688355 0.12653585 -0.08271329 0.12000299
000010 df 90 3f bd de 01 9d bd 88 b8 6d 3d 46 3d 48 3e
       -0.04676902 -0.07666372 0.05803731 0.19554624
000020 fe 32 0c 3e e9 6f 33 3e 3d 4e 18 be a7 5c 25 bd
       0.13691327 0.17523159 -0.14873596 -0.040371563
000030 48 77 21 be 07 d2 f4 bd 64 ad 19 3e 9a 19 56 3e
       -0.15768158 -0.11954122 0.1500755 0.20908204
000040 f4 64 81 3e 06 ca b6 bd 70 0f 50 be 4b f5 a0 bd
       0.25272334 -0.08925252 -0.20318389 -0.07859286
000050 c6 5f c9 3d 26 41 4a be 3c 13 c9 3d dd aa 9c bd
       0.098327205 -0.19751415 0.09818122 -0.07649777
000060 82 4f 31 3e 2d 14 1c be a9 91 bb 3d f4 0d 56 be
       0.17315486 -0.15242071 0.09158642 -0.2090376
000070 8d d1 86 bc 65 86 09 be fb 91 8e 3d 84 f5 be 3d
       -0.016457343 -0.13430174 0.06961437 0.09324172
000080 95 88 13 3d dc 55 98 3d 65 6c b1 bd 7f 49 7b 3e
       0.036018927 0.074382514 -0.08663253 0.24539755
000090 6e dc 46 be fc 33 0a be e1 98 a6 bd 3e f5 44 be
       -0.19420025 -0.13496393 -0.08134628 -0.19234177
0000a0 9e fa 3e 3e eb fa e3 3e 8c dd 83 be 26 94 82 3d
       0.1865029 0.44527373 -0.25754964 0.06375913
0000b0 79 12 8c be 4b c0 41 bc 78 28 c4 3d 1c 59 3f 3e
       -0.27357844 -0.011825631 0.09578031 0.18686336
0000c0 20 39 16 3d ae 09 82 be fc 44 4f 3d 02 1a 1d be
       0.036675572 -0.2539801 0.050602898 -0.15341952
0000d0 cd 3a a8 3d 97 38 46 be 78 29 19 3e 92 c0 d1 be
       0.0821434 -0.19357525 0.14957225 -0.40967232
0000e0 bf 82 34 be 42 91 26 3e 64 3c 07 3c 83 5a 13 3c
       -0.17628 0.16266349 0.008254144 0.008993748
0000f0 dd a7 9f 3e 1a a9 41 3e 2a e1 e4 3e 42 e7 8c 3e
       0.31182757 0.18912163 0.44703037 0.27520186
000100 61 d2 89 3e 8d dc 9c be fc 83 91 be 37 a7 8f 3d
       0.2691832 -0.30637017 -0.2842101 0.070143156
000110 21 80 d6 bb ef f2 5b be 2a f1 a3 3c e2 93 7e be
       -0.006546036 -0.2147939 0.020012457 -0.248611
000120 41 87 f0 3d e0 57 a7 3d 48 c5 34 3e 62 a3 a2 bd
       0.11744548 0.08171058 0.17653382 -0.07941319
000130 ba 71 03 3d df 90 59 3e 92 94 7c 3e 9e 40 97 bd
       0.03209088 0.2124667 0.2466605 -0.073853716
000140 8e 4a 53 be df 98 b4 3d ff 89 4d 3e 53 92 a5 3e
       -0.20633909 0.0881822 0.20072173 0.323382
000150 31 3a 32 3e 43 54 82 bc 3d a2 2c 3d fc a4 34 be
       0.17405011 -0.01590932 0.04214691 -0.17641062
000160 3d 78 aa be 4d b3 eb 3d fd 39 01 3d 12 83 0d 3d
       -0.3329486 0.11508808 0.031549443 0.034548827
000170 00 2c 1f bd 67 b1 75 bd a6 6d 47 be 69 c4 06 3e
       -0.03886032 -0.059983637 -0.19475421 0.13160862
000180 69 0b 88 bb 93 07 01 3d 09 23 d9 3d 3f 0d 92 3e
       -0.004151751 0.031501364 0.106023856 0.2852573
000190 57 6a ff bd 39 5b 2c 3c ec 65 fa bc 58 2d f4 bd
       -0.124714546 0.010519796 -0.030566178 -0.11922711
0001a0 b6 df 29 3c 66 96 9e 3c 10 f6 13 be 9d 4f c8 3c
       0.010368278 0.019358825 -0.14449334 0.024452025
0001b0 ae 04 8a be cc c2 c9 3e 92 3e 82 be 1f a2 4f 3e
       -0.26956695 0.3940643 -0.25438362 0.20276688
0001c0 0b 0b 21 bd 75 98 33 be 30 34 03 3d de 0d ba 3d
       -0.039317172 -0.17538626 0.03203219 0.09084676
0001d0 82 bf 6b bb cd af 37 be 05 6e 1a be d7 32 e3 bd
       -0.0035972302 -0.17938156 -0.15081032 -0.11093681
0001e0 55 28 75 3e 93 7b 07 3f 19 17 c6 bd aa 31 e2 3d
       0.23941167 0.52922934 -0.09672374 0.11044629
0001f0 d8 da 2d be 6b 41 b9 3d 6f 6e 0b be 59 b2 e6 bd
       -0.16978014 0.090456806 -0.13616346 -0.11264486
000200 a8 4c 60 3e ec ba 61 3d be fc f2 bd 1b 3b 95 3d
       0.21904242 0.055109903 -0.11864613 0.07286664
000210 b6 24 71 3e 60 57 4b 3d 85 02 a3 3e 09 dc b1 3d
       0.2354916 0.049643874 0.3183786 0.086845465
000220 f6 2c 08 bc 9e 6e 8d 3d 52 e0 38 bc f4 2d 13 bc
       -0.008311501 0.06905864 -0.011283951 -0.008983124
000230 26 3d 65 3e 0d 15 fa bd 12 e2 22 3e 61 58 09 be
       0.22386608 -0.12211046 0.15906551 -0.1341262
000240 25 ae 73 3e 6d 21 c3 bd 9b b9 06 bd 39 af c0 bb
       0.237969 -0.0952786 -0.03289185 -0.005880263
000250 a9 33 f3 bc 1a b0 6f 3d 38 2f 12 bd 80 67 01 be
       -0.02968772 0.058517553 -0.035689563 -0.12637138
000260 81 b4 d3 3d 48 ae 2c 3e c7 c7 0c be ac 04 3f 3b
       0.10337163 0.16863358 -0.13748084 0.0029147072
000270 a7 b0 03 3f 7e 5d 13 be 1d 7e 12 3e 02 7d 5d be
       0.51441425 -0.14391133 0.14305921 -0.21629718
000280 79 98 95 be 68 a9 a1 3c 1e 4e 9f 3e 5a ca 95 bd
       -0.2921789 0.0197341 0.31114286 -0.07313986
000290 a4 24 1e be 3c 4d 5f 3e 9b bd 9f be 3b 65 0a be
       -0.15443665 0.21806806 -0.31199345 -0.13515179
0002a0 5a 5b d8 3e 6c 28 0f 3e 3a bf bf bd a9 c6 c8 bd
       0.42257196 0.13980263 -0.093626454 -0.098035164
0002b0 54 37 e0 bd 9b ef da bd 33 82 aa bc 55 62 fa 3d
       -0.10948053 -0.10690232 -0.020814037 0.122257866
0002c0 e3 68 c9 be 08 69 9f bd 71 8b 01 be 6b 13 17 3e
       -0.39337835 -0.07783705 -0.12650849 0.14753501
0002d0 27 23 23 3e 4c 34 fd bc 68 cb d8 bc 80 b3 da 3d
       0.15931378 -0.030908726 -0.02646418 0.10678768
0002e0 cd eb 89 3d a1 e1 a9 be 1c 52 cb bd 4f 02 93 bd
       0.067344286 -0.33179954 -0.099277705 -0.07178175
0002f0 9d 52 cf bd f3 42 52 3e bd d9 9e be ef 7b dc bc
       -0.10123179 0.20533352 -0.31025496 -0.026914565
000300 94 df 4b 3e bc 27 49 bd d1 6b e4 3d 22 5a 2e 3e
       0.19909507 -0.04911016 0.11153377 0.1702657
000310 67 60 33 be 2e 5f d5 bc c2 52 df 3c 13 1b 53 be
       -0.17517243 -0.026046362 0.027261142 -0.20615797
000320 fb 48 95 be cf bb 8f 3c ba 21 af bd a2 d9 04 be
       -0.29157242 0.017545609 -0.08551355 -0.12973645
000330 54 42 f4 bd c2 8d 75 3e ba 05 20 3e 0b 31 41 bd
       -0.119267136 0.23979858 0.15627185 -0.04716591
000340 83 c7 ac bd 18 7a 0f 3e bc 4a 80 be d7 8c 1e bd
       -0.08436491 0.14011419 -0.25057018 -0.038708534
000350 91 05 07 be 60 a7 3f be 73 32 29 3e d9 d0 03 3e
       -0.13185717 -0.18716192 0.16523151 0.12872638
000360 bb 22 60 3d 09 12 c3 be 41 17 d5 3d 98 84 8f bd
       0.05472062 -0.38099697 0.10404826 -0.07007712
000370 07 41 ab 3b e1 10 bb 3c e9 ac 81 3e e0 e7 97 3e
       0.0052262577 0.022835197 0.25327232 0.29669094
000380 03 08 a1 be 44 e3 95 bc b8 67 5b 3e 40 07 8d be
       -0.31451425 -0.018296845 0.21426284 -0.27544594
000390 31 b4 91 3e 78 aa 08 3d 4e 44 6f bc bf d4 62 be
       0.28457788 0.033365697 -0.014603687 -0.22151469
0003a0 1c 80 83 3d c1 24 88 3e 25 0f 32 bd e3 2e ec bd
       0.06420919 0.2659054 -0.043471474 -0.115323804
0003b0 de 68 37 be a3 00 3b 3d f5 5b da bd 79 12 3f bd
       -0.17911097 0.045654904 -0.10662071 -0.046648476
0003c0 e0 c9 34 bd dd d1 32 3d f5 c1 a1 bd 12 1a c1 bc
       -0.044137836 0.043657172 -0.078983225 -0.023572002
0003d0 76 be 02 ba fc 34 6c 3e 7d 96 c3 3e 86 f6 08 be
       -0.00049874873 0.23067087 0.3820075 -0.13375291
0003e0 41 da 56 3e 81 9b 16 3d 8f 95 51 3e 1a 69 aa bd
       0.20981695 0.036769394 0.20467208 -0.08320828
0003f0 13 b8 8d be 3f 31 fb be fc 21 67 bd 61 78 0d 3d
       -0.276795 -0.4906101 -0.056428894 0.03453863

base.mlp.fc2.0.0.bias f4 [64]
000000 00 00 00 00 fc 86 0e bb 95 e7 0b ba e2 3d 18 3b
       0.0 -0.0021747937 -0.00053369376 0.0023230244
000010 00 00 00 00 00 00 00 00 00 00 00 00 00 00 00 00
       0.0 0.0 0.0 0.0
000020 00 00 00 00 00 00 00 00 b2 50 38 3b 00 00 00 00
       0.0 0.0 0.002812427 0.0
000030 f4 3c 1e bc e4 56 d4 ba b0 e0 0e b5 ca 8f f4 bb
       -0.009658087 -0.0016200212 -5.3226086e-07 -0.00746343
000040 8f eb af bb 6f 28 53 bb 24 46 cd ba e8 4a cd b9
       -0.005368657 -0.0032220145 -0.0015661162 -0.00039156456
000050 00 00 00 00 00 00 00 00 c4 9d 95 3a 56 a3 7c bb
       0.0 0.0 0.0011414816 -0.0038549504
000060 00 00 00 00 a5 8b 8a bb 02 ae 96 b7 7e 7c 6d ba
       0.0 -0.0042280727 -1.7962422e-05 -0.00090593833
000070 54 95 26 39 00 00 00 00 ee 65 5a 3a 00 00 00 00
       0.00015886623 0.0 0.0008331229 0.0
000080 a1 98 96 bb 00 00 00 00 00 00 00 00 b4 b5 21 bb
       -0.0045958315 0.0 0.0 -0.0024674954
000090 81 91 c3 3a 00 00 00 00 d9 e1 ef bb df 04 04 3b
       0.0014920683 0.0 -0.0073206243 0.0020144505
0000a0 73 b3 01 bb 2e cf 90 3a ff 8e dc 3a 40 53 4b bb
       -0.0019790798 0.0011048072 0.0016827284 -0.0031024963
0000b0 00 00 00 00 bc 91 bf 3a 4d 92 55 3a 00 00 00 00
       0.0 0.0014615576 0.00081471057 0.0
0000c0 db ee 46 ba 00 00 00 00 cd 4a da 39 2b 2e 40 3a
       -0.0007588693 0.0 0.0004163593 0.00073310983
0000d0 44 17 1c bb e8 65 85 3b 00 00 00 00 00 00 00 00
       -0.0023817578 0.004070986 0.0 0.0
0000e0 47 0a 54 3c b7 61 33 ba 7e 40 90 39 00 00 00 00
       0.012941903 -0.0006842869 0.0002751387 0.0
0000f0 ad d7 cb bb 4a 5e bd ba a1 2c 37 b9 01 ce 9e 39
       -0.006220779 -0.0014447656 -0.00017468866 0.00030289593

base.mlp.fc2.0.2.weight f4 [64]
000000 a9 10 81 3f f6 69 7f 3f ab 5d 7f 3f 1d 08 80 3f
       1.0083209 0.9977106 0.997523 1.0002476
000010 28 c3 7f 3f d6 2d 80 3f 26 3a 80 3f 5b 9e 7f 3f
       0.9990716 1.0013988 1.0017745 0.99851006
000020 bb 0b 80 3f 3f f3 7f 3f 6d 62 80 3f 7e ea 7f 3f
       1.000358 0.9998054 1.0030037 0.9996718
000030 d5 fc 7f 3f 38 67 7f 3f af c4 7f 3f 94 de 7f 3f
       0.99995166 0.99766874 0.9990949 0.99949
000040 57 ab 7f 3f 13 2e 80 3f d4 ea 7f 3f fa b6 7f 3f
       0.9987082 1.0014061 0.99967694 0.99888575
000050 00 1b 80 3f f3 08 80 3f 83 2e 80 3f 28 27 7e 3f
       1.000824 1.0002731 1.0014194 0.992785
000060 27 0e 80 3f df 8b 80 3f 29 8a 7f 3f 00 fe 7f 3f
       1.0004319 1.0042685 0.9982019 0.9999695
000070 fa a6 7f 3f 46 08 80 3f 81 9d 7e 3f ac de 7f 3f
       0.9986416 1.0002525 0.9945908 0.99949145
000080 e2 24 7f 3f 11 94 7f 3f 6d 2e 80 3f 0a 0b 80 3f
       0.99665654 0.99835306 1.0014168 1.0003369
000090 1f 11 80 3f 73 66 7f 3f 2c 62 80 3f a0 2c 80 3f
       1.0005225 0.997657 1.002996 1.0013618
0000a0 58 c8 7f 3f d3 21 80 3f d7 20 7f 3f d2 f9 7e 3f
       0.99915075 1.0010322 0.99659485 0.99599946
0000b0 ca d2 7f 3f 10 5d 80 3f d6 31 80 3f a1 e5 7f 3f
       0.99931014 1.00284 1.0015209 0.9995976
0000c0 43 f5 7f 3f d2 26 80 3f b6 6f 7f 3f de 0c 80 3f
       0.99983615 1.0011847 0.9977983 1.0003927
0000d0 ef 26 7f 3f 2e f6 7f 3f 76 12 80 3f bb 1e 80 3f
       0.9966878 0.99985015 1.0005634 1.0009378
0000e0 80 6e 81 3f 2d 99 7f 3f 71 fb 7f 3f 5e 6a 80 3f
       1.0111847 0.998431 0.99993044 1.0032461
0000f0 a5 b8 80 3f 71 8c 7f 3f e4 00 7e 3f 39 b0 7f 3f
       1.0056349 0.9982367 0.9922011 0.9987827

base.mlp.fc2.0.2.bias f4 [64]
000000 5b 4b 0c bc 07 06 15 bb 51 eb cc 39 24 2f 1f b9
       -0.008562888 -0.0022739188 0.00039085236 -0.00015180983
000010 7d f4 85 3a 61 16 c7 ba 64 b3 f9 ba 06 72 bf 3a
       0.0010219958 -0.0015189165 -0.0019050655 0.0014606125
000020 7b 38 f4 b9 88 38 13 39 e1 f7 3f 3b 3e 31 dd 39
       -0.00046581388 0.00014040072 0.0029292034 0.00042189093
000030 5a 32 30 b9 ac 2f 0f 3b d7 e7 ec 37 86 b3 11 3a
       -0.00016803425 0.0021848483 2.8241351e-05 0.0005558062
000040 82 75 a1 3a 12 55 b2 ba b7 8a d3 ba 0d bf a0 3a
       0.0012318345 -0.0013605675 -0.0016139363 0.0012263969
000050 b9 50 4a ba ad 79 b9 b9 53 48 04 3b 2f ba eb 3b
       -0.0007717717 -0.00035376605 0.002018471 0.0071938257
000060 f1 26 09 ba 39 96 7e bb 52 55 df 3a db d2 06 ba
       -0.0005231938 -0.0038846864 0.0017038977 -0.0005143114
000070 11 0c 8e 39 d1 23 b7 b9 e1 86 81 3a 67 27 e2 39
       0.0002709334 -0.00034931165 0.0009882116 0.00043135436
000080 92 4f 5a 3b 00 6a e9 3a 81 07 cb ba b3 53 df b9
       0.0033311588 0.001780808 -0.0015489907 -0.00042596235
000090 22 31 da 3a 20 4f 19 3b 2f 38 e7 b9 6a 5f 10 3b
       0.0016646723 0.002339311 -0.00044101613 0.0022029527
0000a0 9d 9c 51 ba d8 a9 fa 3a a5 ad 6f 3b 2c b2 6b bb
       -0.00079960545 0.0019124104 0.0036572006 -0.0035964353
0000b0 1f ce 4e 3a 93 50 2f 3b 33 60 04 3b 5a 0d 02 3a
       0.0007888991 0.0026750907 0.002019894 0.0004961096
0000c0 70 bf b0 b7 ec d4 93 ba 75 e1 0a 3b cb 37 85 3a
       -2.106998e-05 -0.0011278666 0.0021191512 0.0010163722
0000d0 b0 6c 11 bb 3e 79 25 3b 0c 02 34 ba f7 42 89 ba
       -0.0022190027 0.0025249268 -0.000686676 -0.0010472228
0000e0 01 f8 1f 3c 21 5a a0 b8 f9 64 04 3a 06 b9 56 bb
       0.009763719 -7.646182e-05 0.00050504465 -0.003276409
0000f0 b1 9c d2 bb 52 0d 42 ba 67 e4 da 3a ee 05 ee 39
       -0.0064273705 -0.00074024976 0.0016700149 0.00045399315
