MAPPO/results/MyEnv/MyEnv/rmappo/check/run4/models/critic_agent2.pt (torch, 250595 bytes, 21 tensors)

base.feature_norm.weight f4 [411]
0.99816865 1.0002351 0.9956515 1.0021292 1.0022213 0.9970133 1.0017194 0.99797606
0.9996497 0.99654865 1.0067674 0.999987 0.9981379 1.0069066 0.9919321 0.9968337
0.9995238 1.0006285 0.9931585 0.9977857 1.0041463 1.0026729 1.0008895 0.99777216
1.0083711 1.0016115 0.9987117 0.9995471 1.001926 1.0041331 0.999162 0.9994453
0.9941939 1.0000597 0.9975403 1.0014232 1.005056 0.994731 1.0016872 1.0012896
0.9976574 1.0004767 1.0010984 0.9992165 0.995359 1.0007038 0.9997593 0.998643
0.99736434 0.999004 0.9976079 0.9986562 0.9950785 0.99666667 0.99736506 1.0025141
0.99870265 1.0063773 0.99878025 1.0011739 1.0002369 0.99801683 1.0025488 1.0003129
0.99553436 1.0007962 1.0006541 1.0016477 0.99862283 0.99932176 1.002536 1.0038986
0.9927648 0.99758714 1.0025408 1.0029513 0.9998645 0.9983818 0.99415874 1.0005225
0.99674106 0.9967964 1.003946 0.99720967 0.9985582 1.0007621 0.9991618 1.0060433
0.99856216 0.99979764 0.99966824 0.99723136 0.99762446 0.9993569 1.0015695 0.9989151
1.0017225 0.99965453 1.0009444 0.99815613 1.0015248 1.0068953 0.9983555 0.9974899
0.9967817 0.99349236 0.9992661 1.0028882 1.0016044 1.0033631 0.99985427 0.99820954
1.0024451 1.0019268 1.001597 1.0036186 0.99992937 1.0012654 0.9958029 1.0011119
1.003307 1.0075722 1.000006 1.0053363 0.9949439 1.0046651 0.99284697 0.9981966
1.0015582 0.99883586 0.9979059 0.99688566 1.0001838 0.9980041 1.0002629 0.99498373
0.99815816 0.9996077 0.9988254 0.99439186 0.9978019 0.99432856 0.99110323 0.99566483
0.99887645 0.99803025 1.0017288 1.0028156 0.9984327 1.0009314 1.0006167 0.99941564
0.99813557 0.99967813 1.0003386 0.9961334 0.99714667 1.0021569 0.995748 1.0013592
1.0009885 0.989901 0.99765444 1.0006074 0.99870497 1.0021292 0.99908066 0.9993065
0.9984302 1.00184 1.0000557 1.0007155 0.99740106 0.99813426 0.99624485 0.9964005
0.9977615 0.9972525 1.0022986 0.99640787 0.99473655 1.0022185 0.99892294 0.99863
0.9993062 1.002066 0.9985913 1.0010147 0.998385 1.0017871 0.99771434 0.9984503
0.9975967 1.0125659 0.9995446 1.0092179 0.999529 1.0034701 0.99284303 1.0024511
0.99742573 1.0031086 1.0026653 0.9927662 1.0035726 1.0016513 0.9974901 1.004797
0.9978747 1.0063169 0.99929595 1.0034806 0.9986313 1.0007899 1.0012794 0.9990698
1.0013633 1.0059602 0.9975652 1.002389 0.99241424 1.0007753 0.99399465 0.99373436
0.9905193 1.0025635 1.000917 0.9946751 0.99354845 0.99681634 1.0006752 1.0015141
0.99800724 1.0010022 0.9973858 0.9990758 1.0012839 1.0017626 0.9984863 0.99724907
0.99758846 0.998974 0.99698657 1.0006754 1.0015236 0.9960164 0.992729 0.9977344
0.99481493 1.0038896 0.9967775 1.0016515 1.000332 0.99959195 0.9994267 0.9985459
00000000: fb87 7f3f b407 803f 04e3 7e3f c545 803f
00000010: ca48 803f 433c 7f3f 5738 803f 5c7b 7f3f
00000020: 0be9 7f3f d01d 7f3f c1dd 803f 26ff 7f3f
00000030: f785 7f3f 51e2 803f 43ef 7d3f 7e30 7f3f
00000040: cbe0 7f3f 9814 803f a33f 7e3f e26e 7f3f
00000050: de87 803f 9657 803f 261d 803f ff6d 7f3f
00000060: 4e12 813f ce34 803f 92ab 7f3f 52e2 7f3f
00000070: 1c3f 803f 6f87 803f 15c9 7f3f a6db 7f3f
00000080: 7e83 7e3f f501 803f cd5e 7f3f a32e 803f
00000090: ada5 803f b1a6 7e3f 4937 803f 422a 803f
000000a0: 7a66 7f3f 9f0f 803f fe23 803f a7cc 7f3f
000000b0: d9cf 7e3f 1017 803f 3af0 7f3f 11a7 7f3f
000000c0: 4553 7f3f babe 7f3f 3b63 7f3f efa7 7f3f
000000d0: 77bd 7e3f 8c25 7f3f 5153 7f3f 6252 803f
000000e0: faaa 7f3f f9d0 803f 10b0 7f3f 7726 803f
000000f0: c307 803f 087e 7f3f 8553 803f 410a 803f
00000100: 57db 7e3f 171a 803f 6f15 803f fe35 803f
00000110: bfa5 7f3f 8dd3 7f3f 1a53 803f c07f 803f
00000120: d525 7e3f df61 7f3f 4253 803f b560 803f
00000130: 1ff7 7f3f f395 7f3f 3081 7e3f 1f11 803f
00000140: 6c2a 7f3f 0d2e 7f3f 4d81 803f 2249 7f3f
00000150: 83a1 7f3f f918 803f 11c9 7f3f 07c6 803f
00000160: c5a1 7f3f bdf2 7f3f 42ea 7f3f 8e4a 7f3f
00000170: 5164 7f3f dbd5 7f3f 6e33 803f e6b8 7f3f
00000180: 7138 803f 5ce9 7f3f f21e 803f 2987 7f3f
00000190: f731 803f f2e1 803f 3a94 7f3f 805b 7f3f
000001a0: 162d 7f3f 8455 7e3f e7cf 7f3f a45e 803f
000001b0: 9334 803f 346e 803f 73f6 7f3f a98a 7f3f
000001c0: 1f50 803f 233f 803f 5534 803f 9376 803f
000001d0: 5ffb 7f3f 7729 803f f0ec 7e3f 6f24 803f
000001e0: 5d6c 803f 20f8 803f 3200 803f dcae 803f
000001f0: a5b4 7e3f de98 803f 382b 7e3f d089 7f3f
00000200: 0f33 803f b5b3 7f3f c376 7f3f e633 7f3f
00000210: 0606 803f 327d 7f3f 9d08 803f 41b7 7e3f
00000220: 4b87 7f3f 4ae6 7f3f 05b3 7f3f 7790 7e3f
00000230: f26f 7f3f 518c 7e3f f1b8 7d3f e4e3 7e3f
00000240: 5eb6 7f3f e97e 7f3f a638 803f 435c 803f
00000250: 4999 7f3f 851e 803f 3514 803f b4d9 7f3f
00000260: d085 7f3f e8ea 7f3f 180b 803f 9902 7f3f
00000270: 0145 7f3f ad46 803f 57e9 7e3f 8a2c 803f
00000280: 6420 803f 276a 7d3f 4866 7f3f e713 803f
00000290: 21ab 7f3f c545 803f c0c3 7f3f 8dd2 7f3f
000002a0: 1f99 7f3f 4b3c 803f d301 803f 7217 803f
000002b0: ad55 7f3f ba85 7f3f e709 7f3f 1a14 7f3f
000002c0: 4c6d 7f3f f14b 7f3f 524b 803f 9614 7f3f
000002d0: 0ea7 7e3f b248 803f 6ab9 7f3f 37a6 7f3f
000002e0: 88d2 7f3f b343 803f aea3 7f3f 4021 803f
000002f0: 2996 7f3f 8f3a 803f 356a 7f3f 709a 7f3f
00000300: 7f62 7f3f c29b 813f 28e2 7f3f 0d2e 813f
00000310: 22e1 7f3f b571 803f f62a 7e3f 5150 803f
00000320: 4b57 7f3f dd65 803f 5657 803f ed25 7e3f
00000330: 1175 803f 1c36 803f 835b 7f3f 309d 803f
00000340: b774 7f3f fece 803f dcd1 7f3f 0d72 803f
00000350: 4da6 7f3f e219 803f ec29 803f 0ac3 7f3f
00000360: ac2c 803f 4ec3 803f 6f60 7f3f 484e 803f
00000370: dc0e 7e3f 6819 803f 6f76 7e3f 6065 7e3f
00000380: ac92 7d3f 0054 803f 0c1e 803f 07a3 7e3f
00000390: 3159 7e3f 5b2f 7f3f 2016 803f 9d31 803f
000003a0: 677d 7f3f d720 803f ad54 7f3f 6ec3 7f3f
000003b0: 122a 803f c239 803f cc9c 7f3f b74b 7f3f
000003c0: f561 7f3f c3bc 7f3f 833a 7f3f 2216 803f
000003d0: ed31 803f eefa 7e3f 7d23 7e3f 866b 7f3f
000003e0: 31ac 7e3f 747f 803f cf2c 7f3f 1e36 803f
000003f0: e10a 803f 42e5 7f3f 6eda 7f3f b4a0 7f3f

base.feature_norm.bias f4 [411]
0.0018825766 -0.00021461195 0.0043868106 -0.0021168054 -0.002198618 0.0029284458 -0.0017144629 0.0020095708
0.000340399 0.0035323454 -0.0072096586 7.5721655e-05 0.001805687 -0.0070220907 0.008507987 0.0030926734
0.00046392836 -0.00064101 0.0069249836 0.002101882 -0.0041634813 -0.002701698 -0.0009671486 0.0021755472
-0.008649608 -0.0016009527 0.0013183852 0.00035272937 -0.001924653 -0.004066469 0.00086554163 0.00046722987
0.005870558 -9.754931e-06 0.0025745695 -0.0017413184 -0.005259099 0.00572325 -0.0017016398 -0.0012807667
0.0023662366 -0.00050998037 -0.001103662 0.00081103103 0.0047523733 -0.00073137414 0.00020034342 0.0013736577
0.002616942 0.0010260572 0.0023653188 0.0013549529 0.0049741277 0.0034007751 0.0026392892 -0.0030494935
0.0012344887 -0.0065049236 0.0014294819 -0.0012621544 -0.00024729135 0.0019659728 -0.0029350335 -0.00036610823
0.004301336 -0.00078280736 -0.000832169 -0.0017839781 0.001419059 0.00048494726 -0.0038460356 -0.004010558
0.0073697595 0.0024124635 -0.0026001337 -0.0029310856 7.548111e-05 0.0016576202 0.0058997544 -0.0005048861
0.0032988782 0.0032154704 -0.003959611 0.0028010218 0.0014328846 -0.0005198207 0.00084728823 -0.006136464
0.0014636465 -0.001464477 0.0003295219 0.0027614413 0.0024498694 0.00072921626 -0.0015617312 0.0010593762
-0.001711026 -0.0007727352 -0.00094956136 0.0018356456 -0.0014921098 -0.0069959005 0.0016473962 0.0026006044
0.002921674 0.001829371 0.0006886843 -0.0029458853 -0.0016062574 -0.0034029465 5.7254707e-05 0.001566892
-0.007418059 -0.0016234965 -0.0016531989 -0.0036502467 0.00012731731 -0.0008842526 0.0019143316 -2.0537811e-05
-0.003304565 -0.007751207 7.431679e-05 -0.005291532 0.0026115556 -0.00049151044 0.0072250813 0.0018094005
-0.0015654209 0.0011557267 0.0019636094 0.0030848135 0.0020774915 0.0038355237 -0.0016809788 0.005083081
0.0018326764 0.0003759128 0.0011833129 0.0057289368 0.0023591742 -0.0015346903 -0.0012159542 0.0043837805
0.0011565571 0.0016967629 -0.002226841 0.0032668717 0.0015933295 -0.0010304146 -0.00075858907 0.001058994
0.0019503236 0.000337179 -0.00043124525 0.0038932136 0.0028531314 -0.0017588505 -0.00077489205 -0.0013621385
-0.0010009712 0.004266058 -0.006123563 0.0002953239 0.0013225523 -0.0021547154 0.0023986204 -0.00010121363
0.0015946883 -0.0018394785 -0.0017796165 -0.0005793982 0.0026018587 -0.0020939128 0.0018960289 0.0068582315
0.0013136172 0.0021246003 -0.0023317488 0.0036040829 0.0054026674 -0.002263591 0.0011704658 0.0013717081
0.0007100586 -0.001830708 0.0014245964 -0.0009861958 0.0016453125 -0.001786004 0.0022682545 0.0015532944
0.0024408826 -0.013482925 0.00037091775 -0.009543694 0.0004634258 -0.0035155953 0.0072737522 -0.0023975386
0.002696537 -0.0031053007 -0.0026481284 0.0077743353 -0.0036408792 -0.001645357 0.0024892332 -0.0048625595
0.002134422 -0.006443375 0.00068798073 -0.0036342917 0.001367283 -0.00081307365 -0.00088647136 0.00093481824
-0.0011348157 -0.006190891 0.0024164265 -0.0023833897 0.0077960463 -0.00088293833 0.00611045 0.006683489
0.009875403 -0.0025648915 -0.0009420642 0.0053774477 0.006813848 0.0032908816 -0.0006818069 -0.0015154948
0.00198822 -0.0009832139 0.0026015362 0.00091556425 -0.0012515971 -0.0017306454 0.0015305604 0.0027533458
0.002420696 0.0010285851 0.003021927 -0.0006337877 -0.0015167139 0.0040137665 0.0074891886 0.0022636189
0.0054532224 -0.0041325414 0.003210391 -0.0016325844 -0.0003497263 0.00039383778 0.00051148515 0.0014605484
00000000: cac0 f63a 7509 61b9 3cbf 8f3b 1aba 0abb
00000010: b016 10bb 2beb 3f3b d4b7 e0ba 01b3 033b
00000020: 9577 b239 ec7e 673b 003f ecbb c1cc 9e38
00000030: cdac ec3a 9119 e6bb 1565 0b3c 73ae 4a3b
00000040: 693b f339 7409 28ba f9ea e23b babf 093b
00000050: d06d 88bb f90e 31bb 3e88 7dba a093 0e3b
00000060: 16b7 0dbc 0fd7 d1ba abcd ac3a 89ee b839
00000070: a344 fcba 0440 85bb 84e5 623a 88f6 f439
00000080: cf5d c03b 1ca9 23b7 1cba 283b f33c e4ba
00000090: 8554 acbb 1a8a bb3b 8f09 dfba 66df a7ba
000000a0: dd12 1b3b 34b0 05ba c0a8 90ba 5f9b 543a
000000b0: ccb9 9b3b b0b9 3fba 4713 5239 4e0c b43a
000000c0: 0081 2b3b c47c 863a 7703 1b3b ad98 b13a
000000d0: 02fe a23b 8adf 5e3b edf7 2c3b 03da 47bb
000000e0: 91ce a13a 4127 d5bb 745d bb3a e06e a5ba
000000f0: e2a6 81b9 8dd7 003b b159 40bb 37f2 bfb9
00000100: 39f2 8c3b 5035 4dba eb25 5aba 5fd4 e9ba
00000110: b8ff b93a 8540 fe39 c50d 7cbb 006b 83bb
00000120: 067e f13b 6c1a 1e3b 0167 2abb 7517 40bb
00000130: 9d4b 9e38 8144 d93a ba52 c13b 555a 04ba
00000140: fe31 583b a4ba 523b a0bf 81bb 5991 373b
00000150: a1cf bb3a 9444 08ba 8d1c 5e3a 6414 c9bb
00000160: d4d7 bf3a b2f3 bfba aec3 ac39 4cf9 343b
00000170: fd8d 203b e028 3f3a 01b3 ccba c4da 8a3a
00000180: 8144 e0ba 6291 4aba fceb 78ba 0c9a f03a
00000190: e692 c3ba de3d e5bb 72ed d73a e76e 2a3b
000001a0: 8e79 3f3b 81c7 ef3a d288 343a c10f 41bb
000001b0: 0e89 d2ba f803 5fbb c624 7038 2c60 cd3a
000001c0: 3013 f3bb 81cb d4ba 26b0 d8ba fa38 6fbb
000001d0: 7b80 0539 30cd 67ba 4fea fa3a 9d48 acb7
000001e0: 6791 58bb d6fd fdbb 86da 9b38 9664 adbb
000001f0: a226 2b3b b5d8 00ba 60c0 ec3b 6829 ed3a
00000200: cf2e cdba c17b 973a e6af 003b 952a 4a3b
00000210: 8626 083b 695d 7b3b 4a54 dcba f98f a63b
00000220: 6a36 f03a 2916 c539 6419 9b3a ceb9 bb3b
00000230: 609c 1a3b a927 c9ba a760 9fba d1a5 8f3b
00000240: 9e97 973a ea65 de3a 31f0 11bb 0319 563b
00000250: 44d7 d03a fa0e 87ba 0ddc 46ba f1cd 8a3a
00000260: 00a2 ff3a 66c7 b039 c218 e2b9 4925 7f3b
00000270: 9afb 3a3b 3b89 e6ba 2022 4bba c989 b2ba
00000280: 0533 83ba 4aca 8b3b 2ba8 c8bb b4d5 9a39
00000290: 7e59 ad3a 2036 0dbb 2c32 1d3b a742 d4b8
000002a0: dc04 d13a a81a f1ba 0542 e9ba c1e2 17ba
000002b0: f283 2a3b 073a 09bb 2c84 f83a 04bb e03b
000002c0: ae2d ac3a e13c 0b3b 41d0 18bb 7a32 6c3b
000002d0: dc08 b13b c158 14bb 516a 993a e3ca b33a
000002e0: 3a23 3a3a 5ef4 efba 86b9 ba3a 3d43 81ba
000002f0: 87a7 d73a 5a18 eaba ffa6 143b e997 cb3a
00000300: 37f7 1f3b 7ce7 5cbc bd77 c239 275d 1cbc
00000310: f5f7 f239 e765 66bb a858 ee3b 0620 1dbb
00000320: 62b8 303b 4d82 4bbb 398c 2dbb dabf fe3b
00000330: d19b 6ebb 05a9 d7ba 6722 233b 1b56 9fbb
00000340: a9e1 0b3b f222 d3bb 9b59 343a 4c2d 6ebb
00000350: 6836 b33a 7324 55ba 1662 68ba 970e 753a
00000360: 19be 94ba f5dc cabb e95c 1e3b a532 1cbb
00000370: fa75 ff3b fd74 67ba 2b3a c83b 2b01 db3b
00000380: 71cc 213c bd17 28bb dcf4 76ba 4d35 b03b
00000390: b346 df3b d5ab 573b 49bb 32ba 91a3 c6ba
000003a0: cc4c 023b 2fdf 80ba 897e 2a3b 7a02 703a
000003b0: a10c a4ba d3d6 e2ba 169d c83a 7a71 343b
000003c0: 8aa4 1e3b 97d1 863a 860b 463b c624 26ba
000003d0: 79cc c6ba ea85 833b de67 f53b 3959 143b
000003e0: f2b0 b23b 456a 87bb 6c65 523b 71fc d5ba
000003f0: 785b b7b9 037c ce39 3015 063a df6f bf3a

base.mlp.fc1.0.weight f4 [64, 411]
-0.08766797 0.08903468 -0.056941815 0.010037191 -0.13539855 0.02253288 -0.07297155 -0.02344186
0.030958842 0.00079464476 -0.012787409 -0.11323421 0.0060132085 -0.06470982 -0.010164202 -0.07390824
0.004492507 -0.01961652 -0.034126654 -0.16909517 0.12776826 -0.13998812 -0.053800188 0.09240885
-0.034508742 0.038148236 0.093605824 -0.024816588 0.04850804 -0.09679684 0.013062756 -0.059759468
0.006599211 -0.04451749 -0.108478524 -0.004896557 -0.042680807 0.04280713 -0.08213228 0.003422488
0.03865203 -0.010417156 -0.02806812 0.00035365165 -0.065489836 -0.039648335 0.05814466 0.07556889
0.07485479 -0.075383775 0.22879298 0.043900378 0.07609688 0.040352274 -0.007423394 -0.1410879
0.022836724 0.00087675056 -0.11473982 -0.024732998 -0.060093917 0.07972853 -0.05780849 0.03902588
0.013703647 -0.052012604 -0.104041815 -0.007183576 0.08295363 0.005072212 0.025821242 0.08341102
0.021355554 0.025707318 -0.09005633 0.08394516 0.020754179 0.087723136 0.096306294 -0.13049373
0.028532146 0.0015063422 0.07329022 0.03719875 -0.01767426 0.022959683 0.056779794 -0.043875467
-0.08223687 -0.10317823 -0.039109424 -0.04046565 0.056088023 -0.03784786 0.121362574 -0.01590469
0.02271511 -0.027836105 0.0050449464 -0.03122889 -0.13832372 -0.013881019 0.058599513 0.055121023
-0.064957455 -0.013260598 0.0059588207 -0.08670068 -0.06621526 0.09282978 0.14738247 0.061801493
0.06119415 -0.07479251 0.1227929 0.003053547 0.062281456 -0.04971628 0.082449116 -0.035795942
0.037428763 0.10572322 0.11583761 0.062961794 -0.03437024 -0.002877193 0.04381206 0.0005937567
0.06255348 -0.0250261 0.037112925 0.085154496 0.03925917 0.07001052 0.11876152 0.014844408
0.099482864 0.038016677 0.018322991 0.1811575 0.013363396 0.06764859 0.08878467 -0.05430085
0.051715184 -0.06136325 0.007231854 -0.09779764 0.08396034 -0.00470199 0.1333576 0.0024862722
-0.062289942 0.09261182 0.017730283 -0.023777489 0.08045009 0.046863537 0.12116008 0.0101519525
-0.014543414 -0.0290349 0.01528069 0.109722815 -0.10968189 0.03649701 0.028565643 -0.0819768
-0.015884768 0.03793198 -0.0082115615 -0.019919578 0.031764526 0.0047199535 -0.01841636 0.016642528
0.13807195 -0.018365787 0.059220735 -0.0051364847 0.09969706 -0.028217666 -0.048138496 0.028168501
0.059517212 0.02693417 -0.038390335 -0.0092023015 0.002453926 -0.07836699 0.12780851 0.113851614
0.09282177 -0.010717854 0.115010805 0.14952922 -0.050705355 0.112509675 0.0062724403 -0.0017465223
-0.0714109 -0.15008181 0.025375016 0.071299024 -0.040290307 0.02876196 0.015643576 -0.050069597
-0.09092246 0.012306122 0.073488966 0.11949851 -0.07885561 0.12918231 -0.037246495 0.024923272
-0.051652506 -0.059468545 -0.0062305084 -0.039730985 0.10095802 0.041970465 0.0069886087 -0.028679358
0.066060595 -0.0036828963 -0.060193975 0.08917015 -0.08568079 0.062127158 0.05655305 0.031443793
-0.06496027 0.029698787 0.039960008 -0.16349122 0.12142528 -0.020866834 -0.09747572 0.043847725
-0.12589796 -0.01489357 -0.0027084649 0.16464727 0.00046410647 0.0306673 -0.04041862 -0.019339964
-0.005872413 0.10989419 -0.012323327 0.014903157 0.10619228 0.045078397 -0.028575184 0.015395778
00000000: 448b b3bd d057 b63d d23b 69bd 0873 243c
00000010: eba5 0abe e096 b83c 1c72 95bd 2509 c0bc
00000020: 669d fd3c b54f 503a 4882 51bc 56e7 e7bd
00000030: 730a c53b 9586 84bd c187 26bc 345d 97bd
00000040: e135 933b d3b2 a0bc 64c8 0bbd 4927 2dbe
00000050: afd5 023e 0c59 0fbe 965d 5cbd da40 bd3d
00000060: 0a59 0dbd 5341 1c3d 69b4 bf3d 284c cbbc
00000070: 5eb0 463d 6c3d c6bd 2b05 563c 58c6 74bd
00000080: 323e d83b f957 36bd fd29 debd 4c73 a0bb
00000090: 12d2 2ebd 8756 2f3d f834 a8bd d24b 603b
000000a0: 9751 1e3d b8ac 2abc 1def e5bc 526a b939
000000b0: 891f 86bd 4b66 22bd 1829 6e3d ddc3 9a3d
000000c0: 784d 993d cf62 9abd b548 6a3e e2d0 333d
000000d0: aed8 9b3d 6d48 253d f13f f3bb 5979 10be
000000e0: 1514 bb3c bcd5 653a b6fc eabd db9c cabc
000000f0: 0a25 76bd b648 a33d 98c8 6cbd 9ad9 1f3d
00000100: 4385 603c 2b0b 55bd e013 d5bd 3464 ebbb
00000110: 98e3 a93d cc34 a63b 1287 d33c 66d3 aa3d
00000120: d8f1 ae3c 2798 d23c 746f b8bd 71eb ab3d
00000130: ab04 aa3c 30a8 b33d 3c3c c53d 26a0 05be
00000140: 3fbc e93c 7570 c53a 2f19 963d b75d 183d
00000150: 9cc9 90bc f215 bc3c ee91 683d c3b6 33bd
00000160: ce6b a8bd 1c4f d3bd 3431 20bd 4fbf 25bd
00000170: 8ebc 653d 5c06 1bbd f18c f83d 8d4a 82bc
00000180: 0a15 ba3c 8b08 e4bc 1450 a53b bbd3 ffbc
00000190: bca4 0dbe 376d 63bc 0b06 703d 95c6 613d
000001a0: 6a08 85bd fb42 59bc 3642 c33b 2090 b1bd
000001b0: de9b 87bd 8a1d be3d 6eeb 163e 9023 7d3d
000001c0: b8a6 7a3d d12c 99bd d87a fb3d 051e 483b
000001d0: d71a 7f3d 4ca3 4bbd 15db a83d c49e 12bd
000001e0: e74e 193d 6a85 d83d 453c ed3d 1df2 803d
000001f0: cfc7 0cbd 4a8f 3cbb 4674 333d 56a6 1b3a
00000200: 0a1c 803d 8903 cdbc b903 183d 7b65 ae3d
00000210: 39ce 203d ad61 8f3d 3d39 f33d f635 733c
00000220: acbd cb3d 60b7 1b3d 191a 963c 5a81 393e
00000230: 25f2 5a3c 588b 8a3d bdd4 b53d 916a 5ebd
00000240: 4dd3 533d 0858 7bbd 30f9 ec3b 214a c8bd
00000250: 66f3 ab3d 2713 9abb e58e 083e baf0 223b
00000260: bd23 7fbd 44ab bd3d 193f 913c 02c9 c2bc
00000270: 04c3 a43d fbf3 3f3d c722 f83d 6054 263c
00000280: 8047 6ebc 99da edbc dc5b 7a3c 5bb6 e03d
00000290: e6a0 e0bd e47d 153d 7f02 ea3c 74e3 a7bd
000002a0: c620 82bc 905e 1b3d c989 06bc 622e a3bc
000002b0: 851b 023d d7a9 9a3b e8dd 96bc e955 883c
000002c0: bc62 0d3e d973 96bc 7191 723d f54f a8bb
000002d0: f92d cc3d bc28 e7bc df2c 45bd a1c1 e63c
000002e0: 52c8 733d 0ca5 dc3c 2f3f 1dbd 40c5 16bc
000002f0: 0cd2 203b df7e a0bd 3ce0 023e 092b e93d
00000300: 5719 be3d f099 2fbc c98a eb3d 301e 193e
00000310: 6bb0 4fbd 796b e63d 0b89 cd3b 90eb e4ba
00000320: e13f 92bd 0caf 19be 44df cf3c 3905 923d
00000330: 7307 25bd 349e eb3c f526 803c c715 4dbd
00000340: 8e35 babd 9e9f 493c 6281 963d a3bb f43d
00000350: 0d7f a1bd 5e48 043e c88f 18bd e42b cc3c
00000360: 9491 53bd 4a95 73bd 4b29 ccbb f5bc 22bd
00000370: 14c3 ce3d 39e9 2b3d b300 e53b f9f0 eabc
00000380: c74a 873d bf5c 71bb f58d 76bd d79e b63d
00000390: 6979 afbd 0c79 7e3d 2ca4 673d 35cb 003d
000003a0: e409 85bd df4a f33c 1bad 233d 3e6a 27be
000003b0: d1ad f83d ecf0 aabc 5aa1 c7bd ac99 333d
000003c0: 65eb 00be 2904 74bc 8080 31bb 4b99 283e
000003d0: 5153 f339 fd39 fb3c ff8d 25bd d86e 9ebc
000003e0: 5f6d c0bb 3510 e13d c8e7 49bc 5f2c 743c
000003f0: 577b d93d 20a4 383d 8116 eabc 933e 7c3c

base.mlp.fc1.0.bias f4 [64]
0.0 -0.00042118653 0.0 0.006837333 0.0045646215 0.0019424104 0.0 0.0
-0.0029127328 0.0021400938 -0.0037376848 0.0 -0.0033209475 0.0017617116 -0.0023875197 0.0
0.0 -0.002681783 0.00746526 0.0031573887 0.0004759726 -0.002090183 -0.0017052493 0.0
0.0 0.0001599563 0.0014332072 0.001661941 -0.00094040245 0.0 0.0 -0.006381188
-0.002693157 0.0027910895 0.0 -0.0017375719 -0.001744169 0.0 -0.0023920676 -0.0017613687
0.0013748992 -0.0017130746 -0.0019434752 -0.0015460292 -0.002430388 0.001935337 0.0021443318 -0.0023044809
0.0 0.0 0.002778993 0.0 0.0 0.0012920535 -0.00069722143 0.0036427856
-0.004275133 0.0019095377 0.0027461785 0.0 -0.00042534355 0.0015071621 -0.0033573397 -0.0021106887
00000000: 0000 0000 b3d2 dcb9 0000 0000 b50b e03b
00000010: d292 953b 7a98 fe3a 0000 0000 0000 0000
00000020: 8ce3 3ebb d140 0c3b f2f3 74bb 0000 0000
00000030: 41a4 59bb 3be9 e63a ef77 1cbb 0000 0000
00000040: 0000 0000 dac0 2fbb 249f f43b 31ec 4e3b
00000050: f68b f939 74fb 08bb ac82 dfba 0000 0000
00000060: 0000 0000 f1b9 2739 74da bb3a 7cd5 d93a
00000070: 5785 76ba 0000 0000 0000 0000 4919 d1bb
00000080: ad7f 30bb b6ea 363b 0000 0000 3dbf e3ba
00000090: 9a9c e4ba 0000 0000 3cc4 1cbb badd e6ba
000000a0: f635 b43a 3f89 e0ba 35bc feba 22a4 caba
000000b0: 2547 1fbb 22ab fd3a eb87 0c3b c606 17bb
000000c0: 0000 0000 0000 0000 c41f 363b 0000 0000
000000d0: 0000 0000 1f5a a93a bdc5 36ba cdbb 6e3b
000000e0: 6a16 8cbb 7449 fa3a 3bf9 333b 0000 0000
000000f0: a500 dfb9 f88b c53a d006 5cbb 7b53 0abb

base.mlp.fc1.2.weight f4 [64]
1.0034741 0.9987337 1.0021744 0.99478656 0.993657 0.9951837 1.0009546 0.9965355
1.003393 1.0012147 1.002841 0.99866456 1.0021929 0.99723667 0.9976802 1.0028505
1.0084939 1.0027164 1.002378 0.9937173 0.99412936 0.9948026 1.005178 1.0015007
0.9969992 0.99844384 0.9966222 0.9965423 0.99722993 1.0077688 0.99903345 0.99225754
0.9998236 1.0019591 1.0015547 0.99699754 1.0027959 1.0030818 1.0012848 1.0005374
1.0000826 0.9926614 0.9972035 0.9963858 1.0041288 0.993448 1.0004586 1.0003539
1.0000951 0.9979836 1.0009663 1.0026922 0.99886537 0.9970794 0.998493 1.003041
1.0055859 0.9961617 1.0006223 1.0001835 0.9927268 0.9989456 1.0056969 0.9961547
00000000: d771 803f 03ad 7f3f 4047 803f 55aa 7e3f
00000010: 4e60 7e3f 5cc4 7e3f 481f 803f f31c 7f3f
00000020: 2f6f 803f ce27 803f 185d 803f 7ba8 7f3f
00000030: db47 803f e74a 7f3f f867 7f3f 685d 803f
00000040: 5416 813f 0359 803f ec4d 803f 4264 7e3f
00000050: 437f 7e3f 62ab 7e3f aca9 803f 2d31 803f
00000060: 573b 7f3f 049a 7f3f a222 7f3f 651d 7f3f
00000070: 764a 7f3f 91fe 803f a8c0 7f3f 9704 7e3f
00000080: 70f4 7f3f 3240 803f f232 803f 3b3b 7f3f
00000090: 9e5b 803f fc64 803f 1a2a 803f 9c11 803f
000000a0: b502 803f 0f1f 7e3f bb48 7f3f 2413 7f3f
000000b0: 4b87 803f 9c52 7e3f 070f 803f 990b 803f
000000c0: 1e03 803f da7b 7f3f aa1f 803f 3858 803f
000000d0: a4b5 7f3f 9840 7f3f 3d9d 7f3f a663 803f
000000e0: 0ab7 803f 7404 7f3f 6414 803f 0306 803f
000000f0: 5823 7e3f e6ba 7f3f adba 803f ff03 7f3f

base.mlp.fc1.2.bias f4 [64]
-0.0034782516 -0.0006945857 -0.0021954628 0.0042774775 0.00023016585 0.0021168499 -0.0009424554 0.0034839942
-0.0035131732 0.0016909699 -0.0028948411 0.0013946043 -0.0022881022 0.0016953571 0.00073337235 -0.002831202
-0.008561058 -0.0027840747 0.0021336027 0.00044853982 -0.00041203643 -0.003028256 -0.005185505 -0.0015238279
0.0028749958 -0.0008991956 -1.6166585e-05 0.0010796008 -0.0018593491 -0.007723599 0.0010234776 -0.0065961215
-0.0020363948 0.0022017844 -0.0015209761 -0.0023360315 -0.0028542494 -0.0031030779 -0.0029980845 -0.0025047879
0.0007453588 -0.0024366912 -0.0023798507 -0.0032964442 -0.004107302 0.0011017409 0.0019340327 -0.002282466
-0.00010158941 0.0020825462 0.0015782336 -0.0026862337 0.0011922756 0.00025575276 -0.00023770958 0.003057535
-0.0055752653 0.0014411885 0.00077432045 -0.00020291402 -0.0009768282 0.00091433676 -0.0048310924 -0.0027784966
00000000: 61f3 63bb db14 36ba c1e1 0fbb 152a 8c3b
00000010: ad58 7139 d9ba 0a3b 1c0f 77ba b953 643b
00000020: 443d 66bb 89a3 dd3a 60b7 3dbb 28cb b63a
00000030: fcf3 15bb bf36 de3a c93f 403a b08b 39bb
00000040: ae43 0cbc 0675 36bb ead3 0b3b ff29 eb39
00000050: 9806 d8b9 b475 46bb 2beb a9bb 2ebb c7ba
00000060: 6d6a 3c3b ffb7 6bba 7a9d 87b7 6481 8d3a
00000070: 67b5 f3ba 3f16 fdbb 3626 863a 4724 d8bb
00000080: 0975 05bb d04b 103b 7d5b c7ba 1b18 19bb
00000090: 5c0e 3bbb 025d 4bbb 837b 44bb 5e27 24bb
000000a0: 2f64 433a e5b0 1fbb 45f7 1bbb 2809 58bb
000000b0: 8c96 86bb 4a68 903a 5e7f fd3a 6d95 15bb
000000c0: 660c d5b8 547b 083b bbdc ce3a 860b 30bb
000000d0: 2146 9c3a 8e16 8639 ae41 79b9 ed60 483b
000000e0: b7b0 b6bb 43e6 bc3a c4fb 4a3a 51c5 54b9
000000f0: ea08 80ba 1ab0 6f3a 244e 9ebb 7017 36bb

base.mlp.fc_h.0.weight f4 [64, 64]
-0.120200284 -0.05921023 0.037305214 -0.20886874 0.054471113 -0.1896004 0.08329831 0.001321891
0.28768128 0.03251342 -0.05863266 0.12914777 -0.11341489 -0.23284899 -0.12564872 -0.12568758
0.14670247 0.009233615 -0.075714424 0.32425147 0.15075168 -0.35090417 0.119965695 -0.2606146
0.2471602 -0.06845877 -0.043560557 0.28828865 -0.029533213 -0.064146884 -0.061733037 -0.20405401
0.27720657 -0.08653262 -0.12304981 0.35113624 0.11311806 -0.1934927 -0.11467662 -0.20982188
-0.1101144 -0.37817186 -0.016756797 0.14725305 -0.09902336 -0.023136681 0.10281024 -0.015638487
-0.035932716 0.089835815 -0.10172866 0.12006765 0.14806828 -0.16217661 -0.16566454 -0.013704241
0.35646766 0.18962546 -0.07632718 0.16578846 0.029666217 -0.45919892 0.040083002 -0.28033864
-0.009209835 -0.05640935 -0.15417226 0.030960621 -0.5205041 0.10720468 -0.015875641 0.19338284
0.2529416 -0.021510111 0.010627442 -0.06256433 -0.13458233 -0.15936644 -0.14007625 -0.10325591
-0.20676062 0.02513091 -0.28849423 -0.19141552 0.074215665 0.42218 -0.1290909 -0.065972075
0.2022229 -0.17100435 0.18481141 -0.11740639 0.18974382 -0.35026354 -0.1313147 -0.069899775
-0.24970937 0.11775912 0.012566733 0.11797135 0.1536088 -0.29473206 -0.25300723 0.34398383
-0.091155656 0.029518517 -0.11668143 -0.032717507 0.04759205 0.1154711 -0.14239001 0.004879596
0.096372604 -0.10978064 0.09433033 0.11722167 0.2299614 -0.08922648 0.0398621 0.2575861
-0.18944037 0.11386543 -0.11045016 -0.19555606 -0.010320212 -0.07426456 0.07573631 -0.3413194
0.07718803 -0.024586432 0.24603768 0.12709731 -0.24117094 -0.2717779 -0.007469221 0.21779038
-0.23412047 -0.06042917 0.04587894 0.017781407 -0.05852801 -0.20715949 0.29817784 -0.20981885
-0.10322784 0.027509218 0.092511944 0.19080909 0.1922884 0.010694226 -0.36167112 0.21395813
0.10287759 0.2786344 -0.25164428 -0.34234473 -0.08838807 0.1777949 -0.27903792 0.11594649
0.24372861 0.12196687 -0.19955437 0.06606665 0.018228302 0.06593185 -0.12511672 -0.14955172
0.20857221 -0.12520853 -0.06276276 0.050474763 0.014675052 -0.20316365 -0.29951715 -0.17871395
0.04420375 -0.014786111 0.016011367 0.25852674 -0.049532276 -0.1901281 -0.18611234 -0.05017197
-0.3156075 0.015191739 0.2239909 -0.13634546 0.11666152 -0.17278914 0.2629755 0.106443666
0.15515065 0.056290545 -0.38926473 0.118217714 0.105800346 0.10427303 0.10800212 0.03839724
0.26882413 -0.16905667 0.20037892 0.11970718 -0.012004247 0.11555908 0.0008761948 -0.07365315
-0.045655068 -0.12605003 0.3005915 0.14591433 -0.3562276 0.054322608 0.0970287 0.25920373
-0.033729795 -0.15106224 -0.16845001 -0.2570526 0.14247723 -0.028185673 -0.27795762 -0.16267349
-0.07277092 0.015576845 0.17411286 -0.0027590643 0.07703751 0.15494785 -0.07080087 0.017568659
0.18142553 -0.23704799 -0.06313074 -0.53632814 0.12081921 -0.2209671 0.18743211 -0.23351374
0.14288674 -0.016993823 -0.22817172 0.21117195 0.06508621 0.15251738 0.14848875 -0.00065428455
0.36181164 0.009882006 0.23230319 -0.03814161 0.16882452 -0.07670635 0.09891108 -0.12669797
00000000: 912b f6bd 6d86 72bd 5acd 183d b0e1 55be
00000010: 1a1d 5f3d 9b26 42be 4e98 aa3d 4d43 ad3a
00000020: f64a 933e cb2c 053d cd28 70bd 503f 043e
00000030: 1146 e8bd f76f 6ebe 0faa 00be 3fb4 00be
00000040: 2c39 163e 9748 173c 2a10 9bbd 4a04 a63e
00000050: a65e 1a3e b6a9 b3be 93b0 f53d 476f 85be
00000060: 9017 7d3e 1d34 8cbd 8e6c 32bd 929a 933e
00000070: a3ef f1bc 715f 83bd c8db 7cbd 89f3 50be
00000080: 05ee 8d3e 0438 b1bd 8a01 fcbd 21c8 b33e
00000090: 71aa e73d f322 46be 93db eabd 8cdb 56be
000000a0: a983 e1bd be9f c1be 8d45 89bc 81c9 163e
000000b0: c2cc cabd 2389 bdbc 2d8e d23d 491c 80bc
000000c0: 2f2e 13bd d7fb b73d 1e57 d0bd 07e6 f53d
000000d0: 369f 173e a011 26be f7a3 29be c187 60bc
000000e0: ee82 b63e 2d2d 423e 6d51 9cbd 73c4 293e
000000f0: 9106 f33c 1f1c ebbe 132e 243d 8c88 8fbe
00000100: d9e4 16bc 7e0d 67bd 55df 1dbe 21a1 fd3c
00000110: c23f 05bf 218e db3d a20d 82bc 2706 463e
00000120: 9081 813e f935 b0bc b91e 2e3c ba21 80bd
00000130: f3cf 09be f530 23be 2670 0fbe d677 d3bd
00000140: 0eb9 53be 57df cd3c 84b5 93be 6e02 44be
00000150: 62fe 973d fa27 d83e 6830 04be 5e1c 87bd
00000160: 8513 4f3e c41b 2fbe 343f 3d3e c372 f0bd
00000170: 344c 423e be55 b3be 5c77 06be 9d27 8fbd
00000180: d0b3 7fbe b22b f13d b3e4 4d3c f79a f13d
00000190: a04b 1d3e 1fe7 96be 2a8a 81be a61e b03e
000001a0: d1af babd d1d0 f13c acf6 eebd cb02 06bd
000001b0: e2ef 423d 1d7c ec3d b0ce 11be 05e5 9f3b
000001c0: 005f c53d acd4 e0bd 4330 c13d ea11 f03d
000001d0: 007b 6b3e 5fbc b6bd 7146 233d 53e2 833e
000001e0: a8fc 41be 4732 e93d b233 e2bd d93f 48be
000001f0: 1b16 29bc 0518 98bd a31b 9b3d 6bc1 aebe
00000200: c214 9e3d 7c69 c9bc 4df1 7b3e cc25 023e
00000210: 84f5 76be 7926 8bbe 5ec0 f4bb 7104 5f3e
00000220: 47bd 6fbe 9484 77bd 8eeb 3b3d 50aa 913c
00000230: 11bb 6fbd 9e21 54be c4aa 983e c1da 56be
00000240: 1e69 d3bd 035b e13c e776 bd3d 7563 433e
00000250: 40e7 443e d636 2f3c f52c b9be d717 5b3e
00000260: 7cb1 d23d 2ba9 8e3e 85d7 80be cf47 afbe
00000270: ce04 b5bd de0f 363e 0fde 8ebe 5a75 ed3d
00000280: fe93 793e c4c9 f93d fb57 4cbe f44d 873d
00000290: 8553 953c 4707 873d 991e 00be 1624 19be
000002a0: f493 553e aa36 00be c389 80bd a0be 4e3d
000002b0: a16f 703c 220a 50be 505a 99be ca00 37be
000002c0: fe0e 353d 7241 72bc 452a 833c 9e5d 843e
000002d0: 5be2 4abd f1b0 42be 3c94 3ebe 2081 4dbd
000002e0: 4e97 a1be c6e6 783c df5d 653e 259e 0bbe
000002f0: 3cec ee3d a3ef 30be baa4 863e 23ff d93d
00000300: d0df 1e3e ea90 663d b54d c7be 211c f23d
00000310: daad d83d 198d d53d 3730 dd3d 6d46 1d3d
00000320: 51a3 893e 311d 2dbe 2230 4d3e 0a29 f53d
00000330: 76ad 44bc 3daa ec3d 70b0 653a 76d7 96bd
00000340: cf00 3bbd 4213 01be 21e7 993e 916a 153e
00000350: 7763 b6be 6281 5e3d fcb6 c63d 5ab6 843e
00000360: 4128 0abd 0fb0 1abe 297e 2cbe 669c 83be
00000370: 8de5 113e a4e5 e6bc 7650 8ebe e193 26be
00000380: ec08 95bd 0636 7f3c a44a 323e 6bd1 34bb
00000390: d8c5 9d3d a6aa 1e3e 0c00 91bd 26ec 8f3c
000003a0: 9dc7 393e b5bc 72be b04a 81bd cd4c 09bf
000003b0: 1070 f73d 3345 62be 34ee 3f3e 3a1e 6fbe
000003c0: e750 123e a136 8bbc d9a5 69be 763d 583e
000003d0: eb4b 853d 842d 1c3e 6f0d 183e 4b84 2bba
000003e0: 603f b93e 23e8 213c e3e0 6d3e 603a 1cbd
000003f0: 56e0 2c3e 3818 9dbd e491 ca3d 1dbd 01be

base.mlp.fc_h.0.bias f4 [64]
0.0 0.0 0.0 0.0 0.0 0.0 0.0 0.0
0.0 0.0 0.0 0.0 0.0 0.0 0.0 0.0
0.0 0.0 0.0 0.0 0.0 0.0 0.0 0.0
0.0 0.0 0.0 0.0 0.0 0.0 0.0 0.0
0.0 0.0 0.0 0.0 0.0 0.0 0.0 0.0
0.0 0.0 0.0 0.0 0.0 0.0 0.0 0.0
0.0 0.0 0.0 0.0 0.0 0.0 0.0 0.0
0.0 0.0 0.0 0.0 0.0 0.0 0.0 0.0
00000000: 0000 0000 0000 0000 0000 0000 0000 0000
00000010: 0000 0000 0000 0000 0000 0000 0000 0000
00000020: 0000 0000 0000 0000 0000 0000 0000 0000
00000030: 0000 0000 0000 0000 0000 0000 0000 0000
00000040: 0000 0000 0000 0000 0000 0000 0000 0000
00000050: 0000 0000 0000 0000 0000 0000 0000 0000
00000060: 0000 0000 0000 0000 0000 0000 0000 0000
00000070: 0000 0000 0000 0000 0000 0000 0000 0000
00000080: 0000 0000 0000 0000 0000 0000 0000 0000
00000090: 0000 0000 0000 0000 0000 0000 0000 0000
000000a0: 0000 0000 0000 0000 0000 0000 0000 0000
000000b0: 0000 0000 0000 0000 0000 0000 0000 0000
000000c0: 0000 0000 0000 0000 0000 0000 0000 0000
000000d0: 0000 0000 0000 0000 0000 0000 0000 0000
000000e0: 0000 0000 0000 0000 0000 0000 0000 0000
000000f0: 0000 0000 0000 0000 0000 0000 0000 0000

base.mlp.fc_h.2.weight f4 [64]
1.0 1.0 1.0 1.0 1.0 1.0 1.0 1.0
1.0 1.0 1.0 1.0 1.0 1.0 1.0 1.0
1.0 1.0 1.0 1.0 1.0 1.0 1.0 1.0
1.0 1.0 1.0 1.0 1.0 1.0 1.0 1.0
1.0 1.0 1.0 1.0 1.0 1.0 1.0 1.0
1.0 1.0 1.0 1.0 1.0 1.0 1.0 1.0
1.0 1.0 1.0 1.0 1.0 1.0 1.0 1.0
1.0 1.0 1.0 1.0 1.0 1.0 1.0 1.0
00000000: 0000 803f 0000 803f 0000 803f 0000 803f
00000010: 0000 803f 0000 803f 0000 803f 0000 803f
00000020: 0000 803f 0000 803f 0000 803f 0000 803f
00000030: 0000 803f 0000 803f 0000 803f 0000 803f
00000040: 0000 803f 0000 803f 0000 803f 0000 803f
00000050: 0000 803f 0000 803f 0000 803f 0000 803f
00000060: 0000 803f 0000 803f 0000 803f 0000 803f
00000070: 0000 803f 0000 803f 0000 803f 0000 803f
00000080: 0000 803f 0000 803f 0000 803f 0000 803f
00000090: 0000 803f 0000 803f 0000 803f 0000 803f
000000a0: 0000 803f 0000 803f 0000 803f 0000 803f
000000b0: 0000 803f 0000 803f 0000 803f 0000 803f
000000c0: 0000 803f 0000 803f 0000 803f 0000 803f
000000d0: 0000 803f 0000 803f 0000 803f 0000 803f
000000e0: 0000 803f 0000 803f 0000 803f 0000 803f
000000f0: 0000 803f 0000 803f 0000 803f 0000 803f

base.mlp.fc_h.2.bias f4 [64]
0.0 0.0 0.0 0.0 0.0 0.0 0.0 0.0
0.0 0.0 0.0 0.0 0.0 0.0 0.0 0.0
0.0 0.0 0.0 0.0 0.0 0.0 0.0 0.0
0.0 0.0 0.0 0.0 0.0 0.0 0.0 0.0
0.0 0.0 0.0 0.0 0.0 0.0 0.0 0.0
0.0 0.0 0.0 0.0 0.0 0.0 0.0 0.0
0.0 0.0 0.0 0.0 0.0 0.0 0.0 0.0
0.0 0.0 0.0 0.0 0.0 0.0 0.0 0.0
00000000: 0000 0000 0000 0000 0000 0000 0000 0000
00000010: 0000 0000 0000 0000 0000 0000 0000 0000
00000020: 0000 0000 0000 0000 0000 0000 0000 0000
00000030: 0000 0000 0000 0000 0000 0000 0000 0000
00000040: 0000 0000 0000 0000 0000 0000 0000 0000
00000050: 0000 0000 0000 0000 0000 0000 0000 0000
00000060: 0000 0000 0000 0000 0000 0000 0000 0000
00000070: 0000 0000 0000 0000 0000 0000 0000 0000
00000080: 0000 0000 0000 0000 0000 0000 0000 0000
00000090: 0000 0000 0000 0000 0000 0000 0000 0000
000000a0: 0000 0000 0000 0000 0000 0000 0000 0000
000000b0: 0000 0000 0000 0000 0000 0000 0000 0000
000000c0: 0000 0000 0000 0000 0000 0000 0000 0000
000000d0: 0000 0000 0000 0000 0000 0000 0000 0000
000000e0: 0000 0000 0000 0000 0000 0000 0000 0000
000000f0: 0000 0000 0000 0000 0000 0000 0000 0000

base.mlp.fc2.0.0.weight f4 [64, 64]
-0.120200284 -0.05921023 0.037305214 -0.20886874 0.054471113 -0.1896004 0.08329831 0.001321891
0.28768128 0.03251342 -0.05863266 0.12914777 -0.11341489 -0.23284899 -0.12564872 -0.12568758
0.14670247 0.009233615 -0.075714424 0.32425147 0.15075168 -0.35090417 0.119965695 -0.2606146
0.2471602 -0.06845877 -0.043560557 0.28828865 -0.029533213 -0.064146884 -0.061733037 -0.20405401
0.27720657 -0.08653262 -0.12304981 0.35113624 0.11311806 -0.1934927 -0.11467662 -0.20982188
-0.1101144 -0.37817186 -0.016756797 0.14725305 -0.09902336 -0.023136681 0.10281024 -0.015638487
-0.035932716 0.089835815 -0.10172866 0.12006765 0.14806828 -0.16217661 -0.16566454 -0.013704241
0.35646766 0.18962546 -0.07632718 0.16578846 0.029666217 -0.45919892 0.040083002 -0.28033864
-0.011976619 -0.05344 -0.15693468 0.029211756 -0.52144516 0.103468955 -0.018655445 0.19060914
0.24987786 -0.018952504 0.0078681335 -0.06533941 -0.13743031 -0.16273683 -0.1426416 -0.106036775
-0.209538 0.02236545 -0.2908307 -0.1925658 0.06822025 0.42367053 -0.13185824 -0.06875166
0.19945031 -0.1678476 0.18500938 -0.120907344 0.19160603 -0.35303894 -0.13409008 -0.06690922
-0.25147864 0.12022122 0.009790657 0.12089947 0.15084453 -0.2975135 -0.2538381 0.33985943
-0.088031344 0.032978795 -0.11349142 -0.030376779 0.044827037 0.11549374 -0.14049101 0.0040323557
0.09361228 -0.11255823 0.09739528 0.11445867 0.22718498 -0.09007406 0.038359903 0.2602532
-0.19218741 0.11093308 -0.107773066 -0.19831575 -0.0048089963 -0.07303377 0.07337778 -0.3372521
0.077300966 -0.025397265 0.24614787 0.12898222 -0.23890772 -0.2678762 -0.007333485 0.21792616
-0.23363476 -0.06009431 0.04598334 0.01791623 -0.05828841 -0.20539318 0.29764572 -0.20968486
-0.10310885 0.027622886 0.097523145 0.19375484 0.19824801 0.009183794 -0.36153698 0.21409386
0.10300985 0.2778094 -0.24877466 -0.34021008 -0.08746374 0.17791037 -0.27890277 0.11467582
0.24189578 0.12211549 -0.1994238 0.064526044 0.018334791 0.06606699 -0.12716027 -0.14778619
0.20788412 -0.13032657 -0.06357657 0.05055605 0.014781716 -0.20035271 -0.29787022 -0.18045294
0.04431474 -0.014648229 0.015428294 0.2586378 -0.049395785 -0.19119647 -0.18818448 -0.050146572
-0.31547663 0.01824151 0.22392844 -0.13623536 0.11101545 -0.17109919 0.2622007 0.09956213
0.15515065 0.056290545 -0.38926473 0.118217714 0.105800346 0.10427303 0.10800212 0.03839724
0.26882413 -0.16905667 0.20037892 0.11970718 -0.012004247 0.11555908 0.0008761948 -0.07365315
-0.045655068 -0.12605003 0.3005915 0.14591433 -0.3562276 0.054322608 0.0970287 0.25920373
-0.033729795 -0.15106224 -0.16845001 -0.2570526 0.14247723 -0.028185673 -0.27795762 -0.16267349
-0.07277092 0.015576845 0.17411286 -0.0027590643 0.07703751 0.15494785 -0.07080087 0.017568659
0.18142553 -0.23704799 -0.06313074 -0.53632814 0.12081921 -0.2209671 0.18743211 -0.23351374
0.14288674 -0.016993823 -0.22817172 0.21117195 0.06508621 0.15251738 0.14848875 -0.00065428455
0.36181164 0.009882006 0.23230319 -0.03814161 0.16882452 -0.07670635 0.09891108 -0.12669797
00000000: 912b f6bd 6d86 72bd 5acd 183d b0e1 55be
00000010: 1a1d 5f3d 9b26 42be 4e98 aa3d 4d43 ad3a
00000020: f64a 933e cb2c 053d cd28 70bd 503f 043e
00000030: 1146 e8bd f76f 6ebe 0faa 00be 3fb4 00be
00000040: 2c39 163e 9748 173c 2a10 9bbd 4a04 a63e
00000050: a65e 1a3e b6a9 b3be 93b0 f53d 476f 85be
00000060: 9017 7d3e 1d34 8cbd 8e6c 32bd 929a 933e
00000070: a3ef f1bc 715f 83bd c8db 7cbd 89f3 50be
00000080: 05ee 8d3e 0438 b1bd 8a01 fcbd 21c8 b33e
00000090: 71aa e73d f322 46be 93db eabd 8cdb 56be
000000a0: a983 e1bd be9f c1be 8d45 89bc 81c9 163e
000000b0: c2cc cabd 2389 bdbc 2d8e d23d 491c 80bc
000000c0: 2f2e 13bd d7fb b73d 1e57 d0bd 07e6 f53d
000000d0: 369f 173e a011 26be f7a3 29be c187 60bc
000000e0: ee82 b63e 2d2d 423e 6d51 9cbd 73c4 293e
000000f0: 9106 f33c 1f1c ebbe 132e 243d 8c88 8fbe
00000100: 9539 44bc e7e3 5abd 7cb3 20be 7e4d ef3c
00000110: 6e7d 05bf 88e7 d33d 4ed3 98bc 0b2f 433e
00000120: fbdf 7f3e 4842 9bbc 58e9 003c abd0 85bd
00000130: 88ba 0cbe 7ca4 26be a410 12be cf29 d9bd
00000140: 2191 56be c037 b73c c3e7 94be f82f 45be
00000150: 0fb7 8b3d 58eb d83e d905 07be accd 8cbd
00000160: b43c 4c3e 3ee0 2bbe 1973 3d3e 459e f7bd
00000170: 5f34 443e 85c1 b4be e94e 09be b307 89bd
00000180: cfc1 80be 8b36 f63d fe68 203c 249a f73d
00000190: fd76 1a3e b153 98be 11f7 81be 0e02 ae3e
000001a0: c749 b4bd c614 073d 316e e8bd b9d8 f8bc
000001b0: 8e9c 373d fb87 ec3d e0dc 0fbe da21 843b
000001c0: ccb7 bf3d ee84 e6bd 2d77 c73d 4f69 ea3d
000001d0: 2ea3 683e c078 b8bd 461f 1d3d e83f 853e
000001e0: c7cc 44be e230 e33d 20b8 dcbd 4913 4bbe
000001f0: c994 9dbb bb92 95bd 1747 963d 4fac acbe
00000200: f84f 9e3d ed0d d0bc 300e 7c3e ea13 043e
00000210: 3aa4 74be 1227 89be bb4d f0bb 0928 5f3e
00000220: f33d 6fbe 7425 76bd 0759 3c3d 0fc5 923c
00000230: d4bf 6ebd 9752 52be 0565 983e a1b7 56be
00000240: bc2a d3bd 6449 e23c 37ba c73d ab67 463e
00000250: 8701 4b3e a077 163c 601b b9be 6c3b 5b3e
00000260: d4f6 d23d 093d 8e3e c9be 7ebe 0430 aebe
00000270: 3020 b3bd 232e 363e 58cc 8ebe 28db ea3d
00000280: 87b3 773e b017 fa3d c135 4cbe 3b26 843d
00000290: d832 963c 214e 873d 4d36 02be 4355 17be
000002a0: 93df 543e 5474 05be 6f34 82bd dc13 4f3d
000002b0: 032f 723c 4329 4dbe 7282 98be a8c8 38be
000002c0: 5f83 353d 20ff 6fbc f5c6 7c3c 2c6c 843e
000002d0: 3c53 4abd 02c9 43be 6fb3 40be 7e66 4dbd
000002e0: 2786 a1be 386f 953c 7f4d 653e 4881 0bbe
000002f0: 115c e33d a034 2fbe 2c3f 863e 3be7 cb3d
00000300: d0df 1e3e ea90 663d b54d c7be 211c f23d
00000310: daad d83d 198d d53d 3730 dd3d 6d46 1d3d
00000320: 51a3 893e 311d 2dbe 2230 4d3e 0a29 f53d
00000330: 76ad 44bc 3daa ec3d 70b0 653a 76d7 96bd
00000340: cf00 3bbd 4213 01be 21e7 993e 916a 153e
00000350: 7763 b6be 6281 5e3d fcb6 c63d 5ab6 843e
00000360: 4128 0abd 0fb0 1abe 297e 2cbe 669c 83be
00000370: 8de5 113e a4e5 e6bc 7650 8ebe e193 26be
00000380: ec08 95bd 0636 7f3c a44a 323e 6bd1 34bb
00000390: d8c5 9d3d a6aa 1e3e 0c00 91bd 26ec 8f3c
000003a0: 9dc7 393e b5bc 72be b04a 81bd cd4c 09bf
000003b0: 1070 f73d 3345 62be 34ee 3f3e 3a1e 6fbe
000003c0: e750 123e a136 8bbc d9a5 69be 763d 583e
000003d0: eb4b 853d 842d 1c3e 6f0d 183e 4b84 2bba
000003e0: 603f b93e 23e8 213c e3e0 6d3e 603a 1cbd
000003f0: 56e0 2c3e 3818 9dbd e491 ca3d 1dbd 01be

base.mlp.fc2.0.0.bias f4 [64]
0.0 0.0027481501 -0.00016409722 0.0 -0.0049341437 -0.00074410794 0.0026416434 -0.001197172
0.0 0.0 -0.004501198 0.0015356152 -0.0010290138 0.007179806 -0.0019604282 0.0034563611
0.0 0.0006657352 0.0009661692 0.0 0.0031667887 -0.0003410869 0.0 -0.0029811277
0.00040143952 -0.0024055387 -0.0034308673 -0.0026154993 -0.0038785597 0.0 0.003743857 -0.00017622471
-0.002561926 -0.0022799 -0.0033077337 0.0 0.0013968777 0.0 0.0 -0.0066369846
0.004068167 0.0024076737 -0.005053615 0.004713345 0.004894983 0.0010944769 0.0 0.0
-0.0026384545 0.007089637 -0.0014824648 0.0036797256 -0.00062729814 -0.005749256 -0.005011249 0.0016785591
0.0 0.0 -0.0031458717 0.002121224 0.001207816 0.0 -0.0017033046 -0.0028175628
00000000: 0000 0000 4f1a 343b 8311 2cb9 0000 0000
00000010: 99ae a1bb 3d10 43ba 6c1f 2d3b 6dea 9cba
00000020: 0000 0000 0000 0000 c97e 93bb b246 c93a
00000030: f9df 86ba 9444 eb3b 877a 00bb 1e84 623b
00000040: 0000 0000 bc84 2e3a 8446 7d3a 0000 0000
00000050: e689 4f3b e9d3 b2b9 0000 0000 065f 43bb
00000060: 4d78 d239 3ea6 1dbb 67d8 60bb cc68 2bbb
00000070: 6f2f 7ebb 0000 0000 7f5b 753b f6c8 38b9
00000080: fce5 27bb 606a 15bb 90c6 58bb 0000 0000
00000090: 7017 b73a 0000 0000 0000 0000 107b d9bb
000000a0: 424e 853b 10ca 1d3b cc98 a5bb 6772 9a3b
000000b0: 1866 a03b 8d74 8f3a 0000 0000 0000 0000
000000c0: ece9 2cbb 3050 e83b 444f c2ba 8d27 713b
000000d0: 4471 24ba 4164 bcbb 6735 a4bb 1903 dc3a
000000e0: 0000 0000 0000 0000 f82a 4ebb 3c04 0b3b
000000f0: 944f 9e3a 0000 0000 6b41 dfba dca6 38bb

base.mlp.fc2.0.2.weight f4 [64]
1.0015181 0.99435925 0.99795544 1.0014166 1.0035981 0.99694663 0.99659365 1.0082431
1.0015551 1.001297 0.9964856 0.99852425 0.99599415 0.9895402 0.9994955 1.003727
1.0017059 0.9953716 0.99760425 1.0094652 1.004024 0.9990928 0.99706346 1.002432
0.9998583 1.0111389 1.001582 0.99932235 0.9999732 1.0105761 0.9989984 0.98464704
0.99890804 1.0016495 0.9967962 1.0002322 0.9996847 1.0006222 1.0015045 1.0094534
1.0021559 1.0012953 0.9943153 1.0040842 1.0072665 0.9875234 1.0000932 0.9955402
1.008485 1.0090928 1.0010682 1.0040666 0.99888426 1.0062784 0.99390286 0.9992287
1.0031608 1.0006034 1.0006241 1.001687 0.99519706 0.99867547 0.99658686 0.99675035
00000000: bf31 803f 548e 7e3f 027a 7f3f 6b2e 803f
00000010: e775 803f e537 7f3f c320 7f3f 1c0e 813f
00000020: f532 803f 802a 803f ae19 7f3f 499f 7f3f
00000030: 79f9 7e3f 8252 7d3f f0de 7f3f 207a 803f
00000040: e637 803f acd0 7e3f fe62 7f3f 2836 813f
00000050: dc83 803f 8cc4 7f3f 8d3f 7f3f b14f 803f
00000060: b7f6 7f3f 006d 813f d733 803f 97d3 7f3f
00000070: 3efe 7f3f 8f5a 813f 5cbe 7f3f d411 7c3f
00000080: 70b8 7f3f 0d36 803f 092e 7f3f 9c07 803f
00000090: 56eb 7f3f 6314 803f 4d31 803f c535 813f
000000a0: a546 803f 722a 803f 738b 7e3f d585 803f
000000b0: 1cee 803f 55ce 7c3f 0e03 803f b9db 7e3f
000000c0: 0916 813f f429 813f 0123 803f 4185 803f
000000d0: e1b6 7f3f bbcd 803f 6b70 7e3f 74cd 7f3f
000000e0: 9367 803f c613 803f 7314 803f 4837 803f
000000f0: 3cc5 7e3f 32a9 7f3f 5120 7f3f 082b 7f3f

base.mlp.fc2.0.2.bias f4 [64]
-0.001467644 0.0027254035 -0.000119848744 -0.0013910407 -0.0038066278 -0.00074847473 0.0027323659 -0.008249227
-0.0016443711 -0.0014473055 -0.0042765685 0.0015129987 -0.0011142093 0.007697081 0.0002765056 0.0035835786
-0.001752305 0.00035248796 0.0008249125 -0.00953787 0.0039357226 0.00014655317 0.0030100194 -0.0025710277
0.0005323228 -0.010681443 -0.0017310835 0.00053327193 -0.004119396 -0.010772515 0.004010743 -0.0013480514
0.0009985587 -0.0017270105 -0.002031325 -0.00016840875 0.001320721 -0.00068935554 -0.0015815655 -0.00952386
0.0042470996 0.0024946393 -0.0051976736 0.0046322853 0.0027077564 -0.004910861 -0.00016136507 0.0044704564
-0.008648572 0.007353212 -0.0010315317 0.004084432 -0.0005274475 -0.0063033253 -0.005777461 0.0017413407
-0.0032558045 -0.00069788186 -0.0009154353 0.0023439268 0.0013531166 0.0012800224 -0.0017162373 -0.002880177
00000000: f65d c0ba af9c 323b 4e57 fbb8 9553 b6ba
00000010: 9e78 79bb 4a35 44ba 7e11 333b c427 07bc
00000020: f087 d7ba 84b3 bdba 7522 8cbb d04f c63a
00000030: a90a 92ba cc37 fc3b f4f7 9039 79da 6a3b
00000040: 99ad e5ba 22ce b839 f13e 583a ba44 1cbc
00000050: 3cf7 803b 11ac 1939 bf43 453b b07e 28bb
00000060: 948b 0b3a 3801 2fbc 86e5 e2ba 46cb 0b3a
00000070: 00fc 86bb 347f 30bc 8d6c 833b 19b1 b0ba
00000080: 12e2 823a db5c e2ba fa1f 05bb e196 30b9
00000090: 0b1c ad3a deb5 34ba 884c cfba f709 1cbc
000000a0: 412b 8b3b 1a7d 233b 3f51 aabb 6dca 973b
000000b0: 9d74 313b 4aeb a0bb 1b34 29b9 e87c 923b
000000c0: bdb2 0dbc 37f3 f03b 7634 87ba b3d6 853b
000000d0: 6744 0aba 208c cebb db50 bdbb b33d e43a
000000e0: 565f 55bb 0ff2 36ba d3f9 6fba 919c 193b
000000f0: 0f5b b13a 6dc6 a73a 5ef3 e0ba 5ac1 3cbb

rnn.rnn.weight_ih_l0 f4 [192, 64]
-0.026520705 -0.10360293 0.03719701 0.14653891 0.038064197 -0.07125364 -0.05550955 -0.08284324
-0.0044453964 0.099089265 -0.07065623 -0.10728043 0.002486245 0.024699936 0.05156095 -0.017992701
0.11292806 -0.13552947 0.043526784 -0.016540594 0.03236553 0.12847254 0.0050446456 -0.059668895
0.014026669 0.0073424424 0.14099728 -0.05372356 0.07560433 0.0042230734 0.07601075 0.03237662
0.04837663 0.043411545 0.20778605 0.02724804 0.0826221 0.0008223871 -0.11133067 -0.056355707
-0.015983962 -0.011889112 -0.086349644 -0.030822705 -0.14012194 0.06012611 0.06910737 -0.06149637
0.06719203 -0.15746276 -0.015411829 -0.032873753 0.03359687 0.09778466 -0.031212144 0.05746673
0.034258597 0.04462161 -0.10970221 0.02636662 0.10271115 -0.048282217 0.0030679533 -0.002748629
-0.07028247 -0.013318081 -0.0405463 -0.013012445 0.04980189 -0.13044964 -0.088330224 0.045134112
-0.15959872 -0.04131941 0.012933227 -0.049339596 -0.016309466 -0.10926369 0.026093861 0.10280416
-0.09307141 0.09614834 -0.015243974 -0.038876206 -0.049841307 0.0099487575 -0.09033361 -0.06667472
-0.02894223 0.13049218 -0.25112778 0.046881527 0.033258047 0.03532515 0.043234754 -0.053680975
0.005146884 -0.058108073 0.06650006 -0.0731255 -0.053763732 -0.042303268 0.11179227 0.11723676
-0.08322332 0.07802145 0.09693027 0.09889196 -0.0049489914 0.019265627 -0.015687244 -0.030087182
-0.18062648 -0.0713312 -0.106569976 0.046649314 0.10627604 0.070652366 0.08543731 -0.09447745
-0.027223239 -0.014295292 -0.064072035 0.12135066 0.005142086 -0.09153517 0.012504448 0.032597184
0.019773314 -0.025774378 0.07892351 0.0001246279 -0.10465734 -0.038951945 0.0788348 0.24136399
-0.037744343 -0.04425177 -0.042667665 -0.08495634 0.052952453 0.056524023 0.057195023 -0.08295931
0.06333488 0.08441983 0.05774665 0.0045476304 0.09206246 -0.0032765036 -0.037402928 -0.08119133
0.0021882616 -0.10471182 -0.10695692 0.088254526 -0.06329904 -0.018704984 0.05885437 0.0020187914
0.13146424 -0.039090373 -0.02434342 -0.10265644 0.09200963 -0.1495448 -0.13181955 -0.0379234
0.102181114 -0.04255019 0.0149972355 -0.03442575 0.01353305 -0.051633887 -0.15792774 -0.037878145
-0.056441136 -0.058717478 -0.04887033 0.058243163 0.11069632 -0.0680172 -0.047319584 0.064490706
0.030123135 -0.09335325 0.0760196 0.0127933435 0.04728619 -0.01804601 0.06915082 0.16826284
-0.021370154 -0.12652674 -0.2264196 0.007216398 0.017700735 0.0441625 0.025898444 0.1355554
0.14237007 0.15103403 -0.0292941 0.0711436 0.0049873395 -0.027479956 0.09413605 -0.031371053
-0.0009649684 0.01908422 -0.006741474 0.013991556 0.0775319 -0.037547503 -0.08983724 -0.053595636
-0.050605234 0.058806624 0.06641034 0.114969686 -0.0076934756 0.036544517 0.0555917 0.044479836
-0.17134711 0.021769887 -0.06054038 -0.11032693 -0.061519116 -0.07725584 -0.11989476 0.041138146
-0.02966795 -0.07557326 0.038914785 -0.009864903 -0.031612076 0.09737638 0.1745107 0.08966853
-0.0014639287 0.008857771 -0.013330387 0.025434174 -0.040113408 -0.04085553 -0.067980595 -0.027316155
-0.051542163 -0.1043503 0.021115987 -0.030296288 0.05934658 0.006326558 0.08135521 0.08069153
00000000: f341 d9bc c62d d4bd e45b 183d 4c0e 163e
00000010: 34e9 1b3d 6eed 91bd fb5d 63bd b7a9 a9bd
00000020: b0aa 91bb 50ef ca3d 37b4 90bd d8b5 dbbd
00000030: 45f0 223b 8557 ca3c 9331 533d 6e65 93bc
00000040: d446 e73d 3dc8 0abe 2449 323d 2480 87bc
00000050: b891 043d 4e8e 033e 8e4d a53b 5f67 74bd
00000060: 1dd0 653c df98 f03b 9761 103e 3c0d 5cbd
00000070: 71d6 9a3d b561 8a3b 86ab 9b3d 599d 043d
00000080: 9326 463d 4ed0 313d dec5 543e 4837 df3c
00000090: c735 a93d 7795 573a 5601 e4bd 3ed5 66bd
000000a0: ccf0 82bc 8dca 42bc 15d8 b0bd e67f fcbc
000000b0: 207c 0fbe cc46 763d 2a88 8d3d 9ee3 7bbd
000000c0: fa9b 893d eb3d 21be e581 7cbc a1a6 06bd
000000d0: df9c 093d 5343 c83d 9cb0 ffbc 3c62 6b3d
000000e0: be52 0c3d 26c5 363d 8dab e0bd cffe d73c
000000f0: 395a d23d 93c3 45bd b70f 493b 5822 34bb
00000100: 41f0 8fbd 1534 5abc e113 26bd 2632 55bc
00000110: 11fd 4b3d 9794 05be 7ae6 b4bd 8cde 383d
00000120: d96d 23be 8b3e 29bd e3e5 533c 5118 4abd
00000130: 6e9b 85bc a4c5 dfbd cbc2 d53c fd8a d23d
00000140: 399c bebd 6ce9 c43d dcc1 79bc a83c 1fbd
00000150: 6626 4cbd 1d00 233c d400 b9bd c18c 88bd
00000160: 4118 edbc be9f 053e d293 80be d806 403d
00000170: 9739 083d 1bb1 103d ed16 313d 95e0 5bbd
00000180: 31a7 a83b bb02 6ebd 2f31 883d d2c2 95bd
00000190: 5c37 5cbd 3146 2dbd 58f3 e43d d419 f03d
000001a0: fd70 aabd b6c9 9f3d 6183 c63d de87 ca3d
000001b0: 262b a2bb f3d2 9d3c 8982 80bc 6579 f6bc
000001c0: 26f6 38be 1816 92bd 5c41 dabd 5a13 3f3d
000001d0: 41a7 d93d 30b2 903d c2f9 ae3d 657d c1bd
000001e0: 4503 dfbc cd36 6abc 3338 83bd b286 f83d
000001f0: f27e a83b cb76 bbbd 75df 4c3c a084 053d
00000200: a5fb a13c ca24 d3bc a6a2 a13d 8cae 0239
00000210: 9656 d6bd 138c 1fbd 2474 a13d 1f28 773e
00000220: d099 1abd 5841 35bd 4ac4 2ebd 97fd adbd
00000230: ace4 583d bc85 673d 5445 6a3d 92e6 a9bd
00000240: b8b5 813d 4ee4 ac3d c087 6c3d 4a04 953b
00000250: 3e8b bc3d 9cba 56bb d033 19bd a447 a6bd
00000260: f068 0f3b 2773 d6bd 3b0c dbbd cabe b43d
00000270: eda2 81bd 323b 99bc 4811 713d b34d 043b
00000280: 909e 063e 3a1d 20bd da6b c7bc 8a3d d2bd
00000290: 8b6f bc3d 4622 19be b4fb 06be 9155 1bbd
000002a0: 5544 d13d 1c49 2ebd f7b6 753c 0402 0dbd
000002b0: bab9 5d3c 0e7e 53bd cfb7 21be 1d26 1bbd
000002c0: d22e 67bd bd81 70bd 412c 48bd 6290 6e3d
000002d0: c1b4 e23d 9a4c 8bbd 2ed2 41bd b413 843d
000002e0: cbc4 f63c fd2f bfbd 2ab0 9b3d 2c9b 513c
000002f0: 2aaf 413d 3ad5 93bc f29e 8d3d 184d 2c3e
00000300: 7610 afbc 3a90 01be 8ada 67be 8977 ec3b
00000310: 2201 913c bde3 343d f928 d43c 09cf 0a3e
00000320: 76c9 113e aaa8 1a3e 2efa efbc bcb3 913d
00000330: d66c a33b a51d e1bc 67ca c03d ef7e 00bd
00000340: eff5 7cba 8356 9c3c 95e7 dcbb d73c 653c
00000350: 0bc9 9e3d 69cb 19bd 96fc b7bd 1987 5bbd
00000360: 6f47 4fbd 37df 703d 2502 883d 3a75 eb3d
00000370: 8d19 fcbb b4af 153d 1fb4 633d 7d30 363d
00000380: 9e75 2fbe c356 b23c 31f9 77bd 16f3 e1bd
00000390: 78fb 7bbd 4f38 9ebd 628b f5bd 7980 283d
000003a0: 330a f3bc 27c6 9abd 1c65 1f3d 67a0 21bc
000003b0: aa7b 01bd 446d c73d efb2 323e 22a4 b73d
000003c0: 4ce1 bfba 2f20 113c b267 5abc 545b d03c
000003d0: f54d 24bd 2158 27bd 6939 8bbd 21c6 dfbc
000003e0: e01d 53bd 9cb5 d5bd 6ffb ac3c ec2f f8bc
000003f0: 6615 733d 044f cf3b 8f9d a63d 9a41 a53d
