MAPPO/results/MyEnv/MyEnv/rmappo/check/run4/models/critic_agent1.pt (torch, 250595 bytes, 21 tensors)

base.feature_norm.weight f4 [411]
00000000: 1417 803f 4b11 813f 6ff7 7f3f 841a 803f
00000010: 55fd 7e3f 6a31 803f ae2b 803f b30b 803f
00000020: 0e9b 7f3f 15c8 7d3f 808d 7f3f 334a 7f3f
00000030: d43a 803f 9716 803f b3c5 803f 561b 803f
00000040: a227 803f 6bce 7f3f ea16 803f c682 803f
00000050: 4399 7f3f 0881 7e3f cf34 7d3f 8744 803f
00000060: d1c4 7f3f ca44 803f 524b 803f 22ba 7f3f
00000070: f951 7f3f 49a1 7e3f acc1 7d3f 1144 803f
00000080: 0339 7e3f 5143 7f3f 4aa9 7e3f 24c5 7f3f
00000090: e2e0 7f3f ff3c 803f 050e 803f c027 803f
000000a0: f61c 803f 89de 7f3f eb82 7f3f 0c49 803f
000000b0: 7a8a 7f3f c914 803f 7bc7 7d3f 8fb3 7d3f
000000c0: f11c 803f 9056 803f bb40 803f 7a19 803f
000000d0: 5562 7f3f 04db 7f3f c122 803f 71df 7f3f
000000e0: 2842 7f3f 4525 803f 1872 7f3f 5df2 803f
000000f0: 2040 803f 99f0 7f3f d579 803f 3e7c 7f3f
00000100: 5215 803f 32a7 7f3f 9605 803f 1514 7f3f
00000110: 1e56 7f3f eee2 7d3f 7052 803f 3a19 803f
00000120: 0739 803f a888 7f3f b639 803f 420f 803f
00000130: 3da9 803f b264 803f ca1c 803f 80bf 803f
00000140: 74e6 7f3f 46a3 7f3f 5e2c 803f dfa5 7f3f
00000150: d4d9 7e3f 8c30 803f fab4 7f3f ef8f 7f3f
00000160: d45f 803f 682e 803f 4702 7f3f 0c48 7f3f
00000170: f52d 803f a607 803f df87 7f3f 86ed 7f3f
00000180: 385d 7f3f 4e79 7e3f 5c1b 7e3f 174d 7e3f
00000190: b0b5 803f 3ad7 7f3f 8d50 7f3f 4a28 7f3f
000001a0: 1865 7f3f a41b 813f 3502 7f3f e07b 803f
000001b0: f65c 803f 6448 803f ae93 803f ece1 7e3f
000001c0: 4bf6 7e3f ad1e 7d3f e798 803f 720b 803f
000001d0: cd92 7f3f 7862 803f 7b6c 803f f7d1 7d3f
000001e0: 6337 7f3f 00ec 803f ee55 803f 096c 803f
000001f0: 441e 803f 038e 7e3f d9bc 7d3f 786f 7e3f
00000200: 1937 803f 6306 803f 558f 7f3f 264b 803f
00000210: 5dca 7d3f c921 7f3f 28bf 7e3f 354c 7d3f
00000220: 9639 803f 092b 7f3f fb9e 803f 3646 7f3f
00000230: 2600 803f cf47 803f 3b1c 7e3f 2a82 803f
00000240: 7a3e 803f 7373 7f3f c440 803f 0f6b 7f3f
00000250: c15c 7d3f e279 7d3f 825b 7e3f 7ae4 7e3f
00000260: 772c 803f 1824 803f 832d 7f3f 5a08 7f3f
00000270: 61c8 7f3f 718e 7f3f b40b 803f daac 7f3f
00000280: 8203 803f da1c 803f e38c 7f3f ae88 7f3f
00000290: f008 803f fd3a 803f 8021 7f3f 7cab 7f3f
000002a0: 8fb2 803f e06f 7d3f f428 803f c078 803f
000002b0: db46 803f 869e 7f3f 57b4 7f3f 9db8 7f3f
000002c0: e039 803f 87dd 7f3f ac95 7f3f 73c9 7f3f
000002d0: ba55 7f3f d162 803f c826 803f a225 803f
000002e0: ff4d 803f 260a 803f bdeb 7f3f 4f51 803f
000002f0: 1c0a 803f 5f16 803f ea7e 7f3f 04ec 7f3f
00000300: e337 7f3f ea93 7f3f a3be 7f3f b9ab 7f3f
00000310: 2377 813f 66f5 7f3f 9309 803f 057d 7f3f
00000320: 2050 803f cac9 7e3f 8253 803f 8b4c 7f3f
00000330: a7d7 7f3f 978b 7f3f b72d 803f af2a 803f
00000340: b11d 803f 8910 803f 2d3a 803f ae27 803f
00000350: 3a08 803f 9ef3 7f3f 5904 7f3f 6918 803f
00000360: 3006 803f 7235 803f dc11 803f 4775 7f3f
00000370: f1b4 7f3f 26fa 7f3f 7573 7f3f c995 7f3f
00000380: fed3 7f3f a5b1 7f3f 6a4f 7f3f 1d4a 803f
00000390: 0ea7 7f3f afed 7f3f 93cb 803f 2625 7f3f
000003a0: 1e5a 803f 6cbb 7f3f 6c6d 803f a01f 803f
000003b0: 4914 7f3f b235 803f 5a58 7e3f 8329 7f3f
000003c0: 4bee 7f3f ae11 7f3f fd52 803f cb3d 7f3f
000003d0: 76a9 7f3f 071f 803f 656a 803f 5b65 803f
000003e0: 3f82 7f3f e02c 803f 2149 803f 9ded 803f
000003f0: 4126 803f 3b5b 7e3f 806a 7f3f 00af 7e3f
1.0007043 1.0083402 0.9998693 1.0008092 0.99605304 1.001508 1.001333 1.000357
0.9984597 0.99133426 0.99825287 0.99722594 1.0017953 1.0006894 1.0060333 1.0008342
1.0012095 0.99924344 1.0006993 1.0039909 0.99843234 0.99415636 0.98908705 1.0020913
0.99909693 1.0020993 1.0022986 0.9989339 0.99734455 0.9946485 0.99123645 1.0020772
0.9930574 0.9971209 0.99477065 0.9991019 0.9995252 1.0018615 1.0004278 1.0012131
1.0008838 0.99948937 0.9980914 1.0022292 0.99820673 1.0006343 0.9913251 0.9910211
1.0008832 1.0026417 1.0019754 1.0007775 0.9975942 0.99943566 1.0010606 0.9995032
0.9971032 1.0011374 0.9978347 1.0073963 1.0019569 0.999765 1.003718 0.99798954
1.0006506 0.99864495 1.0001705 0.9964002 0.9974078 0.9917439 1.0025158 1.0007699
1.0017403 0.99817896 1.0017612 1.0004656 1.0051647 1.003073 1.0008786 1.0058441
0.9996102 0.9985851 1.001354 0.99862474 0.9955113 1.0014815 0.99885523 0.99829
1.0029244 1.0014162 0.9961285 0.9971931 1.0014025 1.0002334 0.998167 0.99971807
0.99751616 0.99403846 0.992605 0.9933638 1.0055447 0.99937785 0.99732286 0.9967085
0.9976363 1.008656 0.9961274 1.0037804 1.002837 1.0022092 1.0045068 0.9956348
0.99594563 0.9887493 1.0046662 1.0003493 0.99833375 1.003005 1.0033106 0.99148506
0.9969389 1.0072021 1.0026224 1.003297 1.0009236 0.9943544 0.99116284 0.9938884
1.0016814 1.0001949 0.9982808 1.0022933 0.99136907 0.9966093 0.9951043 0.9894441
1.0017574 0.9967504 1.0048517 0.9971651 1.0000045 1.0021914 0.99261826 1.0039723
1.0019066 0.99785537 1.0019765 0.99772733 0.98969656 0.99014103 0.9935838 0.9956738
1.001357 1.0011015 0.9967882 0.9962212 0.9991513 0.99826723 1.0003572 0.99873126
1.000107 1.0008805 0.9982435 0.9981793 1.0002728 1.0018002 0.9966049 0.9987104
1.0054492 0.9899883 1.0012498 1.003685 1.0021623 0.9985126 0.9988455 0.9989107
1.0017662 0.999474 0.99837756 0.9991676 0.99740183 1.0030156 1.0011835 1.0011485
1.0023803 1.0003097 0.99969083 1.0024813 1.0003085 1.0006827 0.9980303 0.99969506
0.9969465 0.99835074 0.99900264 0.998714 1.0114483 0.99983823 1.0002922 0.9980014
1.0024452 0.99526656 1.0025485 0.9972617 0.99938434 0.9982237 1.0013951 1.0013026
1.0009061 1.0005046 1.0017754 1.0012109 1.000251 0.99981105 0.9961601 1.0007449
1.0001888 1.001631 1.000545 0.99788326 0.9988547 0.9999107 0.9978555 0.9983793
0.9993285 0.9988044 0.9973055 1.0022618 0.9986428 0.9997205 1.0062126 0.9966606
1.0027502 0.9989536 1.0033393 1.0009651 0.9964033 1.0016387 0.99353564 0.99672717
0.9997298 0.9963635 1.0025326 0.99703664 0.9986795 1.0009469 1.0032469 1.0030931
0.99808115 1.0013695 1.0022317 1.0072514 1.0011674 0.99357957 0.9977188 0.9948578

base.feature_norm.bias f4 [411]
00000000: 7a7e 3dba a074 0abc 1822 2539 2d0b 5bba
00000010: 944b 833b 18f1 d3ba af95 b1ba e566 7db9
00000020: 7eb4 cd3a 9d5c 113c 7102 e53a f024 353b
00000030: b293 f5ba 3283 37ba e5f8 cbbb d53a 67ba
00000040: 6127 afba ddc7 533a e422 3fba 72fc 83bb
00000050: bb22 c13a ffe7 ca3b 3fe1 3c3c 5cd3 0abb
00000060: b967 703a 4421 09bb 8e59 1abb cd2b 6a3a
00000070: 23bf 2e3b f9f6 b03b 05ea 1b3c cb5b 06bb
00000080: 4176 f63b 26fc 403b 34ab a43b 1cbc 8238
00000090: 12e0 dc39 0a8d bfbb 5da7 6eba bef2 9fba
000000a0: a790 c139 f6b7 923a 08b8 fe3a cad9 15bb
000000b0: eac3 ef3a ed3f 2fba e6d6 083c 5f04 133c
000000c0: 60d0 bdba b9c3 37bb ee90 00bb 057a 55ba
000000d0: ad92 213b 944f 203a 5513 8eba b629 ee39
000000e0: 8a31 573b 1828 89ba 1f2e f43a 45db 01bc
000000f0: df49 ddba 8898 4e39 9999 93bb 90d8 023b
00000100: c4d3 30ba b88e bc3a ec26 4db9 7ffa 633b
00000110: cb2e 603b bae3 f73b 998a 1cbb 4708 63ba
00000120: 73ec e7ba c676 fd3a 0a01 dcba c13c fcb9
00000130: 6079 8ebb 8d17 40bb a40f 73ba 566e c2bb
00000140: e56a 1b3a 215b be3a 7d46 b1ba a389 be3a
00000150: 7ce2 943b 079b 2fba 2491 9c3a 7b33 da3a
00000160: 44ca 41bb 8e65 87b9 94c3 0b3b d1ab 3d3b
00000170: 3d10 cdba 25cc 7fb9 9ca8 fb3a f5ff 8639
00000180: 351f 9d3a bbca ac3b b7cb f43b 74ad e03b
00000190: d49d b8bb e3df 263a 317d 2f3b 6ea1 df3a
000001a0: a809 43b9 08ea 1cbb 504e 813b 736f 7cbb
000001b0: c4f7 3bbb fbca 12bb 0496 97bb ca69 513b
000001c0: 1c26 063b e8ed 233a 41f4 9bbb fdb9 d2b9
000001d0: a436 df3a dcc4 1cbb 9293 b3bb 7c51 143b
000001e0: ea57 493b 5981 fbbb 9e34 2fbb debf 58bb
000001f0: ee5c 4cba 6743 293a 55d6 123c a733 c83b
00000200: 2529 dcba 7250 50b9 d4e7 df3a 320c 27bc
00000210: 3ed3 1dbb c614 4d3b dbcb a93b a941 2e3c
00000220: e496 e6ba c4ef 563b 3085 a9bb b5af 363b
00000230: 3a23 05b9 0138 8bba afd0 83bb 3186 85bb
00000240: fbea ffba 81ea 053b f954 eaba 9171 223c
00000250: 94f2 2e3c 7767 253c dd7f da3b 6d51 8f3b
00000260: 0a24 a3ba d390 95ba 44d0 3c3b 7b80 7d3b
00000270: 2351 633a d280 c43a ee6c 783b 3736 9e3a
00000280: c1b1 a6b8 9390 f7ba 6152 583a 748f de3a
00000290: 9524 aab9 3edf e2ba e625 ffba 2ec0 b8b8
000002a0: f455 b6bb 6206 2c3c c09f 35bb 521e 77bb
000002b0: e214 13bb e3f1 223a d3ab 9aba 0d9a ca3a
000002c0: dfe1 9abb 3c09 bb3a eb36 d93a bc05 5c3a
000002d0: 64ba 283b 9851 46bb 561a aaba 0962 93ba
000002e0: fc6c 1dbb d40f 64b9 5049 043a a7f0 22bb
000002f0: b93d bbb9 4818 31ba c7d3 003b 84c0 8339
00000300: 9a7f 523b 4518 de3a 1802 853a 76be c03a
00000310: e137 45bc d44a 5839 66b2 c8b9 defb f53a
00000320: f41b 20bb 1b1c 9a3b 2b14 2abb dd62 2c3b
00000330: 7baf 453a 522a f13a e3e7 c3ba 514c b4ba
00000340: e60b 84ba 0eea 1dba d099 f1ba 9a91 a9ba
00000350: 1253 b5b9 4ab8 bd38 b8d9 813b ed56 5cba
00000360: 4359 39b9 d8f8 dfba d3c3 26ba b3ff 0c3b
00000370: 90cf 883a 4e30 0f39 a8bc 103b 6847 d43a
00000380: fae8 4a3a 6118 a63a 4793 343b ee32 1bbb
00000390: 3098 c03a b15c 3c39 7b3e cebb 9fdf 5e3b
000003a0: 6e89 35bb d4be 903a 8c26 60bb 8095 8aba
000003b0: 2146 6a3b 1b74 e0ba 1999 d33b cbc3 593b
000003c0: 0ff4 c839 6856 703b 480a 27bb af0f 413b
000003d0: cedc b63a 706a 84ba 48b6 56bb 57a2 4cbb
000003e0: 4da5 013b 9150 c5ba 0e25 16bb 5f7b eabb
000003f0: 237e a3ba c3c1 e13b ede3 0f3b 0d64 a63b
-0.00072286243 -0.008450657 0.00015748327 -0.00083558523 0.0040068123 -0.0016169874 -0.0013548638 -0.00024166291
0.001569405 0.008872178 0.0017472041 0.0027640425 -0.0018736033 -0.00070004456 -0.006224739 -0.00088207173
-0.0013363176 0.0008078793 -0.0007291271 -0.0040278966 0.0014735082 0.006192207 0.011528312 -0.002118311
0.00091707293 -0.002092437 -0.0023551914 0.00089329184 0.002666422 0.005400535 0.009516244 -0.002050149
0.007521421 0.0029447167 0.005025292 6.233921e-05 0.00042128615 -0.0058456706 -0.00091039186 -0.001220308
0.00036919603 0.0011193741 0.0019433508 -0.0022865408 0.001829264 -0.0006685246 0.008352017 0.00897321
-0.0014481656 -0.0028040244 -0.0019617635 -0.00081434875 0.0024654076 0.00061153737 -0.0010839502 0.00045425975
0.0032835924 -0.0010464219 0.0018629468 -0.007925813 -0.0016882977 0.00019702513 -0.0045043943 0.0019965507
-0.0006745423 0.0014385795 -0.00019564823 0.0034786758 0.0034207578 0.007564989 -0.0023886322 -0.0008660596
-0.0017694369 0.0019337765 -0.0016784978 -0.0004811045 -0.004347965 -0.0029310912 -0.0009272045 -0.005933563
0.0005928709 0.0014523008 -0.0013525035 0.0014536869 0.0045436006 -0.0006698821 0.0011945111 0.0016647422
-0.0029570023 -0.0002582487 0.002132629 0.0028941522 -0.0015645098 -0.00024394745 0.001920003 0.00025749175
0.001198745 0.005273191 0.0074705738 0.0068566147 -0.005634049 0.0006365759 0.00267775 0.001706166
-0.00018600246 -0.0023943204 0.003946103 -0.0038518577 -0.0028681615 -0.0022398818 -0.0046260376 0.0031953924
0.0020469492 0.00062534073 -0.004759342 -0.00040192893 0.0017029834 -0.0023921048 -0.0054802382 0.0022631576
0.0030722567 -0.0076753316 -0.0026734243 -0.0033073346 -0.000779583 0.0006456882 0.008962234 0.006109673
-0.001679693 -0.00019866394 0.001708264 -0.010195779 -0.002408221 0.00312929 0.005181772 0.010635772
-0.0017592576 0.003279672 -0.005173348 0.0027875726 -0.00012696991 -0.0010621549 -0.0040226798 -0.0040748348
-0.0019524986 0.0020433965 -0.0017878107 0.009914772 0.010677952 0.010095469 0.0066680745 0.0043737204
-0.0012446654 -0.0011410959 0.002881066 0.0038681317 0.0008671453 0.0014992005 0.0037906724 0.0012070601
-7.948606e-05 -0.0018887691 0.00082520215 0.0016980008 -0.00032452182 -0.0017308963 -0.0019466251 -8.8096e-05
-0.0055644456 0.010499569 -0.0027713627 -0.0037707281 -0.0022442867 0.00062158535 -0.0011800475 0.0015457288
-0.004726633 0.001426972 0.0016572153 0.00083931885 0.0025745863 -0.0030261036 -0.001297782 -0.0011244427
-0.0024021259 -0.00021749671 0.0005046325 -0.0024862678 -0.00035713406 -0.00067556323 0.001965748 0.00025129702
0.0032119513 0.0016944489 0.0010147719 0.0014705199 -0.012037248 0.00020627241 -0.0003827989 0.0018767079
-0.0024430724 0.0047030575 -0.0025951962 0.0026304044 0.0007541102 0.0018399453 -0.0014946427 -0.0013755654
-0.0010074347 -0.00060239516 -0.001843268 -0.0012937069 -0.00034584902 9.046549e-05 0.0039627217 -0.0008405287
-0.00017676227 -0.0017087711 -0.00063615775 0.0021514713 0.0010437835 0.00013655538 0.0022085104 0.0016195597
0.00077404047 0.001267206 0.0027553604 -0.002368148 0.0014693793 0.00017963607 -0.0062940693 0.00340078
-0.0027700323 0.0011043199 -0.0034202663 -0.0010573119 0.0035747366 -0.0017124446 0.0064574596 0.0033228274
0.0003832881 0.0036672596 -0.0025488306 0.002945881 0.0013951303 -0.0010102522 -0.0032762457 -0.0031224692
0.0019782365 -0.0015053918 -0.002291027 -0.0071558203 -0.0012473505 0.0068895533 0.0021955923 0.005077845

base.mlp.fc1.0.weight f4 [64, 411]
00000000: e1d6 193d 55a1 2abe 5cbd 84bd 23bd 89bc
00000010: 0999 e7bd cdd7 86bd 98bd 9abd d0c2 e4bd
00000020: 5984 423d 001e ed3d 1f24 c33d 5483 22bd
00000030: a4da a6bd c05f 84bc f6d8 24bd efeb f13c
00000040: 6c34 96bd 04d9 7b3c c770 edbd 2679 9d3d
00000050: c11b 693d 7f74 98bc 9606 6ebc 5a91 d33c
00000060: 809c 013d 7244 c9bd 6e95 81bd 81a0 4fbd
00000070: 2568 303d ba43 46bd 5ac7 083d 7d56 2a3e
00000080: d007 e13d 2996 b03d 85c2 4a3c a28c eabc
00000090: 0d11 90bc d296 cdbb 8edc 30bd 077b babd
000000a0: 27a1 ec3b 7e86 5a3d 64e6 12be c828 773d
000000b0: eeea ee3c 311c cdbb 3c2e 9c3d 8a5e bfbd
000000c0: d4da 44bb 62a8 20bd 9669 bfbc bc4c 37bd
000000d0: 06b1 153d 71d6 e7bd 32e5 f1bd cb78 a7bc
000000e0: 8566 b23c 31d9 1b3d c9e5 92bd 4a87 1b3d
000000f0: 5ea0 2cbc 8287 9fbd 3b55 993d de5f 90bd
00000100: 2943 bf3d 1c81 033d 6f0d cc3c 7d4e a4bb
00000110: 912a d9bd eadf 93bb da4a 9bbd 5638 1cbd
00000120: 0aad 3fbd 8af8 e2bc 803d 8bbd 5e6b d43b
00000130: 8ca4 48bd 3fe6 d4bb 6525 0fbd dda0 2f3c
00000140: a93b 223c 85d2 cc3d e294 813c 6513 653d
00000150: 4660 2abc d120 90bd 5c39 a13d be0b abbd
00000160: 54b9 d1bc c327 9d3d 0502 043c 7c2b b5bb
00000170: 0da8 c63c 13b6 ab3d dc14 4f3d 7c92 953d
00000180: a41f d2bc 2428 d6bd 8bd6 8a3d 13ff dbbc
00000190: 5dac f53c a0a7 1e3d 0163 a93d 877e 64b9
000001a0: e495 d0bd ecbf 803d 173c 76bd 1353 f2bc
000001b0: 5db2 f43d c785 f6bd 01dd 473d 51d7 ac3d
000001c0: 90b1 3b3d 4cb3 fd3d cd25 f13a eb23 dabd
000001d0: ba2d d83c cd37 85bd 003b d83d d072 95bc
000001e0: 966c febb 27d8 a7bd edb8 1b3d cab6 33bd
000001f0: f075 d03d d696 333d 3282 263c abe7 5ebd
00000200: 2a56 513d adba 923d e915 c3bd 28c9 6e3c
00000210: a98b 81bd c356 213d 4cec eb3d fa6d 52bc
00000220: be1d 95bd d4a8 96bc ffea a43d de45 593d
00000230: bedf e0bc 9280 133e 5f16 e7bb fb42 583c
00000240: 8637 a9bc 00d5 9bbd f6e6 cc3d 32ec d2bc
00000250: 91e2 a4bb 8efd 44bd a62e 833d 0e56 c33c
00000260: d1c6 35bc 5636 9b3d 6af7 dc3c 0cfb 14bd
00000270: a0f7 91bd b2b4 90bd 8e33 523c 05c1 433d
00000280: 38df a4bd ff90 003d 9d24 d1bd 4132 cf38
00000290: b10f 76bd a02f b93c 136a 8c3d c49e 4d3c
000002a0: 2bcb 3ebd 6678 ed3d 55ae 843d 293a 6a3d
000002b0: 125b 3dbc ec5b 003d a4ac 7bbd 1c6f 7fbc
000002c0: 146b 053d 62fb 103e ded6 02bd 71c7 b03d
000002d0: e9db d33d 5c98 b7bd 4efc a0bd 9bc9 2ebd
000002e0: 7073 d4bd 4bf3 f0bd f339 05be 2ee4 6d3c
000002f0: 70c9 06be daaa c2bd 40c1 5dbd 5bb0 97bd
00000300: a1c5 9d3c 9d32 783d 407b 10be 9164 b53d
00000310: 746f a53c 4146 983d 1fd9 e33d f988 a13c
00000320: ab8f 833d eb42 e03b dc0e da3d 4913 a73d
00000330: 857d 9cbc 6fa4 843d 0352 d6bd b68d 0b3e
00000340: 0d4b b13c 14c9 e0bc dc59 00be b0b6 d73d
00000350: aa86 c53c 6bfa 9e3c 030a 29bd 67a4 cc3d
00000360: 6727 0d3d 4cd9 913d 604e 8d3d 9402 14be
00000370: 798a b2bc f62b 913c e058 21bd d06b 45bc
00000380: 917a f5bd 73c1 a73d 15bc 82bd 4a0b 313d
00000390: 8f8b e23d 434d 943d ae07 b83c 9b6f 05bd
000003a0: 072e c6bc f8ce dfbd d626 5dbd b850 0bbd
000003b0: 4342 363d 6b89 bc3d 67c3 05bd b0c6 17bd
000003c0: 7e3a 1d3d 47ed 8bbd dc62 edbd bb77 8fbd
000003d0: af58 623d 7f9b db3d fb3f 11bd d042 f039
000003e0: de9f 2a3d 9d09 c03c c6ab 9f3d 5d9a 26bd
000003f0: a5b4 cfbd 30ec b23b 7627 b03d 784e 813d
0.03755844 -0.16663106 -0.0648143 -0.01681382 -0.11308486 -0.065841295 -0.075556934 -0.1116997
0.047489498 0.11577988 0.09528374 -0.039676026 -0.08147171 -0.016158938 -0.040245973 0.029531447
-0.073342174 0.015371565 -0.11593776 0.07689123 0.056911234 -0.018610237 -0.014527937 0.025826145
0.03164339 -0.09827508 -0.063273296 -0.050690178 0.04306807 -0.048404433 0.03339324 0.16634555
0.10987818 0.08622391 0.012375479 -0.028631512 -0.017586255 -0.0062740827 -0.043179087 -0.09105497
0.0072213593 0.053350918 -0.143457 0.060341626 0.029164758 -0.006259464 0.07626006 -0.09344204
-0.0030037658 -0.039223082 -0.023365777 -0.044750914 0.036545776 -0.11320198 -0.11811294 -0.02044334
0.0217774 0.038048927 -0.07172734 0.03797082 -0.010536281 -0.07789518 0.074869595 -0.07049535
0.09338982 0.03210555 0.02490875 -0.0050142393 -0.10603822 -0.0045127766 -0.07582636 -0.038139664
-0.046795882 -0.027706403 -0.067988396 0.0064825257 -0.04898505 -0.006497174 -0.03494777 0.010719505
0.009901919 0.10001091 0.015818063 0.0559267 -0.01039893 -0.07037509 0.078722686 -0.08351849
-0.025601067 0.076735996 0.008057122 -0.0055288654 0.024250055 0.08384337 0.050557002 0.0730333
-0.025649853 -0.10456875 0.06779202 -0.026855027 0.029989416 0.03873408 0.082708366 -0.0002179091
-0.10184839 0.06286606 -0.0601159 -0.029580628 0.119480826 -0.12037235 0.04879475 0.08439506
0.045823634 0.12387714 0.0018398106 -0.10651382 0.026388992 -0.06504784 0.10558128 -0.018243223
-0.0077644093 -0.08195525 0.038018156 -0.043875493 0.10178745 0.04384502 0.010162877 -0.054420155
0.051107563 0.07164512 -0.095256634 0.014574327 -0.06325466 0.039389383 0.115196794 -0.012843603
-0.072810635 -0.01839105 0.080526344 0.053045146 -0.027450439 0.14404514 -0.0070522274 0.013199563
-0.020656358 -0.07608986 0.1000499 -0.025747392 -0.0050318916 -0.04809337 0.06405382 0.023844745
-0.011094765 0.07578723 0.026973445 -0.03637223 -0.07127309 -0.07065715 0.012829674 0.0477915
-0.08050388 0.03138828 -0.102120616 9.87989e-05 -0.06007356 0.022605717 0.068561696 0.01255006
-0.046580475 0.1159523 0.06478564 0.057184372 -0.011557357 0.031337664 -0.06144394 -0.015590455
0.03257282 0.14158395 -0.031943195 0.086317904 0.10344679 -0.08964607 -0.07860623 -0.042672735
-0.103735805 -0.117651545 -0.13010387 0.014519734 -0.1316278 -0.095052436 -0.054139376 -0.07406684
0.019259276 0.060595144 -0.14109516 0.08857072 0.020194747 0.07435275 0.11125397 0.019718634
0.06423887 0.0068439147 0.106473655 0.08157975 -0.019102821 0.06476676 -0.10464861 0.13628277
0.021642232 -0.027439632 -0.12534279 0.10532892 0.024112064 0.019406518 -0.041269314 0.09992295
0.034461405 0.07121524 0.068997145 -0.14454108 -0.021794545 0.017721158 -0.0393914 -0.01204963
-0.11986268 0.081911944 -0.0638353 0.043223657 0.11061775 0.07241299 0.0224646 -0.03257714
-0.02419187 -0.10928148 -0.053992115 -0.034012526 0.044496786 0.09205898 -0.032657053 -0.037054718
0.03838586 -0.068323664 -0.115911216 -0.07005259 0.055260357 0.10723018 -0.035461407 0.00045826146
0.041656367 0.023442084 0.07796435 -0.040674556 -0.10141877 0.0054602847 0.086012766 0.06313795

base.mlp.fc1.0.bias f4 [64]
00000000: 84aa d138 0000 0000 ea0d 573a 0acb 323b
00000010: 6ba6 803b d4b0 7cbb 0000 0000 0000 0000
00000020: 0000 0000 1bf6 ca3a 16f4 83bb 11cf 98ba
00000030: 2247 35b8 cb31 18bb c89b 39bb 5da9 873b
00000040: 7691 e5b9 0ecd da3a e65e 80bb e85b 99bb
00000050: 0000 0000 0000 0000 fe0b 4cbb 0000 0000
00000060: 4895 3dbb b3de e73b 0000 0000 f064 ba3b
00000070: cb0d 61bb ffee 0d3b 0000 0000 0000 0000
00000080: c4e0 bebb e38e 1a3b 55aa 87bb 65d9 d13a
00000090: cec6 90bb 0000 0000 a4db f03a a871 313a
000000a0: 0000 0000 8666 97bb 0000 0000 a06a 21ba
000000b0: 2b0e cbba 6460 beb9 0000 0000 539a 743a
000000c0: a877 69bb 5c90 aa3a 9fb8 62ba 0000 0000
000000d0: d5e4 f8b9 f0ab 84ba d7be ca39 0000 0000
000000e0: 96d3 40bb 0000 0000 3be8 df3b 0000 0000
000000f0: 0000 0000 583d e8bb 0000 0000 6806 53bb
9.9976576e-05 0.0 0.00082036725 0.0027281665 0.0039260886 -0.0038557546 0.0 0.0
0.0 0.0015484722 -0.0040269 -0.001165839 -4.322001e-05 -0.0023223038 -0.0028321613 0.0041400627
-0.0004378666 0.0016693191 -0.003917563 -0.0046801455 0.0 0.0 -0.0031135078 0.0
-0.002892809 0.0070761084 0.0 0.005688302 -0.0034340497 0.0021657345 0.0 0.0
-0.005825134 0.0023583702 -0.004140178 0.0016010223 -0.0044182306 0.0 0.0018376005 0.000676895
0.0 -0.004620376 0.0 -0.0006157551 -0.0015491893 -0.0003631144 0.0 0.00093308574
-0.00356243 0.0013012993 -0.00086487265 0.0 -0.0004747274 -0.0010122042 0.0003867063 0.0
-0.002942299 0.0 0.006833104 0.0 0.0 -0.007087391 0.0 -0.0032199863

base.mlp.fc1.2.weight f4 [64]
00000000: 3028 7e3f 48e6 7f3f afd2 7f3f 11fe 7f3f
00000010: 5684 803f b2b0 7e3f a6ea 7f3f 8b4e 803f
00000020: 7506 803f 8c69 7b3f a51c 803f 01fa 7d3f
00000030: 45ff 7e3f 6a1d 7f3f b9ae 803f c081 803f
00000040: 09ed 7c3f 55a5 7e3f 2fea 7f3f 4c41 803f
00000050: 9768 7f3f 5b60 7e3f 00c6 7e3f e73b 803f
00000060: 1a48 7f3f 1ae9 803f 4710 7f3f 11bb 803f
00000070: 9e6b 7e3f 2b2e 803f 0911 7f3f 861a 813f
00000080: 4660 803f ec38 803f 5d16 803f c623 803f
00000090: dfc1 7e3f 18c6 803f 0e77 7e3f dbb4 803f
000000a0: 5915 7f3f 597e 7f3f 5a5b 7f3f bbfc 7e3f
000000b0: 9a78 7f3f 2d7d 803f 43c9 7f3f 30fd 7e3f
000000c0: b3fb 7f3f 620d 803f 658f 7f3f dd58 803f
000000d0: 60da 7e3f 5767 7f3f 9915 803f bc01 803f
000000e0: df63 803f fb12 803f e0e1 803f 6dcb 803f
000000f0: b409 803f fc1c 803f 3f80 7f3f ab87 7e3f
0.9928007 0.99960756 0.9993085 0.9999705 1.0040386 0.99488366 0.9996742 1.002397
1.000197 0.98207927 1.0008742 0.992096 0.9960826 0.9965426 1.0053321 1.0039597
0.98799187 0.99471027 0.9996671 1.0019927 0.99768966 0.99365777 0.99520874 1.0018281
0.99719393 1.0071137 0.9963421 1.0057088 0.9938296 1.0014089 0.9963537 1.0086219
1.002938 1.0017371 1.0006825 1.0010917 0.99514574 1.0060453 0.99400413 1.0055193
0.9964195 0.99802166 0.99748766 0.99604386 0.997934 1.0038201 0.99916476 0.99605083
0.9999344 1.0004084 0.9982818 1.0027119 0.99551964 0.9976706 1.0006591 1.0000529
1.0030478 1.0005792 1.0068932 1.0062081 1.0002961 1.0008845 0.99805063 0.9942576

base.mlp.fc1.2.bias f4 [64]
00000000: 4338 e23b 099a 9d39 6aa0 cd3a 0b5e 343b
00000010: d317 8a3b 9823 99bb 7e05 8339 f560 18bb
00000020: dbbe 94b9 541d de3a f9d2 51ba 710b 5aba
00000030: 5395 823b 7b08 15bb d913 b2bb 2596 883b
00000040: f4de 74b9 f105 423b 4234 4039 10b6 00bb
00000050: 6bc4 123b 8137 d33b e8d8 643a 03e7 e5ba
00000060: aa20 15bb f1b5 e53b 31b2 6c3b 30ff b13b
00000070: eac2 ca3b 3c5d 123b f231 6b3b f0c6 0cbc
00000080: b1ab 4cbb 3a1c 203b c2a3 52ba 2238 de3a
00000090: 42ab 953b 0d24 c7bb decf 6b3b b8c3 e93b
000000a0: 277f 6f3b de77 9a3a d56f 213b af00 09ba
000000b0: e3a7 aeba 0f07 7fbb 5387 733a 8afb b53a
000000c0: b40d 34b9 0836 d03a 76b4 0dba 2bce 35bb
000000d0: 8b4d a3b7 632d 55ba 266d 7a3a fcff 22b9
000000e0: cd1b 41bb 9021 30ba cbfb cc3b 82ff cfbb
000000f0: a378 ccb9 34bd fdba ebde f43a ef20 55bb
0.0069036796 0.0003006014 0.0015688066 0.0027521874 0.004214266 -0.0046734326 0.0002499036 -0.002325115
-0.00028370958 0.0016945996 -0.00080041547 -0.0008317745 0.003985086 -0.002274065 -0.005434495 0.0041682892
-0.0002335271 0.0029605592 0.00018330014 -0.0019639768 0.0022394906 0.0064458256 0.00087298313 -0.001754016
-0.0022755065 0.0070102145 0.0036116953 0.005432032 0.0061877863 0.0022333404 0.0035887924 -0.008592352
-0.0031230266 0.0024430887 -0.0008035266 0.0016953985 0.0045675347 -0.0060772956 0.0035982053 0.007133927
0.0036544295 0.0011784991 0.0024633307 -0.0005226237 -0.0013325181 -0.003891412 0.0009289879 0.0013884169
-0.00017171243 0.0015885243 -0.0005405614 -0.0027741294 -1.9467223e-05 -0.00081320683 0.00095530075 -0.00015544886
-0.0029466033 -0.00067188684 0.006255602 -0.0063475976 -0.00038999793 -0.0019358755 0.0018682157 -0.003252085

base.mlp.fc_h.0.weight f4 [64, 64]
00000000: 7646 f53d 0830 5d3e 0c34 93bc 5dba bc3d
00000010: cc5a 65be 21d2 053e 2af4 d83d 1f7a d63d
00000020: 5307 24bd 4933 e5bd fdda 193e 409e 20bb
00000030: e3bc 79bc feff 1e3e 520e 98be a026 82bd
00000040: ad23 e1bd ca6a 733e f13e 05bd 3596 7e3e
00000050: 3ea9 4f3e cc45 0b3e eef9 a03d acc4 313e
00000060: 29d5 783e 5b68 eb3d ce99 70be 0ea1 89be
00000070: 718e 6dbe b41a f2bd 2ad9 903e 7b3d 62be
00000080: f07f 013e 84c0 b93e c5ea a63d c0e8 8dbd
00000090: bf11 56be 5cfc 1e3b fe39 b3bc 390c 9bbe
000000a0: 7ea6 e23c d704 dbbd c501 c3bd de17 453c
000000b0: 4149 58be c8f8 963e 1766 0ebe a56e 8a3d
000000c0: 9d78 afbd 49f7 89bd 3dd4 20be de70 17be
000000d0: 1aed edbd db4f 4d3e c286 72be a68c d0be
000000e0: 2e65 a8be cb7f 5c3d a8ad 8a3d 9503 9dbe
000000f0: b760 813c d12e 153e b8bd 21be 9a7f 243d
00000100: d428 8c3d 23db 603d a6b4 f53d 8eb0 453e
00000110: fe55 c3bc bd81 2a3e 37ae 3abe f1df 6dbe
00000120: 12bf e33d d3dc 2fbe 4b78 8bbe 023f 87be
00000130: ada1 d93c f975 8fbc e1cc 70be a04b 313c
00000140: f5a6 85bc a3d3 013e 068e 023e 127c 763d
00000150: f1a2 8a3e ad72 28be 748c 8e3d 93a4 28be
00000160: 4b75 e0bd 53ea 1a3e de90 993e 3c29 e03d
00000170: 8d0c 383e 5db0 4dbd 8b9e 2f3e 43eb d7bd
00000180: 54a7 933e c0cb e73d 37e1 823e d008 513e
00000190: beff aa39 7501 b53e c7a3 20be 1256 5a3c
000001a0: ea48 48be dc80 603d 44c1 333d cde2 b0be
000001b0: 0dad bbbd 0750 6b3d b0f1 e5be 8b22 0e3e
000001c0: 4523 edbd 635e ae3c c1a1 c5bd 1c04 283d
000001d0: 8f05 0bbe 3f4a 1fbe 51da 0d3e 0668 543e
000001e0: 8e85 c9bd 8799 56be decb aebd 1381 3a3e
000001f0: 0053 a4bd 3ea5 f0bd 99f6 003e f0ad e1be
00000200: 76d3 8e3c b18d 72be 0ab2 8d3c c799 8abd
00000210: 254c 7fbe 16ce a5bc e11a 163e 95e1 d6bc
00000220: 2595 a3be e3c3 f9bd cd93 b5be 311c 2d3d
00000230: 53a3 9b3d 41de 793d a7d6 043e 16f2 a8be
00000240: aa6c 11be 6b08 1dbe 332e bcbd cbb0 a63c
00000250: f1c0 acbd 0a00 123e e6b5 22be e793 22be
00000260: 1a4e 893c 47c1 15be 450a 9e3e f762 89be
00000270: 1ace 7f3d b763 933e 4292 6b3e 6987 623e
00000280: a26a 0c3d b2ab 0bbe 884f 2cbe d6d2 1d3d
00000290: 00d2 533e bde6 75bd 9b8e 1bbd c3dd 71bc
000002a0: 8c19 fd3d 2ce7 923d bf95 a2bd 4158 e83d
000002b0: 2e77 8ebe 9bd0 983e 9689 c8bc 86e2 9ebd
000002c0: 99e3 033e 0187 7d3e 6716 513d 58f8 ef3d
000002d0: f06c 5b3e d181 90bd b765 a4be dc4d a9be
000002e0: f579 afbc 5557 2fbe 15bf 16be 3287 b03d
000002f0: b68a 28be b08b 7a3e 6337 303e 3b78 b3be
00000300: 435a 3c3d bb2c b8bd e24e a0bc af96 72bd
00000310: f4d4 673e 0ea7 2b3e ebb3 ffbd c2e9 bebe
00000320: 3021 443b 55b1 04bc 702f 17bd 52a1 353e
00000330: 7345 87be 144d 263e e543 373d aab8 c1bd
00000340: 9a61 763e 3d7a 56be 9f42 c83e 06e7 2e3d
00000350: 6568 133e 274f bc3e 5987 e9bc 1130 2f3e
00000360: fbfe f9bb 4724 3bbe 79ef 193e 3328 993e
00000370: ccfb 843e ae98 123e 9542 cb3b c156 733d
00000380: 3f46 1dbd 69f4 f73d 2f46 abbb a110 98be
00000390: 1ef9 aabe 44c1 823d f27d bf3d bcd6 c7be
000003a0: 32bb a8be c207 8b3e 0430 273e 4313 343e
000003b0: d272 37be 46cb a73c 676d 9c3d deef 433c
000003c0: 0727 2f3d 28c7 d43c 88fd f63d 73b0 57be
000003d0: c572 bf3d e765 06be 050a eebd 09e8 45be
000003e0: 518f 96bd 155e f0bd 5fd2 b03d 4cad d43d
000003f0: e07c 2d3e e5b3 69be f7b8 acbd 902c c43d
0.1197633 0.21600354 -0.017969154 0.092152335 -0.22397918 0.13068439 0.105934456 0.104725115
-0.040046047 -0.111914225 0.15024944 -0.0024508387 -0.015242788 0.15527341 -0.29698426 -0.063550234
-0.10993133 0.23771206 -0.03253073 0.24861987 0.20279405 0.13600844 0.0786017 0.1736018
0.24300064 0.114945136 -0.23496172 -0.26880687 -0.23198868 -0.118214995 0.28290683 -0.22093765
0.1264646 0.3627969 0.081502475 -0.06929159 -0.20905207 0.0024259305 -0.021878239 -0.30282763
0.02766728 -0.106942825 -0.09521822 0.012029616 -0.21121694 0.2948668 -0.13906132 0.06759385
-0.08567927 -0.06736619 -0.15705962 -0.14789149 -0.11617489 0.20049994 -0.23684219 -0.40732306
-0.32889694 0.05383281 0.067714036 -0.30666795 0.015793188 0.1456864 -0.15795028 0.040160753
0.06843725 0.054896485 0.119973466 0.19305632 -0.023844715 0.16651054 -0.1823052 -0.23229958
0.11120428 -0.17174082 -0.27240214 -0.2641526 0.02656635 -0.017512308 -0.23515655 0.010821253
-0.016314963 0.12678389 0.1274949 0.060176916 0.2707744 -0.16449995 0.06960383 -0.1646903
-0.10959872 0.1512845 0.29993337 0.10945365 0.17973538 -0.05021702 0.17150323 -0.105429195
0.288386 0.11318159 0.2556245 0.20413518 0.0003261547 0.35352674 -0.15687476 0.013326185
-0.19559065 0.05481039 0.043885484 -0.34548035 -0.09163866 0.057449367 -0.44910955 0.13880365
-0.11578993 0.021285241 -0.09649993 0.041019544 -0.13576339 -0.15555666 0.13852812 0.20742807
-0.09839927 -0.20957004 -0.08534978 0.182133 -0.080236435 -0.117502674 0.1259407 -0.44078016
0.017434817 -0.23686863 0.01729681 -0.06767612 -0.2493139 -0.020239871 0.14658691 -0.026230613
-0.31949726 -0.121955656 -0.35464326 0.042263214 0.07599511 0.061002973 0.12972508 -0.32997197
-0.14201608 -0.15335242 -0.09188499 0.020347973 -0.08435238 0.14257827 -0.15889701 -0.15876733
0.016760875 -0.1462451 0.3086721 -0.26833317 0.062452413 0.28787014 0.23005012 0.22121967
0.03428138 -0.13639715 -0.16827214 0.038531147 0.20685577 -0.060034502 -0.037977796 -0.014762345
0.12358388 0.07172999 -0.07938718 0.11344958 -0.27825302 0.29846653 -0.024479669 -0.0775805
0.1287979 0.24758531 0.051046755 0.1171729 0.21428275 -0.070560105 -0.32108852 -0.33067214
-0.021420458 -0.17123158 -0.1472133 0.086195365 -0.16459164 0.24467349 0.17208628 -0.35052666
0.045984518 -0.08992907 -0.019568864 -0.059225734 0.22639829 0.16762945 -0.124854885 -0.37287718
0.0029927008 -0.00809892 -0.036910474 0.1773732 -0.26420173 0.1624034 0.044742484 -0.0945905
0.2406067 -0.20945068 0.39113328 0.04270079 0.14395292 0.36779138 -0.028506922 0.1710818
-0.007629273 -0.18275557 0.15032758 0.29913482 0.25973356 0.14316055 0.0062030056 0.059408907
-0.03839707 0.121071644 -0.0052268724 -0.29700187 -0.33393186 0.06384519 0.09350194 -0.39031017
-0.3295532 0.27154356 0.1632691 0.17585473 -0.17914894 0.02048267 0.07638054 0.011959044
0.04276183 0.025973871 0.12060076 -0.21063404 0.093480624 -0.1312481 -0.11623005 -0.19326796
-0.07351554 -0.11736695 0.08633875 0.10384616 0.16942167 -0.2282253 -0.08433717 0.09578812

base.mlp.fc_h.0.bias f4 [64]
00000000: 0000 0000 0000 0000 0000 0000 0000 0000
00000010: 0000 0000 0000 0000 0000 0000 0000 0000
00000020: 0000 0000 0000 0000 0000 0000 0000 0000
00000030: 0000 0000 0000 0000 0000 0000 0000 0000
00000040: 0000 0000 0000 0000 0000 0000 0000 0000
00000050: 0000 0000 0000 0000 0000 0000 0000 0000
00000060: 0000 0000 0000 0000 0000 0000 0000 0000
00000070: 0000 0000 0000 0000 0000 0000 0000 0000
00000080: 0000 0000 0000 0000 0000 0000 0000 0000
00000090: 0000 0000 0000 0000 0000 0000 0000 0000
000000a0: 0000 0000 0000 0000 0000 0000 0000 0000
000000b0: 0000 0000 0000 0000 0000 0000 0000 0000
000000c0: 0000 0000 0000 0000 0000 0000 0000 0000
000000d0: 0000 0000 0000 0000 0000 0000 0000 0000
000000e0: 0000 0000 0000 0000 0000 0000 0000 0000
000000f0: 0000 0000 0000 0000 0000 0000 0000 0000
0.0 0.0 0.0 0.0 0.0 0.0 0.0 0.0
0.0 0.0 0.0 0.0 0.0 0.0 0.0 0.0
0.0 0.0 0.0 0.0 0.0 0.0 0.0 0.0
0.0 0.0 0.0 0.0 0.0 0.0 0.0 0.0
0.0 0.0 0.0 0.0 0.0 0.0 0.0 0.0
0.0 0.0 0.0 0.0 0.0 0.0 0.0 0.0
0.0 0.0 0.0 0.0 0.0 0.0 0.0 0.0
0.0 0.0 0.0 0.0 0.0 0.0 0.0 0.0

base.mlp.fc_h.2.weight f4 [64]
00000000: 0000 803f 0000 803f 0000 803f 0000 803f
00000010: 0000 803f 0000 803f 0000 803f 0000 803f
00000020: 0000 803f 0000 803f 0000 803f 0000 803f
00000030: 0000 803f 0000 803f 0000 803f 0000 803f
00000040: 0000 803f 0000 803f 0000 803f 0000 803f
00000050: 0000 803f 0000 803f 0000 803f 0000 803f
00000060: 0000 803f 0000 803f 0000 803f 0000 803f
00000070: 0000 803f 0000 803f 0000 803f 0000 803f
00000080: 0000 803f 0000 803f 0000 803f 0000 803f
00000090: 0000 803f 0000 803f 0000 803f 0000 803f
000000a0: 0000 803f 0000 803f 0000 803f 0000 803f
000000b0: 0000 803f 0000 803f 0000 803f 0000 803f
000000c0: 0000 803f 0000 803f 0000 803f 0000 803f
000000d0: 0000 803f 0000 803f 0000 803f 0000 803f
000000e0: 0000 803f 0000 803f 0000 803f 0000 803f
000000f0: 0000 803f 0000 803f 0000 803f 0000 803f
1.0 1.0 1.0 1.0 1.0 1.0 1.0 1.0
1.0 1.0 1.0 1.0 1.0 1.0 1.0 1.0
1.0 1.0 1.0 1.0 1.0 1.0 1.0 1.0
1.0 1.0 1.0 1.0 1.0 1.0 1.0 1.0
1.0 1.0 1.0 1.0 1.0 1.0 1.0 1.0
1.0 1.0 1.0 1.0 1.0 1.0 1.0 1.0
1.0 1.0 1.0 1.0 1.0 1.0 1.0 1.0
1.0 1.0 1.0 1.0 1.0 1.0 1.0 1.0

base.mlp.fc_h.2.bias f4 [64]
00000000: 0000 0000 0000 0000 0000 0000 0000 0000
00000010: 0000 0000 0000 0000 0000 0000 0000 0000
00000020: 0000 0000 0000 0000 0000 0000 0000 0000
00000030: 0000 0000 0000 0000 0000 0000 0000 0000
00000040: 0000 0000 0000 0000 0000 0000 0000 0000
00000050: 0000 0000 0000 0000 0000 0000 0000 0000
00000060: 0000 0000 0000 0000 0000 0000 0000 0000
00000070: 0000 0000 0000 0000 0000 0000 0000 0000
00000080: 0000 0000 0000 0000 0000 0000 0000 0000
00000090: 0000 0000 0000 0000 0000 0000 0000 0000
000000a0: 0000 0000 0000 0000 0000 0000 0000 0000
000000b0: 0000 0000 0000 0000 0000 0000 0000 0000
000000c0: 0000 0000 0000 0000 0000 0000 0000 0000
000000d0: 0000 0000 0000 0000 0000 0000 0000 0000
000000e0: 0000 0000 0000 0000 0000 0000 0000 0000
000000f0: 0000 0000 0000 0000 0000 0000 0000 0000
0.0 0.0 0.0 0.0 0.0 0.0 0.0 0.0
0.0 0.0 0.0 0.0 0.0 0.0 0.0 0.0
0.0 0.0 0.0 0.0 0.0 0.0 0.0 0.0
0.0 0.0 0.0 0.0 0.0 0.0 0.0 0.0
0.0 0.0 0.0 0.0 0.0 0.0 0.0 0.0
0.0 0.0 0.0 0.0 0.0 0.0 0.0 0.0
0.0 0.0 0.0 0.0 0.0 0.0 0.0 0.0
0.0 0.0 0.0 0.0 0.0 0.0 0.0 0.0

base.mlp.fc2.0.0.weight f4 [64, 64]
00000000: 0aa4 fe3d a4de 613e 2758 b8bc 758d b33d
00000010: 9d32 6abe e2fa 003e 6851 e23d bfd8 df3d
00000020: e54c 11bd 9d5a ecbd 558a 1e3e dd22 df3a
00000030: 40d2 2ebc 4f66 1a3e b9b6 95be 3d21 8cbd
00000040: 192d d9bd 3e6f 773e d708 e5bc c2a2 813e
00000050: df57 543e 77f4 0f3e a658 aa3d ff73 363e
00000060: 8829 743e 03a0 e13d 26eb 6bbe 9906 8cbe
00000070: c3de 68be e790 fbbd 7e30 933e 478e 5dbe
00000080: 402f 063e 2549 b73e f747 b03d b2c5 97bd
00000090: ef62 51be ca4e e53b f51a 8ebc 2159 9dbe
000000a0: cc10 043d 12c0 d2bd 70a4 b9bd 4cae 733c
000000b0: 3afe 5cbe 6d50 993e bbb6 09be 531d 923d
000000c0: 481b a6bd 97be 93bd 188c 25be 53c2 12be
000000d0: 86eb ecbd 579d 483e ac2a 77be 5235 cebe
000000e0: 950d a6be 473a 6f3d 80bd 813d f7ab 9abe
000000f0: 9fd5 a63c 2314 193e 180f 1dbe 141d 183d
00000100: 1b4b 8a3d 8d71 5b3d 1e73 fc3d 101f 453e
00000110: 5fd0 b8bc 3a65 2b3e 9507 3cbe 3e30 6fbe
00000120: 8a0b e13d b0e9 40be c61e 8cbe 8750 82be
00000130: 4b00 cf3c c806 75bc 623b 72be fcbd 423c
00000140: 88f3 8abb 11e8 fa3d a515 013e 3250 713d
00000150: 19f6 893e 1cc9 29be 4882 8e3d 80f4 29be
00000160: fd5e e0bd bb5a 1c3e 4fe4 983e 334f e23d
00000170: 33b5 363e 025e 4cbd d444 2e3e 788f dabd
00000180: fd1a 933e e8d2 e83d 472f 823e e076 513e
00000190: 6762 3cba b655 b43e 0487 1dbe 6f2c 7a3c
000001a0: 9999 49be 6c5a 583d 5d5f 2e3d 6ce6 b0be
000001b0: 7149 b7bd f205 663d c099 e6be 1ae6 093e
000001c0: 2da7 efbd 3ebd b03c fa15 c1bd 969f 223d
000001d0: 7123 05be bcbe 1cbe 5ca1 0f3e 340f 533e
000001e0: 2719 ccbd ddf2 57be f9a7 acbd b12c 393e
000001f0: d406 a7bd 7d35 f4bd e239 ff3d b320 dfbe
00000200: 76d3 8e3c b18d 72be 0ab2 8d3c c799 8abd
00000210: 254c 7fbe 16ce a5bc e11a 163e 95e1 d6bc
00000220: 2595 a3be e3c3 f9bd cd93 b5be 311c 2d3d
00000230: 53a3 9b3d 41de 793d a7d6 043e 16f2 a8be
00000240: aa6c 11be 6b08 1dbe 332e bcbd cbb0 a63c
00000250: f1c0 acbd 0a00 123e e6b5 22be e793 22be
00000260: 1a4e 893c 47c1 15be 450a 9e3e f762 89be
00000270: 1ace 7f3d b763 933e 4292 6b3e 6987 623e
00000280: a26a 0c3d b2ab 0bbe 884f 2cbe d6d2 1d3d
00000290: 00d2 533e bde6 75bd 9b8e 1bbd c3dd 71bc
000002a0: 8c19 fd3d 2ce7 923d bf95 a2bd 4158 e83d
000002b0: 2e77 8ebe 9bd0 983e 9689 c8bc 86e2 9ebd
000002c0: 99e3 033e 0187 7d3e 6716 513d 58f8 ef3d
000002d0: f06c 5b3e d181 90bd b765 a4be dc4d a9be
000002e0: f579 afbc 5557 2fbe 15bf 16be 3287 b03d
000002f0: b68a 28be b08b 7a3e 6337 303e 3b78 b3be
00000300: 2244 413d 66bf b5bd 717a a4bc ed26 7abd
00000310: 689b 663e a71c 2a3e 4c44 fdbd 054c bebe
00000320: 7402 893b 840d 63bc db43 12bd 6daa 353e
00000330: ffa7 86be 18d8 253e 8d26 3c3d 0849 c4bd
00000340: 36f9 7b3e ba34 56be dc94 c83e 5dd4 333d
00000350: 3b9f 143e e3ea bc3e 8034 debc 726b 303e
00000360: 583f ccbb 2173 3cbe 2326 1b3e a57d 983e
00000370: 6297 853e 4628 113e 15f0 f13b 1649 783d
00000380: ea58 18bd 362e f53d f83d 84bb fcc0 98be
00000390: 3849 aabe b936 853d b247 c03d ba7b c8be
000003a0: 721e a8be 5db4 8b3e 6967 283e aea6 3a3e
000003b0: 4327 38be 679d b13c b5e2 9e3d 541d 4e3c
000003c0: 6313 343d ef2c c83c d22e f53d e377 56be
000003d0: faaf bf3d 3a43 06be bd9b f0bd d1af 44be
000003e0: d917 94bd 6fee edbd 5e66 ad3d d622 d73d
000003f0: 43b4 2e3e ea7c 68be 3e4b aabd 3a54 cc3d
0.12433632 0.22057587 -0.022502972 0.08767215 -0.2287087 0.12595704 0.11050683 0.10930013
-0.035473723 -0.115407206 0.15482457 0.001702394 -0.010670245 0.1507809 -0.2924097 -0.06842277
-0.10604305 0.2416353 -0.027958317 0.25319487 0.20736645 0.140581 0.083176896 0.17817686
0.23843968 0.11016848 -0.23038921 -0.27348784 -0.22741227 -0.12283497 0.28747934 -0.21636306
0.13103962 0.35797992 0.08607476 -0.07410754 -0.20447896 0.006997918 -0.017346838 -0.30732062
0.03224258 -0.10290541 -0.09064567 0.014873099 -0.21581355 0.29944173 -0.13448612 0.071344994
-0.08110672 -0.072140865 -0.16166723 -0.14331941 -0.1156836 0.1959127 -0.24137372 -0.40275055
-0.32432237 0.058405187 0.063349724 -0.30209324 0.020365534 0.14949088 -0.15337789 0.037137106
0.067526065 0.053575087 0.12326644 0.1925013 -0.022560297 0.16737834 -0.18362267 -0.23358247
0.10988529 -0.18839145 -0.27367228 -0.25452062 0.025268694 -0.01495523 -0.23655465 0.011886116
-0.004240457 0.122512944 0.12605913 0.05891437 0.2694557 -0.16580623 0.06958443 -0.16597176
-0.109556176 0.15268986 0.29861686 0.11050262 0.1784256 -0.04989434 0.17018443 -0.10671896
0.28731528 0.11368352 0.25426695 0.20455503 -0.0007186294 0.35221642 -0.15383536 0.015269383
-0.19687499 0.052820608 0.042571414 -0.34550798 -0.08949555 0.056158014 -0.45039177 0.13466683
-0.11701808 0.021574613 -0.0942802 0.039702974 -0.13001801 -0.15307134 0.14026397 0.20611268
-0.09965735 -0.21088739 -0.08430476 0.18083455 -0.08155599 -0.119242646 0.12462212 -0.43579635
0.017434817 -0.23686863 0.01729681 -0.06767612 -0.2493139 -0.020239871 0.14658691 -0.026230613
-0.31949726 -0.121955656 -0.35464326 0.042263214 0.07599511 0.061002973 0.12972508 -0.32997197
-0.14201608 -0.15335242 -0.09188499 0.020347973 -0.08435238 0.14257827 -0.15889701 -0.15876733
0.016760875 -0.1462451 0.3086721 -0.26833317 0.062452413 0.28787014 0.23005012 0.22121967
0.03428138 -0.13639715 -0.16827214 0.038531147 0.20685577 -0.060034502 -0.037977796 -0.014762345
0.12358388 0.07172999 -0.07938718 0.11344958 -0.27825302 0.29846653 -0.024479669 -0.0775805
0.1287979 0.24758531 0.051046755 0.1171729 0.21428275 -0.070560105 -0.32108852 -0.33067214
-0.021420458 -0.17123158 -0.1472133 0.086195365 -0.16459164 0.24467349 0.17208628 -0.35052666
0.047184117 -0.08874397 -0.020077916 -0.06107228 0.2252022 0.16612493 -0.12366542 -0.37167373
0.0041812006 -0.013858203 -0.035709243 0.17740794 -0.26300046 0.16195714 0.045935202 -0.09584242
0.24606785 -0.20918551 0.3917607 0.043903697 0.14513867 0.36897954 -0.027124643 0.17228487
-0.006233137 -0.18403293 0.15151267 0.2978336 0.26092058 0.1417552 0.0073833563 0.060616575
-0.03719417 0.11971705 -0.0040357076 -0.29834735 -0.33258986 0.06504578 0.09388675 -0.39156896
-0.32835728 0.27286044 0.16445698 0.18227646 -0.17983727 0.0216815 0.07758085 0.012580235
0.0439638 0.024435489 0.11971821 -0.2094417 0.09359737 -0.13111582 -0.11748455 -0.19207694
-0.07231111 -0.11617743 0.084667906 0.10504691 0.17060952 -0.22703901 -0.083151326 0.099770024

base.mlp.fc2.0.0.bias f4 [64]
00000000: 9d6e 98bb 3f60 9f3a 0000 0000 9d56 a2ba
00000010: 71c8 203b 4d2b 793a 4d0e a338 ae65 75bb
00000020: 1283 043b 0000 0000 9512 053c 7db8 03bb
00000030: 0000 0000 6237 e13a 6fbe 3a3b 0000 0000
00000040: 1619 283b 3175 51ba 2308 ffb8 6ad4 4b3b
00000050: 3f17 bfba 614c d5bb 5c1d e4ba 0000 0000
00000060: 17f3 063b 793d b4bb 0000 0000 0000 0000
00000070: ef77 cbba 6f32 9eba e1e6 ef3b 458c 8f3a
00000080: 4b3a 45bb 5ac1 39bb d804 c5bb 0000 0000
00000090: e784 2abb 0000 0000 0000 0000 5ddd b33a
000000a0: b02e b9bb 9d48 93bb f682 26bb d0ad ed3b
000000b0: 9da2 18b9 4da8 6a3b 0000 0000 a57d a9bb
000000c0: 0000 0000 b734 2b3b 0000 0000 c819 1b3b
000000d0: 2c13 64bb 0000 0000 0000 0000 15fa 83bb
000000e0: e2a6 a1bb e24d 88bb 0e00 2cbb 4984 d23a
000000f0: b23f dfbb 4457 dbb8 811c 373b 3ae4 a5ba
-0.004651858 0.0012159421 0.0 -0.0012385432 0.0024533535 0.00095050485 7.7751094e-05 -0.003744464
0.0020219726 0.0 0.008122106 -0.0020098977 0.0 0.0017182643 0.0028494855 0.0
0.0025649718 -0.000799018 -0.00012160863 0.003110195 -0.0014579071 -0.006509349 -0.0017403769 0.0
0.002059167 -0.005500492 0.0 0.0 -0.0015523414 -0.0012069474 0.007321224 0.0010951838
-0.003009456 -0.0028344006 -0.0060125403 0.0 -0.0026019157 0.0 0.0 0.0013722588
-0.0056513175 -0.00449474 -0.0025407649 0.007253386 -0.00014556428 0.0035805881 0.0 -0.0051724487
0.0 0.002612395 0.0 0.002366649 -0.0034801466 0.0 0.0 -0.004027615
-0.004933224 -0.004159675 -0.002624515 0.0016061153 -0.006813013 -0.00010458988 0.0027940574 -0.0012656518

base.mlp.fc2.0.2.weight f4 [64]
00000000: 4b43 803f 082c 7d3f 27a1 7d3f 98d9 7f3f
00000010: af78 7f3f 7518 803f faf2 7d3f 403b 803f
00000020: 0f5f 803f de84 803f 9864 7e3f 7245 803f
00000030: 7675 7f3f c218 803f 6613 803f 1442 803f
00000040: 0fb2 803f a0d2 7d3f 73b6 7f3f 2ddb 7f3f
00000050: 4a24 803f 4a4f 813f 76fb 7e3f 7a3b 803f
00000060: c928 803f eeae 803f 7226 803f 1040 803f
00000070: 93a5 7f3f efc3 7e3f 3432 813f bd35 803f
00000080: 4867 803f 0666 7f3f cb63 7f3f f4bc 7f3f
00000090: f812 803f d9f8 803f b3dd 7c3f 5ee2 7f3f
000000a0: 007c 7f3f dd76 803f e984 7f3f ebee 803f
000000b0: 57ed 7f3f f563 803f 68ee 7f3f 37c0 803f
000000c0: 78ed 7f3f c02f 803f bd3d 803f 323e 7e3f
000000d0: 0d3c 7e3f 1bce 7f3f eafc 7f3f 72c3 7e3f
000000e0: 0baf 7f3f bba1 7d3f 5c41 803f 71f4 7f3f
000000f0: 1f1e 803f 81ed 7f3f 173d 803f 0c51 7f3f
1.0020536 0.9889531 0.99074024 0.99941397 0.99793524 1.0007464 0.9919888 1.0018082
1.002901 1.0040548 0.99372244 1.0021193 0.99788606 1.0007555 1.000592 1.0020165
1.0054339 0.99149513 0.9988777 0.9994381 1.0011075 1.0102322 0.9960245 1.0018151
1.0012447 1.0053384 1.0011733 1.001955 0.9986202 0.9951772 1.0093446 1.00164
1.0031519 0.9976505 0.99761647 0.99897695 1.0005789 1.0075942 0.98775786 0.99954784
0.99798584 1.0036274 0.9981218 1.0072912 0.99971527 1.0030504 0.99973154 1.0058659
0.99971724 1.0014572 1.0018841 0.9931365 0.9931038 0.99923867 0.9999529 0.99516976
0.9987647 0.99074906 1.0019946 0.99982363 1.0009192 0.9997178 1.0018643 0.9973304

base.mlp.fc2.0.2.bias f4 [64]
00000000: b3fe 09bb 6fa0 a43a a38b 1b3c 7bc0 0f3a
00000010: f72d 173b 2fe0 c53a 972e 073a ed27 65bb
00000020: ea2b 8c3b 4355 85bb 3045 e83b d937 01bb
00000030: ac2e 0a3b 274b f93a 7a7f 26ba 7bf4 fdba
00000040: c3df 3f3b 1877 26ba c1f1 0a39 3313 4f3b
00000050: c001 9dba 8e3f 2cbc 26bb 9aba 9118 edba
00000060: 83db 0e3b 4551 c3bb 34c6 97ba fb2a feba
00000070: a32d fdb8 8035 66ba 8ac6 173c 5ea0 153b
00000080: 311a 53bb 5e3b 75bb 3557 1c3b 66b7 853a
00000090: 8390 96ba e279 febb f758 4c3c ee7d c439
000000a0: 1121 db3a fe55 96bb 511d 1dbb aa29 ea3b
000000b0: 57f4 e238 bf51 753b 20d2 a439 7aa1 b5bb
000000c0: 2d1c b839 05d7 5dba 469e f7ba 6b31 e43b
000000d0: 2304 e43b 0739 443a 8b05 6637 65dc 81bb
000000e0: a0b0 553a 3d94 0c3c 0a25 02bb d2da ec3a
000000f0: 2c3b 77ba c62d f639 7696 413b 3d47 84ba
-0.0021056354 0.001256002 0.009493741 0.0005483699 0.0023068169 0.0015096719 0.0005156784 -0.0034966425
0.004277696 -0.004069002 0.007088326 -0.0019717126 0.0021084948 0.001901959 -0.0006351393 -0.0019375229
0.002927766 -0.0006350144 0.00013250766 0.0031597137 -0.0011978671 -0.0105131995 -0.0011805042 -0.0018088986
0.002179832 -0.005960616 -0.0011579455 -0.0019391471 -0.000120724806 -0.0008781776 0.009263644 0.0022831182
-0.0032211656 -0.0037419419 0.002385569 0.0010201752 -0.001148716 -0.0077659944 0.012472383 0.00037477858
0.0016718229 -0.004587888 -0.0023973773 0.00714608 0.000108220316 0.0037432758 0.00031437073 -0.005542931
0.00035116207 -0.00084625214 -0.0018891774 0.006963899 0.006958501 0.00074853044 1.3710359e-05 -0.0039630407
0.00081516244 0.008580265 -0.0019858503 0.0018070585 -0.00094311195 0.0004695488 0.0029539145 -0.0010092031

rnn.rnn.weight_ih_l0 f4 [192, 64]
00000000: f582 4dbd 0a0a e3bd 01de acbd 7f8b 803d
00000010: 45d5 973d ab6f 85bd b822 03bd ee3f d4ba
00000020: a914 48bd c558 14be e45d edbd 1f04 72bd
00000030: 58e8 bfbd 28da d03d ce0d fdbd 3ab8 243e
00000040: bf29 943d 4fe0 b83d 81ba 753c 8f2e c1bd
00000050: 0c86 f5bd dd8a b23c d766 ac3d 93f2 303c
00000060: 73a4 083c b340 18be e92e 7d3d ba7c 0c3c
00000070: 0da1 43bc bd64 2cbc 5b50 dabb 32bc 0a3e
00000080: 6234 d5bd 52d9 e13c 78fd 33bd 3958 4f3d
00000090: 142e 38bc b09d 963a c629 163e aa90 353d
000000a0: 200e 34bd 7367 253d 9f0f da3c 8d9b 143d
000000b0: 8833 1bbe 7654 873d e262 b53c c091 283c
000000c0: f51c 523c 1a4b e93d 07cc 3d3d de50 73bc
000000d0: d340 febd 2baa 34bd c101 b3bd f7cf 743d
000000e0: 306c 203a ae03 e23d 31ae 133c 2252 f3bb
000000f0: e02c 6b3d 1879 ebbc c120 d13c 96af a33c
00000100: 6b85 d83d 9660 ae3d fe11 433d 39dd 5f3d
00000110: 4e8c e93c 2015 cbbd 0ada 103e 9b98 0b3e
00000120: d53d a03d 9c14 1f3d 9aed 25bc d786 d63c
00000130: b1c7 00be 6b00 ee3d 0dd2 26b9 da03 5f3d
00000140: 24d4 2c3e feac d63c 80dc 2d3d 51ca 0bbb
00000150: 77f1 0ebb 5434 0cbe d35d 3b3d bcbe 6e3d
00000160: 86c0 953d 287a 993d 9f75 a4bd be1c 95bc
00000170: 4360 b93c 23c7 a53d 4620 11bc b6f7 35bc
00000180: 4f4b 1a3d 8b3f 8f3d 5000 8cbc 6472 163d
00000190: c6fb 763d 030a be3d 6b5a 1b3c b7c0 083d
000001a0: f80b 443d 3b6b b8bd 22e3 c3bd 72b9 903c
000001b0: 51b0 d9bd a503 a63d 78f1 4f3d 4de9 b43c
000001c0: 9217 83bd d282 ef3c 211f 0b3d 7aa4 54bc
000001d0: acd4 923d 9ad1 913d 16b5 2bbd 2810 8c3b
000001e0: 0865 a0bd 3e6e 26bd ea0f 723d 90a5 c8bc
000001f0: dedc d23d 8043 063d e294 d53c dc41 0dbd
00000200: 7167 43bc 167c 71bd f3c1 153e 90c1 a23d
00000210: a74e ef3b 286c 3cbc 11d4 b3bd d007 1c3d
00000220: 43f5 1d3d a98f cdbd a5b3 99bd e530 9abd
00000230: 17d5 233c 9e81 a63c 4e7d 21bd 8b33 883d
00000240: d9c1 803c b63f d4bd 4699 383d 9208 c7bc
00000250: e5a5 d4bd 913a febc 3466 4fba eefa 1f3d
00000260: 482d b53d 8040 853d cc96 9bbd db4b 61bd
00000270: e8f0 d93c faeb 2d3e 67a2 a73d a5ed 223c
00000280: e55b febc 66a1 1bbc b52b 0cbd 2c37 fdbb
00000290: 54a1 99bd 4b5a 313c ba34 3cbd fac8 163d
000002a0: ab13 be3c 8677 673d 8143 86bd 5cca 093e
000002b0: b9e0 92bc a14e 04be 9a29 c13d 6a4b 043c
000002c0: 4955 fc3b 5e1c 0dbe 88e8 803d 1448 693d
000002d0: 3b19 0a3c 7916 373c 4d45 0a3d 4989 05be
000002e0: 9827 e6bc d3f2 123d 456a e23d a868 af3d
000002f0: 3332 bd3c dc65 2bbd 4162 adbc 1eac f6bd
00000300: 8c76 e6bd 6fa8 4dbd da40 823d 6c02 efbd
00000310: 1194 723c eb7f 183b fff4 e43a c403 18be
00000320: 99b7 c13d 844e 483d f0c6 813d 4091 b23d
00000330: cb45 f1bc ff12 6cbd 24bb bbbd 72af 583d
00000340: 2137 31bd 159d 2b3d cf32 f9bc e3e7 15bd
00000350: b28f 5abd 91da 2c3b 8b3e 863d bcbd b3bd
00000360: 2101 38bd 41bc 813b 3a8e 00bc 23c8 19bd
00000370: 4941 2fbd 166d 883d d633 8fbd 70d6 fdbb
00000380: ba0a 8a3c 2550 d33c f4a4 d1bd 1ac0 cabd
00000390: 3759 33bd f6a8 343c 85e6 ff3c b48c 74bd
000003a0: 9309 afbb e9d0 4f3d 3148 b7bd a838 943d
000003b0: 9749 4dbb a198 ef3c c2bf 993d cfee 843d
000003c0: dabe ee3d ffdf bc3d fbde 35bc 7872 30bd
000003d0: 0925 093e 6941 ab3d a384 8a3c c18b 02bd
000003e0: 2903 9c3d b56a 0fbd b10e 1ebd 9f40 883d
000003f0: 0024 653c c0d1 7a3d ffa6 c0bc b253 af3d
-0.05017372 -0.11085899 -0.084407814 0.06276607 0.07413725 -0.065154396 -0.032015532 -0.0016193369
-0.048847828 -0.14486988 -0.11590174 -0.05908596 -0.09370488 0.1019786 -0.12356149 0.16085902
0.07234525 0.090271585 0.014998079 -0.094327085 -0.11988458 0.02179473 0.08418053 0.010800022
0.008339989 -0.14868431 0.061812315 0.008574659 -0.011940253 -0.010522065 -0.006662411 0.13548353
-0.10410382 0.027569447 -0.0439429 0.050621245 -0.011241455 0.0011491086 0.14664373 0.044327416
-0.043958783 0.04038186 0.026618777 0.036281157 -0.15156376 0.066079065 0.022141878 0.010288656
0.012824287 0.113912776 0.046337154 -0.014850823 -0.12414708 -0.044107597 -0.08740569 0.059768643
0.0006119637 0.11035858 0.009013698 -0.0074255625 0.057415843 -0.028744265 0.025528314 0.019981187
0.105723225 0.08514516 0.04762458 0.054654334 0.028509285 -0.09916139 0.14145675 0.13632433
0.078242935 0.038838014 -0.010127449 0.026187344 -0.12576176 0.116211735 -0.00015909244 0.054447033
0.168778 0.026205536 0.042446613 -0.0021330307 -0.0021811405 -0.13691837 0.045743775 0.058287367
0.073121116 0.074940026 -0.08030247 -0.018202182 0.022628909 0.08094623 -0.008857792 -0.011106422
0.037669476 0.06994542 -0.017089993 0.036730185 0.060298704 0.09279253 0.009482007 0.033386912
0.047862977 -0.090048276 -0.095648065 0.017666552 -0.10629333 0.08106164 0.050767392 0.022083903
-0.0640098 0.029237185 0.033965234 -0.012978667 0.0716947 0.071200565 -0.041920744 0.004274387
-0.0783177 -0.04063248 0.059097208 -0.024493009 0.10296033 0.032779217 0.02607197 -0.034486637
-0.011926518 -0.05895623 0.14624767 0.07947075 0.0073030773 -0.011500396 -0.08780683 0.038093388
0.038563978 -0.100371666 -0.075049676 -0.07528857 0.009999535 0.020325478 -0.03942614 0.06650456
0.015717434 -0.103637144 0.045068048 -0.024296079 -0.10383204 -0.031033786 -0.0007911653 0.039057665
0.08846527 0.06506443 -0.075971216 -0.055003982 0.02660413 0.16984549 0.08185273 0.009944354
-0.031049678 -0.00949893 -0.03422137 -0.0077275243 -0.07501474 0.01082475 -0.04594872 0.03681276
0.023202738 0.05651047 -0.06555844 0.134561 -0.017929422 -0.1292062 0.09431763 0.008074621
0.0077005965 -0.13780352 0.06294352 0.056953505 0.008428867 0.0111747915 0.033757497 -0.13040651
-0.028095052 0.035876106 0.110554256 0.085648835 0.023095226 -0.041845188 -0.021165015 -0.120445475
-0.1125308 -0.05020946 0.06360026 -0.11670384 0.01480581 0.0023269604 0.0017468034 -0.14845186
0.094588466 0.048903003 0.063367724 0.087191105 -0.029452225 -0.057635304 -0.091665536 0.052901693
-0.043265466 0.041897852 -0.030419735 -0.036598098 -0.053359695 0.0026375393 0.06554898 -0.08776423
-0.04492295 0.003959209 -0.007846409 -0.03754438 -0.04278687 0.066614315 -0.06992309 -0.00774651
0.016850818 0.025795052 -0.102365404 -0.09899922 -0.043786254 0.011026612 0.03123785 -0.059704497
-0.0053417175 0.05073634 -0.08949316 0.07237369 -0.003132438 0.029247584 0.07507278 0.064908616
0.11657496 0.09222411 -0.011100526 -0.043077916 0.13393034 0.08362085 0.01690895 -0.03187156
0.0761779 -0.035013873 -0.03858823 0.066529505 0.013985634 0.06123519 -0.02351713 0.085608855
