MAPPO/results/MyEnv/MyEnv/rmappo/check/run4/models/critic_agent4.pt (torch, 250595 bytes, 21 tensors)

base.feature_norm.weight f4 [411]
000000 fa 0e 80 3f d4 49 7f 3f 82 06 80 3f 0e 41 80 3f
       1.000457 0.9972203 1.0001986 1.0019853
000010 e8 7c 7f 3f 98 e8 7f 3f 25 db 7e 3f 00 46 80 3f
       0.99799967 0.99964285 0.9955314 1.0021362
000020 5c 7b 7f 3f 62 08 80 3f a9 e0 7f 3f 89 bb 7f 3f
       0.99797606 1.0002558 0.9995218 0.9989553
000030 b0 55 80 3f 03 c1 7e 3f 89 b1 7f 3f 12 fe 7e 3f
       1.002615 0.9951326 0.9988027 0.9960643
000040 fe e2 7f 3f 55 ff 7e 3f de 50 80 3f 61 48 80 3f
       0.9995574 0.99608356 1.0024679 1.0022088
000050 e1 0b 80 3f f3 86 80 3f 49 f5 7f 3f 14 37 7f 3f
       1.0003625 1.0041183 0.9998365 0.9969342
000060 70 b1 7f 3f 46 a6 7f 3f 19 03 80 3f 36 2f 80 3f
       0.99880123 0.9986309 1.0000945 1.0014408
000070 a7 63 7f 3f 3a 4e 7f 3f db 05 80 3f fb fa 7f 3f
       0.9976143 0.9972874 1.0001787 0.9999234
000080 0b f4 7f 3f 11 29 80 3f ae 5c 80 3f cf 23 80 3f
       0.99981755 1.0012532 1.0028284 1.0010928
000090 da 0a 80 3f b0 f0 7f 3f 92 00 80 3f 5f 17 80 3f
       1.0003312 0.99976635 1.0000174 1.0007132
0000a0 00 09 80 3f d1 e6 7f 3f a5 ab 7d 3f a2 d2 7f 3f
       1.0002747 0.9996157 0.99090034 0.99930775
0000b0 5b 91 80 3f 39 f7 7f 3f af 6c 7f 3f ad 7f 80 3f
       1.0044359 0.99986607 0.99775213 1.0038964
0000c0 ab 27 80 3f 19 2e 80 3f 34 20 80 3f 55 58 7f 3f
       1.0012106 1.0014068 1.0009828 0.9974416
0000d0 d3 9d 80 3f 21 78 80 3f 31 05 80 3f 08 7a 80 3f
       1.0048164 1.003666 1.0001584 1.0037241
0000e0 fb 0d 80 3f 86 cf 7f 3f a9 ff 7f 3f f5 9b 7f 3f
       1.0004267 0.9992603 0.9999948 0.99847347
0000f0 e0 e3 7f 3f 2d 21 80 3f 17 f3 7f 3f c4 0d 80 3f
       0.99957085 1.0010124 0.999803 1.0004201
000100 c2 80 7f 3f db 4c 7e 3f 66 79 7f 3f 14 1c 80 3f
       0.99805844 0.9933602 0.99794614 1.0008569
000110 46 25 80 3f 58 e1 7f 3f 52 cc 7f 3f 1d f8 7f 3f
       1.0011375 0.9995322 0.99921143 0.99987966
000120 d0 c2 7f 3f b8 5c 7f 3f 31 7e 80 3f 57 d3 7f 3f
       0.99906635 0.9975085 1.003851 0.99931854
000130 b7 67 7f 3f 1d c3 7f 3f e2 0f 80 3f 3e 01 80 3f
       0.9976763 0.99907094 1.0004847 1.0000379
000140 5f c9 7f 3f 17 26 80 3f eb 28 7f 3f 77 0b 7f 3f
       0.9991664 1.0011624 0.9967181 0.9962687
000150 8a 0d 80 3f 4d 15 80 3f 85 1c 80 3f b0 60 7f 3f
       1.0004132 1.00065 1.0008703 0.9975691
000160 2d 37 81 3f ec d0 7f 3f d1 eb 7f 3f 90 30 80 3f
       1.0094963 0.99928164 0.999692 1.001482
000170 ff f0 7f 3f 4d df 7f 3f 4c 99 80 3f 25 82 7f 3f
       0.99977106 0.99950105 1.0046782 0.9980796
000180 b7 51 7f 3f db b1 7f 3f b1 5f 80 3f 56 81 80 3f
       0.9973406 0.9988076 1.0029203 1.003947
000190 90 d5 7f 3f 9a b0 7f 3f aa 66 80 3f 93 d5 7f 3f
       0.99935246 0.9987885 1.003133 0.99935263
0001a0 d9 99 7f 3f af 05 7f 3f ca d9 7f 3f 46 73 7f 3f
       0.9984413 0.9961805 0.99941695 0.9978527
0001b0 df 02 80 3f ce cf 80 3f 60 19 80 3f 80 6a 7f 3f
       1.0000876 1.0063417 1.0007744 0.9977188
0001c0 fc 6d 80 3f 8c b3 7f 3f cb eb 7f 3f b9 74 80 3f
       1.0033565 0.9988334 0.99969167 1.0035621
0001d0 0c 08 80 3f 31 15 80 3f 04 45 80 3f 69 41 7f 3f
       1.0002456 1.0006467 1.0021062 0.9970918
0001e0 5f 99 7e 3f 4d e5 7f 3f be 08 80 3f fa 28 81 3f
       0.99452776 0.9995926 1.0002668 1.009063
0001f0 00 f3 7e 3f 4b 87 7f 3f 40 ca 7f 3f 5a 2a 7f 3f
       0.9958954 0.99815816 0.99917984 0.99674
000200 b7 12 80 3f 1d 34 80 3f 06 1b 80 3f 17 00 80 3f
       1.0005711 1.0015904 1.0008247 1.0000027
000210 6b 3e 80 3f bf f6 7d 3f 24 aa 7f 3f 31 83 80 3f
       1.0019048 0.9920463 0.9986899 1.0040036
000220 83 d5 7f 3f 1b 1d 80 3f a8 c6 7f 3f bc e5 7f 3f
       0.9993517 1.0008882 0.999125 0.9995992
000230 e8 62 80 3f 75 df 7e 3f 24 af 7f 3f 02 40 80 3f
       1.0030184 0.9955972 0.9987662 1.0019534
000240 99 04 80 3f d4 00 80 3f ac ec 7f 3f fc 47 7f 3f
       1.0001403 1.0000253 0.9997051 0.99719214
000250 83 00 80 3f c0 ee 7e 3f b6 55 80 3f 8f 08 80 3f
       1.0000156 0.99583054 1.0026157 1.0002612
000260 b3 b6 7e 3f 31 70 80 3f e4 ee 7f 3f da cc 7e 3f
       0.99497527 1.0034238 0.99973893 0.9953133
000270 e2 d4 7e 3f c4 07 80 3f 5d 8c 7f 3f b0 09 80 3f
       0.99543583 1.000237 0.9982355 1.0002956
000280 53 be 7f 3f 49 53 80 3f 27 8c 80 3f cd 12 80 3f
       0.99899787 1.0025417 1.0042771 1.0005738
000290 05 57 80 3f e7 3e 80 3f fb de 7f 3f 4d 1e 80 3f
       1.0026556 1.0019196 0.99949616 1.0009247
0002a0 72 70 7f 3f bb 4d 80 3f 97 f2 7f 3f 46 ae 80 3f
       0.9978095 1.0023721 0.9997954 1.0053184
0002b0 92 0d 80 3f cd 7e 7e 3f 94 89 7f 3f 60 40 80 3f
       1.0004141 0.9941223 0.998193 1.0019646
0002c0 41 cd 7f 3f 1c 9d 7f 3f f6 16 80 3f 7c 19 80 3f
       0.9992257 0.99849105 1.0007007 1.0007777
0002d0 1c c8 7f 3f d6 00 80 3f 1c 8a 7f 3f 81 29 80 3f
       0.9991472 1.0000255 0.99820113 1.0012666
0002e0 3b 55 80 3f bf f4 7f 3f 6a 46 80 3f cb a3 7f 3f
       1.002601 0.9998283 1.0021489 0.99859303
0002f0 d9 fe 7f 3f 8b 38 80 3f cf af 7f 3f 57 fa 7f 3f
       0.9999824 1.0017256 0.9987764 0.99991363
000300 8c da 7f 3f 02 0e 80 3f 41 04 80 3f 74 87 80 3f
       0.9994285 1.0004275 1.0001298 1.0041337
000310 b6 fd 7f 3f eb d8 7e 3f 1f 1c 80 3f 30 10 80 3f
       0.9999651 0.9954974 1.0008582 1.000494
000320 87 26 80 3f 13 34 80 3f 77 c6 7f 3f f0 2a 80 3f
       1.0011758 1.0015892 0.9991221 1.0013103
000330 42 14 80 3f c3 3a 80 3f 03 a9 80 3f 8e 8f 7f 3f
       1.0006182 1.0017933 1.0051578 0.9982842
000340 4f b1 7f 3f 5c 11 80 3f 74 98 7f 3f 4b db 7f 3f
       0.99879926 1.0005298 0.99842 0.9994399
000350 03 9e 7f 3f d0 35 80 3f 7f a3 80 3f 69 1b 80 3f
       0.9985048 1.0016422 1.0049895 1.0008365
000360 a3 c4 7f 3f cd 7b 80 3f 59 2c 80 3f 12 bd 7f 3f
       0.9990942 1.0037781 1.0013534 0.99897873
000370 83 01 80 3f 5d f4 7f 3f c9 25 80 3f f9 0f 80 3f
       1.0000461 0.99982244 1.0011531 1.0004874
000380 2c 4b 7e 3f ca 07 7f 3f fc e0 7f 3f c9 2f 7f 3f
       0.99333453 0.9962126 0.99952674 0.9968229
000390 50 61 7f 3f 9e 06 80 3f 13 3f 7f 3f f1 ca 7f 3f
       0.9975786 1.000202 0.9970562 0.9991904
0003a0 6c 02 80 3f 3f d9 7f 3f 3c bc 7f 3f e3 87 7f 3f
       1.0000739 0.99940866 0.998966 0.9981672
0003b0 57 a4 7f 3f 88 7f 7f 3f ce bb 7f 3f d3 db 7f 3f
       0.9986014 0.9980397 0.9989594 0.999448
0003c0 32 f8 7f 3f a8 d0 7f 3f 6e 6d 7f 3f d4 eb 7f 3f
       0.9998809 0.9992776 0.9977635 0.9996922
0003d0 e4 1c 80 3f 54 63 80 3f 06 c9 7f 3f 70 6d 7f 3f
       1.0008817 1.0030313 0.9991611 0.99776363
0003e0 26 65 80 3f 14 42 80 3f 9e 92 81 3f bc 53 7e 3f
       1.0030868 1.0020165 1.0122869 0.9934652
0003f0 38 78 7f 3f b9 b8 7f 3f 4f 25 80 3f a9 13 80 3f
       0.99792814 0.9989124 1.0011386 1.0006

base.feature_norm.bias f4 [411]
000000 8a ed 00 ba 19 5d 32 3b 41 97 d1 b9 00 e8 fa ba
       -0.00049182086 0.0027216135 -0.0003997628 -0.0019142628
000010 4c 56 e5 3a a4 3b 34 ba c3 2c 8f 3b a0 0d 40 bb
       0.0017497032 -0.0006875342 0.0043693497 -0.0029304996
000020 95 e5 ff 3a 02 fd a2 b9 93 ea be 39 82 a8 1f 3b
       0.0019523377 -0.00031087553 0.00036414395 0.0024361913
000030 89 62 0b bb 7d 7b 97 3b 28 20 16 3b 08 0f 85 3b
       -0.0021268448 0.0046228752 0.002290735 0.0040606298
000040 94 4e 32 39 3d b4 8c 3b 6c 6d 1e bb 67 97 2b bb
       0.00017004675 0.004293947 -0.0024174107 -0.0026182772
000050 cd 0a c0 b9 5e 8d 8c bb b2 de 4d b9 f6 43 36 3b
       -0.0003662914 -0.004289313 -0.00019633284 0.0027811504
000060 14 f4 8c 3a 0d d8 aa 3a 71 38 67 37 c5 ce 00 bb
       0.0010753893 0.0013034359 1.3781814e-05 -0.0019654494
000070 44 f6 19 3b c1 fc 30 3b 0b 01 c1 b9 da a7 5f b9
       0.0023492733 0.0027006122 -0.00036812606 -0.00021329467
000080 14 d8 49 39 af 81 a3 ba 10 49 52 bb 4b 33 6f ba
       0.00019249349 -0.0012474562 -0.0032087006 -0.000912477
000090 16 b0 b8 b9 c1 6d e5 b9 87 6a 42 3a f4 8b 48 ba
       -0.0003522641 -0.00043760057 0.00074163865 -0.0007650249
0000a0 3a fb ec ba 2f df 1f ba 15 95 6e 3a 34 f6 2f 3a
       -0.0018080242 -0.00060986256 0.00091011944 0.00067124073
0000b0 8c ef 8d bb e4 c9 95 38 69 0a 22 3b b2 b1 67 bb
       -0.0043315347 7.142479e-05 0.0024725443 -0.0035353717
0000c0 f6 27 56 bb 55 10 be bb 2f eb 81 ba 24 64 26 3b
       -0.0032677627 -0.005800287 -0.0009912009 0.0025389278
0000d0 55 cb a2 bb cb 1c 6e bb f1 65 72 b9 92 ca 6e bb
       -0.0049680867 -0.003633308 -0.00023116895 -0.003643666
0000e0 17 26 e3 b9 6e 64 da b9 aa 23 5e b9 0b 6b 46 3b
       -0.00043325193 -0.00041655026 -0.00021184856 0.0030276205
0000f0 c2 f5 47 39 0a 83 85 bb 77 b0 56 b9 9b 95 16 b9
       0.00019069671 -0.004074459 -0.00020474369 -0.00014360847
000100 0b ef 00 3b b6 e9 d4 3b a9 d3 0b 3b 7f bc b9 ba
       0.001967373 0.006497587 0.0021335876 -0.0014170556
000110 58 0f cd ba 48 be f3 ba f1 76 16 3a 0f 6e d5 38
       -0.0015644832 -0.0018596137 0.00057397695 0.000101771315
000120 bb ef 70 3a 16 e4 19 3b 71 d9 79 bb a6 bb 1f 3a
       0.0009190996 0.0023481897 -0.003812399 0.00060933304
000130 f6 ea 09 3b 3b e3 6e 3a 48 5a 00 ba 98 ce 6f b8
       0.0021044589 0.00091128395 -0.00048962655 -5.7174446e-05
000140 1b 9a 42 3a 8f a1 90 ba a7 84 4a 3b be 52 6c 3b
       0.0007423476 -0.0011034476 0.003090182 0.003606006
000150 b8 40 eb b9 3a 01 6e ba f2 21 5b ba 4c a5 20 3b
       -0.00044870912 -0.0009079162 -0.0008359245 0.0024512587
000160 e5 81 22 bc ef 26 60 3a d4 28 47 b9 e9 85 c2 ba
       -0.009918665 0.00085507234 -0.00018993329 -0.0014840934
000170 c0 49 8e 39 36 f7 0d 3a b9 99 9a bb 45 07 01 3b
       0.000271393 0.00054155604 -0.004718032 0.001968817
000180 3b ae b0 b8 16 40 8b 3a a2 f9 42 bb bb 98 7c bb
       -8.424787e-05 0.0010623957 -0.0029750844 -0.0038543183
000190 66 53 2a 3a 05 82 ae 3a 5b e1 4f bb 80 41 ab 39
       0.00064974127 0.0013313895 -0.0031720016 0.00032664463
0001a0 b9 b4 b8 3a 72 66 38 3b 33 58 26 3a 02 98 10 3b
       0.0014091945 0.0028137234 0.000634554 0.002206326
0001b0 4b 84 d7 b8 e1 3d d3 bb f6 93 64 ba cf 17 b9 3a
       -0.000102766404 -0.0064465855 -0.00087195577 0.0014121475
0001c0 69 23 e2 bb 02 0f 29 38 ee 68 8a 39 35 88 72 bb
       -0.006901194 4.0306717e-05 0.0002639959 -0.0037007455
0001d0 67 dc 33 b9 94 37 a5 ba 9c ce e2 ba 59 8e 8c 3a
       -0.00017152877 -0.0012605065 -0.0017304006 0.0010723575
0001e0 2a 17 af 3b a1 12 d3 39 e2 ba 72 b9 7b 6e 15 bc
       0.0053433375 0.00040258936 -0.00023148538 -0.009120579
0001f0 e3 3c 69 3b d6 20 b1 39 f5 6f 61 3a 1a 44 4f 3b
       0.003558927 0.00033784535 0.0008599752 0.0031626285
000200 5a 8a e7 b9 bd 78 d5 ba 5f 59 51 ba ae c6 d6 ba
       -0.00044162833 -0.0016286593 -0.00079860346 -0.0016386115
000210 90 46 37 bb a8 6e 97 3b 88 0a 9f 3a 20 6e 87 bb
       -0.0027965643 0.0046213455 0.0012133876 -0.004133001
000220 36 a2 36 3a 61 ce 6b ba 6e c8 74 3a bb 55 bd 39
       0.00069669203 -0.00089952914 0.00093377277 0.00036112763
000230 60 90 49 bb 29 12 ec 37 67 8e 31 ba cb da fa ba
       -0.003075622 2.8141849e-05 -0.0006773234 -0.0019138692
000240 81 37 43 b9 03 cf 12 b9 34 22 a3 39 ef 94 aa 3a
       -0.00018617326 -0.00014000763 0.00031115266 0.0013014356
000250 96 6d e5 b7 d3 e5 89 3b 6e b3 32 bb f9 3a 3a ba
       -2.7349957e-05 0.0042083054 -0.0027267593 -0.00071041245
000260 d6 9f a7 3b c9 34 65 bb fa 70 22 39 a8 68 96 3b
       0.0051154895 -0.003497409 0.00015491611 0.0045901127
000270 de d9 91 3b d5 ff 65 ba df b1 75 3c 13 cb a1 b9
       0.0044510206 -0.00087737787 0.014996021 -0.00030859615
000280 dc b4 8a 3a a9 c1 0e bb b7 9c 92 bb eb 26 dd ba
       0.0010582465 -0.002178291 -0.0044742483 -0.001687256
000290 5c 45 30 bb fb f5 06 bb 3f cf 11 3a c3 93 df ba
       -0.002689681 -0.0020593393 0.0005562193 -0.0017057586
0002a0 e7 65 1a 3b 19 de 16 bb 29 8b 50 3a 0d 72 ad bb
       0.0023559274 -0.0023020564 0.0007955307 -0.005293137
0002b0 4c 10 d7 b9 98 da 8d 3b 59 13 5f 38 c7 8e 75 bb
       -0.00041020138 0.004329037 5.3185362e-05 -0.0037469135
0002c0 38 be 75 3b 42 98 b4 3a 66 0c 32 ba 9a de 47 ba
       0.0037497412 0.0013778287 -0.00067920086 -0.0007624418
0002d0 8a 15 59 3a f5 9e ca b7 07 39 ec 3a ff ba a6 ba
       0.00082811026 -2.4154297e-05 0.0018022367 -0.0012720524
0002e0 a2 29 28 bb 5c ce 59 39 b8 0f 0c bb 62 49 ad 3a
       -0.002565958 0.00020771608 -0.0021371674 0.0013220722
0002f0 b2 58 4c 37 56 82 df ba 81 1a b0 3a 45 00 0f 38
       1.21799985e-05 -0.0017052393 0.0013435633 3.4094108e-05
000300 f5 0e 21 3a 0a 13 05 ba 40 21 06 b8 40 e7 80 bb
       0.00061438914 -0.00050763844 -3.1979056e-05 -0.003933817
000310 f0 86 b9 34 46 b9 91 3b 86 fb 68 ba 2a 92 07 ba
       3.4557115e-07 0.004447135 -0.00088875776 -0.00051716215
000320 44 d4 a0 ba 4b a6 dc ba e5 6d 48 3a a3 7d ab ba
       -0.0012270291 -0.0016834227 0.000764577 -0.0013083707
000330 00 0b 1d ba 8b a7 e1 ba de 39 af bb a3 f6 de 3a
       -0.0005990714 -0.0017216069 -0.0053474745 0.0017010759
000340 ed ab a0 3a ff 69 ef b9 cb a6 d2 3a 88 6f 0d 3a
       0.0012258269 -0.00045664606 0.0016071437 0.00053953426
000350 10 9a bd 3a 8a 3a ce ba 4e 8c a7 bb de 73 59 ba
       0.001446547 -0.0015733999 -0.005113161 -0.00082951586
000360 86 19 5e 3a e6 6b 76 bb c7 64 ab ba ac 0c 85 3a
       0.0008472431 -0.0037600934 -0.0013076299 0.0010150871
000370 90 08 a1 b8 9a 6f 3b 39 09 62 9f ba 2c e8 22 ba
       -7.678673e-05 0.00017875285 -0.0012159954 -0.0006214406
000380 97 f4 e1 3b 62 86 74 3b 8c 2b fd 39 ed 84 4b 3b
       0.0068956125 0.0037311544 0.00048288365 0.0031054572
000390 42 65 18 3b 87 9c 2f b9 78 f1 3b 3b c7 73 5c 3a
       0.0023253714 -0.00016747612 0.0028677862 0.0008409586
0003a0 21 32 08 b9 f5 4a 18 3a 12 f8 77 3a 1e ba f5 3a
       -0.00012988645 0.00058095093 0.00094592676 0.0018747484
0003b0 7e 02 ac 3a 8f a7 00 3b f1 ec 85 3a 87 97 fb 39
       0.0013123301 0.0019631123 0.0010217709 0.00047987347
0003c0 10 76 a9 38 ce b0 3f 3a b4 bc 12 3b 53 f4 93 39
       8.080539e-05 0.0007312418 0.0022390308 0.0002822006
0003d0 6e 6d 4a ba ad 1b 42 bb c1 e8 5e 3a 88 ae 0e 3b
       -0.0007721995 -0.0029618547 0.0008503311 0.002177151
0003e0 18 be 51 bb 33 6a 03 bb d9 a5 47 bc 21 cc df 3b
       -0.0032004174 -0.0020052313 -0.012185537 0.006829754
0003f0 b6 a4 05 3b 22 f7 8f 3a 11 08 89 ba b4 1b 1e ba
       0.0020392365 0.0010983685 -0.0010454674 -0.000603135

base.mlp.fc1.0.weight f4 [64, 411]
000000 ad 98 98 bc 69 4c db bc df 64 d9 bc 24 3e 0c bd
       -0.018627489 -0.026769834 -0.026537357 -0.03423895
000010 f1 3c f0 bd aa c3 0f bd af f9 46 bc 46 a5 e6 3d
       -0.11730374 -0.03509871 -0.01214449 0.11261992
000020 f1 39 12 3d 41 3e 80 3d 85 62 7a bc 32 d5 7d bd
       0.03569979 0.06261874 -0.015282278 -0.061970897
000030 16 13 94 bc bd ae 80 3c b4 16 43 3e 5d d1 00 3c
       -0.018075507 0.015708322 0.1905163 0.007862416
000040 d2 50 0d 3d 11 7d 0d 3d c3 06 a3 bd cd ed c5 bd
       0.034500904 0.0345431 -0.07960274 -0.096644975
000050 c2 da 60 3c 2f a4 91 bd d5 f0 ae 3c bf f3 17 b8
       0.013724031 -0.07111394 0.021355072 -3.622821e-05
000060 b5 95 af bd bc c0 e2 3c d4 cf ac bc 12 bf 28 3e
       -0.08573476 0.027679794 -0.021095194 0.16479138
000070 24 97 9a 3a be 76 42 bd ef 67 8f 3d 6c 3f 69 3c
       0.0011794311 -0.047476523 0.07002246 0.014236312
000080 dd cc df bc 2d cc cb bd 88 fb cb 3c ff ae 33 ba
       -0.027319366 -0.09951053 0.024900213 -0.00068543846
000090 0c 49 1c 3b 8a cf 8e 3d 85 5c 18 3c 7d 5a 8c 3c
       0.002384725 0.06973179 0.009299402 0.017132992
0000a0 22 16 c0 3b b3 da 02 3e 25 6e 09 3d 02 d8 02 be
       0.0058620134 0.1277874 0.033552308 -0.12777713
0000b0 3d 35 07 be f0 7d 31 bd 0d 5d 9c 3d 6d 4b b7 3d
       -0.13203903 -0.043332994 0.076349355 0.08949933
0000c0 86 00 29 3c 13 27 72 3e 18 0b 2c bd 02 87 5c 3e
       0.010315066 0.23647718 -0.042002767 0.21535876
0000d0 7e 0e 7e bd fa a9 a0 bd 1c 4a a4 3d 8e 57 0e 3e
       -0.06202554 -0.078449205 0.08021948 0.13900587
0000e0 09 9b 8a bd a5 c4 94 bd c4 fd 25 3e ef 2b 08 bc
       -0.06767852 -0.072640695 0.16210085 -0.008311256
0000f0 a4 5c 04 bd 02 4b fd 38 ea a5 be 3c e4 19 62 3d
       -0.03231491 0.000120779514 0.023272473 0.055200472
000100 dc af ea 3c 98 5b de 3d ad 06 93 3d b6 ec d4 3c
       0.02864831 0.10857314 0.07179008 0.025991779
000110 07 f5 6c 3d ee d0 1a be 02 9e 19 3c 8c 0f a4 3d
       0.057850864 -0.15118763 0.009376051 0.08010778
000120 25 b6 43 bd 96 af 8d 3d 4b b3 ed bc 2c e4 2a 3c
       -0.04778113 0.06918256 -0.029016158 0.010430377
000130 e0 93 09 3e 60 6d 9e 3d c4 89 67 bc 80 05 0e 3d
       0.13435316 0.077357054 -0.014131967 0.034673214
000140 9a 1e 85 bc b5 da cc 3a b2 2a 11 3c de 16 ba bc
       -0.016249944 0.0015629145 0.008860277 -0.022715982
000150 ae f0 d0 bd 51 ea ee bc f3 b8 9b bd 2d 35 17 3c
       -0.10202156 -0.029164465 -0.07603636 0.009228987
000160 6c e9 84 3d 13 91 f3 bc 55 dc 38 3c 92 b5 85 3d
       0.06489834 -0.029732263 0.011283 0.065287724
000170 f4 d1 c5 3d a4 22 f2 3c 30 c8 79 bd 9e b9 8b 3d
       0.09659186 0.029557534 -0.06098193 0.06822513
000180 36 dc 86 b8 18 0a 19 3d 4d 9f 1e 3e 68 c9 b9 bd
       -6.4306354e-05 0.03736314 0.15490456 -0.09071618
000190 44 bc 1b bd ac 71 05 bd e1 86 07 3e 1f b3 b4 3c
       -0.03802134 -0.03257911 0.13235046 0.022058068
0001a0 40 41 2c ba d5 cd 05 3c 48 d3 18 3e 0a c0 d3 3c
       -0.00065710023 0.00816675 0.14924347 0.025848407
0001b0 28 f5 ec bd 14 08 0f 3d 21 41 24 bd ed f8 0c 3e
       -0.11570197 0.034919813 -0.040101174 0.13766833
0001c0 88 83 15 3d 47 32 4a 3d 52 bf 40 3e 34 7a 6f bb
       0.03650239 0.049364354 0.18822983 -0.0036541345
0001d0 b1 36 69 3b ff 11 1a bd 19 12 66 ba f4 de a1 bd
       0.0035585577 -0.03761482 -0.00087765005 -0.07903853
0001e0 82 dd 3e bd 4a 2a 7b 3c d7 83 fa bc 79 ff 0a 3c
       -0.046597965 0.015329907 -0.030580444 0.008483761
0001f0 d7 bf 11 3d 23 1c 1b 3d 38 65 ef bc c7 12 6d 39
       0.035583343 0.03786863 -0.02922307 0.00022609076
000200 24 31 17 3c d8 fa 18 bd e3 f7 1b bc 54 b7 4b 3c
       0.009228025 -0.0373486 -0.00951955 0.012433846
000210 eb e6 44 3d d2 74 c9 bd 5b c3 98 3d 66 4f 1e 3e
       0.048071783 -0.09836735 0.07459136 0.15459976
000220 9a e0 02 be fe 1f 73 3d 84 5c 65 bd 03 79 db 3b
       -0.12780991 0.059356682 -0.055996433 0.0066977753
000230 c5 04 29 bd 1c 0b 33 bd 62 fd ff 3c 49 bb 90 3c
       -0.041264314 -0.043711767 0.031248752 0.01766743
000240 05 0a 25 3d a3 c4 a3 3c 0c 30 21 3c 76 a2 d0 bc
       0.04029276 0.019991225 0.009838115 -0.025468092
000250 f9 a3 dc bd 37 45 86 3d ef 6c b7 3d 26 2c 42 3c
       -0.10773463 0.065561704 0.08956324 0.011851346
000260 98 f1 1b bc 5c cb e3 bc 42 6d 6f 3d fa bd d4 bc
       -0.00951805 -0.02780693 0.058453806 -0.025969494
000270 3b a4 cd bc c9 26 46 bd 2a 17 f8 bc 2b 3d 6b bb
       -0.025102725 -0.048376832 -0.030284483 -0.0035894613
000280 26 3e a3 3d 86 29 a2 3d ae 8b b4 bd 5e 46 0e bd
       0.07970838 0.07918076 -0.08815704 -0.034735076
000290 a7 3a af 3d 45 f1 c1 3d 39 cd 83 bd c2 9f 6a 3c
       0.08556109 0.09469847 -0.064356275 0.014320316
0002a0 7f 1b 33 3c c3 2c d9 bd db d7 56 3b 13 bc a8 bd
       0.010931849 -0.10604241 0.0032782468 -0.08238997
0002b0 24 75 c0 bc 06 10 a6 bb fc 35 aa bd d3 41 dc 3b
       -0.023493357 -0.005067828 -0.08311078 0.006721714
0002c0 10 21 bb 3d b6 88 dd 3d 72 da 9a 3d 90 c3 36 bd
       0.091371655 0.10817091 0.075611964 -0.044620097
0002d0 c7 a4 05 3c 82 12 c4 bb 0e 6a be bd b5 b4 ef 3d
       0.008156962 -0.0059836516 -0.09297572 0.11704389
0002e0 6d 27 dd bc f5 3c cc bd b9 76 eb bd 7f 72 d2 bd
       -0.026996339 -0.09972564 -0.11497254 -0.10275745
0002f0 75 3b 57 bd d4 6c 45 bd 75 ea 3d 3d 29 b5 82 3d
       -0.052546937 -0.04819949 0.046366174 0.0638221
000300 e0 b3 cc 3d d8 3e 40 bc 11 73 17 bd f5 c3 c8 bd
       0.09995246 -0.011733733 -0.03697497 -0.09803001
000310 f6 1e f9 3d 48 79 28 3c 0b 85 d6 3c 54 32 78 bc
       0.121641085 0.010282822 0.026186487 -0.015148718
000320 28 42 85 bd 3f cf d2 bb a1 15 5e 3c 94 eb 41 bd
       -0.06506759 -0.006433397 0.013554961 -0.047343805
000330 33 45 a2 bd 77 43 f2 bd 7c f8 89 3c e8 39 fe 3d
       -0.07923355 -0.11829274 0.01684212 0.124133885
000340 cc af 86 bc 76 14 dc bc 79 04 83 bd e3 27 98 bd
       -0.016441248 -0.026865225 -0.063973375 -0.07429483
000350 73 00 f5 3c 9c 07 17 3b 93 c8 50 3d 36 e5 5d bd
       0.02990744 0.0023045307 0.050972532 -0.05417367
000360 f6 9c ff 3c f2 a4 cc 3d c5 06 ec bc e1 d5 c6 bd
       0.031202774 0.09992398 -0.028811822 -0.09708763
000370 53 70 fd bd 1b f9 eb bc 78 f1 95 bd 4b 08 6d 3d
       -0.1237494 -0.028805306 -0.07321447 0.057869237
000380 94 88 fa 3b bd 04 5d bc 50 17 00 3b 6f 25 f5 3d
       0.007645676 -0.013489899 0.0019545145 0.119700305
000390 ff 4f af bd 96 a7 28 3e c2 39 3f 3d 8b 16 ae bc
       -0.0856018 0.16470179 0.04668594 -0.021250984
0003a0 79 b7 c2 bd de 76 ef 3c ee 3c 94 bc bf b9 c3 3c
       -0.09507651 0.029231485 -0.01809546 0.023892282
0003b0 5f 52 15 bd 19 1b 08 3e d7 db 0b bd 03 18 bd bd
       -0.03645551 0.13291587 -0.034145202 -0.092330955
0003c0 26 d9 13 bc 2b cc c0 3c bc d0 dc 3b a1 98 56 3e
       -0.00902394 0.023534855 0.0067387503 0.20956661
0003d0 70 c5 81 bd b1 41 9f 3d 30 3c af bc f2 7c 7f bd
       -0.06336486 0.077762015 -0.021391004 -0.062375017
0003e0 de 56 08 3e 5e 6b 17 bd ec 11 d1 bd a9 c6 a3 bb
       0.13314387 -0.036967628 -0.102084965 -0.0049980474
0003f0 67 8e 92 bd f6 f1 e9 3d 2b 60 15 bd df 58 4e bb
       -0.07156067 0.114231035 -0.036468666 -0.0031486077

base.mlp.fc1.0.bias f4 [64]
000000 55 0f c7 bb 56 f2 a9 bb 58 62 10 3b e6 01 9e ba
       -0.006074826 -0.0051863594 0.0022031274 -0.0012055009
000010 94 04 e2 3a 00 00 00 00 18 c1 b0 3b 4f da 93 bb
       0.0017243796 0.0 0.0053941123 -0.0045121084
000020 dd 79 d7 b9 0a 4b 26 bb 3c 30 93 3a 78 4b 2c b9
       -0.0004109879 -0.0025374317 0.0011229585 -0.00016431313
000030 4b a1 c4 ba f7 3a ae ba 00 00 00 00 08 f9 8b 3b
       -0.0015001682 -0.0013292719 0.0 0.00427163
000040 7e f6 7e 3a 31 ef 90 3a 4a 93 0a bb 00 00 00 00
       0.0009726061 0.0011057613 -0.002114492 0.0
000050 75 0a 25 bb 3b c2 34 bb 4a 8a c6 b9 00 00 00 00
       -0.0025183235 -0.002758159 -0.00037868536 0.0
000060 00 00 00 00 00 00 00 00 a3 0c 68 bb 33 42 59 bb
       0.0 0.0 -0.0035407923 -0.003315103
000070 ed e3 99 bb 02 de 48 3c fc 8d 86 b9 00 00 00 00
       -0.0046963603 0.012259962 -0.00025664258 0.0
000080 12 09 38 3a ac 5a b2 3a 4e c9 a0 bb 00 00 00 00
       0.00070203946 0.0013607345 -0.00490681 0.0
000090 84 a7 b1 bb 36 6e 84 bb ae 0e a7 bb 90 07 29 3a
       -0.0054215807 -0.0040414585 -0.0050981855 0.0006447965
0000a0 7e d6 96 38 d7 44 c7 ba 00 00 00 00 00 00 00 00
       7.19251e-05 -0.0015203011 0.0 0.0
0000b0 f3 90 50 39 2d 65 25 3b 00 00 00 00 23 d5 0c bb
       0.00019890424 0.0025237307 0.0 -0.0021489344
0000c0 bc a1 c8 ba 00 00 00 00 73 69 06 bb ea 1c c0 ba
       -0.001530699 0.0 -0.002050963 -0.0014657055
0000d0 9a 85 0d bb 26 60 83 3b 00 00 00 00 7b 2b cd ba
       -0.0021594525 0.0040092645 0.0 -0.0015653217
0000e0 30 e8 0c ba 12 9a 1a 3a 00 00 00 00 11 ba ee ba
       -0.0005375175 0.0005897592 0.0 -0.0018213411
0000f0 6f 8a ec b9 00 00 00 00 5f d3 28 bb 00 00 00 00
       -0.0004511657 0.0 -0.0025760753 0.0

base.mlp.fc1.2.weight f4 [64]
000000 a4 46 80 3f 57 d3 7f 3f 56 b0 7f 3f 15 c0 7f 3f
       1.0021558 0.99931854 0.9987844 0.9990247
000010 23 48 80 3f bc ed 7f 3f f9 47 80 3f 05 39 80 3f
       1.0022014 0.9997213 1.0021964 1.0017401
000020 52 3e 7e 3f c4 e6 7f 3f 11 fd 7f 3f a9 e0 7f 3f
       0.99313843 0.99961495 0.99995524 0.9995218
000030 54 28 7e 3f 2e 66 7f 3f 4b 09 80 3f da 36 80 3f
       0.99280286 0.9976529 1.0002836 1.0016739
000040 20 0f 80 3f 68 1c 80 3f 8d 85 7f 3f 47 01 80 3f
       1.0004616 1.0008669 0.9981316 1.000039
000050 c2 1d 80 3f 6b e5 7e 3f 7f 52 7f 3f 10 0b 80 3f
       1.0009081 0.99568814 0.99735254 1.0003376
000060 b8 6b 7f 3f 5d 1f 80 3f 1d 05 80 3f 75 77 7f 3f
       0.9977374 1.0009571 1.000156 0.9979165
000070 b4 a4 80 3f 9f b2 80 3f d1 d0 7f 3f 59 15 80 3f
       1.0050263 1.0054511 0.99928004 1.0006515
000080 68 0c 80 3f 44 15 80 3f 74 fb 7f 3f db db 7d 3f
       1.0003786 1.000649 0.9999306 0.991636
000090 4d b4 7f 3f 8e 6d 80 3f 7a 3b 7e 3f 79 77 7f 3f
       0.9988449 1.0033433 0.99309504 0.99791676
0000a0 cc e4 7f 3f 79 de 7e 3f f3 a7 7f 3f 1a dc 7f 3f
       0.9995849 0.99558216 0.99865645 0.99945223
0000b0 d4 63 7f 3f 30 0a 80 3f c1 0d 80 3f 82 37 7f 3f
       0.997617 1.0003109 1.0004197 0.99694073
0000c0 88 39 80 3f 71 fb 80 3f 65 e1 7f 3f 21 66 80 3f
       1.0017557 1.0076734 0.999533 1.0031167
0000d0 1d 09 80 3f 2c b9 7e 3f 36 17 80 3f 28 9b 7e 3f
       1.0002781 0.995013 1.0007083 0.994555
0000e0 f5 9a 7f 3f 22 da 7f 3f 52 d6 7f 3f 13 26 80 3f
       0.9984582 0.9994222 0.999364 1.0011619
0000f0 de 35 7f 3f 13 e8 7f 3f 24 13 80 3f 84 13 80 3f
       0.9969157 0.9996349 1.0005841 1.0005956

base.mlp.fc1.2.bias f4 [64]
000000 da 48 0f bb ca bc 55 39 90 2b 3d 3b d5 ef 58 ba
       -0.0021863491 0.00020383592 0.0028865077 -0.0008275484
000010 aa ea 15 3b c7 a1 aa 39 be 06 45 3b 53 f4 ec ba
       0.0022875466 0.0003254546 0.0030063833 -0.0018078185
000020 ff 57 f9 b9 68 29 25 39 74 0a 84 3a 9e 63 29 b9
       -0.00047558543 0.00015751051 0.0010073916 -0.00016154206
000030 e4 aa a8 ba 4a 1f 17 3b b4 64 6c b9 9d 5d fc 3a
       -0.0012868312 0.0023059421 -0.00022544229 0.0019253973
000040 29 ca 6a 3a ea 47 b5 3a 6b 5e c5 ba 2f 01 f6 b8
       0.0008956516 0.0013830636 -0.0015058046 -0.000117304146
000050 1f db 83 ba 72 b6 86 bb 7d 7a a4 3a 34 5e d6 b9
       -0.001005981 -0.0041111046 0.0012548711 -0.00040887448
000060 88 c7 16 3b 96 c4 6a ba 95 d2 b9 b8 07 9e ca ba
       0.0023007113 -0.0008955685 -8.8607114e-05 -0.0015458473
000070 bc 99 a7 bb 06 9c e0 3b 62 28 6e b9 11 ac 3d ba
       -0.005114762 0.006854537 -0.00022712493 -0.0007235418
000080 b6 e7 4b 3a 3d 0a 88 3a 2b a2 5c 37 24 01 08 3c
       0.0007778363 0.0010379028 1.31507795e-05 0.008301053
000090 38 c4 98 3a af 60 5c bb 8c 8c e4 3b cc b1 81 3a
       0.0011655157 -0.0033626964 0.0069747623 0.0009894907
0000a0 b2 42 92 38 47 be e4 ba 6e d3 ba 3a ef 87 17 3a
       6.9742455e-05 -0.0017451727 0.0014253685 0.00057804486
0000b0 2b 64 f5 b9 78 0c e6 3a fa 07 fb b9 f4 55 39 bb
       -0.00046804672 0.0017551323 -0.00047880394 -0.0028279992
0000c0 6b 45 f8 ba 00 40 fc bb 52 f1 4d 38 9e 8a 4e bb
       -0.0018941587 -0.007698059 4.9100556e-05 -0.0031515728
0000d0 ca 6c 51 ba 79 b3 7e 3b 9a 8a 2b ba fc 29 b4 3b
       -0.0007988928 0.0038864298 -0.00065437856 0.005498169
0000e0 83 23 c0 3a 00 1d 0b 3a 7b f6 37 3a e0 21 a1 ba
       0.0014659021 0.00053067505 0.00070176244 -0.0012293421
0000f0 15 38 bf b9 96 1c a4 39 09 f8 37 ba 8a 28 0c ba
       -0.00036472143 0.00031301816 -0.0007017856 -0.0005346617

base.mlp.fc_h.0.weight f4 [64, 64]
000000 12 13 82 3d b7 8e bc bd 35 58 53 3d 2c 33 2d 3d
       0.063512936 -0.09206908 0.051597793 0.04228513
000010 c4 3a 83 3e 6c 70 e8 3c 9e 7d 54 3d ee bf 4d be
       0.25630772 0.02837392 0.05187761 -0.20092747
000020 4f 8e b2 bd bd 93 7e 3e f9 95 2b 3b 10 e1 56 3e
       -0.087185495 0.24861045 0.002618192 0.20984292
000030 82 ce 84 be 0b 8a c2 bd d3 c1 b0 bd fc 40 f8 bd
       -0.25938803 -0.09498986 -0.08630719 -0.1212177
000040 e1 d2 5e 3e a6 5b 7d bd 0a 29 cb bd 6f 90 4a be
       0.21760131 -0.06185498 -0.09919937 -0.1978166
000050 a3 80 43 be d7 b8 7d bd 07 e4 59 3c 14 a8 c3 be
       -0.1909204 -0.061943855 0.013298995 -0.3821417
000060 68 86 8e bc b3 fe ce bd 51 d3 b7 3e 15 96 71 bd
       -0.017398074 -0.10107174 0.3590341 -0.05898102
000070 e3 ac 0c be c6 0f ae 3e 6b 73 8e 3c 87 d3 8a 3d
       -0.13737826 0.3399641 0.01738902 0.06778627
000080 b1 d3 11 3c 3b 3b 77 3e 28 c4 4c 3d bf 45 77 3e
       0.008900569 0.24143688 0.049991757 0.241477
000090 67 1c 2d be 4b b5 9d be 90 bc 87 3d 43 b4 b8 bd
       -0.16905366 -0.30802378 0.06627762 -0.09018757
0000a0 9f 53 bb be 28 75 18 be 8d c5 1d 3d 41 1e 08 be
       -0.36587235 -0.14888442 0.038518477 -0.13292791
0000b0 74 ee 9b 3e ea 2b bc 3c 92 37 36 be 57 95 30 3e
       0.30455363 0.022970159 -0.17794636 0.17244469
0000c0 e0 e1 86 3e 8e 58 21 be 56 70 cf bd 55 35 a2 be
       0.26344204 -0.15756437 -0.10128848 -0.31681314
0000d0 d2 b7 08 3d 3b 47 cc 3b 6e 73 d9 3d 3f b9 63 3d
       0.03337843 0.0062340773 0.106177196 0.055596586
0000e0 92 06 9e be ce dc 46 be e2 1a 07 be 0a 35 24 be
       -0.30864388 -0.19420168 -0.13193849 -0.16035858
0000f0 5c 0f 2f be d5 85 87 be d7 77 cc bd b6 b5 33 bd
       -0.17095703 -0.26469293 -0.09983795 -0.043874465
000100 1a 7b 8e 3e 56 a4 28 3e c5 44 04 bb 8f c9 5d 3d
       0.27828294 0.16468939 -0.0020182591 0.0541473
000110 0c 15 98 be d4 c8 99 bd cf 2a df 3c fb 7b b6 3d
       -0.29703557 -0.07509008 0.027242092 0.08910366
000120 7c 9a 13 be 91 eb 87 3e 16 a4 68 bd 10 e3 03 be
       -0.144144 0.2654691 -0.05679711 -0.12879586
000130 c6 07 00 3e e7 98 e1 3d fd f5 11 3d 85 d1 8f 3d
       0.12502965 0.11015492 0.035634983 0.070223846
000140 1f f0 c4 bd 77 70 27 be c0 10 02 3e cf b7 87 3e
       -0.09616112 -0.16351496 0.12701702 0.26507422
000150 3c 5e 9a 3e 9f fb 0d 3d a3 eb 49 be 8c ec 14 bf
       0.3015002 0.034663793 -0.19718795 -0.5817344
000160 df 21 64 be bd 22 85 bd 50 ab 31 be b3 d6 84 be
       -0.22278546 -0.065007664 -0.17350507 -0.25945053
000170 06 57 a6 be 8b f9 16 3d 99 7b c4 3d cc 2e 4f 3e
       -0.3248827 0.036859076 0.09593887 0.20232695
000180 f7 65 55 3e ad ea 9e 3e 54 29 e9 bd 8b e9 db bb
       0.20839678 0.31038418 -0.11384836 -0.00671119
000190 83 eb 63 3e 52 86 49 bd 9e 34 14 3e c9 f3 ae 3e
       0.2225781 -0.049200363 0.14473197 0.34170368
0001a0 e1 ef 1e 3e 1a 57 a0 3d 6c 68 3f bd 80 06 48 be
       0.15521194 0.07829113 -0.046730444 -0.1953373
0001b0 57 57 f6 3c 80 be 2b 3e 5e 61 2d 3d cd f2 fb bd
       0.030070944 0.16771889 0.042329185 -0.1230217
0001c0 66 72 62 be 34 8b 10 be 8f 5a ea 3c 82 9e a9 3c
       -0.22113952 -0.14115602 0.028607635 0.020705465
0001d0 d6 a5 d0 bd a7 a7 19 be ef 28 08 bd 05 e6 8a be
       -0.10187881 -0.1500536 -0.033242162 -0.27128616
0001e0 a9 fc 00 be b3 c2 cd 3d 37 8e 27 be 49 ce bd bd
       -0.12596382 0.100469016 -0.16362844 -0.092678614
0001f0 9a 57 a2 3d 14 6b 13 be 20 cb 6d bc e3 74 0f 3e
       0.07926865 -0.14396316 -0.014513761 0.14009432
000200 c2 bf 49 3e 5d ce 12 3e ab 1e 69 be 81 31 3c be
       0.19702056 0.14336534 -0.22765605 -0.18378259
000210 45 08 46 be 5b cf 18 3c 1d a0 93 bd a9 28 cb 3c
       -0.19339092 0.009326781 -0.072082736 0.024799662
000220 c1 ca a5 bd 8b d9 2d 3d 20 07 ad 3b 6d d1 81 3e
       -0.08095313 0.042443793 0.0052803904 0.25355092
000230 99 6d 0e be 6c a1 95 be b9 62 9b bd 69 76 68 be
       -0.13908996 -0.29224718 -0.07587189 -0.2270142
000240 dd 6b ae be ea 8a 67 3e 38 20 df 3d 98 09 a5 be
       -0.34066668 0.22611585 0.10894817 -0.32233882
000250 35 29 91 3d f3 c2 7b 3e 85 a2 23 be ac b2 a7 3e
       0.07087938 0.24586086 -0.15979965 0.32753503
000260 1e 3d 43 3d 20 8c b9 3d 7e 99 5e 3e f2 e4 90 3d
       0.047665708 0.0905993 0.2173824 0.07074918
000270 59 92 39 3e 58 5c ce bd d1 85 af 3d 96 8f 42 3e
       0.18122233 -0.10076207 0.08570445 0.19000086
000280 b4 41 03 3e 5b bb 1c 3e 2d 2e 36 3e 28 db f1 bc
       0.12818033 0.15305845 0.17791052 -0.029523447
000290 65 e0 2b 3d 2a 4b 8b 3c 62 85 c4 3d 58 6f 3c 3c
       0.041962046 0.017003614 0.09595753 0.011501156
0002a0 52 d0 dd bd 67 8c 1f bd 60 f8 80 bd a1 e2 3d be
       -0.108307496 -0.038952257 -0.06297374 -0.18543483
0002b0 ab 17 86 bd 18 99 97 3e 82 02 33 3e ef 2e cc 3c
       -0.06547483 0.2960899 0.17481425 0.024924723
0002c0 5d 18 be be 96 db 4c be b1 8d 24 3e e8 77 a7 be
       -0.37127963 -0.2000564 0.16069676 -0.3270867
0002d0 a6 e6 9b 3e cc 5e 0a 3e 48 56 0b be 83 f2 11 3e
       0.30449408 0.13512725 -0.13607132 0.14252667
0002e0 36 72 0d 3e 2e 26 21 3d 0d 95 81 be 84 89 3d 3e
       0.138131 0.03934305 -0.2530903 0.1850949
0002f0 40 04 26 3e 3b 26 62 be a8 96 1f be 52 8c c5 3d
       0.16212559 -0.22084896 -0.15584815 0.096459046
000300 77 cf 3b be 84 b0 08 be 43 52 f1 3b 7b 65 22 3d
       -0.1834086 -0.13348585 0.0073645427 0.03964756
000310 08 6f 2b 3e ca e0 c8 3e 47 5c 00 bd ba d7 82 3e
       0.16741574 0.39234 -0.031338003 0.2555521
000320 8f 24 6a 3c 63 e2 50 3e 32 73 c6 3b 0a 0b 36 bd
       0.014290943 0.2039886 0.006056213 -0.04444412
000330 27 42 dc 3d 2a 07 ee bc 83 38 97 3d 47 46 a2 be
       0.10754805 -0.02905615 0.07383826 -0.31694242
000340 7e a5 43 be 0b 49 9a 3e 07 51 c6 bd 30 fe b0 3e
       -0.19106099 0.30133852 -0.096834235 0.3456893
000350 bb 0b 55 bd 22 44 42 be 99 8d 38 be 44 7d 14 3e
       -0.05201314 -0.18971303 -0.18022765 0.1450091
000360 49 57 a4 be 92 b7 74 be ec 67 ba 3e 80 65 64 bd
       -0.32097843 -0.23898152 0.3640741 -0.05576086
000370 e4 a6 0e be 0d e3 00 be 04 7c e1 bd 55 1e c4 3d
       -0.13930851 -0.12586613 -0.11009982 0.09576098
000380 20 3f a1 be 87 b0 6c 3e 09 37 1d 3e 02 8a 81 bd
       -0.31493473 0.23114215 0.15353025 -0.06325151
000390 90 99 0d be eb 07 15 3e 38 c6 fe 3d 98 05 66 3c
       -0.1382811 0.14553802 0.12440151 0.01403942
0003a0 7d 0a 20 3e c9 88 31 be 86 53 39 3e 1b 63 0b be
       0.15629001 -0.17337336 0.18098268 -0.13612024
0003b0 05 be aa 3e 3b 2d c8 3d 2a 64 0b bc 2b 47 62 be
       0.33348098 0.09774252 -0.008507768 -0.22097461
0003c0 ae aa 19 3c 99 7d c2 3a 0e e1 68 3c d1 8c 9b 3d
       0.009379072 0.0014838456 0.0142138135 0.07595218
0003d0 af 6e 78 3d 2e aa 69 3d aa 13 50 bd f0 89 2e 3d
       0.06065243 0.05704706 -0.050800003 0.042612016
0003e0 78 db a4 3c 6e b1 3e 3e 7c 2e 8e 3c 65 03 6b be
       0.020124182 0.18622372 0.01735615 -0.22950514
0003f0 65 30 84 3e 8f fb 47 3e 22 ae 31 3e 92 41 94 be
       0.25818172 0.19529556 0.17351583 -0.28956276

base.mlp.fc_h.0.bias f4 [64]
000000 00 00 00 00 00 00 00 00 00 00 00 00 00 00 00 00
       0.0 0.0 0.0 0.0
000010 00 00 00 00 00 00 00 00 00 00 00 00 00 00 00 00
       0.0 0.0 0.0 0.0
000020 00 00 00 00 00 00 00 00 00 00 00 00 00 00 00 00
       0.0 0.0 0.0 0.0
000030 00 00 00 00 00 00 00 00 00 00 00 00 00 00 00 00
       0.0 0.0 0.0 0.0
000040 00 00 00 00 00 00 00 00 00 00 00 00 00 00 00 00
       0.0 0.0 0.0 0.0
000050 00 00 00 00 00 00 00 00 00 00 00 00 00 00 00 00
       0.0 0.0 0.0 0.0
000060 00 00 00 00 00 00 00 00 00 00 00 00 00 00 00 00
       0.0 0.0 0.0 0.0
000070 00 00 00 00 00 00 00 00 00 00 00 00 00 00 00 00
       0.0 0.0 0.0 0.0
000080 00 00 00 00 00 00 00 00 00 00 00 00 00 00 00 00
       0.0 0.0 0.0 0.0
000090 00 00 00 00 00 00 00 00 00 00 00 00 00 00 00 00
       0.0 0.0 0.0 0.0
0000a0 00 00 00 00 00 00 00 00 00 00 00 00 00 00 00 00
       0.0 0.0 0.0 0.0
0000b0 00 00 00 00 00 00 00 00 00 00 00 00 00 00 00 00
       0.0 0.0 0.0 0.0
0000c0 00 00 00 00 00 00 00 00 00 00 00 00 00 00 00 00
       0.0 0.0 0.0 0.0
0000d0 00 00 00 00 00 00 00 00 00 00 00 00 00 00 00 00
       0.0 0.0 0.0 0.0
0000e0 00 00 00 00 00 00 00 00 00 00 00 00 00 00 00 00
       0.0 0.0 0.0 0.0
0000f0 00 00 00 00 00 00 00 00 00 00 00 00 00 00 00 00
       0.0 0.0 0.0 0.0

base.mlp.fc_h.2.weight f4 [64]
000000 00 00 80 3f 00 00 80 3f 00 00 80 3f 00 00 80 3f
       1.0 1.0 1.0 1.0
000010 00 00 80 3f 00 00 80 3f 00 00 80 3f 00 00 80 3f
       1.0 1.0 1.0 1.0
000020 00 00 80 3f 00 00 80 3f 00 00 80 3f 00 00 80 3f
       1.0 1.0 1.0 1.0
000030 00 00 80 3f 00 00 80 3f 00 00 80 3f 00 00 80 3f
       1.0 1.0 1.0 1.0
000040 00 00 80 3f 00 00 80 3f 00 00 80 3f 00 00 80 3f
       1.0 1.0 1.0 1.0
000050 00 00 80 3f 00 00 80 3f 00 00 80 3f 00 00 80 3f
       1.0 1.0 1.0 1.0
000060 00 00 80 3f 00 00 80 3f 00 00 80 3f 00 00 80 3f
       1.0 1.0 1.0 1.0
000070 00 00 80 3f 00 00 80 3f 00 00 80 3f 00 00 80 3f
       1.0 1.0 1.0 1.0
000080 00 00 80 3f 00 00 80 3f 00 00 80 3f 00 00 80 3f
       1.0 1.0 1.0 1.0
000090 00 00 80 3f 00 00 80 3f 00 00 80 3f 00 00 80 3f
       1.0 1.0 1.0 1.0
0000a0 00 00 80 3f 00 00 80 3f 00 00 80 3f 00 00 80 3f
       1.0 1.0 1.0 1.0
0000b0 00 00 80 3f 00 00 80 3f 00 00 80 3f 00 00 80 3f
       1.0 1.0 1.0 1.0
0000c0 00 00 80 3f 00 00 80 3f 00 00 80 3f 00 00 80 3f
       1.0 1.0 1.0 1.0
0000d0 00 00 80 3f 00 00 80 3f 00 00 80 3f 00 00 80 3f
       1.0 1.0 1.0 1.0
0000e0 00 00 80 3f 00 00 80 3f 00 00 80 3f 00 00 80 3f
       1.0 1.0 1.0 1.0
0000f0 00 00 80 3f 00 00 80 3f 00 00 80 3f 00 00 80 3f
       1.0 1.0 1.0 1.0

base.mlp.fc_h.2.bias f4 [64]
000000 00 00 00 00 00 00 00 00 00 00 00 00 00 00 00 00
       0.0 0.0 0.0 0.0
000010 00 00 00 00 00 00 00 00 00 00 00 00 00 00 00 00
       0.0 0.0 0.0 0.0
000020 00 00 00 00 00 00 00 00 00 00 00 00 00 00 00 00
       0.0 0.0 0.0 0.0
000030 00 00 00 00 00 00 00 00 00 00 00 00 00 00 00 00
       0.0 0.0 0.0 0.0
000040 00 00 00 00 00 00 00 00 00 00 00 00 00 00 00 00
       0.0 0.0 0.0 0.0
000050 00 00 00 00 00 00 00 00 00 00 00 00 00 00 00 00
       0.0 0.0 0.0 0.0
000060 00 00 00 00 00 00 00 00 00 00 00 00 00 00 00 00
       0.0 0.0 0.0 0.0
000070 00 00 00 00 00 00 00 00 00 00 00 00 00 00 00 00
       0.0 0.0 0.0 0.0
000080 00 00 00 00 00 00 00 00 00 00 00 00 00 00 00 00
       0.0 0.0 0.0 0.0
000090 00 00 00 00 00 00 00 00 00 00 00 00 00 00 00 00
       0.0 0.0 0.0 0.0
0000a0 00 00 00 00 00 00 00 00 00 00 00 00 00 00 00 00
       0.0 0.0 0.0 0.0
0000b0 00 00 00 00 00 00 00 00 00 00 00 00 00 00 00 00
       0.0 0.0 0.0 0.0
0000c0 00 00 00 00 00 00 00 00 00 00 00 00 00 00 00 00
       0.0 0.0 0.0 0.0
0000d0 00 00 00 00 00 00 00 00 00 00 00 00 00 00 00 00
       0.0 0.0 0.0 0.0
0000e0 00 00 00 00 00 00 00 00 00 00 00 00 00 00 00 00
       0.0 0.0 0.0 0.0
0000f0 00 00 00 00 00 00 00 00 00 00 00 00 00 00 00 00
       0.0 0.0 0.0 0.0

base.mlp.fc2.0.0.weight f4 [64, 64]
000000 b8 c9 7b 3d 77 79 c1 bd a4 7f 62 3d ca c2 1e 3d
       0.06147167 -0.09446996 0.05529751 0.038759984
000010 8e 56 84 3e c1 b1 d8 3c 46 2f 5c 3d 33 b5 4f be
       0.25847286 0.026451947 0.05375602 -0.20283966
000020 6e 19 b5 bd 9f 7c 7c 3e 77 85 66 3b 28 7c 58 3e
       -0.08842741 0.24656914 0.0035174766 0.21141112
000030 5b e3 87 be 57 c4 c5 bd 1a b2 b4 bd dc 4c f4 bd
       -0.26540646 -0.096565895 -0.08823033 -0.11928722
000040 d0 7d 60 3e 17 78 74 bd 12 15 c8 bd de 85 4c be
       0.21922994 -0.05968484 -0.09769644 -0.19972941
000050 be 6e 45 be ef 3d 76 bd f1 e1 48 3c c9 a2 c4 be
       -0.19280526 -0.06011766 0.0122609 -0.38405445
000060 20 43 9e bc 5c ef d2 bd 3f d7 b6 3e 40 82 6a bd
       -0.019319117 -0.102995604 0.35711095 -0.057253122
000070 0a a1 0e be 2e c7 ae 3e 55 87 9b 3c b6 e8 86 3d
       -0.13928619 0.34136337 0.01898543 0.06587355
000080 4a 1a 37 3c 75 1b 79 3e 76 f0 44 3d ad 50 75 3e
       0.011175701 0.2432688 0.048080884 0.23956557
000090 df 0f 2f be d4 b9 9e be a9 c8 83 3d f7 85 b0 bd
       -0.17095898 -0.3100115 0.06434757 -0.08619302
0000a0 dc 8b ba be 05 66 16 be c5 e5 15 3d e9 15 0a be
       -0.3643483 -0.14687355 0.03659608 -0.1348492
0000b0 57 b5 9c 3e 06 a4 cc 3c 3e 2d 38 be 8d c1 32 3e
       0.306071 0.024980556 -0.17986009 0.17456646
0000c0 16 fb 85 3e f9 50 23 be b3 d5 d3 bd 65 30 a3 be
       0.26168126 -0.15948857 -0.10343494 -0.3187286
0000d0 b0 94 fd 3c 36 6b 9a 3b 4e 83 d5 3d 5e dd 5b 3d
       0.030954689 0.0047124876 0.10425435 0.05367791
0000e0 dd 02 9f be 89 4f 46 be 1f 13 09 be b2 1c 26 be
       -0.31056872 -0.19366278 -0.133862 -0.16221884
0000f0 84 db 2c be 7f 80 88 be 13 53 d0 bd 38 96 3b bd
       -0.16880614 -0.26660535 -0.10172095 -0.045797557
000100 a4 36 91 3e e6 8a 2e 3e 37 73 12 bc 27 88 6a 3d
       0.28362 0.17045173 -0.008938602 0.05725875
000110 1b c7 9a be f0 53 8f bd d2 6e c0 3c 3e f3 c0 3d
       -0.3023003 -0.06998432 0.023490343 0.09421395
000120 76 6d 14 be 46 80 8a 3e bb 39 76 bd 69 71 09 be
       -0.14494881 0.2705099 -0.06011365 -0.13422169
000130 7a fc fd 3d d4 29 ec 3d 82 e1 26 3d 7c 1a 85 3d
       0.12401672 0.115314156 0.040742405 0.06499192
000140 e9 ca cf bd 0c 69 2c be 59 99 fa 3d 18 55 8a 3e
       -0.10146124 -0.16836947 0.1223628 0.27018046
000150 ac 0d 9d 3e 1a 19 f5 3c f8 5a 46 be eb 9d 13 bf
       0.30674493 0.029919196 -0.1937064 -0.5766284
000160 a7 e8 5e be b0 59 75 bd af 70 2c be 4e e4 86 be
       -0.21768437 -0.059899986 -0.1683986 -0.26346058
000170 f1 ef a3 be d0 1a 1a 3d 7f 81 b8 3d 88 69 54 3e
       -0.32018998 0.037623227 0.090090744 0.20743382
000180 97 7c 4f 3e f7 43 9c 3e 3c b7 de bd 27 e4 d4 ba
       0.20262371 0.30520603 -0.10874793 -0.0016242311
000190 6a 28 69 3e 8c 49 35 bd 38 72 19 3e 09 45 aa 3e
       0.22769323 -0.044259593 0.14984977 0.33255795
0001a0 8f 5a 1a 3e 76 e6 af 3d f3 7f 2a bd f7 cb 42 be
       0.15073608 0.08588879 -0.041625928 -0.19023119
0001b0 e3 81 c8 3c b6 0e 26 3e b3 4b 42 3d f5 af 02 be
       0.024475997 0.1621655 0.047435474 -0.12762435
0001c0 c3 c2 5c be 86 4d 0b be 27 89 0c 3d 87 7c d3 3c
       -0.2155867 -0.13603792 0.034310486 0.025816215
0001d0 33 00 c7 bd 1a 9e 14 be 36 7b e6 bc 6c 49 88 be
       -0.09716835 -0.14513436 -0.028134923 -0.26618516
0001e0 bf b0 f7 bd 6d 6b c5 3d d0 53 22 be 99 65 b3 bd
       -0.120942585 0.096396305 -0.15852284 -0.087596126
0001f0 37 fb a2 3d b4 30 0e be 32 be 1a bc ba af 14 3e
       0.07958072 -0.13885766 -0.00944476 0.1452016
000200 b5 3c 4b 3e a2 44 14 3e 44 66 69 be 7e eb 3b be
       0.19847377 0.14479306 -0.22792917 -0.18351552
000210 8a 60 47 be 30 9c 30 3c 47 0e 98 bd 85 21 d7 3c
       -0.1947042 0.0107794255 -0.07424598 0.0262611
000220 82 16 ae bd f5 7e 33 3d 70 8b 5b 3b 50 f0 80 3e
       -0.08500387 0.043822248 0.003349986 0.25183344
000230 4e d7 12 be ed e1 94 be 13 69 98 bd a4 dc 69 be
       -0.14339945 -0.29078618 -0.07441916 -0.22838074
000240 44 51 af be 1d 57 66 3e 1e 6d db 3d 16 4a a4 be
       -0.34241688 0.22494169 0.10714172 -0.32087773
000250 db 4f 94 3d 6a 7e 7a 3e 6a 81 21 be 37 72 a8 3e
       0.07241794 0.24462286 -0.15772024 0.3289964
000260 fb 2f 49 3d e6 85 bc 3d 53 16 60 3e 22 55 8e 3d
       0.049118023 0.092052266 0.21883516 0.069498315
000270 9b 1e 3b 3e f4 b8 ce bd c8 1a ac 3d b0 0e 44 3e
       0.18273394 -0.10093871 0.084035456 0.19146228
000280 0b f7 01 3e 8b f7 1a 3e 48 ad 37 3e 8c f1 e5 bc
       0.12691896 0.15133493 0.17937195 -0.02806928
000290 9b ce 31 3d 92 14 97 3c d4 80 c7 3d 13 86 36 3c
       0.043409925 0.018442426 0.09741369 0.011140364
0002a0 e1 53 e1 bd 10 30 06 bd b6 fd 7b bd cc 65 3c be
       -0.11002327 -0.03276068 -0.061521254 -0.18398207
0002b0 d5 64 88 bd 0b a4 96 3e 8d 81 34 3e 9a c6 c2 3c
       -0.06659857 0.2942203 0.17627545 0.023776341
0002c0 c9 56 bd be 48 5d 4b be 2c d9 25 3e 59 b8 a6 be
       -0.36980274 -0.19859803 0.16196126 -0.3256252
0002d0 2a 66 9c 3e 56 a4 0b 3e 72 d9 09 be bb 6f 13 3e
       0.30546695 0.13636908 -0.13461855 0.1439809
0002e0 24 f1 0e 3e e3 07 18 3d b1 d6 80 be 79 08 3f 3e
       0.13959175 0.037116896 -0.25163797 0.18655576
0002f0 2a 91 29 3e 37 a7 60 be 22 13 1e be ff 85 c8 3d
       0.16559282 -0.21938787 -0.15436986 0.09791183
000300 77 cf 3b be 84 b0 08 be 43 52 f1 3b 7b 65 22 3d
       -0.1834086 -0.13348585 0.0073645427 0.03964756
000310 08 6f 2b 3e ca e0 c8 3e 47 5c 00 bd ba d7 82 3e
       0.16741574 0.39234 -0.031338003 0.2555521
000320 8f 24 6a 3c 63 e2 50 3e 32 73 c6 3b 0a 0b 36 bd
       0.014290943 0.2039886 0.006056213 -0.04444412
000330 27 42 dc 3d 2a 07 ee bc 83 38 97 3d 47 46 a2 be
       0.10754805 -0.02905615 0.07383826 -0.31694242
000340 7e a5 43 be 0b 49 9a 3e 07 51 c6 bd 30 fe b0 3e
       -0.19106099 0.30133852 -0.096834235 0.3456893
000350 bb 0b 55 bd 22 44 42 be 99 8d 38 be 44 7d 14 3e
       -0.05201314 -0.18971303 -0.18022765 0.1450091
000360 49 57 a4 be 92 b7 74 be ec 67 ba 3e 80 65 64 bd
       -0.32097843 -0.23898152 0.3640741 -0.05576086
000370 e4 a6 0e be 0d e3 00 be 04 7c e1 bd 55 1e c4 3d
       -0.13930851 -0.12586613 -0.11009982 0.09576098
000380 20 3f a1 be 87 b0 6c 3e 09 37 1d 3e 02 8a 81 bd
       -0.31493473 0.23114215 0.15353025 -0.06325151
000390 90 99 0d be eb 07 15 3e 38 c6 fe 3d 98 05 66 3c
       -0.1382811 0.14553802 0.12440151 0.01403942
0003a0 7d 0a 20 3e c9 88 31 be 86 53 39 3e 1b 63 0b be
       0.15629001 -0.17337336 0.18098268 -0.13612024
0003b0 05 be aa 3e 3b 2d c8 3d 2a 64 0b bc 2b 47 62 be
       0.33348098 0.09774252 -0.008507768 -0.22097461
0003c0 ae aa 19 3c 99 7d c2 3a 0e e1 68 3c d1 8c 9b 3d
       0.009379072 0.0014838456 0.0142138135 0.07595218
0003d0 af 6e 78 3d 2e aa 69 3d aa 13 50 bd f0 89 2e 3d
       0.06065243 0.05704706 -0.050800003 0.042612016
0003e0 78 db a4 3c 6e b1 3e 3e 7c 2e 8e 3c 65 03 6b be
       0.020124182 0.18622372 0.01735615 -0.22950514
0003f0 65 30 84 3e 8f fb 47 3e 22 ae 31 3e 92 41 94 be
       0.25818172 0.19529556 0.17351583 -0.28956276

base.mlp.fc2.0.0.bias f4 [64]
000000 94 59 02 3b c0 c9 a8 bb c1 eb b8 ba 00 00 00 00
       0.0019889819 -0.0051510036 -0.0014108346 0.0
000010 d0 cc cd bb c6 e5 19 3a a9 71 e3 ba 9d 19 dc bb
       -0.006280519 0.0005870726 -0.0017352599 -0.0067169205
000020 81 d1 a9 bb c1 ba 13 3c 98 4c 46 b8 f7 22 21 ba
       -0.0051824455 0.009016694 -4.7278212e-05 -0.0006146873
000030 00 00 00 00 65 f2 13 bb 1c bd 83 3b 65 95 e4 3a
       0.0 -0.0022574898 0.0040203463 0.0017439543
000040 e0 61 63 b9 02 bb c4 3a 9f b9 9e b9 e2 b6 14 3b
       -0.00021684868 0.0015009346 -0.00030274407 0.0022692014
000050 00 00 00 00 8d bd ff 3a 88 69 cf ba a1 0d 33 3a
       0.0 0.0019511447 -0.0015824297 0.0006830339
000060 45 bf 9a b9 cc a4 84 3a 00 00 00 00 72 b6 92 3a
       -0.00029515676 0.0010119914 0.0 0.0011193289
000070 bb e4 c6 ba 1f 5e 98 ba 4d e1 8c b9 00 00 00 00
       -0.0015174368 -0.001162473 -0.00026870743 0.0
000080 e5 fa 7f 3b 47 13 c9 3b 34 12 09 bb 2b 15 88 ba
       0.0039059457 0.0061363312 -0.002091539 -0.0010382285
000090 cb 0a c1 b6 b1 eb a2 ba 83 e0 92 bb 00 00 00 00
       -5.7531047e-06 -0.0012429861 -0.0044823303 0.0
0000a0 00 00 00 00 00 00 00 00 00 00 00 00 66 a7 0a 3a
       0.0 0.0 0.0 0.00052892265
0000b0 00 00 00 00 18 7e ae bb e0 7a b7 b9 ee ee 2f bb
       0.0 -0.00532509 -0.0003499603 -0.0026845294
0000c0 00 00 00 00 05 f9 d6 b9 1f ca c0 3a 70 ab c6 b9
       0.0 -0.00041002795 0.0014708674 -0.00037893234
0000d0 4f e3 74 ba 00 00 00 00 14 a8 07 ba 43 88 86 3a
       -0.0009341733 0.0 -0.0005174887 0.0010263998
0000e0 1d 94 6c 3a b4 82 9d bb 1f 64 93 3a 50 73 20 bb
       0.0009024756 -0.004806841 0.0011245048 -0.0024482794
0000f0 e2 6a 84 3b 38 40 75 3a 73 77 86 b9 00 00 00 00
       0.0040410617 0.00093555776 -0.00025647468 0.0

base.mlp.fc2.0.2.weight f4 [64]
000000 3e 3f 80 3f 2d ed 7e 3f ec 1b 80 3f b2 bb 7f 3f
       1.00193 0.9958065 1.0008521 0.99895775
000010 56 5d 80 3f 19 67 7f 3f 17 4d 7f 3f eb 8e 80 3f
       1.0028484 0.9976669 0.99727005 1.0043615
000020 cf 95 7f 3f 23 f3 7f 3f ea 2d 7f 3f 9c 8b 7f 3f
       0.99837965 0.9998037 0.99679434 0.998224
000030 1e 1c 80 3f 6c 52 80 3f e1 9e 81 3f 8b 29 80 3f
       1.0008581 1.0025153 1.0126611 1.0012678
000040 e6 91 7f 3f 87 18 80 3f 83 0c 80 3f f7 2b 80 3f
       0.99832 1.0007485 1.0003818 1.0013417
000050 13 c3 7f 3f a0 d1 7f 3f 47 0f 80 3f 84 62 80 3f
       0.99907035 0.9992924 1.0004662 1.0030065
000060 74 7b 7f 3f 9f 2e 80 3f 86 b1 7f 3f b7 17 80 3f
       0.9979775 1.0014228 0.99880254 1.0007237
000070 e4 cc 7f 3f d8 87 7f 3f c5 73 7f 3f f3 f0 7f 3f
       0.99922013 0.99816656 0.99786025 0.99977034
000080 d6 53 81 3f 55 0a 7f 3f e6 cf 7f 3f 05 49 80 3f
       1.010371 0.9962514 0.999266 1.0022284
000090 ca 9c 7f 3f 6b 93 7f 3f eb ea 7f 3f 7d ff 7f 3f
       0.99848616 0.99834317 0.9996783 0.9999922
0000a0 d4 b1 80 3f 6a cc 7f 3f e6 07 80 3f eb 16 80 3f
       1.0054269 0.99921286 1.000241 1.0006994
0000b0 81 96 7e 3f 5c ff 7f 3f 35 0f 80 3f 0d 13 80 3f
       0.994484 0.9999902 1.0004641 1.0005814
0000c0 2e 63 80 3f 14 82 7e 3f 43 15 80 3f a5 7c 7d 3f
       1.0030267 0.99417233 1.0006489 0.9901832
0000d0 c7 af 7d 3f c4 0f 80 3f 7f 09 7e 3f 9a 30 81 3f
       0.9909634 1.0004811 0.9923324 1.0092957
0000e0 53 1f 80 3f 12 e4 7f 3f ec 1d 80 3f 4c 00 80 3f
       1.0009559 0.9995738 1.0009131 1.0000091
0000f0 82 04 80 3f 9a d4 7f 3f 13 59 7d 3f 2c ec 7f 3f
       1.0001376 0.9993378 0.9896404 0.99969745

base.mlp.fc2.0.2.bias f4 [64]
000000 4c 12 f3 3a 91 85 7c b9 9c 57 81 ba f1 8e 8c 3a
       0.0018544882 -0.0002408235 -0.0009868029 0.0010723752
000010 d3 46 42 bb a7 8b a6 3a fa ff ec b5 dd a0 81 bb
       -0.0029644265 0.0012706415 -1.7657869e-06 -0.003955944
000020 db 37 90 3a df bc ae 39 3f 6e 89 39 67 73 73 b9
       0.0011002974 0.00033328586 0.00026212816 -0.00023217277
000030 c5 0d 63 ba df a8 1e bb 40 e4 62 3c ac d6 d6 3a
       -0.00086614146 -0.0024209542 0.013848364 0.0016390882
000040 60 96 97 36 50 7c dd 3a 86 18 24 3a eb 1f 01 3b
       4.5176566e-06 0.001689801 0.0006259758 0.0019702862
000050 c3 2d 77 3a 23 4f 43 3b a1 9d 86 ba 0e 6f 18 3b
       0.0009429121 0.0029801808 -0.0010270366 0.0023259553
000060 f4 67 bd 38 a9 fd 1f 3b 1b 13 9e 3a 8d 6a 8f 3a
       9.031585e-05 0.0024412668 0.0012060137 0.0010941789
000070 2c 02 5d ba 2b 5a 0f 3a c1 37 0a 3a 87 4a 76 39
       -0.00084308046 0.0005468453 0.000527259 0.00023488152
000080 0a fc 2a 3c 04 87 80 3b 96 92 7d 39 87 5d 31 bb
       0.010436067 0.003922345 0.00024182568 -0.0027063803
000090 ca 8f 22 39 c0 70 0e ba 0e 3b 86 b9 09 9c f0 36
       0.0001550309 -0.0005433671 -0.0002560247 7.1707223e-06
0000a0 74 39 ba bb ad f3 51 3a 3a 02 85 b9 40 2f 39 3a
       -0.0056831185 0.0008009028 -0.00025369396 0.0007064231
0000b0 08 bb b7 3b 64 a0 bc b9 2b 1e 42 b9 fb 43 1a ba
       0.0056070127 -0.00035977655 -0.0001851252 -0.00058847637
0000c0 fd 74 4f bb 40 9b 7c b9 05 80 37 ba 8e 33 40 3a
       -0.0031655424 -0.00024090428 -0.00069999724 0.0007331901
0000d0 df 92 43 39 64 bd fe b9 a1 8c c4 b9 90 40 33 3c
       0.00018651363 -0.00048587762 -0.0003748881 0.010940686
0000e0 45 a2 ca 3a 92 5f ce 39 ef 95 9d 3a e6 16 8e b9
       0.0015459737 0.00039362587 0.0012022833 -0.0002710141
0000f0 a9 77 1c b9 01 59 2e 3a f5 de 14 b9 ee f1 b0 39
       -0.00014921896 0.0006650836 -0.00014197438 0.00033749588
