MAPPO/results/MyEnv/MyEnv/rmappo/check/run19/models/actor_agent2.pt (torch, 322326 bytes, 22 tensors)

base.feature_norm.weight f4 [651]
00000000: 1713 803f 2222 803f ad1f 803f 4595 7f3f
00000010: fe89 7f3f 90c5 7f3f 7f02 803f e4b7 7f3f
00000020: 6308 803f 507e 7f3f eee6 7f3f bf2c 803f
00000030: 6ffe 7f3f 0217 803f 4d0a 803f baf3 7f3f
00000040: 111a 803f 2f17 803f c22d 803f e7a5 7f3f
00000050: e706 803f 0a01 803f 5c15 803f bf17 803f
00000060: 30ba 7f3f d088 7f3f 9da3 7f3f d514 803f
00000070: ef12 803f d81a 803f 2e0b 803f 7007 803f
00000080: 3fd6 7f3f bc0e 803f b11d 803f da4a 803f
00000090: e8da 7f3f 6516 803f f210 803f edf9 7f3f
000000a0: 5c2b 803f 6237 803f fdb8 7f3f 59d9 7f3f
000000b0: 9014 803f c42a 803f 470e 803f b9e8 7f3f
000000c0: f136 803f 59f0 7f3f 1ac1 7f3f b1d0 7f3f
000000d0: 7216 803f fed3 7f3f 7f31 803f 0918 803f
000000e0: 7b09 803f 8c31 803f f704 803f 49bd 7f3f
000000f0: edd6 7f3f 7900 803f 3222 803f c8ab 7f3f
00000100: 5056 7f3f d18d 7f3f da9c 7f3f bc0d 803f
00000110: 15e1 7f3f 110d 803f b623 803f 94c8 7f3f
00000120: 6113 803f 5fcf 7f3f 423e 803f a4b4 7f3f
00000130: e6ae 7f3f f61e 803f f820 803f b02d 803f
00000140: 1a04 803f fe9e 7f3f 537b 7f3f c2e0 7f3f
00000150: c515 803f 1b18 803f 32f0 7f3f 03cf 7f3f
00000160: 4e3d 803f 1d2c 803f 5b2e 803f 28e7 7f3f
00000170: d97d 7f3f 4618 803f 060f 803f baf2 7f3f
00000180: 7cc3 7f3f 2dff 7f3f 9b0e 803f f5c1 7f3f
00000190: 2a40 803f cc49 803f 92a9 7f3f 0823 803f
000001a0: 5b23 803f d6ee 7f3f 3f77 7f3f 80be 7f3f
000001b0: 1352 803f c6f1 7f3f 1c13 803f a0f8 7f3f
000001c0: 9316 803f 7eb9 7f3f 1669 7f3f d619 803f
000001d0: 5a0b 803f b4b5 7f3f e137 803f 7011 803f
000001e0: efbc 7f3f 17e9 7f3f f808 803f a8a9 7f3f
000001f0: b4ba 7f3f 7031 803f 3f03 803f e830 803f
00000200: 4e83 7f3f 99b3 7f3f 479e 7f3f 281a 803f
00000210: fd15 803f f01e 803f 1978 7f3f 03fe 7f3f
00000220: 48ee 7f3f 5504 803f c01b 803f 5e0c 803f
00000230: bf00 803f fbc0 7f3f 1e46 803f f1a6 7f3f
00000240: 94ab 7f3f 6b23 803f e51d 803f 96f1 7f3f
00000250: 5205 803f 4f34 803f 4fbe 7f3f dbe3 7f3f
00000260: 080d 803f 18ed 7f3f a92b 803f a095 7f3f
00000270: 4481 7f3f a4cd 7f3f 5509 803f 0687 7f3f
00000280: 13a8 7f3f 12d2 7f3f d52f 803f 240e 803f
00000290: ea0e 803f 0a00 803f 39e2 7f3f 460b 803f
000002a0: b10a 803f b917 803f bd9c 7f3f 0119 803f
000002b0: bfe5 7f3f 0000 803f 4acd 7f3f 6bf4 7f3f
000002c0: 45e8 7f3f b714 803f ad1d 803f 88ec 7f3f
000002d0: 51e9 7f3f 6f11 803f 7d24 803f 5cbe 7f3f
000002e0: 731b 803f 5a9d 7f3f 9a4a 803f cad9 7f3f
000002f0: 52dc 7f3f 212e 803f 14fc 7f3f 41be 7f3f
00000300: 36bb 7f3f f0e4 7f3f 5ba5 7f3f 582b 803f
00000310: 1909 803f 0f50 803f 9601 803f 76f2 7f3f
00000320: 50d6 7f3f f505 803f b700 803f 498a 7f3f
00000330: f7d2 7f3f c92d 803f 0815 803f 8415 803f
00000340: a621 803f 3324 803f 6831 803f 8206 803f
00000350: da01 803f e112 803f 9798 7f3f 32d6 7f3f
00000360: eb05 803f 4664 7f3f 3713 803f 570b 803f
00000370: da90 7f3f 68b3 7f3f 9a2b 803f 61c5 7f3f
00000380: 26fb 7f3f d0ed 7f3f e4f1 7f3f 4413 803f
00000390: a1ce 7f3f f22e 803f 87ae 7f3f d824 803f
000003a0: d423 803f 3000 803f 2d18 803f c2ed 7f3f
000003b0: 6803 803f d023 803f e00a 803f 8dca 7f3f
000003c0: 6d1f 803f 6e80 7f3f 8abd 7f3f cbeb 7f3f
000003d0: fca5 7f3f 8479 7f3f 9ce1 7f3f 7f12 803f
000003e0: 950c 803f ea15 803f 50cd 7f3f 790a 803f
000003f0: aed9 7f3f d00e 803f c025 803f dfb2 7f3f
1.0005826 1.0010417 1.0009667 0.9983714 0.99819934 0.9991083 1.0000762 0.9988997
1.000256 0.9980211 0.99961746 1.0013655 0.9999761 1.0007021 1.0003144 0.9998127
1.0007955 1.0007075 1.0013964 0.9986252 1.0002106 1.0000317 1.0006518 1.0007247
0.99893475 0.99818134 0.9985903 1.0006357 1.0005778 1.0008192 1.0003412 1.000227
0.9993629 1.0004497 1.0009061 1.0022843 0.999434 1.0006834 1.0005171 0.9999073
1.0013232 1.0016901 0.99891645 0.9994102 1.0006275 1.0013051 1.0004357 0.9996448
1.0016767 0.99976116 0.99904025 0.9992781 1.000685 0.9993285 1.0015105 1.0007335
1.0002893 1.001512 1.0001515 0.998982 0.99937326 1.0000144 1.0010436 0.9987149
0.9974108 0.9982577 0.9984871 1.0004191 0.9995282 1.0003988 1.0010898 0.9991543
1.0005914 0.999258 1.0019 0.9988501 0.9987625 1.0009449 1.0010061 1.0013943
1.0001252 0.9985198 0.9979755 0.9995233 1.0006644 1.0007356 0.99975884 0.9992525
1.0018709 1.0013462 1.0014147 0.9996209 0.99801403 1.0007408 1.0004585 0.99979746
0.9990766 0.9999874 1.0004457 0.9990533 1.0019581 1.0022521 0.9986812 1.0010691
1.001079 0.9997381 0.9979133 0.99900055 1.0025047 0.9997829 1.0005832 0.99988747
1.0006889 0.99892414 0.99769723 1.0007885 1.0003464 0.9988663 1.0017053 1.0005322
0.99897665 0.9996504 1.0002737 0.9986825 0.9989426 1.0015087 1.0000991 1.0014925
0.9980973 0.9988342 0.9985089 1.0007982 1.000671 1.0009441 0.9979263 0.99996966
0.99972963 1.0001322 1.0008469 1.0003774 1.0000228 0.9990384 1.0021398 0.9986411
0.9987118 1.0010809 1.0009123 0.99978006 1.0001624 1.0015963 0.9989976 0.99957055
1.0003977 0.9997115 1.0013324 0.99837685 0.9980662 0.9992316 1.0002848 0.99815404
0.99865836 0.99929917 1.0014597 1.0004315 1.0004551 1.0000012 0.99954563 1.000344
1.0003263 1.000724 0.9984854 1.000763 0.9995994 1.0 0.9992262 0.9998233
0.9996379 1.0006322 1.0009056 0.99970293 0.9996539 1.000532 1.0011135 0.9989984
1.0008377 0.99849474 1.0022767 0.99941695 0.9994556 1.0014077 0.99994016 0.9989968
0.99895036 0.99958706 0.9986169 1.0013227 1.0002776 1.0024432 1.0000484 0.9997934
0.9993639 1.0001818 1.0000218 0.9982038 0.9993128 1.0013973 1.0006418 1.0006566
1.0010269 1.0011047 1.0015078 1.0001986 1.0000565 1.0005761 0.9984221 0.9993621
1.0001806 0.9976238 1.0005864 1.0003461 0.998304 0.9988313 1.0013306 0.9991055
0.999926 0.9997225 0.9997847 1.0005879 0.99924666 1.0014327 0.9987568 1.0011244
1.0010934 1.0000057 1.0007378 0.99972165 1.000104 1.0010929 1.0003319 0.9991844
1.000959 0.99805343 0.9989859 0.99969167 0.9986265 0.99794793 0.9995363 1.0005645
1.000384 1.0006688 0.99922657 1.0003196 0.9994153 1.000452 1.001152 0.9988231

base.feature_norm.bias f4 [651]
00000000: 5101 99ba ea69 66bb cca4 15bb 697a 903b
00000010: f90c 843b 0d45 3b3b c4f4 be38 bcd8 5d3b
00000020: 20e2 92b9 2842 753b c5c7 263a 3411 73bb
00000030: 82f6 4e39 32a1 06bb e820 84ba 7e4b 4f3a
00000040: 44b5 0bbb c646 c2ba f565 51bb ceb9 853b
00000050: 9291 b9b9 9104 60b9 827b 09bb 42e3 21bb
00000060: b551 203b 6774 a73b 5b2b 553b f802 e0ba
00000070: 7cdb ebba 5204 16bb 94b3 68ba 4dbd 30ba
00000080: 0bfc 0a3b 08c4 9cba d56f 2abb 2c8a 83bb
00000090: 0836 cc3a 9a2b 2fbb 4e8c d2ba 2cb4 103a
000000a0: 52e4 7fbb 5b5c 76bb fcd4 493b 3b4f 193b
000000b0: 4a58 c5ba 1e81 5fbb 68cf aeba 043e 0e3a
000000c0: c0d1 80bb 39fd 783a 4d36 0c3b 08a7 cb3a
000000d0: de6b 0aba c629 043b 89df 6dbb 63b1 d6ba
000000e0: 1c09 3dba 4cff 38bb 72ba d4b9 aef5 293b
000000f0: d804 d23a 30cc 6237 1f7f 39bb 7c42 503b
00000100: 4ff8 a33b c0fa 7b3b 5548 8c3b e423 91ba
00000110: 9d17 af3a 1128 d7ba ba3b 38bb f654 313b
00000120: 7726 d7ba 3af1 173b be96 88bb 892b 423b
00000130: 98c4 503b 0068 30bb 5b22 45bb db4c 80bb
00000140: 5090 ebb8 0a83 3e3b ac46 5a3b 060c ae3a
00000150: ad4c c1ba b40d ebba fd44 513a 07b4 0b3b
00000160: 64ac 8dbb 30a2 65bb 5ca6 4cbb c42e ce3a
00000170: 2e52 a53b 7993 0bbb 3004 a6ba a35d 4a3a
00000180: 9c79 303b ba48 253a 6fd5 61ba 30e5 563b
00000190: 2d70 9cbb 38bb 97bb 1670 493b e292 49bb
000001a0: c4af 71bb 0a6c 233a d34f 843b ac89 433b
000001b0: 56ba acbb a370 d339 dadb 0abb f8c6 3839
000001c0: ac5c 38bb abb0 1c3b eff1 a73b e68f b4ba
000001d0: f7b0 94b9 3d0f 613b 7d20 4ebb e78d faba
000001e0: fbde 073b dd6c 753a 910b 45ba 5a98 8d3b
000001f0: de59 623b 91e9 92bb 34b8 9a38 a7dc 73bb
00000200: dcf9 883b 719f 683b 42d5 883b f8ac 2abb
00000210: dee7 d3ba cc13 1ebb 0607 913b 81f5 1738
00000220: 64e9 2e3a e97e a6b9 17bd 07bb a4eb a1ba
00000230: 5973 3f39 7a09 173b d4aa a0bb ce97 5b3b
00000240: 0b8c 503b ac8c 21bb b98d 61bb ec79 de39
00000250: 0a24 bfb9 32aa 82bb 03fa 0f3b 8bf1 a83a
00000260: a74b 9eba de37 733a 7630 4ebb a234 653b
00000270: 9dcd 923b e203 103b 0d11 5dba 7f4a 803b
00000280: 7e35 4c3b 4771 0b3b 3b3a 73bb d6bf b0ba
00000290: fc8b 7bba e76d 8cb9 2c79 ca3a b6bc 81ba
000002a0: 8e6b 53ba 21e1 aeba 2fd8 593b aebb 33bb
000002b0: 9bed 873a 209c f7b6 2c9c d23a 47ad 1c3a
000002c0: 50fc b93a 592f 1cbb f205 21bb c4a3 b039
000002d0: 79f9 653a 1e88 e0ba dbd9 f5ba 72d7 d23a
000002e0: 771d 45bb 0582 5f3b 79e1 90bb 2090 0b3b
000002f0: 79cc a33a 2513 3dbb abe4 55ba 1f2a 9d3b
00000300: 0bf1 553b 2c10 293b cc65 6c3b 0d12 86bb
00000310: 0c1f 1aba 6344 afbb c09c cdb8 bf79 6f3a
00000320: 56e3 c839 0ee6 b5b9 0434 54b9 fd78 843b
00000330: 1cd0 f53a 53ab 6fbb 77f2 5bbb eac5 85ba
00000340: de2d 65bb 9474 43bb c9aa 98bb a0c1 5cba
00000350: 5e05 ae39 39f0 a4ba 72aa 0abb b6e9 e63a
00000360: b7fe 10ba 2a1c 893b 246c 77bb 3a41 37ba
00000370: 7c5c 5d3b ccaf 0a3b 5238 6ebb f057 d33a
00000380: 685e cab9 4f7c f939 ef55 8139 1a52 91ba
00000390: d617 af3a 70ef 6dbb 2cdd 5c3a 7beb 92bb
000003a0: 89dc 59bb be06 ecb9 8f12 00bb b92e 0e3a
000003b0: d69e 0fba d676 57bb 5278 73ba d0a6 203b
000003c0: 64c4 3bbb 613c 8e3b 1445 5b3b 34b8 4c3a
000003d0: 7d0f 893b 238a a53b 2e08 d03a 995f a1ba
000003e0: b0b7 a0ba 242d 1abb e5af 103b adcb 7aba
000003f0: 34fa bf3a 4be8 e1ba 3acb 21bb 2cb2 423b
-0.0011673366 -0.0035158345 -0.0022833822 0.0044091237 0.004029867 0.0028575093 9.105497e-05 0.0033851108
-0.00028015766 0.0037423465 0.00063621654 -0.0037089111 0.00019737522 -0.0020542857 -0.0010080608 0.00079076726
-0.002131776 -0.0014822118 -0.003195164 0.0040809875 -0.00035394408 -0.00021364006 -0.0020978157 -0.0024702107
0.0024462764 0.005110312 0.0032527063 -0.0017090729 -0.0017994489 -0.0022890759 -0.0008876857 -0.0006742075
0.0021207358 -0.0011960277 -0.0026006598 -0.004014274 0.0015580067 -0.002672887 -0.0016063543 0.0005520012
-0.0039046002 -0.003759167 0.0030797115 0.0023393172 -0.0015056219 -0.003410406 -0.0013336958 0.0005426111
-0.003931254 0.00094981823 0.002139467 0.001553745 -0.00052803557 0.00201665 -0.0036296567 -0.001637977
-0.0007211135 -0.002822834 -0.00040574704 0.002593379 0.0016023172 1.3518191e-05 -0.002830453 0.003177791
0.005003966 0.003844902 0.0042810836 -0.0011073318 0.0013358478 -0.0016415139 -0.0028111772 0.0027058697
-0.0016414662 0.0023184554 -0.0041683605 0.0029628 0.003185546 -0.0026917458 -0.0030080292 -0.003915412
-0.000112325535 0.0029069805 0.0033306284 0.001327873 -0.0014747583 -0.0017933161 0.00079829973 0.0021317021
-0.004323529 -0.0035039298 -0.0031227088 0.001573049 0.005045197 -0.0021297617 -0.0012666043 0.00077196414
0.0026927954 0.00063050876 -0.0008614873 0.0032790415 -0.0047741146 -0.0046304725 0.0030736974 -0.0030757715
-0.0036878446 0.00062340556 0.004037836 0.0029836698 -0.0052712364 0.00040328977 -0.002118817 0.00017621729
-0.0028131409 0.0023909013 0.0051252763 -0.0013775795 -0.0002836061 0.0034341358 -0.003145247 -0.0019115777
0.0020732272 0.000936223 -0.0007516677 0.0043211402 0.0034538428 -0.0044834097 7.377603e-05 -0.0037210376
0.004180176 0.0035495425 0.004175813 -0.0026043039 -0.0016167124 -0.0024120687 0.004425886 3.622985e-05
0.0006672351 -0.00031756543 -0.0020712072 -0.0012353552 0.0001825815 0.002304642 -0.004903177 0.003350723
0.0031821753 -0.0024650497 -0.0034416749 0.00042433979 -0.0003645721 -0.003987574 0.0021969087 0.0012889368
-0.001207699 0.0009278039 -0.003146199 0.0034973999 0.0044800774 0.002197497 -0.0008433022 0.0039151306
0.0031159814 0.0021277235 -0.0037113565 -0.0013484906 -0.00095957494 -0.00026784764 0.0015447489 -0.0009898159
-0.0008065038 -0.001334224 0.0033240428 -0.0027425098 0.0010370495 -7.379349e-06 0.0016068271 0.0005976748
0.0014189575 -0.0023831932 -0.0024570194 0.0003369135 0.0008772831 -0.001713041 -0.0018756943 0.0016085936
-0.0030077377 0.0034104597 -0.0044214097 0.0021295622 0.0012496851 -0.0028850522 -0.00081593794 0.004796281
0.0032644894 0.0025796993 0.0036071418 -0.0040915073 -0.000587926 -0.0053487285 -9.804359e-05 0.0009135268
0.0003831635 -0.00034694414 -0.00020237273 0.0040427432 0.0018754038 -0.0036570623 -0.0033561268 -0.0010206078
-0.0034969966 -0.0029824125 -0.004659031 -0.00084211864 0.00033191865 -0.0012583799 -0.0021158722 0.0017617259
-0.00055311195 0.0041842656 -0.0037753666 -0.00069906155 0.0033777049 0.0021161912 -0.0036349487 0.001612423
-0.0003859878 0.00047585598 0.00024668823 -0.001108709 0.0013358544 -0.0036306046 0.0008425291 -0.004483638
-0.0033243021 -0.0004501845 -0.0019542312 0.00054238323 -0.00054786855 -0.0032877228 -0.00092876435 0.002451349
-0.0028650993 0.004340694 0.0033457922 0.0007809431 0.0041827546 0.0050518676 0.0015871578 -0.0012311816
-0.0012261774 -0.002352544 0.0022077498 -0.0009567093 0.001464671 -0.0017235366 -0.0024687783 0.002970825

base.mlp.fc1.0.weight f4 [64, 651]
00000000: a742 ac3d 4845 42bc 3035 143d 960a 8e3d
00000010: 0566 34bd 38b6 8a3d 4283 50bd 459d 553d
00000020: 3592 82bd d378 ae3c 0204 613d f3d7 b1bc
00000030: a20a 7dbd f71d 4b3d 3678 9abc 986f c43c
00000040: 3890 f6bc 6800 af3b 6142 103d 5364 a23d
00000050: bb4d 533d 94fe 58bd 7c1d 133d 9c4d 933b
00000060: d31e 9f3d 004f 5a3c 8768 57bd 630c abbd
00000070: 820e a1bd 25c6 403c 082c 00bd a611 b3bc
00000080: 579d a03c 6a89 ce3d 9eab ccbd f877 9dbd
00000090: 5376 b03c b3aa c43b afeb 4bbd cdc8 0f3d
000000a0: 66c1 e63c 23d0 b6bd b844 71bb 959a 373d
000000b0: c582 b43c cced 78bd 0b5f 483c b45b 82bc
000000c0: 5f2d c0bc d5bb 523d b5e0 32bd f86e 0dbd
000000d0: 6282 b03d 4079 0abc 7d6c 81bc 076e 93bd
000000e0: bba3 133d 9b94 b6bd d20d 123e 7944 6fbd
000000f0: adec 2fbc eb1c 35bd 9931 c2bd 8fe4 cb3a
00000100: 2ef6 b63c aed3 a439 b51f 00bd 17c3 b43b
00000110: 9b4c 31bd 43fa 6ebc 3906 cabd 00bf d53c
00000120: 4c41 c0bc 0cd0 e7bc d518 a43c 3dfb aabd
00000130: 5d80 ab3d f7d6 2cbd 5958 3b3d 6dba 3fbd
00000140: f44c 173d ea49 853d ce1a 06bd 6dc7 9bbd
00000150: dc9f 303d ac54 a3bc e145 b6bc 2c9e a7bc
00000160: c8c6 ecbb 8567 5b3d 95f1 7c3d 3a04 2dbd
00000170: 0ebb ff3c a89d 623d 4382 bc3c 8399 4c3c
00000180: 76ff 3bbc 0469 d93c 18a9 3d3d b14a 88bd
00000190: 8735 513c 747e 253c 0273 723d fc69 31bd
000001a0: 9fbd b7bc c6b8 893d bc39 ae3b f923 c03d
000001b0: 58c3 8e3c a6b3 20bd 8669 1dbb 1cad 863c
000001c0: 96f2 9a3d 04c2 f13c e440 0a3d a7d8 963c
000001d0: 215e 4fbd e135 c7bc 1946 17bd cfee e9bc
000001e0: 6bc3 963d 43f1 d13c 696a c3bc c644 c1bb
000001f0: 2a37 4f3d 864d 163c d820 f03c 8135 6e3d
00000200: 1334 1fbd 28e5 6ebd 3d8c bbbd e809 c4bc
00000210: 4d32 18bd 3269 2a3e 5589 fbbc b99a a73d
00000220: 6124 9ebd d3d8 423d b2c2 083d 1848 2bbd
00000230: 16dc 31bb 05b8 c63c 8eda d33b a9a4 a8bc
00000240: 13b1 6f3d d7de 013e 1479 48bd 889b 023d
00000250: 356b bd3c 32c3 33bd 0ff5 843a 6b4b b83b
00000260: d6aa adbd 699d 763d b91c 23bd 1105 d5bc
00000270: 6c93 ecbc 3f97 8cbc 65f7 cc3d 62bd 9bbd
00000280: 1dfa 5fbd 84f8 b33d 64e7 ae3c 19d1 663d
00000290: 0cd8 91bc 8e19 3ebd 8219 ecbc 4c07 103c
000002a0: b473 40bc abec 34bc 182e 3d3d e64a 8cbd
000002b0: 266e fdba 9105 bfbd d230 e7bd 2596 11be
000002c0: 76a5 1fbd 1103 673d 8ce1 093d 8aaa b1bc
000002d0: f960 68bd 3191 10bd d4f8 683d c98a c1bc
000002e0: f617 9ebd 30c5 b6bc e2bc 2a3d c564 c2bc
000002f0: 7e4d 7fbd c861 d73d 2361 2f3d 86fa 563c
00000300: f7ea 903b 889e 96bd cad3 f13b 6f0b 8a3d
00000310: 7cf3 cabc df10 fcbc 2ad2 793c 959d 8f3d
00000320: 261f d4bc 8012 b3bd 901e 4bb9 c24d 1a3c
00000330: 2fb8 dc3d dd7d 663c d012 dabd 12a5 b53d
00000340: e8f4 b0bc c429 153d 9e1f 56bd d804 bf3d
00000350: 2806 fc3c 531d 5b3d a6ae 5bbc bcf7 a13c
00000360: 4091 ba3c dd6b 063d 7130 703d 4f05 48bd
00000370: 0ceb e7bc 3e7a e83d fb55 48bd aa64 d9bd
00000380: bdf0 9e3a 8482 f9bc 5869 a93c 9c40 233b
00000390: 1f61 92bc 1543 713d 4055 433b dc42 64bd
000003a0: 72ad 9f3d 604c 503c dffc 73bd 0858 a2bd
000003b0: 4f8e 2bbb 2f75 9b3c 264a d93c 31ee 253d
000003c0: 2022 893d 2d24 6cbc b359 7f3d 3932 57bd
000003d0: 7906 803b c859 493d 9edd 393d a98d 5c3d
000003e0: 0edc 043d 8497 cf3d aa8c 83bd eb54 923d
000003f0: 905e dbbd f8a2 853c 64e8 6fbd 58c2 cfbd
0.084111504 -0.011857338 0.036183536 0.06935613 -0.044042606 0.06773037 -0.050906427 0.052151937
-0.06375543 0.021297848 0.054935463 -0.021709418 -0.06177772 0.049589124 -0.01885615 0.023978993
-0.030098066 0.0053406246 0.035219554 0.079292916 0.0515878 -0.05297716 0.03591679 0.0044953357
0.07769551 0.013324499 -0.05258992 -0.08351972 -0.07864095 0.011765991 -0.03129199 -0.021859001
0.019606275 0.100848034 -0.09993671 -0.07688898 0.021540796 0.0060017942 -0.049785312 0.035103608
0.028168391 -0.08926418 -0.0036814641 0.044825155 0.022035012 -0.060773656 0.012229691 -0.015912868
-0.023459135 0.05144866 -0.04367133 -0.034529656 0.086186185 -0.00845176 -0.015798802 -0.071987204
0.036044817 -0.08915063 0.14263085 -0.05841491 -0.01073758 -0.04421703 -0.09482116 0.0015555787
0.022334184 0.0003143823 -0.03128024 0.0055164206 -0.043285947 -0.014586034 -0.09864468 0.026092052
-0.023468636 -0.028297447 0.020031372 -0.08348701 0.08374093 -0.042197194 0.04573855 -0.04680865
0.036938623 0.065082386 -0.032740407 -0.07606397 0.043121204 -0.019937836 -0.022250118 -0.020461164
-0.007225845 0.05356552 0.061753828 -0.04224036 0.031217124 0.055326134 0.023011332 0.012487772
-0.011474481 0.026539333 0.04630384 -0.06654871 0.01276911 0.01010095 0.05919171 -0.043313965
-0.022429286 0.06724696 0.005316941 0.09381861 0.017427132 -0.039233826 -0.0024019196 0.016439967
0.07565801 0.02951146 0.03375329 0.018413855 -0.050626878 -0.024317684 -0.036932085 -0.028556256
0.07361492 0.025627738 -0.023854451 -0.005898091 0.050589718 0.009173756 0.029312536 0.058156494
-0.03886802 -0.05832401 -0.09157608 -0.023930505 -0.037157346 0.16641691 -0.030705133 0.08183808
-0.077217825 0.04757006 0.0333888 -0.0418168 -0.0027139238 0.02425767 0.0064652627 -0.020586329
0.05851848 0.12682663 -0.048943594 0.031886607 0.02312241 -0.043887325 0.0010143834 0.005624225
-0.0847985 0.06020871 -0.039822314 -0.026003392 -0.02887889 -0.017161964 0.10008124 -0.07604481
-0.054681886 0.08787635 0.02135057 0.056351755 -0.017803214 -0.04641109 -0.028820757 0.008790802
-0.011746336 -0.011042754 0.046186537 -0.06850223 -0.0019335195 -0.093272336 -0.112886086 -0.14217432
-0.038976155 0.05639941 0.033662364 -0.021687765 -0.056733105 -0.035294715 0.056877926 -0.023625748
-0.07719414 -0.022310823 0.04168404 -0.023729691 -0.06232976 0.10516697 0.042817246 0.013121253
0.0044225412 -0.07354456 0.0073799836 0.06740462 -0.024774306 -0.030769764 0.015247861 0.07012478
-0.025893759 -0.08743763 -0.00019370974 0.009417953 0.10777318 0.014068094 -0.106481194 0.08869375
-0.021601155 0.036416784 -0.052276246 0.09327096 0.030764654 0.053494763 -0.013408339 0.01977145
0.022774339 0.03281771 0.058639947 -0.048833188 -0.028310321 0.11351441 -0.048910122 -0.10614903
0.0012126189 -0.030457743 0.020680115 0.0024910336 -0.017868577 0.058901865 0.0029805452 -0.055727825
0.07796754 0.012713522 -0.05956733 -0.07926947 -0.0026177352 0.018976776 0.026524615 0.04051036
0.06695962 -0.014412922 0.062341403 -0.05253813 0.0039070216 0.049157888 0.045377366 0.053846035
0.032436423 0.10136321 -0.06423314 0.07145103 -0.10711396 0.016313061 -0.058571234 -0.1014449

base.mlp.fc1.0.bias f4 [64]
00000000: 409b a0b6 0000 0000 0000 0000 3796 b239
00000010: 0000 0000 2eae aaba 0000 0000 0000 0000
00000020: 6ea4 133a b873 25ba 0000 0000 0000 0000
00000030: 0000 0000 03ea b539 8807 b23b 0000 0000
00000040: 3e3d 46bb 55de 333b 968d db3a d573 703b
00000050: 5523 a23b 989d 19bb 0729 94ba 0000 0000
00000060: 0000 0000 ea21 263a 820c 49bb aa60 a8bb
00000070: 0000 0000 2afc 603a 0000 0000 600c 44bb
00000080: 7469 1ebb 18a1 65ba 0000 0000 0000 0000
00000090: 9216 253a 0000 0000 0000 0000 5eaf 9fbb
000000a0: 0000 0000 55da 85bb 7405 c93a 0000 0000
000000b0: 0e36 373b 4825 49bb 3f38 403b 0000 0000
000000c0: 0000 0000 0000 0000 e37e 87bb 0000 0000
000000d0: 0000 0000 025d a23a 0000 0000 12db 1fbb
000000e0: 0000 0000 0000 0000 0000 0000 9a48 a93b
000000f0: 2ae6 e5ba ade2 903b 5835 dab9 dabc 0a3b
-4.786445e-06 0.0 0.0 0.00034062724 0.0 -0.001302188 0.0 0.0
0.0005632107 -0.0006311494 0.0 0.0 0.0 0.00034697363 0.0054330267 0.0
-0.0030248906 0.0027445753 0.001675057 0.0036690135 0.0049480596 -0.002343988 -0.0011303731 0.0
0.0 0.0006337451 -0.0030677621 -0.0051384764 0.0 0.0008582497 0.0 -0.0029914603
-0.0024171742 -0.00087596616 0.0 0.0 0.0006297614 0.0 0.0 -0.0048732003
0.0 -0.004084865 0.0015336708 0.0 0.0027955803 -0.0030692387 0.00293304 0.0
0.0 0.0 -0.004134999 0.0 0.0 0.0012387338 0.0 -0.002439205
0.0 0.0 0.0 0.0051661255 -0.0017539908 0.004421553 -0.00041619944 0.0021169693

base.mlp.fc1.2.weight f4 [64]
00000000: bdfd 7f3f e11a 7f3f b040 803f 875c 7f3f
00000010: 3759 7f3f 85c5 7f3f e752 803f 36a4 7e3f
00000020: 1ec4 7f3f 9c43 803f 777f 803f 5120 803f
00000030: 099a 7f3f 285e 803f c728 803f efcc 7f3f
00000040: 64b7 803f 5637 803f 9353 7f3f 567f 803f
00000050: bab2 803f 59a9 7f3f 1308 803f f67b 803f
00000060: 7f9f 7f3f 581c 803f f78b 803f 420f 803f
00000070: b0d5 7e3f 6b01 803f c044 803f ef57 803f
00000080: 7085 7f3f 389e 7e3f 6d18 803f 79d9 7e3f
00000090: 9c1a 803f 007a 7f3f a4b2 7e3f 95c2 7e3f
000000a0: 2410 7f3f b902 7f3f c72c 803f 1108 803f
000000b0: b306 803f ae5f 7f3f 1a79 803f 779f 7f3f
000000c0: 2d45 7f3f dcb8 7f3f fcb7 803f 6f4b 803f
000000d0: 032d 7f3f 3837 803f 28c1 7f3f a97f 7f3f
000000e0: 6c48 7f3f 0a7a 803f c746 7f3f d9b3 803f
000000f0: 97ff 7f3f a26d 803f eb6c 803f 6dbd 803f
0.9999655 0.9965039 1.0019741 0.9975056 0.99745506 0.99910766 1.00253 0.99469316
0.99908626 1.0020633 1.0038899 1.0009862 0.99844414 1.0028734 1.0012444 0.9992208
1.0055966 1.0016887 0.997369 1.003886 1.0054543 0.9986778 1.0002464 1.003783
0.99852747 1.000865 1.0042714 1.0004656 0.9954481 1.0000433 1.0020981 1.0026835
0.99812984 0.9946017 1.0007454 0.99550587 1.000812 0.9979553 0.99491334 0.9951566
0.99634004 0.9961353 1.0013665 1.0002462 1.0002044 0.9975537 1.0036957 0.998527
0.9971493 0.9989145 1.0056148 1.002302 0.9967806 1.0016851 0.9990411 0.9980417
0.9971988 1.0037243 0.9971737 1.0054885 0.99999374 1.0033457 1.0033239 1.0057808

base.mlp.fc1.2.bias f4 [64]
00000000: 509f 1139 3c46 793b 0ccd 04bb c8cd 243b
00000010: 61d3 2b3b 7054 8aba d8e8 35bb b281 b83b
00000020: 8432 743a fd57 10bb 4b36 88bb 1aa2 80ba
00000030: bc64 e23a 98dd 493a 876b b33b 6900 5a3a
00000040: cdcf c4bb 2f10 06ba b652 043b 448c 813b
00000050: 62b7 a13b a4f2 d5ba aba6 4fba 10cf 7fbb
00000060: b011 c83a c41c 753a 5b3d 91bb fc32 a3bb
00000070: 1300 a13b 05ed a73a e2e3 0dbb ac82 2abb
00000080: 8f4f 06bb 6644 b93b 9156 3eba 6e34 9e3b
00000090: 52bf 4f3a ede2 0e3b ddf4 b33b 4bb8 96bb
000000a0: 75f9 773b 7e04 82bb ea38 dc3a 49e9 b6b9
000000b0: 3ba3 5a3b e10f 193b 523d 493b 2a87 cc3a
000000c0: e2d1 413b e2ac 953a 0d04 c9bb 194f 1abb
000000d0: e25b 5f3b e424 87b9 00f9 823a ab81 08bb
000000e0: 80de 3d3b a4cc 86bb 2142 443b 49d2 a13b
000000f0: 13cb c4ba 90f0 973b 626f 64bb 2ef5 b7bb
0.00013887626 0.0038036248 -0.002026382 0.002514707 0.002621852 -0.0010553729 -0.0027757194 0.0056306953
0.0009315389 -0.0022025101 -0.004156863 -0.0009813935 0.0017272453 0.00077005615 0.0054754647 0.0008316101
-0.006006217 -0.0005114106 0.00201909 0.0039534885 0.004935191 -0.0016322923 -0.0007921259 -0.003903333
0.001526406 0.0009350295 -0.004432363 -0.004980443 0.004913339 0.0012811726 -0.0021650721 -0.0026017828
-0.0020494198 0.0056539057 -0.0007260824 0.0048280274 0.0007924932 0.0021802739 0.0054918365 -0.004599606
0.0037837897 -0.0039678207 0.001680163 -0.00034887556 0.0033361453 0.0023355412 0.0030706716 0.0015604247
0.0029574563 0.0011419321 -0.006134516 -0.002354568 0.0034081866 -0.00025776692 0.0009992421 -0.0020829241
0.0028971732 -0.0041137505 0.0029946642 0.004938398 -0.0015014134 0.0046368316 -0.0034856428 -0.0056139445

base.mlp.fc_h.0.weight f4 [64, 64]
00000000: a6f0 893d 621d 283e 5f3a 66be c922 a5bd
00000010: a29d 67bd a9b4 a63e 4621 fabd 195a edbc
00000020: 8244 67be ef92 a63e 0c3f a1be d418 c43d
00000030: ebee 0fbe 3a5a 22bd ad55 cb3c ec7d 4d3e
00000040: 2569 a33e cf79 2d3e f0b2 bebd 7d51 963d
00000050: 77ed b0bc 24d2 c4bd 38b7 b8bd 74a1 823e
00000060: a3e3 853d e93d cf3b a55f 89be d3b7 82bd
00000070: 4ad2 e53d 3f42 f3bd 7a63 b7be b011 c03e
00000080: 8960 a9bd 2da7 24be 6678 4ebd dfba 41be
00000090: b3c6 cebd 0301 53be dd13 99be af83 3f3e
000000a0: e61f 383c 1949 7a3c 3b94 f0bd 3d74 24be
000000b0: e676 0dbe 6790 1fbe 81a0 2f3e 0664 ca3d
000000c0: 6b58 9c3d 7ad0 10be 4c60 953d 8706 6e3e
000000d0: f644 66bd 741e 90bb 10d6 793e abab 3dbe
000000e0: 8a08 92be c04b 27be 58f8 96be f23f 0e3e
000000f0: ef00 e33d 0372 b03d c5d9 1b3e df79 5abe
00000100: c717 40bd 9859 9dbc f0cc 87be beb8 82be
00000110: e594 04be 9a35 1a3e 044e 973d 82be 69be
00000120: 253b 12bd ffc8 c8bc da3c 903c c164 52be
00000130: 78db 86bd c87b 253c 47da 243e c86d 6d3e
00000140: d449 a5be 44d7 3b3e 2485 72bc 7be8 d1bd
00000150: 8b37 233e c796 a6bd 1ef2 503e 33a3 bf3c
00000160: c948 d1bd 2483 a9bc 4090 a03e ab54 c43e
00000170: ca39 44be e1d7 383d fd1d d2bd d925 f93d
00000180: 2e4a 1b3d 9f52 e13d 5a58 7c3c c2db a63d
00000190: bf67 9dbe 7cb2 48bd e22e 42bd 83b4 173e
000001a0: 0957 e33d c280 423e 469f bcbd 5594 973e
000001b0: 63c0 ab3e 9a7a 773c a97a f0bc 35a4 803d
000001c0: c1b4 353c 5676 37be 7e0e 10be ede7 12be
000001d0: f2d4 07bd 45e0 f13e 5b04 56be e625 afbe
000001e0: 6bd9 dfbd c333 6dbe f36a 993d 1985 063e
000001f0: 002c deb9 759e 283e dc96 bd3d a02a a83e
00000200: 66cf b83d f29b 0cbe 3103 443e ec4b 63bd
00000210: 5bfd 0abe e54f 03bc e3c2 36be 11c2 873d
00000220: e03c 873e cb73 49bd 3921 f9bd 6d68 8abe
00000230: f46e 03be dad5 023e 3d74 d33d bfd0 32bd
00000240: f443 85bd 497e 993e 031e 71be d0eb 2cbd
00000250: 9380 ab3d d063 d1be 8575 e93d 322b b53d
00000260: 32d0 58bd 54d6 03bd 82d9 16bd a978 c43c
00000270: 10fc e73d 534b 20bd 1e2b cbbd c438 97be
00000280: 36b6 6abe 03a8 13be 7bfb 803e 0cb7 353e
00000290: 885e f63d 1f18 9ebc bdf7 2e3e 0356 1a3e
000002a0: 35a4 07bd 96a2 83bd 0fd0 f23e cb70 ccbd
000002b0: ea7c e3bd c4ca 41bd cd6c e0bc 0461 2fbd
000002c0: 03f5 86bd 0836 e8be 73c7 c93e db48 173c
000002d0: bed6 eebd 3790 153e 37f1 bb3c fe99 b43e
000002e0: d157 a9bd 34a5 113e 03fe 31be 50d3 83bd
000002f0: c649 653d 3789 403e d8fb 803e 44da 2c3e
00000300: cff7 233e 0080 8d3e d84f d73d 8ddd 2dbe
00000310: fd32 9a3e 002c 9abe 0780 5a3d 878b 243e
00000320: 47aa 123d 2161 923e 6731 dc3d 6757 0a3e
00000330: 4d7e 393e 69c6 3abe 479a 19bd 9a2a 9c3d
00000340: d7cd a73d 8c12 2bbe 3a90 5f3e c6c1 0fbd
00000350: 04a1 c8bc a575 a8bd 6afd 8c3e 91c0 62be
00000360: 2d4f 93be f70e d8bc 8268 13be f49b 953e
00000370: cefa 053e 9858 213e f309 263e 9d96 163e
00000380: e242 dcbd 00fb 053e 0c25 51be 4d7b 083d
00000390: ee74 093d 836e 343a e7dc ffbc 1b20 3f3e
000003a0: 66c8 4b3e d412 eabd 5164 8a3e af7f 0abe
000003b0: 94d0 213e edd7 8ebe 9b19 21bd 6c91 8b3d
000003c0: 61ed 403c 0311 63bd cd09 0cbe 1a73 8abd
000003d0: ded5 9c3d 14a9 963e 8e4f e43d 3406 943e
000003e0: f3b5 6abe 3e34 5e3d d5c5 7fbd 7e1b 443e
000003f0: 0d3c ff3e e987 a4bc aaa0 58be 600b c7bc
0.06735353 0.16417459 -0.22483204 -0.08063275 -0.056546815 0.32559708 -0.12213378 -0.028973626
-0.22584727 0.32533976 -0.31493413 0.09575048 -0.14055984 -0.039636828 0.024821127 0.20067567
0.31916156 0.16940998 -0.09311473 0.073397614 -0.021597607 -0.09610394 -0.09019321 0.25513804
0.06537559 0.006324519 -0.26830783 -0.06382718 0.1122175 -0.1187787 -0.35818082 0.37513494
-0.08270366 -0.16079397 -0.05040779 -0.18918942 -0.100964926 -0.20605855 -0.29897967 0.18702577
0.011238074 0.015276217 -0.11747023 -0.16059966 -0.13814887 -0.15582429 0.17151071 0.09882359
0.07634052 -0.14142027 0.07293758 0.23244677 -0.05621811 -0.0043981615 0.24398065 -0.18522517
-0.2852214 -0.1633749 -0.29486346 0.1389158 0.110841624 0.08615496 0.15219791 -0.21335553
-0.046897676 -0.01920776 -0.26523542 -0.25531572 -0.12947424 0.1505951 0.07387927 -0.22826579
-0.035700936 -0.024509905 0.017607141 -0.20546247 -0.06584829 0.0101003125 0.16098891 0.2318641
-0.3228289 0.18343836 -0.014802251 -0.1024942 0.15939157 -0.08134227 0.2040486 0.02339325
-0.10218961 -0.020692416 0.31360054 0.38345847 -0.1916267 0.045127753 -0.10259626 0.12165422
0.03791254 0.11002087 0.015401924 0.08147384 -0.30743214 -0.04899834 -0.047407992 0.14814954
0.11100585 0.1899443 -0.092100665 0.29605356 0.33545217 0.015104914 -0.029355364 0.0628132
0.011090458 -0.17916235 -0.14068028 -0.14346285 -0.033162065 0.47241417 -0.20900099 -0.34208602
-0.10930141 -0.23164277 0.07491102 0.1313671 -0.00042375922 0.16466697 0.0925729 0.3284502
0.09023933 -0.13731363 0.19141842 -0.055492327 -0.1357321 -0.008014654 -0.17847781 0.06628812
0.2641363 -0.049182694 -0.1216454 -0.27032796 -0.12835294 0.1277689 0.10324905 -0.043656107
-0.06507102 0.2997916 -0.23546605 -0.042217076 0.08374133 -0.40896463 0.11399368 0.088461295
-0.052932926 -0.03218682 -0.036828525 0.023983316 0.11327374 -0.039134335 -0.09920333 -0.29535496
-0.2292107 -0.1441956 0.25191864 0.17745608 0.12029749 -0.019298611 0.17086692 0.15071873
-0.033115584 -0.06427495 0.4742436 -0.09982451 -0.1110781 -0.047312513 -0.02739563 -0.04281713
-0.06589701 -0.45353723 0.3940998 0.009233679 -0.116620526 0.14605795 0.022942169 0.35273737
-0.08268703 0.14223176 -0.17382054 -0.06436789 0.05597856 0.18802343 0.25192142 0.16880137
0.160125 0.2763672 0.10513276 -0.16979046 0.30117026 -0.30111694 0.053344753 0.1606885
0.03580692 0.28589728 0.1075161 0.13509904 0.18114586 -0.1823975 -0.037500646 0.07625313
0.08193558 -0.16706294 0.21832362 -0.035096906 -0.02449084 -0.08225564 0.2753709 -0.22143771
-0.28771344 -0.026374323 -0.14395335 0.29220545 0.13083956 0.15756452 0.16214733 0.14705892
-0.107549444 0.1308403 -0.20424289 0.033320714 0.03355878 0.00068829226 -0.031233264 0.18664591
0.19900665 -0.114293724 0.2702966 -0.1352527 0.15802222 -0.27899113 -0.03933106 0.068148464
0.011775346 -0.055436146 -0.13675614 -0.06760235 0.076579794 0.2942587 0.11147986 0.28910983
-0.2292097 0.05424904 -0.062444527 0.19151112 0.49850503 -0.020084338 -0.21155038 -0.024297416

base.mlp.fc_h.0.bias f4 [64]
00000000: 0000 0000 0000 0000 0000 0000 0000 0000
00000010: 0000 0000 0000 0000 0000 0000 0000 0000
00000020: 0000 0000 0000 0000 0000 0000 0000 0000
00000030: 0000 0000 0000 0000 0000 0000 0000 0000
00000040: 0000 0000 0000 0000 0000 0000 0000 0000
00000050: 0000 0000 0000 0000 0000 0000 0000 0000
00000060: 0000 0000 0000 0000 0000 0000 0000 0000
00000070: 0000 0000 0000 0000 0000 0000 0000 0000
00000080: 0000 0000 0000 0000 0000 0000 0000 0000
00000090: 0000 0000 0000 0000 0000 0000 0000 0000
000000a0: 0000 0000 0000 0000 0000 0000 0000 0000
000000b0: 0000 0000 0000 0000 0000 0000 0000 0000
000000c0: 0000 0000 0000 0000 0000 0000 0000 0000
000000d0: 0000 0000 0000 0000 0000 0000 0000 0000
000000e0: 0000 0000 0000 0000 0000 0000 0000 0000
000000f0: 0000 0000 0000 0000 0000 0000 0000 0000
0.0 0.0 0.0 0.0 0.0 0.0 0.0 0.0
0.0 0.0 0.0 0.0 0.0 0.0 0.0 0.0
0.0 0.0 0.0 0.0 0.0 0.0 0.0 0.0
0.0 0.0 0.0 0.0 0.0 0.0 0.0 0.0
0.0 0.0 0.0 0.0 0.0 0.0 0.0 0.0
0.0 0.0 0.0 0.0 0.0 0.0 0.0 0.0
0.0 0.0 0.0 0.0 0.0 0.0 0.0 0.0
0.0 0.0 0.0 0.0 0.0 0.0 0.0 0.0

base.mlp.fc_h.2.weight f4 [64]
00000000: 0000 803f 0000 803f 0000 803f 0000 803f
00000010: 0000 803f 0000 803f 0000 803f 0000 803f
00000020: 0000 803f 0000 803f 0000 803f 0000 803f
00000030: 0000 803f 0000 803f 0000 803f 0000 803f
00000040: 0000 803f 0000 803f 0000 803f 0000 803f
00000050: 0000 803f 0000 803f 0000 803f 0000 803f
00000060: 0000 803f 0000 803f 0000 803f 0000 803f
00000070: 0000 803f 0000 803f 0000 803f 0000 803f
00000080: 0000 803f 0000 803f 0000 803f 0000 803f
00000090: 0000 803f 0000 803f 0000 803f 0000 803f
000000a0: 0000 803f 0000 803f 0000 803f 0000 803f
000000b0: 0000 803f 0000 803f 0000 803f 0000 803f
000000c0: 0000 803f 0000 803f 0000 803f 0000 803f
000000d0: 0000 803f 0000 803f 0000 803f 0000 803f
000000e0: 0000 803f 0000 803f 0000 803f 0000 803f
000000f0: 0000 803f 0000 803f 0000 803f 0000 803f
1.0 1.0 1.0 1.0 1.0 1.0 1.0 1.0
1.0 1.0 1.0 1.0 1.0 1.0 1.0 1.0
1.0 1.0 1.0 1.0 1.0 1.0 1.0 1.0
1.0 1.0 1.0 1.0 1.0 1.0 1.0 1.0
1.0 1.0 1.0 1.0 1.0 1.0 1.0 1.0
1.0 1.0 1.0 1.0 1.0 1.0 1.0 1.0
1.0 1.0 1.0 1.0 1.0 1.0 1.0 1.0
1.0 1.0 1.0 1.0 1.0 1.0 1.0 1.0

base.mlp.fc_h.2.bias f4 [64]
00000000: 0000 0000 0000 0000 0000 0000 0000 0000
00000010: 0000 0000 0000 0000 0000 0000 0000 0000
00000020: 0000 0000 0000 0000 0000 0000 0000 0000
00000030: 0000 0000 0000 0000 0000 0000 0000 0000
00000040: 0000 0000 0000 0000 0000 0000 0000 0000
00000050: 0000 0000 0000 0000 0000 0000 0000 0000
00000060: 0000 0000 0000 0000 0000 0000 0000 0000
00000070: 0000 0000 0000 0000 0000 0000 0000 0000
00000080: 0000 0000 0000 0000 0000 0000 0000 0000
00000090: 0000 0000 0000 0000 0000 0000 0000 0000
000000a0: 0000 0000 0000 0000 0000 0000 0000 0000
000000b0: 0000 0000 0000 0000 0000 0000 0000 0000
000000c0: 0000 0000 0000 0000 0000 0000 0000 0000
000000d0: 0000 0000 0000 0000 0000 0000 0000 0000
000000e0: 0000 0000 0000 0000 0000 0000 0000 0000
000000f0: 0000 0000 0000 0000 0000 0000 0000 0000
0.0 0.0 0.0 0.0 0.0 0.0 0.0 0.0
0.0 0.0 0.0 0.0 0.0 0.0 0.0 0.0
0.0 0.0 0.0 0.0 0.0 0.0 0.0 0.0
0.0 0.0 0.0 0.0 0.0 0.0 0.0 0.0
0.0 0.0 0.0 0.0 0.0 0.0 0.0 0.0
0.0 0.0 0.0 0.0 0.0 0.0 0.0 0.0
0.0 0.0 0.0 0.0 0.0 0.0 0.0 0.0
0.0 0.0 0.0 0.0 0.0 0.0 0.0 0.0

base.mlp.fc2.0.0.weight f4 [64, 64]
00000000: 189e 843d 09f9 2a3e 095e 63be 9ab1 a2bd
00000010: dc2e 5cbd cea2 a53e a268 f4bd 217d d6bc
00000020: 69bc 65be 2dfa a73e c6d0 9fbe b1d1 c93d
00000030: 2b13 0dbe 2a0c 11bd 7eb5 bf3c 275a 503e
00000040: facf a43e 3c3f 313e 889d b7bd aa13 943d
00000050: 68f6 ccbc 690a cabd 812f c0bd cf0f 843e
00000060: e39b 8b3d 68c6 0a3b 05e7 87be 018f 8abd
00000070: b889 eb3d b364 f4bd 53f5 b5be 7d3e c13e
00000080: c39d aebd a7df 21be fc06 43bd 04df 3ebe
00000090: 56e5 d4bd 5625 50be 03a6 97be b984 3c3e
000000a0: 49d9 653c 798c 393c 7e7c f3bd 2798 21be
000000b0: 2375 09be aaba 1cbe 87bc 2a3e 761b d03d
000000c0: 8d10 a23d 5ff4 0dbe d519 963d d3e2 703e
000000d0: 2dd5 5abd 58bc 2ebb 49b2 7c3e 4928 41be
000000e0: 879a 90be 466f 24be 618a 95be 260a 0c3e
000000f0: 9d33 e53d 5041 ae3d d5f0 1e3e eee7 59be
00000100: b633 50bd c2f0 81bc ea15 86be 2ee7 80be
00000110: c427 01be 6104 163e 892a 9e3d 7251 66be
00000120: e173 09bd 5f4b aebc fcaf ab3c 5df6 4ebe
00000130: f300 80bd 4838 d73b 997e 233e f8db 703e
00000140: f195 a3be a910 3f3e 08f4 40bc 79a6 dabd
00000150: 743e 1f3e 3f79 aebd 0f77 4d3e 6119 db3c
00000160: b66c cabd c055 c5bc 9e54 a23e 01e3 c43e
00000170: 83cc 40be 2879 333d 1142 cbbd 06da f13d
00000180: 8b2c 093d 3c4c e83d fb9c 993c cab6 ad3d
00000190: 4993 9fbe 1efe 3abd fa79 34bd f828 133e
000001a0: 0531 ea3d 7d05 3f3e df83 c5bd 454b 993e
000001b0: 20e7 ac3e 08c3 973c 8104 05bd 977e 873d
000001c0: be93 6c3c 6808 34be 7f90 0bbe 017a 0fbe
000001d0: 723c f4bc fe94 f33e 2e96 52be 9eee b0be
000001e0: 9bfd d8bd 68c5 69be d145 a03d 4249 023e
000001f0: 1003 8839 a550 273e 8da0 c33d 553e aa3e
00000200: b121 b63d a80a 0bbe 5c91 453e 854a 5abd
00000210: 696c 09be e5a0 1dbc 0233 35be c6e4 8a3d
00000220: 71ad 883e 709f 43bd 0303 f6bd a1a0 89be
00000230: e7dd 01be cfc8 ff3d b2af d33d f18f 2cbd
00000240: b772 81bd 2e76 9a3e 760b 70be cc43 33bd
00000250: 4ef0 a83d 1192 d2be 5b90 e73d 4c47 b83d
00000260: fb8b 52bd bc8c 09bd fcb0 11bd 3514 a03c
00000270: 5b1e eb3d 6c1f 22bd a00e c8bd d989 99be
00000280: 7eb2 6cbe 9e04 12be afc2 813e c548 373e
00000290: 0454 f23d ad8e 91bc 3e89 303e 4314 183e
000002a0: 3d5e 01bd d89b 87bd 37aa f13e 1f4f c9bd
000002b0: 56de dcbd 9927 3bbd bf12 eebc d31d 29bd
000002c0: 52d2 83bd 776d e7be c5ed ca3e 102a 303c
000002d0: aab3 ebbd 7da6 163e 5675 c83c 858a b33e
000002e0: d434 a6bd 0034 133e 4b6e 30be 2ef0 86bd
000002f0: 5f81 613d 9223 413e b9ad 813e 0afd 2e3e
00000300: f41e 263e 9c80 8c3e a158 d33d 9800 30be
00000310: c133 993e 8713 99be 648b 523d af8c 223e
00000320: e54c 0b3d 1e57 913e aa38 d83d 8f5a 083e
00000330: c77f 373e b5ce 38be c270 22bd 9d2f 983d
00000340: 9bd8 a33d 07ad 2cbe 7ba4 5d3e f10f 09bd
00000350: 6306 b7bc 01b0 a3bd d33d 8e3e eebb 64be
00000360: 574e 94be ea66 c6bc 5bdf 14be bcc4 973e
00000370: 2cfc 033e 7145 1e3e 3d0e 243e 5628 1a3e
00000380: 36a4 d7bd f8ff 033e da20 53be ea7e 003d
00000390: c0e8 113d 6a1f a5ba 35ea 07bd 4083 413e
000003a0: 67c9 493e ae08 e5bd 2d7e 8b3e dd7d 0cbe
000003b0: 751a 203e fdd1 8fbe 6b95 19bd c794 873d
000003c0: a703 213c aa0a 6bbd 86e2 0cbe 416a 8ebd
000003d0: 1ad8 983d 88ab 953e fd53 e03d b850 953e
000003e0: b9b4 6cbe bf43 563d 72dd 83bd 63fb 453e
000003f0: 211c ff3e b7c9 b9bc 1fb4 5abe 1a8a dabc
0.064754665 0.16696562 -0.2220384 -0.07944031 -0.053755626 0.32350773 -0.119340196 -0.026182713
-0.22435154 0.32808056 -0.3121397 0.098544486 -0.13776843 -0.03541199 0.023401972 0.2034689
0.32189924 0.17309278 -0.089655936 0.07230313 -0.02501984 -0.09865267 -0.09384061 0.2579331
0.068168424 0.0021175388 -0.2654344 -0.06765557 0.11500877 -0.11933269 -0.3553873 0.37742987
-0.085261844 -0.15807973 -0.047614083 -0.18639761 -0.10395305 -0.20326743 -0.29618844 0.18410005
0.014028856 0.011324995 -0.118889794 -0.15780698 -0.1342359 -0.15305582 0.1667348 0.10161488
0.07913313 -0.13862751 0.07329146 0.23524027 -0.053425957 -0.0026662555 0.24677385 -0.18863024
-0.28242895 -0.16058072 -0.29207137 0.13675746 0.11191485 0.08508551 0.15521558 -0.2127988
-0.050830565 -0.015861873 -0.26188594 -0.25176376 -0.12612826 0.14650108 0.07722957 -0.22492006
-0.033557776 -0.021276174 0.02095794 -0.20211168 -0.06250181 0.0065679885 0.15966262 0.23521411
-0.31950334 0.18658699 -0.011776932 -0.106762834 0.15551168 -0.085192196 0.20064948 0.0267455
-0.09884016 -0.02408874 0.31705183 0.3845444 -0.18828015 0.043816715 -0.099247105 0.11809163
0.033489745 0.113426656 0.018751612 0.0848213 -0.31167057 -0.0456525 -0.04406164 0.14371097
0.11435131 0.18654437 -0.09644293 0.2994024 0.33770084 0.018525615 -0.032475 0.06615942
0.014439521 -0.17581332 -0.1362934 -0.14011385 -0.029813979 0.4757461 -0.20565102 -0.3455705
-0.105952464 -0.22829211 0.078258164 0.12723258 0.00025942223 0.16339357 0.09552107 0.3325068
0.08893145 -0.13578284 0.19293731 -0.053293724 -0.13420261 -0.00962088 -0.17695239 0.06781916
0.26694825 -0.047759473 -0.12012293 -0.26880363 -0.12682305 0.12489473 0.103362456 -0.04212946
-0.06320708 0.3016829 -0.23441872 -0.043765828 0.082489595 -0.41127065 0.113068305 0.08997974
-0.051403027 -0.03358148 -0.035569176 0.019540885 0.11480399 -0.039580747 -0.097684145 -0.29987982
-0.23114964 -0.14259574 0.25343844 0.17898853 0.11832431 -0.017768228 0.17239854 0.14851479
-0.031584013 -0.06621522 0.47200176 -0.09829544 -0.10784595 -0.04569206 -0.029061673 -0.04128821
-0.064366 -0.45200703 0.3963453 0.010752216 -0.115088776 0.14711948 0.024470013 0.3506662
-0.08115545 0.14375305 -0.17229573 -0.065887794 0.05505502 0.18861225 0.25327852 0.17088714
0.16222745 0.2744187 0.10319639 -0.17187726 0.29922298 -0.2989771 0.051402465 0.15873979
0.03400888 0.28386778 0.10557683 0.13315795 0.17919837 -0.18047602 -0.039658315 0.074309565
0.080002986 -0.1686288 0.21644776 -0.03346247 -0.022341913 -0.079925545 0.27781543 -0.22337314
-0.2896602 -0.024218995 -0.14538328 0.29642284 0.12889165 0.15456177 0.16021056 0.1505445
-0.105293676 0.12890613 -0.20618 0.031371035 0.03562236 -0.0012597863 -0.03318234 0.18897724
0.19705735 -0.11183296 0.27244702 -0.13719888 0.15635093 -0.28089896 -0.03749601 0.06620174
0.009827531 -0.057383217 -0.13758287 -0.0695386 0.07463093 0.2923243 0.109535195 0.29163146
-0.23115815 0.0523107 -0.06438722 0.19334178 0.49826148 -0.022679193 -0.21357773 -0.02667718

base.mlp.fc2.0.0.bias f4 [64]
00000000: e01c 43bb 861c 6fbb 2e6a ccba bd6f 053b
00000010: 8c38 183a 0597 8bbb bbe4 bcba 0000 0000
00000020: a535 9dbb 0000 0000 0000 0000 842b 8abb
00000030: 1e25 f93a 8cca 583b 0000 0000 244f 9abb
00000040: d4d1 8b3b bf76 483b a16d 0abb a801 8fbb
00000050: d67a 293b 6e3e ee3a 0860 623b 0000 0000
00000060: 0000 0000 0000 0000 0000 0000 0000 0000
00000070: 982a c5ba 480b 293b bcd1 28bb 0000 0000
00000080: 25aa 2f3b d069 c1ba a301 d3ba 0000 0000
00000090: 79d8 1cbb 0825 c33a 0000 0000 0000 0000
000000a0: ce00 953a 962c 553a 4085 9438 bd38 d4ba
000000b0: 0000 0000 0000 0000 7415 c5ba 5f61 7c3b
000000c0: 0000 0000 c7bb 71bb 0000 0000 0000 0000
000000d0: de81 8aba 0000 0000 fe29 e53a 7fb5 b7ba
000000e0: 00b0 0135 0000 0000 b04d 093b cc9a d039
000000f0: f7c6 48ba e791 d23b fed5 8cbb 42a5 7e3b
-0.002977185 -0.0036485507 -0.0015595609 0.002036079 0.0005806766 -0.0042599463 -0.0014411429 0.0
-0.0047976547 0.0 0.0 -0.0042166132 0.0019008254 0.0033079712 0.0 -0.0047091413
0.004266957 0.0030588356 -0.0021122473 -0.004364211 0.002586057 0.0018176564 0.0034542102 0.0
0.0 0.0 0.0 0.0 -0.0015042601 0.0025794078 -0.0025759777 0.0
0.0026804295 -0.0014756266 -0.001609851 0.0 -0.0023932739 0.0014888356 0.0 0.0
0.0011368038 0.0008131949 7.08201e-05 -0.0016191226 0.0 0.0 -0.0015036301 0.0038510186
0.0 -0.0036885606 0.0 0.0 -0.0010567268 0.0 0.0017483828 -0.0014015882
4.831236e-07 0.0 0.0020950846 0.00039788184 -0.00076590426 0.0064260843 -0.004297971 0.0038855826

base.mlp.fc2.0.2.weight f4 [64]
00000000: 37ac 7f3f 697b 7f3f 42df 7f3f 3834 803f
00000010: 2f92 803f ee37 803f bb61 7f3f 0b22 803f
00000020: a975 7f3f 9a52 803f 3201 803f 3c41 803f
00000030: 4bbb 7f3f 3961 803f 8dc8 7e3f 22ed 7e3f
00000040: 5ba7 803f 2f35 803f 4847 7f3f 386d 7f3f
00000050: d759 803f 56c6 7e3f 2188 803f 8778 7f3f
00000060: 4639 803f 0557 803f f295 7f3f 0e23 803f
00000070: c82d 803f e37a 803f 9d99 803f 56ff 7f3f
00000080: 4ca7 803f eb0c 803f 251e 803f e7c4 7f3f
00000090: d99b 803f 4033 803f 3a4d 803f 94d2 7f3f
000000a0: f8aa 7f3f d677 7f3f 3c51 803f bfa5 7f3f
000000b0: 88fd 7f3f 365f 803f e46c 7f3f 675f 803f
000000c0: 6182 7f3f c535 803f 62c9 7f3f db21 7f3f
000000d0: 9f58 803f fa97 803f 4093 7f3f 939d 803f
000000e0: 3912 803f 80bb 7e3f 6b25 803f 9fdd 7f3f
000000f0: cfd9 7f3f c796 803f 7907 7f3f ca66 803f
0.99872154 0.99797684 0.9995004 1.0015936 1.0044612 1.0017068 0.997585 1.0010389
0.9978891 1.0025208 1.0000365 1.0019908 0.9989516 1.002967 0.99524766 0.99580586
1.0051073 1.001623 0.9971814 0.9977603 1.0027417 0.99521387 1.0041543 0.99793285
1.0017478 1.0026556 0.99838173 1.0010698 1.0013971 1.0037502 1.0046879 0.99998987
1.0051055 1.0003942 1.0009199 0.99909824 1.0047561 1.001564 1.0023568 0.9993069
0.9987025 0.9979223 1.0024791 0.99862283 0.99996233 1.0029056 0.9977553 1.0029114
0.9980832 1.0016409 0.9991666 0.99661034 1.0027045 1.004638 0.9983406 1.0048088
1.0005561 0.9950485 1.0011419 0.9994754 0.99941725 1.0046014 0.9962078 1.0031369

base.mlp.fc2.0.2.bias f4 [64]
00000000: 9653 1fbb dd0a 55bb 2894 99ba 5229 f13a
00000010: 70e0 a2bb 01fe 06bb 81ad 273b 890b 95ba
00000020: 8c56 77bb 03dd 38bb 4ec1 1538 3248 65bb
00000030: 8b2a 993a e00e a73a f7b8 a33b ef78 86bb
00000040: 55a9 993b 1423 c2ba 9198 433b edec 87bb
00000050: 1e74 323b a32b b23b 179a 743b 6b79 173b
00000060: a8ec f5ba 82e5 34bb 7f4d e33a d039 9cba
00000070: 95e3 d5ba 18dc 2e3b c828 b0bb 4013 e836
00000080: ef87 543b e1df e9b9 93f0 96ba 209a 813a
00000090: e234 acbb 0631 003b 517e 2bbb 4297 6c3a
000000a0: 5a76 453b 418a 723a c545 41bb df8e 9aba
000000b0: bc1f ba38 7259 51bb 7c78 233b 53bf 713b
000000c0: 0652 083b c0c3 8abb eced 4b3a bbc8 673b
000000d0: 1a9b 47bb 6508 a8bb 5f81 fa3a d52f adbb
000000e0: a01e db39 60b3 aa3b 951b 84ba 61a1 e239
000000f0: ae1b 113a b052 cc3b 18b3 73bb 47ab 713b
-0.0024311296 -0.0032507696 -0.0011717128 0.0018399155 -0.0049706027 -0.0020598175 0.0025585594 -0.0011371236
-0.0037740795 -0.0028207905 3.5704397e-05 -0.0034985659 0.0011685652 0.0012745522 0.0049964148 -0.004103772
0.0046893754 -0.001481148 0.0029845575 -0.004148117 0.0027229856 0.005437331 0.003732329 0.0023113142
-0.0018762546 -0.0027602618 0.0017341821 -0.0011919085 -0.0016318435 0.002668148 -0.0053759553 6.91638e-06
0.0032429656 -0.00044608026 -0.0011515789 0.0009887852 -0.0052553276 0.001956047 -0.002616782 0.0009025225
0.0030130357 0.0009252169 -0.0029491049 -0.0011791846 8.875082e-05 -0.0031944183 0.002494364 0.003688772
0.0020800843 -0.004234761 0.00077792886 0.0035367447 -0.0030457438 -0.005127954 0.0019112042 -0.005285243
0.00041793752 0.0052093714 -0.0010079021 0.00043226316 0.00055354356 0.006235443 -0.0037185606 0.003687577

rnn.rnn.weight_ih_l0 f4 [192, 64]
00000000: 3dfa dfbd 2523 6dbd feac 013d 8961 12bd
00000010: 08f5 dcbd 1aa3 d7bd ed63 66bd f7d7 a83d
00000020: 4a66 2a3e 8958 a33a 3e41 8c3d 792e 06bd
00000030: 22cc 5a3d 336e 093d 9375 dd3d 2791 15be
00000040: 22d7 2f3d bc54 483c 10e4 623d cc7c cd3d
00000050: 4841 793d a57a 133e afd1 a83b 1cd3 ec3d
00000060: 5e62 2f3d e1bf cbbd 4c59 383c 063e 7abc
00000070: 0da0 ed3c 632a ee3d 55ea e13d 2d06 d93d
00000080: 4fa7 8fbd 5d45 13bd 8baa 97bd a844 e63c
00000090: 1493 8e3d 080f 543d dbae d6bd d568 70bd
000000a0: fc5e 563d 1550 6b3c 3a6a b23d ea27 0b3d
000000b0: 3efc a13d 9a21 19bb d6d7 7c3d 7aa3 333d
000000c0: cfa6 243c ed42 353d 7be8 5b3c 7673 c53b
000000d0: dd6e 033d bf5a 50bc e3f3 c33c 207f 03bd
000000e0: 58ac f0b9 dd17 75bd 772b b2bd 96d8 16bd
000000f0: c739 d7bc 2071 e3bc e5ea 8c3d a348 91bd
00000100: 1e6b 843d 3320 a53c 57b0 623c c7c9 d83a
00000110: 65de eabd 310b 943d 9000 78bd 044d f53d
00000120: 32ef afbd 7254 933d 4ee8 ccbd 7c07 99bd
00000130: 2562 d93c d9e8 dbbc f4ca 89bd 1ebe 0d3e
00000140: ab74 a3bc a110 0c3d 02aa 393d 8e8d 66bd
00000150: 2619 0b3d ebb8 b13d e222 80bc 708a 66bd
00000160: 3f63 34bd fffe 59bd 4421 b33d 1ba5 76bc
00000170: 8a79 8d3d 49e5 d93d 0756 803d 1948 9cbd
00000180: 7bff 76bd 614e 60bd 81c0 f93c e1c9 5bbc
00000190: 31ba 86bd f2ae af3d 19d0 053d f118 a03c
000001a0: 47d0 19bb 19a0 873d 7727 973d a67f 58bb
000001b0: 17a8 8ebb 8a6c 0dbe 43e2 d63c 987c 01be
000001c0: 6e33 293d a0d9 ec3d 5af7 bbbd 19a1 db3d
000001d0: 9d06 bbbb 8248 973d b7c9 003d 46e8 953d
000001e0: eee5 b0bd 4ea9 863d 670c 88bb caf9 223d
000001f0: d9dd 8e3c 198e 1dbe de9a 8dbd 8157 e23d
00000200: 6a6e 30bd 9844 6b3d 2d2f aabc 7d71 babc
00000210: f1ac b33d 6c1f b73d 23c3 e4bd 5c8c d7bd
00000220: 9447 883d a54c 7fbb f946 973d d65a 2ebd
00000230: b9d1 ae3b 17f1 b5bd 5aa3 45bc f177 6bbd
00000240: a48c ccbb 71fd e53d 3db9 34bc 5af1 cebd
00000250: 1524 10be 6b1d c23b a503 b53d 915d 9dbd
00000260: eced 69bc 7ade 30bd b739 83bd 50fd db3a
00000270: 1072 69bd 41fa e3bd 3043 47bc 74f5 81bd
00000280: 2d0f 0a3e 925b 5ebc 14e7 213d 9f97 14be
00000290: 08fa 1ebd 9990 073d 28f5 e1bc 51fc bdbb
000002a0: 1246 9d3d 3f0b febd 4602 25bd 476a dcbc
000002b0: 86e2 7fbd 3eda bcbd 2194 3a3d 42ca b93c
000002c0: 05d7 1cbd b42f 113e fe52 963d 0cea 7dbb
000002d0: 241a c23d 779d 89bd c0dd b73d 24b5 e9bd
000002e0: b4b2 b3bc ea6e 8cbc 2740 863d ad54 e9bd
000002f0: 24c7 c4bd b49f 0fbc c608 2abd 5850 923d
00000300: 742c c23c da7a fa3d c42f a7bc 06ad 09be
00000310: 6e3e 063c c568 073e 3cb0 d73d 4c7c a03d
00000320: f7a3 08be 462b 92bd 029c 65bd 6a70 9fbd
00000330: 468f 163d 2598 b13d d580 f33c a856 a13c
00000340: 8d5b afbd 2d46 9d3d 297f b43c fcfc 31bd
00000350: ac85 a4bd 2fe3 113d 510a b2bd 5556 a4bd
00000360: 26e1 943c 6a63 b63d e6e2 90bd b87f ef3c
00000370: cb91 1abd 7cf3 993c 10bd 353e b3c4 28bd
00000380: 14c8 98bb 4ef7 14be fb5b 9d3c a5c7 19bd
00000390: c82c 3bbd 5e30 d9bd ed1a a93d d9d7 a23c
000003a0: 4062 873d da6d 213d e3dd 35bc a537 5c3d
000003b0: dece bd3d d709 56bd 92ac 00bc 7bd4 873c
000003c0: 1b88 99bd 5913 8dbc a48a 3a3e faf1 b1ba
000003d0: 0279 9a3d 1026 303c 915a 543d 5a09 363b
000003e0: cec8 38bd 6ade 03bd 41bd 9b3d b450 6d3d
000003f0: 4063 a93d 80cc f03c 738a e4bd 969e 69bd
-0.10936401 -0.057894845 0.03165912 -0.035737548 -0.107889235 -0.10529156 -0.05624764 0.08244317
0.16640583 0.0012462299 0.068483815 -0.032759164 0.053417332 0.03355236 0.10813441 -0.14606152
0.042929776 0.0122272335 0.05539328 0.10033569 0.060853273 0.14402254 0.0051519494 0.115637034
0.04281842 -0.09948707 0.011251759 -0.015273577 0.029006982 0.116291784 0.110310234 0.10596881
-0.070143335 -0.03595482 -0.07405575 0.02810891 0.06961647 0.051772147 -0.1048257 -0.058693726
0.052336678 0.014362355 0.08711667 0.033973612 0.079094395 -0.0023365975 0.061729275 0.043857075
0.010049536 0.04425328 0.013422127 0.006025727 0.03208815 -0.012716948 0.023920005 -0.032103658
-0.00045904773 -0.05983721 -0.086996965 -0.036827646 -0.026272668 -0.027763903 0.0688074 -0.070939325
0.064657435 0.020156955 0.013835988 0.0016539627 -0.114682 0.07228697 -0.06054741 0.1197758
-0.08590545 0.07193841 -0.10005246 -0.07472131 0.026536057 -0.026844429 -0.06728163 0.13842055
-0.019953093 0.034195546 0.045328148 -0.05628734 0.03395953 0.086778484 -0.015641633 -0.056284368
-0.04403996 -0.0532217 0.08746579 -0.015054013 0.06907947 0.10639436 0.062664084 -0.07630939
-0.06030224 -0.054762248 0.0304873 -0.013414831 -0.06578482 0.0857829 0.03266916 0.019543143
-0.002347009 0.06622333 0.07380574 -0.0033035069 -0.004353534 -0.13810936 0.026230937 -0.12645185
0.041308813 0.11564946 -0.09178038 0.10724086 -0.0057075755 0.07386877 0.03144237 0.07319693
-0.086376056 0.06575261 -0.004151869 0.039789 0.01743977 -0.15386237 -0.06914304 0.11051846
-0.04307405 0.057438463 -0.020774448 -0.022759194 0.0877322 0.0894154 -0.11170032 -0.10524818
0.066542774 -0.0038955596 0.07386584 -0.042567097 0.0053350595 -0.08883875 -0.012062872 -0.057487432
-0.0062423516 0.11229981 -0.011030492 -0.10104628 -0.14076264 0.005923917 0.08838586 -0.07683862
-0.014277916 -0.04318092 -0.064074926 0.0016783867 -0.056993544 -0.111317165 -0.012162015 -0.063456446
0.13482352 -0.013571637 0.039527014 -0.14510964 -0.038812667 0.033096883 -0.02758272 -0.0057979007
0.076793805 -0.12404489 -0.04028537 -0.026906146 -0.06247189 -0.09221314 0.045551423 0.022679452
-0.038290996 0.14178354 0.07340048 -0.003874424 0.09477642 -0.06719487 0.08977842 -0.11411503
-0.021935798 -0.017142732 0.06555205 -0.11393104 -0.096082956 -0.008766104 -0.041512273 0.071442306
0.023702838 0.12230463 -0.020408519 -0.1344491 0.008193595 0.1322356 0.10531661 0.07836208
-0.13343798 -0.0713716 -0.056056984 -0.07785113 0.03675773 0.086715974 0.029724518 0.019694641
-0.08562384 0.076794006 0.022033291 -0.043454155 -0.080333084 0.03561705 -0.08693374 -0.08024279
0.018173765 0.089056805 -0.070745274 0.029235706 -0.037736695 0.01879286 0.17747903 -0.041203212
-0.004662523 -0.14547464 0.019208899 -0.03754391 -0.045697004 -0.106049284 0.08257089 0.019878315
0.066105366 0.039411403 -0.011100265 0.053764004 0.092679724 -0.052255478 -0.007853644 0.01658081
-0.07496663 -0.01722114 0.1821695 -0.0013576143 0.07542612 0.010751262 0.051844183 0.002777657
-0.045113377 -0.032194532 0.07604457 0.057938293 0.082708836 0.029394388 -0.111592196 -0.057036005
