MAPPO/results/MyEnv/MyEnv/rmappo/check/run19/models/actor_agent3.pt (torch, 322326 bytes, 22 tensors)

base.feature_norm.weight f4 [651]
000000 c0 c2 7f 3f cb 08 80 3f a6 e8 7f 3f 31 15 80 3f
       0.9990654 1.0002683 0.9996437 1.0006467
000010 95 20 80 3f 86 25 80 3f ca e1 7f 3f 82 05 80 3f
       1.0009943 1.0011451 0.999539 1.0001681
000020 59 de 7f 3f 98 1f 80 3f da 9d 7f 3f d7 f7 7f 3f
       0.9994865 1.0009642 0.9985024 0.9998755
000030 7d 27 80 3f 54 2c 80 3f ab f4 7f 3f 6d e4 7f 3f
       1.0012051 1.0013528 0.9998271 0.99957925
000040 d4 00 80 3f 66 e3 7f 3f c7 ed 7f 3f bc 12 80 3f
       1.0000253 0.9995636 0.99972194 1.0005717
000050 b9 e1 7f 3f 90 d7 7f 3f 4f ca 7f 3f e3 13 80 3f
       0.999538 0.999383 0.99918073 1.0006069
000060 c5 94 7f 3f 0e f3 7f 3f 16 9b 7f 3f 64 0b 80 3f
       0.9983638 0.9998025 0.9984602 1.0003476
000070 f7 2f 80 3f d4 0e 80 3f 0e da 7f 3f 53 c6 7f 3f
       1.0014638 1.0004525 0.999421 0.99911994
000080 41 1c 80 3f db 09 80 3f 50 29 80 3f a1 14 80 3f
       1.0008622 1.0003008 1.0012608 1.0006295
000090 56 df 7f 3f ea 9b 7f 3f bf 0d 80 3f be 2d 80 3f
       0.9995016 0.9984728 1.0004195 1.001396
0000a0 8e 3d 80 3f ac 2b 80 3f cb 19 80 3f 88 01 80 3f
       1.0018785 1.0013328 1.0007871 1.0000467
0000b0 33 2e 80 3f 2b cc 7f 3f ef 11 80 3f 62 d6 7f 3f
       1.0014099 0.9992091 1.0005473 0.999365
0000c0 ca a4 7f 3f 52 05 80 3f 96 f2 7f 3f 62 0b 80 3f
       0.99860823 1.0001624 0.9997953 1.0003474
0000d0 31 0d 80 3f 3a 0e 80 3f e4 e7 7f 3f ce e8 7f 3f
       1.0004026 1.0004342 0.9996321 0.99964607
0000e0 0f 1b 80 3f f9 b0 7f 3f f5 08 80 3f 54 37 80 3f
       1.0008258 0.99879414 1.0002733 1.0016885
0000f0 78 92 7f 3f 7e a0 7f 3f c8 22 80 3f c8 1a 80 3f
       0.9983287 0.99854267 1.0010614 1.0008173
000100 98 a3 7f 3f de e6 7f 3f ad dd 7f 3f 93 dc 7f 3f
       0.99859 0.9996165 0.99947625 0.99945945
000110 7b cc 7f 3f 09 d8 7f 3f 86 0b 80 3f a5 22 80 3f
       0.9992139 0.9993902 1.0003517 1.0010573
000120 fd 2a 80 3f 79 f0 7f 3f 83 00 80 3f 1c e2 7f 3f
       1.0013119 0.9997631 1.0000156 0.9995439
000130 5c 23 80 3f b9 0e 80 3f 83 02 80 3f a6 d9 7f 3f
       1.0010791 1.0004493 1.0000767 0.9994148
000140 31 f7 7f 3f 7d 01 80 3f f1 fb 7f 3f 3b 03 80 3f
       0.9998656 1.0000454 0.9999381 1.0000986
000150 74 09 80 3f fb 2c 80 3f e3 32 80 3f c1 37 80 3f
       1.0002885 1.0013727 1.0015529 1.0017015
000160 f4 a3 7f 3f 31 d9 7f 3f 48 ef 7f 3f ee b2 7f 3f
       0.9985955 0.9994078 0.9997449 0.998824
000170 62 fb 7f 3f f9 90 7f 3f d3 13 80 3f a0 02 80 3f
       0.99992955 0.99830586 1.000605 1.0000801
000180 4d ad 7f 3f 11 ce 7f 3f 50 0c 80 3f 3b d6 7f 3f
       0.9987381 0.9992381 1.0003757 0.99936265
000190 89 08 80 3f 82 c1 7f 3f 91 22 80 3f 80 e3 7f 3f
       1.0002605 0.99904644 1.0010549 0.9995651
0001a0 f0 a4 7f 3f ad c8 7f 3f a0 d5 7f 3f c8 14 80 3f
       0.9986105 0.9991558 0.9993534 1.0006342
0001b0 d2 ec 7f 3f c0 10 80 3f 07 3e 80 3f 28 3d 80 3f
       0.99970734 1.0005112 1.0018929 1.0018663
0001c0 63 2e 80 3f 67 15 80 3f 7c d0 7f 3f ae 13 80 3f
       1.0014156 1.0006531 0.99927497 1.0006006
0001d0 a6 13 80 3f 43 08 80 3f cd 38 80 3f a9 ea 7f 3f
       1.0005996 1.0002521 1.0017334 0.9996744
0001e0 cc 19 80 3f eb 26 80 3f 2e f9 7f 3f d2 c4 7f 3f
       1.0007873 1.0011877 0.99989593 0.999097
0001f0 23 0b 80 3f b8 c2 7f 3f 1e f8 7f 3f 38 f1 7f 3f
       1.0003399 0.9990649 0.9998797 0.99977446
000200 1a b8 7f 3f a1 01 80 3f ca f6 7f 3f b5 00 80 3f
       0.9989029 1.0000497 0.99985945 1.0000216
000210 90 16 80 3f 3b 19 80 3f 73 40 80 3f e1 f3 7f 3f
       1.0006886 1.00077 1.0019668 0.99981505
000220 cc 0a 80 3f 27 10 80 3f 0a c7 7f 3f 0e 2c 80 3f
       1.0003295 1.0004929 0.99913085 1.0013444
000230 9c e7 7f 3f a8 a7 7f 3f a5 df 7f 3f 03 32 80 3f
       0.9996278 0.998652 0.9995063 1.0015262
000240 61 0f 80 3f 16 e4 7f 3f bb 22 80 3f f7 7a 7f 3f
       1.0004693 0.99957407 1.0010599 0.99797004
000250 5f ab 7f 3f 24 de 7f 3f ff e3 7f 3f 82 b2 7f 3f
       0.99870867 0.99948335 0.9995727 0.99881756
000260 44 2b 80 3f f9 0c 80 3f 08 0e 80 3f 80 ec 7f 3f
       1.0013204 1.0003959 1.0004282 0.99970245
000270 e6 05 80 3f 0f 38 80 3f 5a 16 80 3f 32 fd 7f 3f
       1.00018 1.0017108 1.0006821 0.9999572
000280 0f 06 80 3f 58 09 80 3f 8b d4 7f 3f 8f 02 80 3f
       1.0001849 1.0002851 0.9993369 1.0000781
000290 aa 99 7f 3f 3e a9 7f 3f b8 94 7f 3f b7 fd 7f 3f
       0.9984385 0.9986762 0.998363 0.99996513
0002a0 28 de 7f 3f ad 0e 80 3f db ef 7f 3f 1d f4 7f 3f
       0.9994836 1.0004479 0.99975365 0.9998186
0002b0 23 1e 80 3f a2 83 7f 3f 5b 01 80 3f 9e 02 80 3f
       1.0009197 0.9981023 1.0000414 1.0000799
0002c0 8e e8 7f 3f 06 e5 7f 3f 08 b8 7f 3f 98 0a 80 3f
       0.99964225 0.9995884 0.99890184 1.0003233
0002d0 b9 24 80 3f ea 8e 7f 3f 0e f4 7f 3f fb 01 80 3f
       1.0011207 0.99827445 0.9998177 1.0000604
0002e0 f8 ec 7f 3f 23 e1 7f 3f fb e5 7f 3f 77 bb 7f 3f
       0.9997096 0.99952906 0.999603 0.99895424
0002f0 86 1f 80 3f 2d f1 7f 3f 90 09 80 3f 2a d8 7f 3f
       1.000962 0.9997738 1.0002918 0.99939215
000300 10 23 80 3f 95 07 80 3f 75 d7 7f 3f 7f e7 7f 3f
       1.00107 1.0002314 0.99938136 0.9996261
000310 84 32 80 3f eb ad 7f 3f 0d ce 7f 3f fd f5 7f 3f
       1.0015416 0.9987475 0.99923784 0.99984723
000320 2c 8b 7f 3f 73 07 80 3f 4e ee 7f 3f 9b 13 80 3f
       0.99821734 1.0002273 0.99973 1.0005983
000330 ae d1 7f 3f 26 1e 80 3f c2 d8 7f 3f 70 e1 7f 3f
       0.9992932 1.00092 0.9994012 0.99953365
000340 51 23 80 3f 01 f3 7f 3f ca ac 7f 3f 80 09 80 3f
       1.0010778 0.9998017 0.9987303 1.0002899
000350 b7 b6 7f 3f dd b1 7f 3f b5 1e 80 3f 1e a6 7f 3f
       0.99888176 0.9988077 1.0009371 0.9986285
000360 b0 94 7f 3f 28 2a 80 3f 8c cf 7f 3f cb 23 80 3f
       0.99836254 1.0012865 0.99926066 1.0010923
000370 bf 13 80 3f f6 da 7f 3f ae ea 7f 3f d4 14 80 3f
       1.0006026 0.9994348 0.9996747 1.0006356
000380 99 9b 7f 3f d3 96 7f 3f 37 ff 7f 3f 2e f8 7f 3f
       0.998468 0.99839514 0.999988 0.9998807
000390 be 16 80 3f c7 fa 7f 3f bb a7 7f 3f c4 2f 80 3f
       1.000694 0.9999203 0.9986531 1.0014577
0003a0 e1 26 80 3f be 17 80 3f 06 dc 7f 3f ca 02 80 3f
       1.0011865 1.0007246 0.99945104 1.0000851
0003b0 ca 9e 7f 3f 44 e6 7f 3f 5e 05 80 3f 25 f2 7f 3f
       0.9985167 0.9996073 1.0001638 0.9997886
0003c0 62 31 80 3f 15 0d 80 3f da 2d 80 3f 97 06 80 3f
       1.001507 1.0003992 1.0013993 1.0002011
0003d0 6d b4 7f 3f 7a 0a 80 3f 07 01 80 3f 6d bc 7f 3f
       0.9988468 1.0003197 1.0000314 0.9989689
0003e0 2e 1b 80 3f 47 f8 7f 3f f6 b2 7f 3f 48 20 80 3f
       1.0008295 0.99988216 0.9988245 1.0009851
0003f0 5b 04 80 3f aa c8 7f 3f 0f 05 80 3f d7 0e 80 3f
       1.0001329 0.99915564 1.0001544 1.0004529

base.feature_norm.bias f4 [651]
000000 bd 5d 42 3b 53 11 71 ba 93 b7 58 3a 60 cb d1 ba
       0.0029657923 -0.0009196002 0.0008267101 -0.0016006045
000010 8f 43 37 bb 56 28 87 bb f9 82 9a 3a 72 42 f0 b9
       -0.0027963852 -0.0041246815 0.00117883 -0.00045825873
000020 fa 2f 77 3a a6 e2 64 bb 95 e0 90 3b 3b 25 05 3a
       0.00094294513 -0.0034925132 0.0044213035 0.0005079095
000030 5d e0 74 bb e1 b6 55 bb c0 4a fb 39 5e 7c ac 3a
       -0.0037365176 -0.0032610225 0.00047930144 0.0013159623
000040 c0 6c 53 b8 8a 5a d2 3a e3 50 8e 3a 26 c3 d8 ba
       -5.04076e-05 0.0016048711 0.0010857846 -0.0016537651
000050 88 0c 96 3a 14 98 e3 3a e4 3f 27 3b c8 f5 06 bb
       0.0011447826 0.0017364048 0.002552026 -0.0020593274
000060 3c 02 73 3b ac 05 7f 3a ad c8 4b 3b dc cd 8b ba
       0.003708019 0.0009728323 0.0031094954 -0.0010666209
000070 ff 06 7d bb ae 7b c2 ba dc 70 dc 3a 9e c4 1f 3b
       -0.0038608906 -0.0014837885 0.0016818303 0.0024378668
000080 67 61 29 bb df be 6b ba 01 94 69 bb f8 5e d6 ba
       -0.002584541 -0.00089929806 -0.0035641196 -0.0016355207
000090 74 cf 44 3a 0a d2 60 3b f4 03 b2 ba c9 fa 37 bb
       0.00075077196 0.003430488 -0.00135815 -0.0028073064
0000a0 98 28 92 bb 59 96 83 bb 43 40 1c bb 7c a1 91 ba
       -0.0044604056 -0.0040157256 -0.0023842014 -0.0011110748
0000b0 8d 61 67 bb 6b ee 0d 3b 2e 6e 05 bb 7c aa db 3a
       -0.0035305948 0.0021657 -0.0020359862 0.0016759182
0000c0 1f 86 72 3b 62 4d cb b9 82 2b 01 3a 2e 66 9c ba
       0.0037006212 -0.00038776832 0.00049274426 -0.0011932307
0000d0 32 b9 22 ba 81 6f f6 ba d1 98 8e 3a 59 6b a7 3a
       -0.0006207406 -0.0018801541 0.0010879283 0.0012773081
0000e0 46 dd 04 bb 3c 9d 87 3b 49 7c 8d ba 77 30 76 bb
       -0.002027349 0.004138617 -0.0010794486 -0.0037565508
0000f0 f7 c8 7b 3b 49 8b 89 3b fe d2 32 bb 38 25 fe ba
       0.0038419345 0.0041975123 -0.0027286406 -0.0019389754
000100 92 1c 60 3b 71 99 b1 3a ed 7e bd 3a 8a dc c1 3a
       0.0034196717 0.0013549757 0.0014457382 0.0014790457
000110 58 a0 1f 3b 5e bc fb 3a 39 37 ab ba 1a 9b 7e bb
       0.0024357047 0.0019205918 -0.0013062722 -0.0038849772
000120 7e 5c 3f bb 59 40 61 3a 3c a8 2d b8 8b d9 ac 3a
       -0.0029199417 0.00085926574 -4.1403095e-05 0.0013187391
000130 33 2a 65 bb 6e ec 97 ba 94 68 6f b9 f0 18 25 3b
       -0.003496778 -0.0011590847 -0.00022831775 0.0025191866
000140 5c 5d 04 3a 68 7c e7 b7 3a a3 a1 39 2b de 04 b9
       0.0005049312 -2.7595277e-05 0.00030829926 -0.00012671265
000150 fa 67 66 ba 54 ec 6e bb a2 17 81 bb ba e4 8e bb
       -0.00087892974 -0.003645678 -0.003939585 -0.0043607624
000160 c4 cc 75 3b cc 95 01 3b 4d b1 86 3a e5 22 68 3b
       0.0037506083 0.0019773124 0.0010276228 0.003542119
000170 4c 87 f7 38 c4 5c 8f 3b a2 f6 17 bb ec f7 f2 b9
       0.00011803079 0.004375072 -0.0023187776 -0.00046342553
000180 01 c2 84 3b 2e 61 31 3b 56 21 a9 ba 79 17 bb 3a
       0.0040514474 0.002706598 -0.0012903612 0.0014273963
000190 9a ef 94 ba 29 a5 0d 3b c0 17 4b bb cd 5c cf 3a
       -0.0011362911 0.0021613336 -0.0030989498 0.0015820503
0001a0 ba bd 68 3b d3 91 34 3b d8 32 04 3b 72 d0 1a bb
       0.0035513476 0.0027552738 0.0020171907 -0.0023622778
0001b0 db 3a a0 3a b7 eb c2 ba a9 83 9a bb 39 06 81 bb
       0.0012224572 -0.0014871274 -0.004715402 -0.0039375094
0001c0 7e ec 43 bb 1b 93 db ba 9a ba 10 3b 27 e9 97 ba
       -0.00298956 -0.0016752215 0.002208388 -0.001158987
0001d0 42 4c 07 bb fb 6a 2f ba 1e 52 87 bb 75 c5 8a 3a
       -0.0020644818 -0.00066916615 -0.004129662 0.0010587411
0001e0 82 a0 07 bb d2 53 35 bb 27 89 06 3a 09 8b 23 3b
       -0.0020695035 -0.002766837 0.00051321316 0.0024954698
0001f0 c0 10 cb ba 79 24 41 3b e6 34 24 39 9c f4 2d 3a
       -0.0015492663 0.0029471202 0.00015659965 0.0006635876
000200 f9 c2 3c 3b 46 73 fd 38 84 62 24 3a 70 4b cc 38
       0.0028802736 0.000120854515 0.00062707835 9.741529e-05
000210 5b 6f 06 bb 3f 63 27 bb 52 73 a7 bb 2f ff 5a 3a
       -0.002051315 -0.0025541333 -0.005110183 0.00083540654
000220 71 f2 b9 ba 11 4a 83 ba 68 88 1b 3b 67 73 6f bb
       -0.0014186633 -0.001001658 0.0023732428 -0.003653729
000230 18 bd 92 3a 5d 8e 88 3b 05 36 dc 3a e6 4e 62 bb
       0.001119527 0.0041673617 0.0016800767 -0.003453189
000240 56 a1 de ba 0d 42 dc 3a 54 d4 53 bb c1 90 a4 3b
       -0.0016985338 0.0016804353 -0.0032322602 0.005022139
000250 13 73 2e 3b 04 d0 98 3a 32 3a cc 3a 42 49 5a 3b
       0.0026618883 0.0011658673 0.0015581308 0.0033307825
000260 89 25 61 bb db 16 de ba bf a6 b2 ba 9d d9 2c 3a
       -0.0034354648 -0.0016944067 -0.0013630016 0.0006593706
000270 69 65 0a ba ae b6 72 bb cc bb 1f bb d5 e1 06 39
       -0.00052793935 -0.0037035155 -0.002437341 0.00012863365
000280 1c 3d 58 b9 ce 09 9c ba 17 6c 1b 3b ec 00 03 b9
       -0.0002062213 -0.0011904777 0.002371555 -0.00012493477
000290 a9 18 84 3b 50 2a 61 3b 21 6d 93 3b 3c e1 c3 38
       0.00403126 0.0034357496 0.004499093 9.340278e-05
0002a0 c8 0a 0a 3b 0c 0b 08 bb dd f2 16 3a f5 9f 5e 3a
       0.0021063555 -0.0020758538 0.00057582353 0.00084924634
0002b0 80 22 43 bb 20 3f 8e 3b 8c 2f 31 38 f0 93 cf b7
       -0.0029775202 0.004341021 4.224437e-05 -2.4745212e-05
0002c0 ef 7b 80 3a 8f 6c 8f 3a b0 3f 44 3b e2 9d 62 ba
       0.000980256 0.0010942387 0.0029945187 -0.0008644742
0002d0 91 21 61 bb 9d 03 9b 3b 1d 8d 54 3a b5 ad a0 b9
       -0.0034352283 0.0047306553 0.0008108186 -0.00030647
0002e0 5d 7d a0 3a 6c 8f 6b 3a 73 ca 5f 3a a3 57 62 3b
       0.0012244392 0.000898591 0.0008536942 0.00345371
0002f0 dd 72 2f bb d6 ac 49 39 90 43 96 ba fa 9c 0b 3b
       -0.0026771345 0.0001923324 -0.0011464227 0.0021303282
000300 31 11 3c bb 77 86 25 ba 77 e0 09 3b d9 02 8a 3a
       -0.002869677 -0.00063142873 0.0021038332 0.0010529413
000310 15 b4 80 bb 80 77 49 3b 9e 2f 06 3b 01 ce 7a 3a
       -0.0039277175 0.0030741394 0.002047516 0.000956744
000320 dc 42 80 3b 81 ba 7c ba 36 37 76 3a 0b 55 18 bb
       0.0039142203 -0.00096408284 0.00093923823 -0.002324405
000330 0e 4c 09 3b 04 74 63 bb 7c ea f2 3a 52 a4 94 3a
       0.0020949873 -0.0034706602 0.0018533017 0.0011340475
000340 a8 6a 38 bb 79 92 32 3a e6 a5 3f 3b 98 2a 11 ba
       -0.0028139744 0.0006811987 0.002924317 -0.0005537658
000350 6c 89 32 3b ec 59 56 3b 58 5e 43 bb 9f 91 50 3b
       0.0027242554 0.0032707406 -0.0029810872 0.0031825078
000360 1f 0a 69 3b fe 89 15 bb 0d 97 d5 3a 6b ae 3d bb
       0.003555901 -0.0022817845 0.0016295627 -0.0028943073
000370 40 c8 ec ba c6 0f 63 ba 00 ac 47 3a ad 5b cf ba
       -0.001806505 -0.0008661713 0.00076168776 -0.0015820168
000380 07 c2 5a 3b 4e 4b 9c 3b 4c 29 f7 b8 ef 85 cb 39
       0.003337981 0.004769719 -0.0001178557 0.00038818966
000390 40 74 f5 ba 5a 46 71 ba 8c 49 88 b8 f4 76 ff 39
       -0.0018726662 -0.00092039036 -6.4986845e-05 0.00048726017
0003a0 91 16 8a bb f3 e0 45 ba f2 dd e8 3a 83 4e 83 b9
       -0.004214116 -0.00075484737 0.001776634 -0.00025044763
0003b0 16 68 82 3b 89 8c 94 3a 99 f1 54 ba ce 22 89 3a
       0.003979693 0.0011333387 -0.0008123159 0.0010462643
0003c0 67 93 8d bb 3d 50 ac ba 9b 05 97 bb c2 9f 76 ba
       -0.0043205502 -0.0013146471 -0.0046088225 -0.0009407961
0003d0 da 7c 85 3b d2 e7 bc ba d0 11 9b b9 f8 7f 76 3b
       0.0040737214 -0.001441235 -0.00029577175 0.0037612896
0003e0 ce 2f 2c bb 72 10 bb 39 af d1 81 3b fa 60 84 bb
       -0.002627361 0.00035679672 0.003961764 -0.004039881
0003f0 fe 0d 6a b9 da bb 9d 3b 69 44 2a bb 92 db 03 bb
       -0.00022321191 0.0048136534 -0.0025980717 -0.0020119888

base.mlp.fc1.0.weight f4 [64, 651]
000000 fa 34 b7 3a 0d 6c 85 3d 01 ee 51 3c 81 82 d4 3d
       0.001397758 0.0651475 0.012813092 0.10376454
000010 9f 28 64 bd 76 58 e0 bd a7 b7 d8 bb 41 57 f1 3c
       -0.0557028 -0.109543726 -0.00661369 0.029460551
000020 88 e9 21 3c 2f 28 e4 bb 28 a0 9b bc 2c 76 85 3d
       0.009882338 -0.006962798 -0.018997267 0.0651668
000030 51 ea 2b bd df d5 29 3d 6d 38 98 3c 36 a4 6d bc
       -0.04197151 0.04146373 0.018581593 -0.014504483
000040 07 0b 8e bc af 73 f6 bd 57 b4 16 bd 37 01 5f bb
       -0.017339243 -0.12033784 -0.03679308 -0.0034027824
000050 6c 21 fb 3d 3f ae 0e 3d f9 3d a1 bc 84 51 d9 bc
       0.12262234 0.034834143 -0.019682871 -0.026528127
000060 c2 ab 95 bd 78 5c dc bd f8 8a 49 3d 43 60 65 bc
       -0.07308151 -0.107598245 0.049204797 -0.014000001
000070 5a 59 ff ba a1 c1 96 3c c0 86 b2 3c 85 58 de 3c
       -0.0019481585 0.018402876 0.02179277 0.027141819
000080 17 0b 21 3d 23 9c 5f 3d f7 57 bd bc 08 8d 03 3d
       0.039317217 0.054592263 -0.023113234 0.03211692
000090 8c de 81 bd 24 1a 9e bd 88 33 cd 3d b2 13 b8 bc
       -0.063412756 -0.0771983 0.100195944 -0.022470329
0000a0 09 32 2e 3d 4d ee 26 bc fb 15 9d bd b7 38 b2 3c
       0.042528186 -0.010188651 -0.07670208 0.02175556
0000b0 ae d0 09 be d7 27 7d 3d 59 35 82 3d a7 a2 20 bd
       -0.13458511 0.061805572 0.063578315 -0.039217617
0000c0 55 9b f1 3c e7 90 ac 3d 06 e3 a8 3c 07 a8 41 3d
       0.029493013 0.084260754 0.020616066 0.047279384
0000d0 71 ce 48 3d ea 79 8d bd c5 fa 1c 3c 9f f7 17 3c
       0.049025003 -0.06908019 0.0095812725 0.009275346
0000e0 50 87 80 bc 9d 6c de bb 5f cb 01 3e be 2c ba 3b
       -0.015689522 -0.00678785 0.12675236 0.005681603
0000f0 58 40 15 3c 36 1d 84 3d 82 a3 81 3d fe d7 d7 bc
       0.009109579 0.06450884 0.06330015 -0.02634811
000100 49 78 9d 3b 3e c3 66 3d e4 e7 ac 3b 4c 88 af bd
       0.004805599 0.05633854 0.005276667 -0.085709184
000110 80 77 cd 3c da 53 21 3d c1 c7 41 3d d8 5f 53 3d
       0.025081396 0.039386608 0.04730964 0.051605076
000120 7b 11 80 bd c2 8d b1 bd b6 e0 e0 bc 0f bc 18 3e
       -0.06253334 -0.08669616 -0.0274509 0.14915489
000130 f2 24 8a 3d 9a 7e 54 3d 84 73 25 3c ba 0b e9 3d
       0.06745328 0.05187855 0.010098342 0.1137919
000140 77 d0 04 3d 01 cc a9 bd d1 bf 9f 3b 22 cb 9a bd
       0.03242537 -0.08290864 0.004875161 -0.07558276
000150 86 63 5a 3c d0 ee d9 bc 9c c8 e6 bd 2d 6e 96 bd
       0.013329392 -0.026603132 -0.11268732 -0.07345233
000160 11 52 8b 3c 39 6c e3 bd 7e 2c 78 3d 81 c4 36 bd
       0.017006906 -0.11104626 0.060589306 -0.044620994
000170 ba 2e 39 3d bd 13 e1 bb d0 d5 5e 3d a8 ba b0 3d
       0.045210578 -0.006868808 0.054403126 0.08629352
000180 19 23 42 bd 70 d7 9c bd a0 d5 cc bd 74 a3 a4 bd
       -0.047396753 -0.07658279 -0.10001683 -0.08038989
000190 07 31 48 bc 1f 3b 99 3c 60 3e d2 bd 66 13 95 bd
       -0.01221872 0.018704949 -0.10265803 -0.072790906
0001a0 84 aa ef 3c ee 49 6d 3c d9 fa bc bd e4 47 3f bd
       0.029256113 0.014482958 -0.09227533 -0.04669942
0001b0 9c f7 68 bd 14 65 65 bd dc 23 78 3b 21 df 41 3d
       -0.056876764 -0.0560046 0.003786317 0.047331933
0001c0 33 2d ca bd 77 2d dc 3c 90 78 54 3d c7 75 72 3c
       -0.09871902 0.026877148 0.05187279 0.014798588
0001d0 cb 08 54 bd 49 b2 f6 bc b8 6e a0 bc ed ce 12 3d
       -0.051766198 -0.03011431 -0.019584045 0.03584187
0001e0 61 58 d0 bd 55 b6 46 bd 7a 2b 47 3d 2e 31 2a bb
       -0.10173107 -0.04851373 0.048625447 -0.0025969255
0001f0 07 45 65 3d ee 2d dd 3a 28 80 24 bd fa d3 2f 3d
       0.055974033 0.001687465 -0.04016128 0.042926766
000200 d4 72 8d bd 97 8d e3 bd 91 b5 b0 bb c9 9f 4b 3d
       -0.06906667 -0.111109905 -0.005392738 0.04971293
000210 aa a9 44 bd 10 60 a7 3c c5 2d bc 3d ce 4e 80 3c
       -0.048013367 0.020431548 0.09188417 0.015662577
000220 ad df 34 bd 60 31 b9 bd 5b 95 36 bc 3d 57 59 3c
       -0.044158626 -0.09042621 -0.011144008 0.013265428
000230 9b 4e 0d 3d 49 ad f8 bd 16 61 18 3e 8c 01 3d 3d
       0.034498792 -0.121424265 0.14880785 0.046144053
000240 c1 4f 35 3d 75 3d 37 bc 10 fc 3f 3d f0 e4 b6 bc
       0.044265512 -0.011184086 0.046871245 -0.022325963
000250 99 3f 0d 3d 12 39 97 3a fd 86 3f bd 57 d3 ea 3d
       0.03448448 0.0011537394 -0.046759594 0.11466091
000260 93 02 cf 3d 41 f3 87 3d 63 8c 97 bd 3f d0 47 bd
       0.10107913 0.06638194 -0.073998235 -0.048782583
000270 54 2f f4 3a 39 f9 bb 3d 27 a9 61 bd 80 60 1e bc
       0.0018629828 0.09178395 -0.055092957 -0.009666562
000280 65 99 90 3d 58 1c 98 3b aa 0c 80 3d 52 5b 8c 3d
       0.07060508 0.0046420507 0.062524155 0.068533555
000290 dc 6c 3e bd 73 73 48 3d 55 81 34 bc 83 bf c4 3c
       -0.046490535 0.048938226 -0.011017163 0.024017101
0002a0 6e e1 bb bd 45 b5 25 3d 74 02 de 3d 37 05 33 bd
       -0.09173857 0.040456075 0.10840312 -0.043706145
0002b0 10 43 a7 bd ee b5 4a 3d 6e 5d 94 bd 45 aa 3b 3d
       -0.08167088 0.049489908 -0.07244383 0.04581668
0002c0 26 e8 91 3d 0a 0a d0 3d 17 db 18 bd 06 74 7f bc
       0.07124357 0.10158165 -0.037318315 -0.015591627
0002d0 37 70 bc ba fd f6 84 bd a6 c1 63 bd 63 e1 69 3d
       -0.0014376704 -0.06492422 -0.0556046 0.05709971
0002e0 7b 6c 90 bd 74 5e b7 bd 6e a8 f8 3b c3 67 87 3d
       -0.07051941 -0.089535624 0.0075884378 0.06611588
0002f0 42 75 ed bc 26 c1 80 3d 3d 9a 9b 3c 75 f3 3f 3c
       -0.028986577 0.0628684 0.018994445 0.0117157595
000300 5d 2a 44 3d bb cf c1 bd 2a 13 1d 3d e7 51 31 bd
       0.047891963 -0.094634496 0.038348354 -0.043291
000310 96 72 37 3d 48 8f 9a 3d f7 df bd 3d 63 b4 0b 3d
       0.044787012 0.0754686 0.092712335 0.034107577
000320 c2 97 de bc ef 45 cf 3c 75 2f 00 be 42 47 13 bd
       -0.027171973 0.025301902 -0.12518103 -0.03595663
000330 2a 09 74 3b b7 ee 81 bd 5c ae 8b 3b 3d 10 2c 3d
       0.0037236908 -0.06344359 0.0042627286 0.042007674
000340 10 65 ce bc 6f a7 00 be a2 64 80 3d f3 9d 07 bd
       -0.025194675 -0.12563871 0.06269194 -0.033109616
000350 b6 e6 66 bd cc b9 7e 3c a0 5e b4 bd 13 4d 13 bd
       -0.056372367 0.015547227 -0.08807111 -0.035962176
000360 aa 4a ad 3c e8 58 94 3c f0 17 af 3c d3 b7 5a bd
       0.021153767 0.0181088 0.021373719 -0.053397965
000370 b1 b3 d5 bb 54 ed b7 bc b1 ee 04 bd 9d 90 2b 3d
       -0.006521665 -0.022452034 -0.032454196 0.04188596
000380 a4 93 5b bd e1 f8 04 bc 4c 7d c0 3d 48 5b 1f bd
       -0.053607598 -0.008115978 0.093988985 -0.038905412
000390 32 36 fc 3c 6c bd a7 bd 57 91 be bd 52 ba d0 3a
       0.030787561 -0.08190426 -0.09305065 0.0015924668
0003a0 18 8a 4b 3d 8b 3a 99 3c 33 69 5b bc 87 d2 5a 3c
       0.049692243 0.018704673 -0.013391781 0.013355858
0003b0 82 1f cf 3d 8b 2e f4 3b df a2 ff 3c 57 1c 16 bd
       0.101134315 0.0074518374 0.031205593 -0.03664812
0003c0 7c 87 43 bd 02 45 14 bd 89 ee 5b 3d 24 ec 9d bd
       -0.04773663 -0.036198623 0.05369428 -0.07711056
0003d0 df a4 ea 3c ac 6a a0 3c a9 ae ce 3c fa 75 ad bb
       0.02864307 0.019582115 0.025229769 -0.005293605
0003e0 19 4d 75 bd ba 26 cc 3d 71 a5 a3 bc da dd 93 bc
       -0.05988798 0.09968324 -0.01997635 -0.018050123
0003f0 3b cf 73 bd 78 24 45 bd 8a 0a e0 bd 2d e8 bb 3b
       -0.059523802 -0.048130482 -0.1093951 0.0057344646

base.mlp.fc1.0.bias f4 [64]
000000 00 00 00 00 00 00 00 00 00 00 00 00 3a 21 a6 bb
       0.0 0.0 0.0 -0.005069879
000010 26 e4 18 3a a3 68 93 3b 00 00 00 00 36 34 9e ba
       0.00058323366 0.0044985577 0.0 -0.0012070003
000020 a1 f8 80 3b ac 01 4f ba 00 00 00 00 00 00 00 00
       0.003935889 -0.00078966725 0.0 0.0
000030 00 00 00 00 00 00 00 00 d5 35 1c bb 00 00 00 00
       0.0 0.0 -0.0023835797 0.0
000040 00 00 00 00 00 00 00 00 56 3b 8b 3a 00 00 00 00
       0.0 0.0 0.0010622542 0.0
000050 da ca 06 bb 00 00 00 00 67 80 5e ba 00 00 00 00
       -0.0020567686 0.0 -0.00084877614 0.0
000060 00 00 00 00 71 7b af bb 22 e0 83 3b df 83 7c 3b
       0.0 -0.0053552915 0.0040245214 0.003853075
000070 d0 26 44 ba 00 00 00 00 00 00 00 00 96 0e 8a 3a
       -0.000748259 0.0 0.0 0.0010532911
000080 00 00 00 00 82 80 26 3a bd be db ba 2c 5f 60 3b
       0.0 0.00063515466 -0.0016765218 0.0034236414
000090 00 00 00 00 e6 9a 81 39 40 20 3d 3b 5a 81 e5 b8
       0.0 0.00024720206 0.0028858334 -0.000109436645
0000a0 21 7b 8a 3b de 24 93 3a fe 29 ee ba fe c9 37 3b
       0.004226104 0.0011226197 -0.0018170474 0.002804398
0000b0 00 00 00 00 00 00 00 00 1d 4b c8 bb 70 5b 1d 3b
       0.0 0.0 -0.00611247 0.00240108
0000c0 00 00 00 00 32 c4 2b b9 32 9b 30 3b 00 00 00 00
       0.0 -0.00016380919 0.0026947972 0.0
0000d0 43 ad 53 39 00 00 00 00 6f c0 58 bb 00 00 00 00
       0.00020187073 0.0 -0.0033073684 0.0
0000e0 00 00 00 00 44 56 10 ba 00 00 00 00 cf 29 39 3b
       0.0 -0.00055060186 0.0 0.002825368
0000f0 a1 c5 47 ba 53 49 0e bb 00 00 00 00 5f 51 5d 3b
       -0.00076206966 -0.0021711185 0.0 0.0033770425

base.mlp.fc1.2.weight f4 [64]
000000 2e 37 80 3f 84 8c 80 3f a4 88 7f 3f 43 b3 7e 3f
       1.001684 1.0042882 0.9981787 0.9949228
000010 36 12 80 3f a6 6d 80 3f d9 5d 80 3f fe 91 7f 3f
       1.0005558 1.0033462 1.002864 0.9983214
000020 02 93 80 3f c0 c8 7f 3f c5 be 7f 3f b2 91 80 3f
       1.0044863 0.99915695 0.99900466 1.0044463
000030 a5 3f 80 3f 7b 4c 80 3f 3c 76 7f 3f 18 b9 7f 3f
       1.0019423 1.002334 0.99789786 0.99891806
000040 89 2b 7f 3f b5 97 7f 3f 7e e0 7e 3f cd 64 7f 3f
       0.99675804 0.9984086 0.995613 0.99763185
000050 09 4b 80 3f 02 5e 7f 3f e0 1f 80 3f fc 37 80 3f
       1.0022899 0.9975282 1.0009727 1.0017085
000060 2b 7b 80 3f e6 ac 7e 3f 73 82 80 3f e2 86 80 3f
       1.0037588 0.9948257 1.003981 1.0041163
000070 62 bd 7f 3f 95 47 80 3f ea 72 7f 3f 36 d0 7e 3f
       0.9989835 1.0021845 0.9978472 0.99536455
000080 d2 67 80 3f d9 04 80 3f 08 c3 7f 3f af 2f 80 3f
       1.0031683 1.0001479 0.9990697 1.0014552
000090 cc 1d 80 3f 94 f4 7f 3f 8d 6f 80 3f 6c 83 7f 3f
       1.0009093 0.9998257 1.0034043 0.9980991
0000a0 ec 11 80 3f 2c 10 80 3f ec 84 7f 3f fe 1e 80 3f
       1.0005469 1.0004935 0.998122 1.0009458
0000b0 56 07 80 3f 19 8d 7f 3f 4e f7 7e 3f 62 37 80 3f
       1.0002239 0.9982467 0.99596107 1.0016901
0000c0 41 f2 7f 3f 5e 3e 80 3f 5e 5c 7f 3f 75 27 7f 3f
       0.99979025 1.0019033 0.99750316 0.9966958
0000d0 61 07 80 3f 4c 73 80 3f 29 bc 7f 3f 3f 79 80 3f
       1.0002252 1.0035186 0.99896485 1.0037001
0000e0 2a b0 80 3f 2a dd 7f 3f 62 4f 7f 3f ea 74 80 3f
       1.0053761 0.99946845 0.99730504 1.0035679
0000f0 ab 49 80 3f df 63 7f 3f 45 77 7f 3f 9f ce 7f 3f
       1.0022482 0.99761766 0.99791366 0.99924654

base.mlp.fc1.2.bias f4 [64]
000000 63 5e f4 ba f8 a1 91 bb 6e 79 f9 3a f8 94 b0 bb
       -0.0018643852 -0.004444357 0.0019033381 -0.005388852
000010 08 ee 27 3a c9 21 9b 3b cc 51 4d bb f2 77 c7 ba
       0.0006406014 0.004734252 -0.0031329272 -0.0015218242
000020 62 03 80 3b 3b 66 9d 3a 52 ae 93 3a 29 af 99 bb
       0.0039066533 0.0012008616 0.0011267161 -0.00469007
000030 64 17 08 bb e0 d3 1c bb f4 06 11 bb b8 0a 8f 3a
       -0.0020765895 -0.0023929998 -0.0022129389 0.0010913229
000040 21 ac 5d 3b dc b1 d7 3a 7e ae 9c 3b 92 17 25 3b
       0.003382452 0.0016456204 0.0047815433 0.002519105
000050 37 af 35 bb 69 05 2d 3b 78 b1 97 ba 48 60 ff ba
       -0.0027722844 0.002640093 -0.0011573276 -0.001948365
000060 24 a2 80 bb ce 6d b1 bb ff e2 80 3b 8f 13 80 3b
       -0.0039255787 -0.005414701 0.00393331 0.0039085816
000070 7a 79 51 ba c9 8c 1a bb 6c 94 10 3b c8 c4 9b 3b
       -0.00079908187 -0.002358245 0.0022061123 0.0047536828
000080 12 11 5d bb 8c 43 4a 3a 9a 5b 7f 3a 0c d3 56 3b
       -0.0033732099 0.0007715754 0.0009741128 0.0032779602
000090 94 3c 81 ba 44 01 6e 39 32 6b 21 3b f2 39 05 3b
       -0.0009859973 0.0002269792 0.0024630544 0.0020328728
0000a0 34 b8 8b 3b 42 94 98 3a 5e be f3 ba e7 85 3a 3b
       0.004263902 0.0011640864 -0.0018596163 0.002846116
0000b0 e4 4c 55 b9 e0 3a fb 3a 5c c8 c8 bb f0 90 a1 b9
       -0.00020341907 0.0019167326 -0.0061274003 -0.000308163
0000c0 40 d8 85 39 6e d8 a9 ba 5d 5e 2f 3b d4 ad 65 3b
       0.00025528856 -0.0012958178 0.0026759126 0.0035046237
0000d0 0e fa 3d 39 0d a6 78 bb 98 4e 5d bb b9 7b 7c bb
       0.00018117597 -0.003794077 -0.003376877 -0.0038525893
0000e0 09 67 bd bb 60 ed 38 ba 78 44 3c 3b f9 16 46 3b
       -0.005780105 -0.00070544146 0.0028727334 0.0030226095
0000f0 46 96 19 bb ea b4 17 bb 99 bc 11 3b 25 b8 4e 3b
       -0.0023435517 -0.0023148605 0.0022237657 0.0031542864

base.mlp.fc_h.0.weight f4 [64, 64]
000000 09 c7 05 3e 22 80 96 be 9a 33 11 bd 4a 34 a5 bc
       0.13064207 -0.29394633 -0.0354496 -0.020166535
000010 a1 9b 9b 3e 13 1c 5b 3d 29 1c fa 3d aa 4f cc 3d
       0.30392173 0.05349357 0.122124024 0.09976132
000020 a4 03 ee 3b f5 76 ef bc d2 ca c1 3e 4c b1 cb 3d
       0.0072636176 -0.029231528 0.37850052 0.09945926
000030 44 7b a5 be 85 90 ba bd 73 57 59 be e7 13 9f 3e
       -0.32320607 -0.09109596 -0.21224765 0.31069872
000040 5e 0b 70 bd da 1f 90 be 8f 48 01 be d5 dd b0 3d
       -0.05860459 -0.281493 -0.12625335 0.08636061
000050 7a 88 6c 3e 0f 52 fa bd ca 2b d8 3d 4e 75 54 bd
       0.23098937 -0.12222683 0.10555227 -0.051869683
000060 49 a8 8a bd 2c 28 25 3d 5a 21 73 3e 56 ec cc 3d
       -0.06770379 0.040321514 0.23743191 0.10006015
000070 70 a4 69 be 24 12 84 be b4 a1 2e 3e 49 74 12 3e
       -0.22816634 -0.2579509 0.17053872 0.14302172
000080 a2 70 b5 3d 2c e4 20 be 62 3c ee 3c 1e 36 19 be
       0.08859374 -0.1571204 0.029081527 -0.1496205
000090 45 8e 13 3d df 15 9f 3d d8 d1 93 be 01 ed 00 3e
       0.03602435 0.077678435 -0.28871036 0.1259041
0000a0 a8 e0 80 3d 3a 53 59 be c3 c7 b8 3c b9 59 87 3e
       0.0629285 -0.21223155 0.022556191 0.2643564
0000b0 a8 41 fc bd ad 8d 5e 3e a7 67 08 3e 75 e5 a9 ba
       -0.123172104 0.21733733 0.1332079 -0.001296206
0000c0 a9 bc 50 be 8f 2c 46 3e ae 68 d0 3e 40 cd 0e be
       -0.20384468 0.19352935 0.40704864 -0.13945484
0000d0 a0 48 59 3e dd 2d 36 be bf 64 12 be 8b 19 88 bd
       0.2121911 -0.17790933 -0.14296244 -0.06645497
0000e0 31 9e dd bd e3 09 69 3d eb 8f 22 3e 2a 30 ea bd
       -0.10821188 0.056894194 0.15875213 -0.11434968
0000f0 0f a1 55 3e 1c a8 25 3e b1 89 39 3c e6 e4 96 be
       0.2086222 0.1617741 0.011324332 -0.2947151
000100 fc be 83 3e d7 7f 58 3d fc 2b 4d bd c2 df 6e bc
       0.25731647 0.052856293 -0.050090775 -0.014579715
000110 05 33 b1 3e 4b 8f 8f bd da 8b ea bd f4 3c 45 be
       0.34609237 -0.07009753 -0.11452456 -0.19261533
000120 15 6d 00 3e cb ca 96 bd bb 9f 58 be 98 2c 1f 3e
       0.12541611 -0.073628984 -0.21154682 0.15544355
000130 06 a0 ed bd 8e 1e 4c 3d ae 06 29 be b5 df 20 be
       -0.11602788 0.049833827 -0.16506454 -0.15710337
000140 fa 58 9f bc 4a e6 08 be bd cb 20 3d 8b dc 99 bd
       -0.019451607 -0.13369098 0.0392568 -0.07512768
000150 0d 41 a6 3d 9f a5 dc bd 6d c2 44 bc 07 c7 f1 bb
       0.08117876 -0.10773777 -0.012009245 -0.0073784622
000160 76 f2 81 bd 70 ca 2a bd b8 15 aa 3c d4 62 85 be
       -0.06345074 -0.041696966 0.02076231 -0.26051962
000170 3c 9b 11 3f 2e a3 2c be 0d 74 e6 bd 7c a9 a6 3c
       0.56877494 -0.16859123 -0.11252604 0.020344488
000180 17 a4 23 3e 61 08 4d be 22 83 9f 3b bd 4d 5e 3e
       0.15980564 -0.20022728 0.004867927 0.21709342
000190 9b 1f 8c bd 26 da 80 3e 41 d8 e5 3c 25 f9 81 be
       -0.06841966 0.25166434 0.02805722 -0.25385395
0001a0 c3 56 8d 3e aa 35 95 be 70 56 24 be 06 fc f1 3d
       0.27605256 -0.29142505 -0.16048598 0.11815648
0001b0 cd 51 07 bd 35 7b 45 be 30 0b 77 be 69 94 c0 bd
       -0.033036996 -0.19285281 -0.24125361 -0.09403307
0001c0 3e 79 28 be 47 6a 9d bd c3 30 f3 be d8 06 8e be
       -0.164525 -0.076862864 -0.4749814 -0.27739596
0001d0 88 88 21 bd e7 6a 76 be 5a b2 5d bd f5 28 72 be
       -0.039436847 -0.24064218 -0.054125167 -0.23648436
0001e0 48 ef d1 bd f5 fe 1b 3d 66 ca 01 3e ad 22 9f bd
       -0.102507174 0.038084943 0.12674865 -0.07770286
0001f0 dc 8e 00 3e f8 a3 52 3e c7 7b cd 3c 87 b0 ef 3d
       0.12554497 0.20570362 0.025083436 0.11703592
000200 96 98 7a 3e ba 44 84 3d 1a 08 7b be 81 e4 ac 3e
       0.2447227 0.06458421 -0.24514809 0.33768085
000210 cc 3e c1 bd 8d 4f 06 3d fc 2d 88 3d 62 da 53 3b
       -0.09435806 0.03279071 0.06649396 0.0032326211
000220 41 b9 ef 3d 6f b4 80 3e 3b 75 27 be d6 7a 8a be
       0.11705256 0.2513766 -0.16353314 -0.2704684
000230 2f 29 5c 3d 6d 8a 6e 3e a3 e1 48 be 34 d9 81 be
       0.053750213 0.23294993 -0.19617324 -0.25361025
000240 57 83 a0 3e 23 5a 45 3c 7c 1b 3d be e4 30 87 3d
       0.31350204 0.012045416 -0.18467516 0.06601122
000250 de 28 27 3e 37 4d 27 3d 8c 25 2d bd 83 01 c9 3c
       0.16324183 0.040845122 -0.042272136 0.024536854
000260 a0 ee 03 be 00 62 6d be 61 a3 cd bd d8 a1 c5 3c
       -0.12883997 -0.23181915 -0.10040928 0.024125025
000270 8a 32 15 3d b6 1e 36 3d 9f d0 52 bc 2f c9 54 3e
       0.03642515 0.044462882 -0.012867122 0.2077987
000280 74 49 25 3d 06 81 55 3e 93 5f 8f 3e 44 0d 2b be
       0.040353253 0.2085 0.28002605 -0.16704279
000290 1c f2 81 bc 78 b9 07 be 01 e4 e6 3b 3a ed 51 be
       -0.015862517 -0.13254344 0.007046223 -0.20500651
0002a0 58 2c 80 bd b9 e8 23 3e 57 03 85 bd 79 d1 d4 3d
       -0.06258458 0.16006745 -0.06494778 0.10391516
0002b0 4c 55 13 3e 16 38 a9 be 62 6f 96 3d d0 89 c4 3e
       0.14388007 -0.33050603 0.07345463 0.38386393
0002c0 3e 96 5d be 6f af 45 3e 4b ee 10 3e 2d cf e0 bd
       -0.21639344 0.19305204 0.14153402 -0.10977016
0002d0 81 03 95 3e d7 43 f4 bd 36 fd 33 be 4d 85 05 be
       0.29104236 -0.11927002 -0.17577061 -0.13039131
0002e0 3a 56 5e 3e ad 0a a7 3e 69 af e7 3d a3 77 86 3e
       0.2171258 0.32625332 0.11312754 0.2626315
0002f0 d8 e9 f8 3c 9b 0d 46 be 9b ef ca 3d c2 5f 32 be
       0.030384943 -0.19341128 0.09908982 -0.17419341
000300 e7 9c b8 3d 65 49 6d be c6 00 70 3c 07 5f 89 bd
       0.09014302 -0.23172529 0.014648622 -0.06707578
000310 df 33 a8 be 72 40 93 3e b6 84 aa bd 0f 40 41 bd
       -0.32852075 0.28760105 -0.08326094 -0.04718023
000320 f9 74 11 be a6 59 89 be 7e 68 14 be 06 ad 3c 3d
       -0.14204778 -0.2682621 -0.14492986 0.046063446
000330 0d 50 e9 be 92 13 d7 3d 4e e7 55 be df 99 9c bc
       -0.45568886 0.105017796 -0.20889017 -0.01911634
000340 3e 08 60 3e b5 15 53 be 70 e0 8d bc 5b c9 8b 3c
       0.21878144 -0.2061375 -0.017318934 0.017063787
000350 c1 b3 2b 3c f6 2f 8c 3d c3 28 34 3e 7e a0 3f be
       0.010479868 0.06845085 0.17593674 -0.18713567
000360 84 b9 80 bd a9 dd dc 3c d7 7d 79 be 61 60 fc bc
       -0.06285384 0.026961165 -0.2436441 -0.030807676
000370 6d af c7 3d 4b ad 7c be 91 82 8b bd c7 50 bc bd
       0.09750257 -0.24675481 -0.06812013 -0.091950946
000380 ed ea 9a be 2f f7 4a 3d e8 10 3b 3e 6f ad 45 3e
       -0.3025736 0.04955214 0.18268168 0.19304441
000390 4c fc 53 be 7a 53 f7 3d e8 ec 67 3e 49 50 38 3e
       -0.20701712 0.12076469 0.22648966 0.17999376
0003a0 5d b5 0b bd f1 66 24 3d 70 05 1f 3d 16 11 b5 3e
       -0.03410851 0.040137235 0.038823545 0.35364598
0003b0 bd 2c 13 3e b3 89 02 bd 97 43 a7 bd 29 39 80 3e
       0.14372535 -0.0318696 -0.081671886 0.2504361
0003c0 5b f2 35 3e 18 e0 92 be 3c 1e 22 3e 4a 37 c0 3e
       0.17768233 -0.28686595 0.15831846 0.37542182
0003d0 53 58 0f 3e 92 19 0c 3e d7 59 df bc 34 75 39 be
       0.13998537 0.1368163 -0.027264519 -0.18111116
0003e0 2a f0 b9 bd 6f 38 16 bc 88 9f 98 3d 14 07 41 be
       -0.09079011 -0.009168728 0.07452303 -0.18850356
0003f0 93 81 6d be 8c 30 61 3d 38 67 59 be e9 b4 02 3e
       -0.2319396 0.05497794 -0.21230781 0.12764324

base.mlp.fc_h.0.bias f4 [64]
000000 00 00 00 00 00 00 00 00 00 00 00 00 00 00 00 00
       0.0 0.0 0.0 0.0
000010 00 00 00 00 00 00 00 00 00 00 00 00 00 00 00 00
       0.0 0.0 0.0 0.0
000020 00 00 00 00 00 00 00 00 00 00 00 00 00 00 00 00
       0.0 0.0 0.0 0.0
000030 00 00 00 00 00 00 00 00 00 00 00 00 00 00 00 00
       0.0 0.0 0.0 0.0
000040 00 00 00 00 00 00 00 00 00 00 00 00 00 00 00 00
       0.0 0.0 0.0 0.0
000050 00 00 00 00 00 00 00 00 00 00 00 00 00 00 00 00
       0.0 0.0 0.0 0.0
000060 00 00 00 00 00 00 00 00 00 00 00 00 00 00 00 00
       0.0 0.0 0.0 0.0
000070 00 00 00 00 00 00 00 00 00 00 00 00 00 00 00 00
       0.0 0.0 0.0 0.0
000080 00 00 00 00 00 00 00 00 00 00 00 00 00 00 00 00
       0.0 0.0 0.0 0.0
000090 00 00 00 00 00 00 00 00 00 00 00 00 00 00 00 00
       0.0 0.0 0.0 0.0
0000a0 00 00 00 00 00 00 00 00 00 00 00 00 00 00 00 00
       0.0 0.0 0.0 0.0
0000b0 00 00 00 00 00 00 00 00 00 00 00 00 00 00 00 00
       0.0 0.0 0.0 0.0
0000c0 00 00 00 00 00 00 00 00 00 00 00 00 00 00 00 00
       0.0 0.0 0.0 0.0
0000d0 00 00 00 00 00 00 00 00 00 00 00 00 00 00 00 00
       0.0 0.0 0.0 0.0
0000e0 00 00 00 00 00 00 00 00 00 00 00 00 00 00 00 00
       0.0 0.0 0.0 0.0
0000f0 00 00 00 00 00 00 00 00 00 00 00 00 00 00 00 00
       0.0 0.0 0.0 0.0

base.mlp.fc_h.2.weight f4 [64]
000000 00 00 80 3f 00 00 80 3f 00 00 80 3f 00 00 80 3f
       1.0 1.0 1.0 1.0
000010 00 00 80 3f 00 00 80 3f 00 00 80 3f 00 00 80 3f
       1.0 1.0 1.0 1.0
000020 00 00 80 3f 00 00 80 3f 00 00 80 3f 00 00 80 3f
       1.0 1.0 1.0 1.0
000030 00 00 80 3f 00 00 80 3f 00 00 80 3f 00 00 80 3f
       1.0 1.0 1.0 1.0
000040 00 00 80 3f 00 00 80 3f 00 00 80 3f 00 00 80 3f
       1.0 1.0 1.0 1.0
000050 00 00 80 3f 00 00 80 3f 00 00 80 3f 00 00 80 3f
       1.0 1.0 1.0 1.0
000060 00 00 80 3f 00 00 80 3f 00 00 80 3f 00 00 80 3f
       1.0 1.0 1.0 1.0
000070 00 00 80 3f 00 00 80 3f 00 00 80 3f 00 00 80 3f
       1.0 1.0 1.0 1.0
000080 00 00 80 3f 00 00 80 3f 00 00 80 3f 00 00 80 3f
       1.0 1.0 1.0 1.0
000090 00 00 80 3f 00 00 80 3f 00 00 80 3f 00 00 80 3f
       1.0 1.0 1.0 1.0
0000a0 00 00 80 3f 00 00 80 3f 00 00 80 3f 00 00 80 3f
       1.0 1.0 1.0 1.0
0000b0 00 00 80 3f 00 00 80 3f 00 00 80 3f 00 00 80 3f
       1.0 1.0 1.0 1.0
0000c0 00 00 80 3f 00 00 80 3f 00 00 80 3f 00 00 80 3f
       1.0 1.0 1.0 1.0
0000d0 00 00 80 3f 00 00 80 3f 00 00 80 3f 00 00 80 3f
       1.0 1.0 1.0 1.0
0000e0 00 00 80 3f 00 00 80 3f 00 00 80 3f 00 00 80 3f
       1.0 1.0 1.0 1.0
0000f0 00 00 80 3f 00 00 80 3f 00 00 80 3f 00 00 80 3f
       1.0 1.0 1.0 1.0

base.mlp.fc_h.2.bias f4 [64]
000000 00 00 00 00 00 00 00 00 00 00 00 00 00 00 00 00
       0.0 0.0 0.0 0.0
000010 00 00 00 00 00 00 00 00 00 00 00 00 00 00 00 00
       0.0 0.0 0.0 0.0
000020 00 00 00 00 00 00 00 00 00 00 00 00 00 00 00 00
       0.0 0.0 0.0 0.0
000030 00 00 00 00 00 00 00 00 00 00 00 00 00 00 00 00
       0.0 0.0 0.0 0.0
000040 00 00 00 00 00 00 00 00 00 00 00 00 00 00 00 00
       0.0 0.0 0.0 0.0
000050 00 00 00 00 00 00 00 00 00 00 00 00 00 00 00 00
       0.0 0.0 0.0 0.0
000060 00 00 00 00 00 00 00 00 00 00 00 00 00 00 00 00
       0.0 0.0 0.0 0.0
000070 00 00 00 00 00 00 00 00 00 00 00 00 00 00 00 00
       0.0 0.0 0.0 0.0
000080 00 00 00 00 00 00 00 00 00 00 00 00 00 00 00 00
       0.0 0.0 0.0 0.0
000090 00 00 00 00 00 00 00 00 00 00 00 00 00 00 00 00
       0.0 0.0 0.0 0.0
0000a0 00 00 00 00 00 00 00 00 00 00 00 00 00 00 00 00
       0.0 0.0 0.0 0.0
0000b0 00 00 00 00 00 00 00 00 00 00 00 00 00 00 00 00
       0.0 0.0 0.0 0.0
0000c0 00 00 00 00 00 00 00 00 00 00 00 00 00 00 00 00
       0.0 0.0 0.0 0.0
0000d0 00 00 00 00 00 00 00 00 00 00 00 00 00 00 00 00
       0.0 0.0 0.0 0.0
0000e0 00 00 00 00 00 00 00 00 00 00 00 00 00 00 00 00
       0.0 0.0 0.0 0.0
0000f0 00 00 00 00 00 00 00 00 00 00 00 00 00 00 00 00
       0.0 0.0 0.0 0.0

base.mlp.fc2.0.0.weight f4 [64, 64]
000000 09 59 02 3e 06 37 98 be 28 ea 1e bd bb e2 84 bc
       0.12729277 -0.2972948 -0.038797528 -0.016221395
000010 0d 25 9d 3e 13 60 65 3d 5b 40 f3 3d 68 b3 d4 3d
       0.3069233 0.055999827 0.11877509 0.103857815
000020 12 40 39 3c 04 d4 05 bd f7 13 c0 3e 51 d5 c4 3d
       0.011306779 -0.032672897 0.37515232 0.096109994
000030 70 32 a7 be 6a 6b c1 bd 53 db 55 be b6 5c 9d 3e
       -0.32655668 -0.09444316 -0.20884447 0.30734795
000040 f8 c3 7d bd 0a d7 91 be 00 cd 04 be a0 02 aa 3d
       -0.06195447 -0.28484374 -0.12968826 0.08301282
000050 6d d7 68 3e 22 97 00 be c4 84 d1 3d b0 2d 62 bd
       0.22738428 -0.12557653 0.10230401 -0.055219352
000060 db 83 91 bd fa b8 35 3d 68 27 77 3e ff 45 d5 3d
       -0.071052276 0.04436586 0.24136126 0.10413741
000070 77 e5 6a be 11 c9 85 be 5f 33 2b 3e 92 06 0f 3e
       -0.22939096 -0.26129964 0.16718815 0.1396735
000080 ed 94 ae 3d 2f 0c 1f be 96 1b d2 3c 29 07 19 be
       0.08524499 -0.15531991 0.02564792 -0.14944138
000090 10 d5 05 3d 8e 8a a6 3d eb e7 91 be aa 02 fb 3d
       0.032673895 0.08131896 -0.28497252 0.122563675
0000a0 e5 6a 73 3d fc 8d 55 be 73 d1 d3 3c 9a fe 88 3e
       0.059428114 -0.20854944 0.02585671 0.26756746
0000b0 40 8e 01 be 13 20 5b 3e ef b1 0b 3e f0 3f 9f bb
       -0.1265192 0.21398954 0.13642095 -0.004859917
0000c0 df 2a 54 be 27 04 43 3e 91 b3 ce 3e ed 3a 12 be
       -0.20719479 0.19044553 0.40371373 -0.14280291
0000d0 59 fd 5c 3e 65 9b 39 be 83 27 13 be 14 f6 8e bd
       0.2158102 -0.18125685 -0.14370541 -0.069805294
0000e0 31 7a e4 bd 0d a4 77 3d 37 22 1f 3e 15 95 e1 bd
       -0.11156119 0.060459185 0.15540396 -0.11014763
0000f0 c1 38 52 3e 4b 77 29 3e fc a5 02 3c b9 cf 98 be
       0.20529462 0.16549413 0.007974144 -0.2984598
000100 17 7b 83 3e b3 5e 56 3d 92 49 4f bd 9f ea 69 bc
       0.25679848 0.052336406 -0.05060727 -0.014277129
000110 7f b2 b1 3e 56 82 8b bd e5 9b eb bd e7 b8 44 be
       0.34706494 -0.06811969 -0.11504344 -0.1921116
000120 46 2c 01 3e 58 63 98 bd 14 27 59 be 91 a4 1e 3e
       0.12614545 -0.07440823 -0.21206313 0.15492465
000130 be ad ee bd 9a fc 49 3d 2c 37 28 be 04 66 21 be
       -0.116542324 0.049313165 -0.16427296 -0.15761572
000140 8d 8e a3 bc a8 6c 09 be b1 7c 1f 3d b8 eb 9a bd
       -0.019965434 -0.13420355 0.038937274 -0.07564491
000150 dd 91 a7 3d 14 b3 dd bd f0 79 42 bc 67 5b 01 bc
       0.08182118 -0.10825172 -0.0118698925 -0.007895327
000160 91 02 83 bd c3 9f 2b bd 9d 50 ae 3c d9 1a 85 be
       -0.06396974 -0.041900408 0.021278674 -0.25997046
000170 43 fe 10 3f 2a 2b 2d be df 80 e7 bd 29 93 a2 3c
       0.5663797 -0.16910997 -0.11303877 0.019845562
000180 08 1c 23 3e a6 28 51 be aa 22 91 3b 51 0a 60 3e
       0.15928662 -0.20425662 0.004429181 0.21878935
000190 81 2d 8d bd 77 8f 80 3e ed 73 e9 3c 60 3d 82 be
       -0.06893445 0.25109455 0.02849766 -0.2543745
0001a0 bd 6f 8e 3e 14 1d 95 be 3f 66 23 be 9f 68 ec 3d
       0.27819625 -0.29123747 -0.15956973 0.115433924
0001b0 fe 72 09 bd d7 02 46 be a8 2e 77 be f5 80 c0 bd
       -0.03355693 -0.19337021 -0.24138892 -0.093995966
0001c0 34 00 29 be 10 3d 9d bd bd 2f f3 be 5d 4a 8e be
       -0.16503984 -0.076776624 -0.4749736 -0.2779111
0001d0 72 c4 1d bd 6b f3 76 be 60 38 63 bd 4e b0 72 be
       -0.038517423 -0.24116294 -0.055473685 -0.23700067
0001e0 b4 ff d2 bd 69 4b 1f 3d 44 43 01 3e dc 15 9e bd
       -0.10302678 0.038890276 0.12623316 -0.07719013
0001f0 e8 4a ff 3d b7 59 53 3e f1 46 c9 3c 95 a1 ef 3d
       0.12465459 0.20639692 0.02456996 0.11700741
000200 a8 ab 79 3e d7 69 82 3d 16 f6 7b be 10 4b ad 3e
       0.24381888 0.063678436 -0.24605593 0.3384633
000210 f4 a7 be bd 0e 78 09 3d 8e 53 86 3d 56 a8 8f 3b
       -0.09309378 0.03356176 0.065589055 0.004384081
000220 4b e4 f1 3d c0 43 80 3e 45 63 28 be 6d f1 8a be
       0.118111216 0.2505169 -0.16444118 -0.27137318
000230 0e 77 58 3d 2f 9c 6d 3e 3e c0 47 be 93 4f 82 be
       0.052847914 0.2320411 -0.19506928 -0.25451335
000240 b6 0c a0 3e 51 95 36 3c 95 06 3e be 98 54 85 3d
       0.31259698 0.011143998 -0.18557198 0.065102756
000250 b3 a1 26 3e 9d 98 23 3d 99 01 34 bd ff 9a c1 3c
       0.16272621 0.039940465 -0.043946836 0.023633478
000260 eb db 04 be 32 94 6c be 42 59 cb bd b5 fb cd 3c
       -0.12974517 -0.23103407 -0.09929134 0.025144437
000270 c1 b0 08 3d b4 69 32 3d de 9e 61 bc 43 dc 53 3e
       0.03337169 0.043557838 -0.013770787 0.20689492
000280 51 94 21 3d f2 e2 55 3e fc d9 8e 3e 28 e5 27 be
       0.039448086 0.20887354 0.27900684 -0.1639601
000290 c6 59 89 bc 5d e9 06 be fc 01 06 3c 66 d8 52 be
       -0.01676644 -0.13174959 0.008179184 -0.20590362
0002a0 8e 51 84 bd d4 4d 24 3e 32 ca 82 bd 5c 0f d4 3d
       -0.06460868 0.16045314 -0.06386222 0.10354492
0002b0 ea 66 12 3e 02 af a9 be 37 a2 98 3d e6 1d c4 3e
       0.14297071 -0.33141333 0.07452815 0.3830406
0002c0 a6 83 5e be a1 24 45 3e 0d 65 10 3e 55 aa e2 bd
       -0.21729907 0.19252254 0.14101048 -0.110676445
0002d0 0b 95 95 3e 0b 20 f6 bd 43 f9 31 be 32 72 06 be
       0.29215273 -0.120178305 -0.17380242 -0.131295
0002e0 c6 68 5d 3e 86 a7 a7 3e ac d3 e5 3d 30 fb 86 3e
       0.21621999 0.32744998 0.11222014 0.26363516
0002f0 27 f3 f2 3c 3c 68 44 be 1f 15 c9 3d 40 81 30 be
       0.02965696 -0.19180387 0.09818482 -0.17236805
000300 28 85 b1 3d 95 d5 70 be 4a 3c 37 3c 17 90 81 bd
       0.08667976 -0.23518975 0.011183808 -0.06326311
000310 5e 71 a6 be 3c 4d 95 3e c9 9c b1 bd a9 e2 31 bd
       -0.32508367 0.29160488 -0.086724825 -0.04342905
000320 e5 93 0d be fe 2a 8b be ce f4 17 be d8 7c 2e 3d
       -0.13825949 -0.27181238 -0.1483948 0.04259953
000330 c9 15 eb be 6b fa cf 3d 68 24 52 be 4a f6 b8 bc
       -0.45915058 0.10155185 -0.205217 -0.022578377
000340 53 7c 5c 3e f7 a0 56 be 73 3e aa bc a4 cb 5e 3c
       0.21531801 -0.2095984 -0.020781731 0.013598356
000350 e9 d8 01 3c 50 18 85 3d 5e 45 31 3e 31 2c 43 be
       0.007925251 0.06498778 0.17311618 -0.19059826
000360 83 d1 87 bd ab f1 f6 3c 4e 02 76 be a6 f5 dd bc
       -0.06631758 0.030144533 -0.24024317 -0.027094673
000370 e2 2c c0 3d aa 1c 80 be ee 99 92 bd 20 66 c3 bd
       0.09383561 -0.2502187 -0.07158266 -0.09540963
000380 f3 b0 9c be 99 a0 3a 3d b4 81 37 3e 86 3a 46 3e
       -0.30603752 0.045563314 0.17920572 0.19358262
000390 15 88 57 be 24 1e fb 3d 26 ac 6b 3e d1 c4 34 3e
       -0.21048005 0.12261608 0.23014888 0.17653205
0003a0 aa ca 11 bd 95 1d 31 3d f4 74 2f 3d 96 07 b6 3e
       -0.035593666 0.043241102 0.042836145 0.35552663
0003b0 13 a0 0f 3e 8e ba 10 bd 5e e9 a1 bd fd 0a 7e 3e
       0.14025907 -0.035334162 -0.079058394 0.24808879
0003c0 3c 66 32 3e 15 6a 94 be 2c e6 1e 3e 4c 71 be 3e
       0.17421812 -0.28987184 0.15517491 0.37195814
0003d0 cd 70 13 3e 0d 8d 08 3e fc ef d3 bc f5 00 3d be
       0.14398499 0.13335057 -0.02587127 -0.18457396
0003e0 ad 08 c1 bd cb ef ab bb 30 87 91 3d 36 7c 3d be
       -0.09425483 -0.0052470914 0.07105863 -0.18504414
0003f0 6c 25 71 be c1 9c 6f 3d 19 f3 5c be fb ee 02 3e
       -0.23549432 0.0584991 -0.2157711 0.12786476

base.mlp.fc2.0.0.bias f4 [64]
000000 94 91 6c 3b 1e d5 1b 3a 30 7f 80 3a 73 f1 6c 3b
       0.0036097514 0.00059445377 0.000980353 0.0036154657
000010 98 df 99 3b b4 0d 1d bb 7c 09 45 3b 00 00 00 00
       0.004695844 -0.0023964467 0.0030065468 0.0
000020 ba 77 49 3b 00 00 00 00 03 24 40 39 00 00 00 00
       0.0030741529 0.0 0.00018323962 0.0
000030 00 00 00 00 00 00 00 00 6d 7d 7f 3b 4b e8 be 39
       0.0 0.0 0.0038984672 0.00036412696
000040 b3 fb a6 3a c0 8d f4 ba e8 0d 62 bb 00 00 00 00
       0.0012739807 -0.0018657967 -0.0034493152 0.0
000050 7b 1d 87 3b 2e fa 47 ba 60 9f 4d 38 00 00 00 00
       0.0041233874 -0.0007628527 4.902424e-05 0.0
000060 02 da 4e bb 07 e6 e8 ba 00 00 00 00 00 00 00 00
       -0.0031563048 -0.0017768749 0.0 0.0
000070 00 00 00 00 0b ab e0 3a fc 25 3d 3b 00 00 00 00
       0.0 0.0017140819 0.0028861752 0.0
000080 f6 db 85 bb 5c 8e 36 ba 1f 9e 85 b9 00 00 00 00
       -0.0040850593 -0.0006963962 -0.00025485546 0.0
000090 00 00 00 00 a9 da ac bb d4 fe ab b9 00 00 00 00
       0.0 -0.0052750898 -0.00032805523 0.0
0000a0 5a 58 a2 ba 00 00 00 00 00 00 00 00 b8 c3 21 3b
       -0.001238595 0.0 0.0 0.0024683308
0000b0 00 00 00 00 44 1d 29 bb d8 ca 06 bb ae 6e 22 3a
       0.0 -0.0025804797 -0.0020567682 0.0006196302
0000c0 20 b7 2c 3b 0a 6d 16 3b 5a 1d 70 bb ec 15 2f 3a
       0.0026354268 0.0022953176 -0.0036638589 0.0006678987
0000d0 89 c9 63 bb 8a 41 dc 3a e7 0f 43 bb 62 25 03 3a
       -0.0034757575 0.00168042 -0.0029764117 0.0005002824
0000e0 7b f4 ea ba 00 00 00 00 00 00 00 00 00 00 00 00
       -0.0017925644 0.0 0.0 0.0
0000f0 00 00 00 00 96 e1 df 3a 80 8a a7 3b dd fd d8 3a
       0.0 0.001708078 0.005112946 0.0016555149

base.mlp.fc2.0.2.weight f4 [64]
000000 c3 53 80 3f 18 d5 7f 3f 66 16 80 3f 0c 2d 7f 3f
       1.0025562 0.9993453 1.0006835 0.9967811
000010 d3 b3 7f 3f ac 90 7f 3f a8 2a 7f 3f 24 cb 7f 3f
       0.99883765 0.99830127 0.99674463 0.99919343
000020 7f 83 80 3f 64 67 7f 3f 90 8b 7f 3f 05 bd 80 3f
       1.004013 0.99767137 0.9982233 1.0057684
000030 d6 0c 80 3f 90 6c 80 3f 9a 25 80 3f fe 48 80 3f
       1.0003917 1.0033131 1.0011475 1.0022275
000040 73 68 80 3f 37 00 80 3f d6 a1 7f 3f 55 34 80 3f
       1.0031875 1.0000066 0.9985632 1.001597
000050 cd 86 80 3f 66 e5 7f 3f 49 16 80 3f e2 64 7f 3f
       1.0041138 0.9995941 1.0006801 0.9976331
000060 e9 6e 7f 3f dc a5 7f 3f ef 0c 7f 3f 65 81 7f 3f
       0.9977861 0.99862456 0.9962911 0.99806815
000070 bf 3f 7f 3f 98 37 80 3f 13 b0 80 3f 70 3d 7f 3f
       0.99706644 1.0016966 1.0053734 0.9970312
000080 63 e5 7e 3f a4 22 7f 3f 54 e1 7e 3f 11 8d 80 3f
       0.99568766 0.9966223 0.99562573 1.004305
000090 0a 64 80 3f 6a a4 7e 3f 50 57 80 3f 61 6c 80 3f
       1.003053 0.99469626 1.0026646 1.0033075
0000a0 a9 41 80 3f 84 9a 80 3f d5 b1 7f 3f 6e 6d 80 3f
       1.0020038 1.0047154 0.99880725 1.0033395
0000b0 a3 2e 80 3f b6 63 80 3f c9 a0 7f 3f 5c 40 80 3f
       1.0014232 1.0030429 0.99854714 1.0019641
0000c0 8a 31 80 3f 29 1f 80 3f 3e 5e 80 3f 0f a4 7f 3f
       1.0015118 1.0009509 1.002876 0.9985971
0000d0 a4 6a 7f 3f 9a 53 7f 3f 68 fd 7f 3f 74 b3 7e 3f
       0.99772096 0.9973694 0.9999604 0.99492574
0000e0 99 19 80 3f 9c 3e 80 3f d6 fb 7e 3f a5 3b 80 3f
       1.0007812 1.0019107 0.9960302 1.0018202
0000f0 f5 6c 80 3f 04 f4 7e 3f 61 9f 80 3f b2 4a 80 3f
       1.0033251 0.9959109 1.0048639 1.0022795

base.mlp.fc2.0.2.bias f4 [64]
000000 68 83 50 3b 82 37 ef 39 62 5a b0 3a 66 49 86 3b
       0.0031816605 0.0004562699 0.001345467 0.0040981052
000010 84 88 7a 3b ac 60 15 bb 52 37 70 3b e7 50 61 3a
       0.0038228342 -0.0022793217 0.0036654067 0.0008595124
000020 50 8c 65 3b 1f b2 1e 3b 61 45 30 3a 1f 6c c1 bb
       0.003502626 0.0024215055 0.00067242055 -0.0059027816
000030 37 f7 d7 b9 d6 80 64 bb f9 0d 7a 3b 05 55 19 bb
       -0.00041192185 -0.0034866831 0.00381553 -0.0023396623
000040 92 98 55 bb 94 5d f5 37 97 38 68 bb d8 2f ea ba
       -0.003259216 2.9249852e-05 -0.003543412 -0.0017867042
000050 df 0b 7e 3b 00 b5 ab b9 a4 e1 95 39 c5 88 28 3b
       0.00387644 -0.00032750517 0.0002858761 0.0025716287
000060 90 c3 12 bb 98 5f b8 ba 4c 28 79 3b af 74 06 3b
       -0.0022394396 -0.0014066575 0.0038018404 0.0020516326
000070 99 cf 43 3b 07 f6 87 3a d2 fc 98 3b bf a3 4f 3b
       0.0029878377 0.0010373004 0.0046688104 0.0031683294
000080 c9 75 88 bb 24 eb 64 3b 55 fb 95 3b b5 3b 90 bb
       -0.0041644317 0.0034930194 0.0045770803 -0.004401649
000090 f9 77 4a bb 15 c9 ae bb db 68 40 bb 7c 90 61 bb
       -0.0030894263 -0.0053340294 -0.0029359374 -0.0034418395
0000a0 3b 18 8a ba 8b 8e a3 bb 0c d7 99 3a e0 04 39 3b
       -0.0010535786 -0.0049913577 0.0011737063 0.0028231665
0000b0 52 0a d4 ba 2c 04 53 bb 3e ba cc ba c4 f7 99 3a
       -0.0016177392 -0.0032198532 -0.0015619469 0.0011746814
0000c0 36 25 10 3b 63 58 88 ba 13 bc 88 bb d1 52 bf 3a
       0.0021994836 -0.0010402318 -0.004172811 0.0014596825
0000d0 b7 d3 62 bb 4f 7b 40 3b 10 d2 22 b9 33 20 ac 3b
       -0.0034611055 0.0029370373 -0.00015527778 0.005252862
0000e0 fd 73 0b bb 01 68 09 bb 59 db 89 3b c6 9d f3 ba
       -0.0021278851 -0.0020966532 0.0042070565 -0.0018586449
0000f0 4c 1e 62 bb 10 c2 93 3b 89 74 aa 3b d9 40 0a 3b
       -0.0034502922 0.004509218 0.0052018804 0.002109578
