MAPPO/results/MyEnv/MyEnv/rmappo/check/run19/models/actor_agent1.pt (torch, 322326 bytes, 22 tensors)

base.feature_norm.weight f4 [651]
000000 95 24 80 3f 8d 31 80 3f e1 af 7f 3f eb 42 80 3f
       1.0011164 1.0015122 0.99877745 1.0020422
000010 c0 e0 7f 3f 39 fc 7f 3f 6f dd 7f 3f 50 47 80 3f
       0.99952316 0.99994236 0.99947256 1.0021763
000020 b4 1e 80 3f 67 69 7f 3f 8e 2a 80 3f 3a 35 80 3f
       1.000937 0.99770206 1.0012987 1.0016243
000030 01 9a 7f 3f f3 b5 7f 3f 13 c7 7f 3f 59 0b 80 3f
       0.99844366 0.9988701 0.9991314 1.0003463
000040 a2 aa 7f 3f d0 c9 7f 3f 90 e6 7f 3f 62 ec 7f 3f
       0.9986974 0.99917316 0.99961185 0.99970067
000050 a7 33 80 3f 2e 23 80 3f ff 0f 80 3f f2 2c 80 3f
       1.0015763 1.0010736 1.0004882 1.0013716
000060 d3 06 80 3f 4b 2c 80 3f c7 c6 7f 3f 23 a9 7f 3f
       1.0002083 1.0013517 0.99912685 0.9986746
000070 74 da 7f 3f 09 00 80 3f ce fc 7f 3f 1e 29 80 3f
       0.9994271 1.0000011 0.99995124 1.0012548
000080 76 2c 80 3f 25 11 80 3f be e9 7f 3f 03 69 80 3f
       1.0013568 1.0005232 0.9996604 1.0032047
000090 1a 26 80 3f 24 48 80 3f 5e 0f 80 3f a1 a3 7f 3f
       1.0011628 1.0022016 1.000469 0.9985905
0000a0 c6 12 80 3f d8 3e 80 3f cf 47 80 3f 67 9a 7f 3f
       1.0005729 1.0019178 1.0021914 0.99844974
0000b0 55 8a 7f 3f 9e 3f 80 3f 30 31 80 3f 7c c1 7f 3f
       0.9982045 1.0019414 1.0015011 0.9990461
0000c0 88 3d 80 3f 94 b0 7f 3f 58 26 80 3f 53 f0 7f 3f
       1.0018778 0.9987881 1.0011702 0.9997608
0000d0 5d 19 80 3f 7a 15 80 3f 8a 0c 80 3f d0 3b 80 3f
       1.000774 1.0006554 1.0003827 1.0018253
0000e0 f9 02 80 3f 54 24 80 3f be cd 7f 3f a4 a3 7f 3f
       1.0000907 1.0011086 0.9992331 0.9985907
0000f0 2b 39 80 3f 5f 1b 80 3f cb e6 7f 3f 2a 9b 7f 3f
       1.0017446 1.0008353 0.9996154 0.99846137
000100 2b 8a 7f 3f af 67 7f 3f 1d 13 80 3f ba 9c 7f 3f
       0.998202 0.99767584 1.0005833 0.9984852
000110 de 1e 80 3f e3 88 7f 3f ad d5 7f 3f f5 f0 7f 3f
       1.000942 0.9981825 0.9993542 0.99977046
000120 96 20 80 3f c7 8a 7f 3f e5 45 80 3f c6 dc 7f 3f
       1.0009944 0.9982113 1.002133 0.9994625
000130 ab f1 7f 3f c4 67 7f 3f 57 af 7f 3f ba b6 7f 3f
       0.9997813 0.9976771 0.9987692 0.99888194
000140 27 2e 80 3f ef 29 80 3f fc c2 7f 3f aa 2a 80 3f
       1.0014085 1.0012797 0.999069 1.001302
000150 f9 16 80 3f 93 0b 80 3f 09 b6 7f 3f 95 fd 7f 3f
       1.0007011 1.0003532 0.9988714 0.9999631
000160 00 06 80 3f cb 1c 80 3f 81 db 7f 3f 6f b2 7f 3f
       1.0001831 1.0008787 0.9994431 0.99881643
000170 06 36 80 3f 90 0d 80 3f 13 26 80 3f 82 44 80 3f
       1.0016487 1.0004139 1.0011619 1.0020907
000180 89 2a 80 3f e7 23 80 3f 1f 92 7f 3f c3 15 80 3f
       1.0012981 1.0010957 0.9983234 1.0006641
000190 9d c6 7f 3f 37 82 7f 3f 82 aa 7f 3f b4 49 80 3f
       0.99912435 0.9980807 0.9986955 1.0022492
0001a0 99 f2 7f 3f 04 11 80 3f a5 e0 7f 3f a7 c1 7f 3f
       0.9997955 1.0005193 0.99952155 0.99904865
0001b0 cb ba 7f 3f f5 b8 7f 3f a3 b4 7f 3f 4d 00 80 3f
       0.998944 0.998916 0.99885005 1.0000092
0001c0 f4 dc 7f 3f c7 0d 80 3f ff ad 7f 3f 27 d6 7f 3f
       0.9994652 1.0004205 0.9987487 0.99936146
0001d0 d6 2d 80 3f 81 16 80 3f a6 d6 7f 3f 8e 99 7f 3f
       1.0013988 1.0006868 0.999369 0.9984368
0001e0 55 13 80 3f fc 52 80 3f 36 23 80 3f 2c c1 7f 3f
       1.00059 1.0025325 1.0010746 0.9990413
0001f0 b1 e4 7f 3f 63 d2 7f 3f 46 03 80 3f 51 a7 7f 3f
       0.9995833 0.999304 1.0000999 0.9986468
000200 d4 06 80 3f b4 34 80 3f 7d e6 7f 3f e8 72 7f 3f
       1.0002084 1.0016084 0.9996107 0.9978471
000210 e1 39 80 3f 84 8b 7f 3f fa c3 7f 3f 1a 18 80 3f
       1.0017663 0.9982226 0.9990841 1.0007355
000220 3a 16 80 3f 44 e6 7f 3f b3 0b 80 3f a4 1f 80 3f
       1.0006783 0.9996073 1.000357 1.0009656
000230 f2 02 80 3f b0 aa 7f 3f 08 86 7f 3f e4 ac 7f 3f
       1.0000899 0.99869823 0.9981389 0.99873185
000240 45 6b 7f 3f d4 b1 7f 3f ba 61 7f 3f 57 49 80 3f
       0.99773055 0.9988072 0.99758494 1.0022382
000250 3f 0e 80 3f 81 73 7f 3f e5 dd 7f 3f 2d b1 7f 3f
       1.0004348 0.9978562 0.9994796 0.99879724
000260 7c 07 80 3f ed dc 7f 3f 2e 01 80 3f 18 f3 7f 3f
       1.0002284 0.9994648 1.000036 0.99980307
000270 83 a7 7f 3f b6 20 80 3f 1c 90 7f 3f d6 47 80 3f
       0.9986498 1.0009983 0.9982927 1.0021923
000280 81 c2 7f 3f 76 14 80 3f a0 fc 7f 3f 67 2c 80 3f
       0.99906164 1.0006244 0.9999485 1.001355
000290 d9 e9 7f 3f f1 79 7f 3f 2d 2b 80 3f eb 2c 80 3f
       0.999662 0.9979544 1.0013176 1.0013708
0002a0 b7 7a 7f 3f 67 20 80 3f a4 be 7f 3f d6 85 7f 3f
       0.99796623 1.0009888 0.9990027 0.9981359
0002b0 19 7e 7f 3f 7f 19 80 3f c2 15 80 3f b1 d8 7f 3f
       0.99801785 1.0007781 1.000664 0.9994002
0002c0 6b 0c 80 3f 41 7b 7f 3f 82 08 80 3f 7f 1f 80 3f
       1.000379 0.99797446 1.0002596 1.0009612
0002d0 1f 35 80 3f 47 26 80 3f 6b 0a 80 3f f7 82 7f 3f
       1.0016211 1.0011681 1.0003179 0.9980921
0002e0 56 2e 80 3f b7 f6 7f 3f e6 13 80 3f 35 35 80 3f
       1.0014141 0.9998583 1.0006073 1.0016237
0002f0 bc 0b 80 3f 97 e8 7f 3f 2c 83 7f 3f 0a 4b 80 3f
       1.0003581 0.9996428 0.9980953 1.00229
000300 b1 29 80 3f 67 17 80 3f c8 8f 7f 3f 9b 10 80 3f
       1.0012723 1.0007142 0.9982877 1.0005068
000310 13 90 7f 3f 5c b8 7f 3f b9 24 80 3f 9a 23 80 3f
       0.99829215 0.99890685 1.0011207 1.0010865
000320 27 92 7f 3f b6 95 7f 3f 0a f8 7f 3f 67 eb 7f 3f
       0.99832386 0.99837816 0.9998785 0.9996857
000330 44 97 7f 3f e2 f8 7f 3f 07 15 80 3f 25 10 80 3f
       0.9984019 0.9998914 1.0006417 1.0004927
000340 e9 98 7f 3f f9 a1 7f 3f a3 08 80 3f 8c 1c 80 3f
       0.998427 0.99856526 1.0002636 1.0008712
000350 dc f2 7f 3f be b6 7f 3f 2a 32 80 3f 77 25 80 3f
       0.9997995 0.9988822 1.0015309 1.0011433
000360 4e cb 7f 3f 01 a9 7f 3f b9 04 80 3f 18 79 7f 3f
       0.99919593 0.99867254 1.0001441 0.9979415
000370 de 28 80 3f e0 82 7f 3f bb c1 7f 3f 98 4d 80 3f
       1.0012472 0.99809074 0.99904984 1.002368
000380 b8 55 80 3f 07 d1 7f 3f f6 f4 7f 3f d4 02 80 3f
       1.0026159 0.99928325 0.99983156 1.0000863
000390 79 36 80 3f b2 2d 80 3f 75 10 80 3f e2 03 80 3f
       1.0016624 1.0013945 1.0005022 1.0001185
0003a0 56 02 80 3f d1 be 7f 3f a9 19 80 3f 9b 1c 80 3f
       1.0000713 0.9990054 1.0007831 1.000873
0003b0 5f 06 80 3f 79 7f 7f 3f b3 10 80 3f 61 ce 7f 3f
       1.0001944 0.9980388 1.0005096 0.99924284
0003c0 19 fd 7f 3f 57 4e 80 3f e5 19 80 3f 59 2d 80 3f
       0.9999557 1.0023907 1.0007902 1.0013839
0003d0 d5 97 7f 3f f1 bf 7f 3f 0d 46 80 3f 4e 03 80 3f
       0.9984105 0.99902254 1.0021378 1.0001009
0003e0 b2 0a 80 3f 4f 42 80 3f d2 01 80 3f 43 09 80 3f
       1.0003264 1.0020236 1.0000556 1.0002826
0003f0 fb 3e 80 3f a1 ef 7f 3f d8 02 80 3f 47 f8 7f 3f
       1.001922 0.9997502 1.0000868 0.99988216

base.feature_norm.bias f4 [651]
000000 32 25 23 bb 15 76 69 bb f8 40 0e 3b 6a d0 91 bb
       -0.0024893996 -0.003562336 0.0021706205 -0.0044498937
000010 a9 e0 96 3a fc 8d 06 b8 f6 18 ef 3a 3f ca 8f bb
       0.0011511046 -3.2080323e-05 0.0018241692 -0.0043881233
000020 db 84 b0 ba 7e 93 7f 3b 57 56 40 bb 17 54 59 bb
       -0.0013467328 0.0038997824 -0.0029348338 -0.0033161694
000030 0b b3 40 3b f7 cc 41 3b 97 9e 32 3b 08 30 2d 37
       0.0029403593 0.0029571631 0.0027255171 1.0322787e-05
000040 d7 46 7e 3b 6a 44 05 3b fe 68 b2 3a 15 f4 7f 3a
       0.0038799548 0.0020334967 0.0013611612 0.0009763849
000050 e0 5d 55 bb 23 14 09 bb 7f 3a 25 ba ae 24 10 bb
       -0.0032557175 -0.0020916543 -0.0006302967 -0.002199452
000060 fc 0c 4e b9 78 39 6f bb 4c c9 ba 3a 11 69 45 3b
       -0.00019650528 -0.003650276 0.0014250665 0.003012244
000070 1d 1c 8c 3a 42 cf 57 39 20 40 0b 3a d2 75 08 bb
       0.0010689531 0.00020581207 0.00053119846 -0.002082218
000080 70 e0 18 bb 9e 3e 80 ba 9c ae 55 3a 6c e9 ab bb
       -0.0023327135 -0.0009784286 0.0008151324 -0.005246332
000090 4d 5d 11 bb 21 04 93 bb 6e cc 65 ba 52 0c 46 3b
       -0.0022180856 -0.004486576 -0.0008766119 0.0030219746
0000a0 b2 13 e2 ba 75 b1 9e bb 56 27 86 bb 89 2c 64 3b
       -0.0017248301 -0.004842932 -0.0040940447 0.0034816584
0000b0 af d8 9c 3b 6d 8d 8e bb 28 f0 51 bb ee 29 1e 3b
       0.004786573 -0.0043503554 -0.0032034013 0.0024133879
0000c0 2c 81 8c bb 7d ec 1e 3b ce db 60 bb 91 04 8a 39
       -0.0042878594 0.0024249845 -0.0034310701 0.00026324813
0000d0 5d 9e fb ba ce 9d 07 bb e4 f4 b0 ba 08 24 95 bb
       -0.0019196976 -0.0020693424 -0.0013500717 -0.0045514144
0000e0 50 84 d7 b9 ca 84 2b bb 54 82 21 3b 9f db 4a 3b
       -0.00041106576 -0.0026171678 0.0024644332 0.0030953658
0000f0 a4 89 5a bb be 0c b6 ba f8 02 6e 3a 3c 16 43 3b
       -0.00333462 -0.0013889296 0.0009079422 0.0029767891
000100 db 9b 6e 3b 6f 6c 8c 3b d4 f7 a1 ba 06 49 4d 3b
       0.0036408815 0.004285387 -0.0012357184 0.0031324043
000110 7c b1 03 bb f6 71 8b 3b 4c 44 0c 3b b0 fb 56 3a
       -0.0020094803 0.0042555286 0.0021403013 0.00082009565
000120 ee cb 15 bb 36 5b 65 3b 1e 22 8e bb c6 bd 2f 3a
       -0.0022857147 0.0034996993 -0.004337563 0.00067039987
000130 8a de 87 3a 93 a8 93 3b 7d b9 6b 3b 11 0c 2b 3b
       0.0010366004 0.0045061796 0.0035968714 0.0026099721
000140 92 05 4d bb 50 42 7d bb 90 79 24 3b c7 5d 0f bb
       -0.0031283838 -0.0038644262 0.002509687 -0.0021875964
000150 a8 e5 b9 ba a5 13 60 b9 ad b0 45 3b 96 a2 e5 b9
       -0.0014182823 -0.00021369623 0.0030165121 -0.0004379942
000160 8e bf 17 ba df cc c6 ba be d1 f1 3a 44 59 db 3a
       -0.0005788737 -0.0015167258 0.0018449349 0.0016734977
000170 89 99 8a bb e9 0f 16 ba fe 4a 51 bb 0f 65 a3 bb
       -0.0042297286 -0.00057244167 -0.0031935568 -0.0049864124
000180 30 58 4c bb a0 24 3e bb 81 62 8d 3b 16 34 db ba
       -0.0031180494 -0.002901353 0.004314721 -0.0016723897
000190 db 5c 88 3a c3 b8 89 3b 3a 36 1a 3b 1c e9 9b bb
       0.001040365 0.0042029335 0.0023530857 -0.0047580134
0001a0 a3 cb f4 39 16 b4 3e ba 84 5f 23 3a 5e 36 22 3b
       0.00046691028 -0.00072747597 0.00062321895 0.0024751644
0001b0 de f4 26 3b ff e0 d2 3a 25 a8 6c 3b cd 32 e7 39
       0.0025475542 0.0016088783 0.0036110964 0.00044097603
0001c0 31 2f 96 3a 2c dd 9c ba 7f 1e 84 3b cb 9e 8d 3a
       0.0011458156 -0.001196777 0.0040319557 0.001080477
0001d0 7c 56 23 bb 94 0d 90 ba fd 76 9e 3a d8 87 8a 3b
       -0.0024923375 -0.0010990375 0.0012089905 0.0042276196
0001e0 14 da e0 ba 9f 62 ac bb c4 65 5c bb 04 7b 31 3b
       -0.0017154836 -0.00526078 -0.0033629993 0.002708138
0001f0 e6 19 b4 39 5b 13 ec 3a c9 4a 98 b9 a1 e0 70 3b
       0.0003435157 0.001801114 -0.00029047419 0.0036754983
000200 fd 2d 41 ba 05 e1 84 bb 46 91 19 3a 0c 47 86 3b
       -0.00073692185 -0.0040551447 0.0005858134 0.004097825
000210 50 ab 7e bb f8 c1 75 3b 15 36 f3 3a b0 1e e4 ba
       -0.0038859434 0.0037499648 0.0018555546 -0.0017404165
000220 a7 10 95 b9 ff a3 68 39 10 fe 8b ba 1b 80 cc ba
       -0.00028431902 0.00022186337 -0.0010680575 -0.0015602143
000230 5a 48 82 39 19 1f 25 3b 8c d5 5e 3b fc bd 57 3b
       0.00024849438 0.0025195538 0.0034001796 0.0032919636
000240 fe 7f a9 3b 74 e2 79 3b 58 cf 99 3b 34 fa 88 bb
       0.0051727286 0.0038129361 0.0046939068 -0.004180217
000250 79 f9 bb ba 61 62 8b 3b 47 5a 8c 3a 38 90 5e 3b
       -0.0014341316 0.004253671 0.0010708057 0.0033960473
000260 e0 77 29 ba c9 04 ca 3a c0 a5 8b 35 dd 9c 09 3a
       -0.0006464701 0.0015412803 1.0404547e-06 0.00052495097
000270 dc 8e 80 3b 21 6f 45 bb db 87 8b 3b 52 0d 94 bb
       0.00392328 -0.0030126052 0.0042581386 -0.0045181895
000280 a6 47 15 3b a7 05 e2 ba 73 26 a2 39 2b 75 72 bb
       0.0022778301 -0.0017244116 0.00030927695 -0.0036996107
000290 42 c6 9e 3a c2 e4 91 3b a9 e6 41 bb 69 72 3c bb
       0.0012113529 0.004452319 -0.0029586947 -0.0028754717
0002a0 5e 55 95 3b 3f 50 26 bb e6 d6 27 3b 23 53 98 3b
       0.0045572957 -0.002537742 0.0025610267 0.0046485825
0002b0 45 97 84 3b 71 a1 dc ba a8 65 09 bb 85 fa d1 3a
       0.004046353 -0.0016832781 -0.0020965133 0.0016020095
0002c0 2b ca 80 ba 6e 20 8e 3b 85 01 4a ba 6c f8 59 bb
       -0.0009825876 0.004337362 -0.0007705915 -0.0033259643
0002d0 76 8e 4f bb 7e 09 1d bb d4 ab 2e ba 55 23 86 3b
       -0.0031670607 -0.0023961957 -0.00066631776 0.0040935674
0002e0 96 9c 84 bb 92 8f 43 39 6b 17 0e bb ec 9b 2f bb
       -0.004046987 0.00018650133 -0.0021681439 -0.0026795818
0002f0 22 18 de ba 19 6c 79 3a e6 da 98 3b de 97 a5 bb
       -0.0016944448 0.0009514704 0.0046647666 -0.0050535044
000300 05 dd 47 bb 63 07 f8 ba 75 a9 3c 3b 2d e7 55 ba
       -0.0030496728 -0.00189231 0.0028787528 -0.0008159753
000310 4c 22 76 3b 42 19 03 3b 0f 22 e4 ba c8 9f 67 bb
       0.0037557064 0.0020004069 -0.001740517 -0.003534304
000320 30 f7 86 3b 20 71 86 3b 1a 74 31 b7 1f 02 b2 3a
       0.0041188225 0.004102841 -1.0577054e-05 0.0013580954
000330 64 78 95 3b 71 9d 09 b9 15 ff e7 ba 05 93 9d ba
       0.004561471 -0.0001312399 -0.0017699922 -0.0012021965
000340 33 d1 82 3b fa a3 44 3b eb 49 6a ba 06 14 eb ba
       0.0039922236 0.0030004964 -0.0008937406 -0.0017935045
000350 20 df 1c 37 26 71 fc 3a e7 e2 58 bb a4 d1 68 bb
       9.350275e-06 0.0019259795 -0.0033094229 -0.0035525346
000360 31 a2 0a 3b eb 7a 42 3b f0 c4 83 ba 47 31 85 3b
       0.0021153803 0.0029675316 -0.0010053199 0.004064712
000370 9f df 07 bb 4f 3d 72 3b 2e da 27 3b 7a c4 9a bb
       -0.0020732654 0.0036962812 0.0025612223 -0.004723129
000380 bc a5 94 bb 5b 74 fd 3a 11 7f 55 39 9c c9 72 b8
       -0.0045363586 0.0019337045 0.00020360599 -5.788506e-05
000390 f3 d0 7a bb 38 bb 1b bb 26 fa 19 ba fc 61 e3 b9
       -0.0038271516 -0.0023762714 -0.0005873762 -0.00043369818
0003a0 82 c5 7c 39 c8 2d e1 3a 3e 5c c1 ba 93 19 2f bb
       0.0002410617 0.0017179782 -0.0014752222 -0.0026718124
0003b0 b5 07 c8 b9 44 de 96 3b 26 bf b3 ba 97 a9 1c 3b
       -0.00038152715 0.004604133 -0.0013713583 0.0023904794
0003c0 90 d3 d9 39 36 ef a3 bb c2 f2 09 bb 50 8c 5a bb
       0.00041547092 -0.0050028814 -0.0021049236 -0.0033347793
0003d0 54 d9 2a 3b 8f e6 4a 3b 4d da 91 bb dc b8 cf b9
       0.002606948 0.0030960178 -0.0044510723 -0.00039619848
0003e0 bd 0c e5 b9 28 6e 93 bb 3e f4 b1 39 ca 91 e3 b9
       -0.00043687774 -0.0044992156 0.00033942045 -0.00043405435
0003f0 fb 5b 89 bb cd aa 78 3a a7 23 34 b8 73 f8 4c 3a
       -0.004191873 0.00094859005 -4.2948548e-05 0.0007819004

base.mlp.fc1.0.weight f4 [64, 651]
000000 67 5d 70 3b 92 45 54 bd 13 30 73 3c 5c 31 6c 3a
       0.0036676766 -0.05182416 0.014843005 0.00090100407
000010 ef da 01 bd 96 6e a8 3c cc b4 b1 3c bb d4 e0 3b
       -0.031702932 0.020560544 0.021692656 0.006861297
000020 cc 20 89 3b f1 bd 24 bd 75 1e 88 3d 2f bb 98 3d
       0.004184818 -0.040220205 0.06646434 0.074575774
000030 c7 ab d5 bc f2 55 48 3d 29 cf 9e bd 39 38 89 3d
       -0.026082886 0.04891009 -0.077543564 0.06700177
000040 7a f1 f5 3c cf 03 55 3c 4e 97 d7 3d b2 89 ee 3d
       0.030022372 0.013001396 0.10526906 0.11647357
000050 7e ec 7d bd 81 51 dc bb b1 1f 90 bd 9f 1b 13 bd
       -0.061993115 -0.006723583 -0.07037295 -0.035915013
000060 a8 4d e0 bd e7 3a f8 ba 4d 75 b7 3c 27 34 32 bc
       -0.10952312 -0.0018938453 0.0223948 -0.010876692
000070 9b e3 93 bd 95 86 63 bd 53 fb 57 3d 7c b6 c0 bd
       -0.07221147 -0.05554827 0.052729916 -0.09409806
000080 d6 ce 97 3c e4 9d d4 bb 18 04 ab 3d ab e9 54 3d
       0.018531244 -0.0064885486 0.0835039 0.051980656
000090 4a 1d c3 bc 22 7e a8 bd 22 33 60 bc 58 56 80 3a
       -0.023817677 -0.08227183 -0.013684066 0.0009791357
0000a0 b4 e2 b7 bd 39 8e 34 3d 8b 12 a3 3a 65 0b ed 3b
       -0.08978787 0.044080947 0.0012441439 0.0072340243
0000b0 ae 46 2f bd 0d 5d 50 bd 61 62 78 bd 61 a4 a6 bd
       -0.042792015 -0.05086999 -0.060640696 -0.081368215
0000c0 47 50 5a bd 5c 89 6b 3c 89 2e 93 3d e7 b9 d5 3d
       -0.053299215 0.014376011 0.0718661 0.10435849
0000d0 8f c4 cb 3c 78 75 cf bd 84 61 aa 3c 6c 2d 24 3e
       0.024874 -0.10129827 0.020798452 0.16032952
0000e0 78 36 a4 bd 8c 82 44 3d be 75 2d bd 45 e2 24 3d
       -0.080182016 0.04797606 -0.042348616 0.04025485
0000f0 ab 1a 33 3d 50 1a 2c bc 0c 44 13 bc d4 98 60 bb
       0.043726604 -0.01050432 -0.008988392 -0.003427078
000100 b4 7a ca 3c 4c 50 42 3d 1f 6a 10 bd 61 27 7d bd
       0.024716713 0.04743986 -0.035257455 -0.061805133
000110 8c fb 20 bd 2c b4 5a 3b 5d ea 75 bd 9e 83 eb bc
       -0.039302394 0.003337155 -0.06003796 -0.028749283
000120 88 5a 3d 3c 72 58 9e 3b 98 4a 08 bd 37 77 14 bd
       0.011557229 0.004832321 -0.033274263 -0.036246505
000130 38 7e a5 3c 68 f7 0d 3e 51 ed 5b bd 93 48 41 bd
       0.020201787 0.13863909 -0.05369312 -0.047188353
000140 03 96 3a bd ea df ad bd 89 5e bb 3d 07 05 71 bd
       -0.04555322 -0.08489974 0.091488905 -0.058842685
000150 2d 9e 09 3d 17 7e b9 bd ea d8 c5 ba 1b 8a a4 3c
       0.033598114 -0.09057253 -0.0015094553 0.020085385
000160 f5 52 27 be e0 7e a7 3b 3f 1a 5a 3d 16 8c 55 3c
       -0.1634024 0.00511156 0.053247686 0.013033887
000170 99 35 9b 3c 69 28 5c 3d 70 9e 12 bd f1 64 03 3e
       0.018946456 0.053749476 -0.03579563 0.12831475
000180 a1 b1 25 bd d4 01 c5 bd dd 48 58 bd 33 9c f6 bd
       -0.040452603 -0.09619489 -0.052803863 -0.120415114
000190 03 16 47 bd e3 31 74 3d 05 58 4c 3d e7 e7 83 bc
       -0.048604976 0.05961789 0.04988863 -0.01610179
0001a0 87 c8 4d bc 80 c2 ce 3c 25 6b 1d bd 15 29 50 3b
       -0.0125600165 0.02523923 -0.03843226 0.0031762768
0001b0 9e 72 16 3e d4 91 60 ba 67 aa 52 bd c2 4e 1f bd
       0.1469216 -0.0008566652 -0.05143204 -0.03889347
0001c0 1b 16 0b 3e 3f 88 c5 bd 77 fd c8 bc bd 9b 4c bd
       0.13582651 -0.096451275 -0.024534924 -0.04995321
0001d0 94 4b 8a 3d e6 c9 bf bd 11 d2 c0 3d 80 a3 1c bd
       0.06752697 -0.09364681 0.09415067 -0.038241863
0001e0 e9 ea b4 3d 82 8e 87 bd ce 4f 8f bd 0e 15 a1 bc
       0.08833868 -0.06618978 -0.069976434 -0.01966336
0001f0 e9 28 eb 3b ea fc 9c 3d 01 f3 9f bc f6 94 b2 3c
       0.0071765077 0.07665427 -0.019525053 0.021799546
000200 55 d8 1a bd dd 08 32 bc ed b5 c9 3b 70 e9 a1 bd
       -0.037803967 -0.010866371 0.0061557204 -0.07905853
000210 96 fd 29 3d ea 66 df 3c 77 97 0c bd 0b bc 05 bd
       0.041501604 0.027270753 -0.034324136 -0.032650035
000220 28 4c f3 3b 6d d2 30 3c ec 7c f7 bb 50 be df bd
       0.00742485 0.010792357 -0.0075527336 -0.10924971
000230 f0 b0 97 bd 59 ee ab bc dd af d3 bb e0 e6 2c bd
       -0.07406795 -0.020987676 -0.0064601735 -0.042212367
000240 81 15 80 bd 60 63 9d bc 5b 64 b9 bc ba fd be 3d
       -0.062541015 -0.019212425 -0.022630861 0.09325738
000250 e7 12 36 bd 16 54 2e bd 7d 7e db 3d 4b d3 f1 3c
       -0.04445162 -0.04256066 0.10717485 0.029519698
000260 34 bb 1a bd 98 25 2d bc 9f d6 1e bd 5d 38 7b 3d
       -0.037776187 -0.010568045 -0.038778897 0.06133305
000270 66 63 84 bd 7c c3 8b bd 46 4b a8 bd e0 88 0d bd
       -0.06464271 -0.06824395 -0.08217482 -0.034554362
000280 5e 67 03 bd bf 56 85 3d 18 af 92 3c 9c d1 6d 3c
       -0.032081 0.06510686 0.017905757 0.014515307
000290 fe 36 cc 3a 52 e6 c1 3d db 9a 18 bd 1e af 1a 3c
       0.0015580354 0.09467758 -0.037257057 0.009441165
0002a0 bf 67 5f bd 77 70 e0 bb b1 cd 6f bd e8 c1 25 3c
       -0.0545423 -0.0068493444 -0.058545772 0.010117032
0002b0 65 ef 34 3d 86 d9 53 3c 7d b6 a5 3d 5d 04 13 bd
       0.044173617 0.01293028 0.080914475 -0.035892833
0002c0 5a e7 9b 3d 0d 5e 05 bb 0f 3d 91 3d 03 28 9c 3a
       0.07612486 -0.0020350248 0.07091724 0.001191378
0002d0 5e b9 52 bd 6c 8f ed 3a eb 11 3a 3e 9a 82 1e be
       -0.05144631 0.0018124408 0.18170898 -0.15479508
0002e0 f2 38 e4 bc 38 ef bf 3c d9 bf 49 bd 3a 8e 3c 3d
       -0.027859185 0.023429498 -0.049255226 0.046034075
0002f0 d4 3b f1 3c f9 2b 33 bc 98 2c 06 3b bd e2 6b 3d
       0.029447474 -0.010935777 0.0020473357 0.05758928
000300 3d 7e 68 bd 25 71 e4 bc 20 f0 8a bc 24 e3 ed bd
       -0.056761015 -0.027885983 -0.016960204 -0.11615589
000310 6c 41 65 bd 0a 7b 84 bd d4 51 b8 bc 41 e9 50 bd
       -0.055970594 -0.0646878 -0.022499956 -0.0510037
000320 45 6d 97 bc 3d 3a 19 3c ed e0 5b bd 89 9c 49 3d
       -0.018484721 0.009352264 -0.053681303 0.04922155
000330 d1 64 4e bc 1e 70 52 bd 8a 4d ab 3d 67 1c 53 bd
       -0.012597279 -0.051376455 0.08364399 -0.05154076
000340 91 40 c8 bd 0c b2 ae 3c a7 69 24 3b cb 5d 91 3b
       -0.0977794 0.021325134 0.0025087388 0.00443623
000350 6d 53 c1 3d d4 67 66 3c 0e a7 1e 3d a2 3b 93 bb
       0.0943974 0.0140628405 0.038733535 -0.004493193
000360 67 a9 82 3d ba ef 1b 3d a2 45 82 b9 d7 47 40 3c
       0.06379967 0.038070418 -0.00024847413 0.011735878
000370 18 c0 b4 3d f0 81 e9 3c ad e4 0d bc 75 2a 70 bd
       0.088257015 0.028504342 -0.008660478 -0.05863424
000380 3b 7a 50 bd ad bd 09 bd d4 a6 c3 3c fc 74 80 bd
       -0.050897818 -0.033628155 0.02388326 -0.06272313
000390 58 61 bb 3c 4f 9c 07 3d db 5b 58 bd 5c a9 04 bd
       0.022873566 0.033108052 -0.052821975 -0.032388076
0003a0 d5 a5 b2 bc d6 f3 69 bc 41 0c 99 3c 6c ab 7c 3d
       -0.02180759 -0.014279326 0.0186826 0.06168692
0003b0 32 45 31 bc 0a e2 33 3b ce 2f ac 3d 57 2f 4b 3d
       -0.01081972 0.0027447962 0.084075555 0.049605694
0003c0 08 0d 0c bd fb eb 9c bd ca 59 bd 3c 21 e3 2a 3d
       -0.034192115 -0.07662197 0.023114104 0.041720513
0003d0 c9 f3 11 3c 0c ae 03 bd c6 c5 01 bd 68 aa 4d bd
       0.008908221 -0.032148406 -0.031682752 -0.05021134
0003e0 35 c9 2b 3d 6e e6 61 bd 1f a0 cc 3d bd fa 67 3c
       0.041939933 -0.055151395 0.09991478 0.014158902
0003f0 95 02 e6 3c 5e a3 3c 3c a5 cb 09 bc d5 c8 db 3d
       0.028077403 0.011513559 -0.008410369 0.10731665

base.mlp.fc1.0.bias f4 [64]
000000 3a 44 93 3a 00 00 00 00 00 00 00 00 6b 10 80 bb
       0.0011235543 0.0 0.0 -0.003908207
000010 00 00 00 00 00 00 00 00 00 00 00 00 0f cd 4a 3a
       0.0 0.0 0.0 0.00077362446
000020 5b 50 21 bb 00 00 00 00 00 00 00 00 b7 6d b7 3b
       -0.0024614546 0.0 0.0 0.005597796
000030 3d 25 30 3b d7 ee 5f 3b 7c bf 8f 3a 00 00 00 00
       0.0026877664 0.003416946 0.0010967101 0.0
000040 a5 81 04 3b 5d e1 29 bb 00 00 00 00 6d 01 c4 bb
       0.0020218876 -0.002592168 0.0 -0.0059816153
000050 ad 06 24 3a 21 09 b7 ba 1e 8e 03 3b 1f 60 1a 3a
       0.0006257098 -0.0013964513 0.0020073722 0.0005888957
000060 40 0b 0c 3b e9 d2 3c 3b 54 b3 3a 3b 00 00 00 00
       0.002136901 0.0028812236 0.0028488236 0.0
000070 02 8f 10 bb df e5 0f ba 85 8d 5c bb 00 00 00 00
       -0.0022057896 -0.00054892706 -0.0033653688 0.0
000080 00 00 00 00 b2 42 9b 3b 00 00 00 00 00 00 00 00
       0.0 0.0047381753 0.0 0.0
000090 00 00 00 00 32 22 ff 3a 58 ad 01 3b 4a 87 2d ba
       0.0 0.0019465147 0.0019787159 -0.0006619586
0000a0 3b c9 71 bb 00 00 00 00 00 00 00 00 11 36 90 bb
       -0.0036893624 0.0 0.0 -0.0044009765
0000b0 00 00 00 00 1a 8a 12 b9 00 00 00 00 8e 86 9c bb
       0.0 -0.00013975092 0.0 -0.0047767824
0000c0 00 00 00 00 34 98 4a 3b 14 a9 e9 ba 58 2c 91 bb
       0.0 0.0030913474 -0.0017826878 -0.004430335
0000d0 3b 32 36 bb f3 51 2e bb a3 2d 24 3b 00 00 00 00
       -0.0027800936 -0.0026599139 0.0025051616 0.0
0000e0 00 00 00 00 00 00 00 00 3a da 00 bb 00 00 00 00
       0.0 0.0 -0.0019661323 0.0
0000f0 08 cc 48 3b 8e c7 89 ba 00 00 00 00 00 00 00 00
       0.003063919 -0.0010511742 0.0 0.0

base.mlp.fc1.2.weight f4 [64]
000000 30 0a 80 3f 26 a1 80 3f 3f fb 7e 3f 7b f9 7e 3f
       1.0003109 1.0049179 0.9960212 0.99599427
000010 34 d3 7f 3f 0a 9a 7f 3f b9 06 7f 3f c0 c5 7f 3f
       0.99931645 0.9984442 0.9961963 0.9991112
000020 c1 92 7f 3f 81 d6 7e 3f 4d 99 7f 3f 35 bf 80 3f
       0.99833304 0.99546057 0.99843293 1.0058352
000030 19 b6 7e 3f 43 50 80 3f e1 8b 80 3f 61 5c 80 3f
       0.9949661 1.0024494 1.0042688 1.0028192
000040 74 d6 7f 3f 53 3e 7f 3f 8d 8a 7f 3f aa 6f 7e 3f
       0.99936604 0.99704474 0.99820787 0.99389136
000050 33 bd 7f 3f 08 38 80 3f 86 7e 7f 3f f5 29 80 3f
       0.9989807 1.0017099 0.99802434 1.0012804
000060 6d 41 80 3f 95 c3 7f 3f be 1c 80 3f dc 3c 80 3f
       1.0019966 0.9990781 1.0008771 1.0018573
000070 3e 23 80 3f 81 b5 7f 3f 9e 54 7f 3f 9f 78 80 3f
       1.0010755 0.9988633 0.9973849 1.0036811
000080 cb aa 80 3f f8 92 80 3f 1a cf 7e 3f 24 77 80 3f
       1.0052122 1.0044851 0.9953476 1.0036359
000090 27 8b 80 3f f9 6c 7f 3f be 5d 80 3f 56 1c 7f 3f
       1.0042466 0.99775654 1.0028608 0.9965261
0000a0 3d 4f 80 3f 02 34 80 3f c9 1f 80 3f d8 c6 7e 3f
       1.0024182 1.0015872 1.00097 0.9952216
0000b0 8a 32 80 3f 80 8d 7f 3f 7c bc 80 3f 12 a6 7e 3f
       1.0015423 0.99825287 1.0057521 0.99472153
0000c0 5a 43 80 3f 85 59 80 3f 59 e1 7f 3f d1 59 7f 3f
       1.0020554 1.0027319 0.9995323 0.99746424
0000d0 20 8d 80 3f a0 85 80 3f 37 e7 7e 3f a3 3f 80 3f
       1.0043068 1.0040779 0.99571556 1.001942
0000e0 42 87 80 3f a3 cd 7f 3f 46 56 7f 3f 48 2a 80 3f
       1.0041277 0.9992315 0.9974102 1.0012903
0000f0 04 f5 7f 3f 91 f1 7f 3f 78 9a 80 3f 01 49 80 3f
       0.9998324 0.99977976 1.004714 1.0022279

base.mlp.fc1.2.bias f4 [64]
000000 e2 71 d2 b9 e6 74 a9 bb 54 38 89 3b bf a1 85 bb
       -0.0004013917 -0.005171406 0.004187623 -0.0040781195
000010 d3 5e 36 3a 2d 64 ce 3a 00 39 84 3b 98 47 51 39
       0.0006956879 0.0015746407 0.0040351152 0.00019958464
000020 d4 75 f8 3a 17 58 9b 3b ef 9e f9 3a 50 98 ab 3b
       0.0018956014 0.0047407257 0.0019044558 0.005236663
000030 71 ea ab 3b f4 b9 11 3b 16 ff 5f bb e7 69 44 bb
       0.0052464535 0.002223608 -0.0034179143 -0.002997035
000040 82 2d d6 3a 59 ff 34 bb 63 68 f6 3a 73 fb bd bb
       0.0016340467 -0.002761802 0.001879942 -0.0057977973
000050 a8 0c c8 37 33 34 d9 ba 35 dd 11 3a bb fc 9e ba
       2.3847751e-05 -0.0016571343 0.00055642735 -0.0012129763
000060 3c a2 e5 3a 52 2f 1e 3b 6a 34 12 3b fb 3d 0a bb
       0.0017519663 0.0024137092 0.0022309073 -0.0021094072
000070 31 df 2a bb 13 69 89 ba 55 f4 75 bb 2d ba 82 bb
       -0.0026072974 -0.0010483585 -0.0037529666 -0.003989479
000080 d8 01 b6 bb 45 2c 96 3b 2b 7c a3 3b 57 08 7e bb
       -0.005554419 0.004582914 0.004989167 -0.0038762295
000090 0a 62 99 bb e4 30 fe 3a 47 b9 94 3a d7 6d 6d 3b
       -0.0046808766 0.0019393233 0.0011346721 0.00362288
0000a0 fd 36 ff ba 41 58 e1 ba b7 db 7c ba ad fc 8f bb
       -0.0019471344 -0.0017192439 -0.0009645777 -0.004394135
0000b0 91 aa e1 ba b7 7f d1 3a b8 34 c4 bb 09 b0 9c bb
       -0.001721697 0.0015983497 -0.00598773 -0.004781727
0000c0 f0 c4 0e bb 3d b6 39 3b 94 dd 21 bb 43 b5 98 bb
       -0.0021784864 0.0028337382 -0.0024698721 -0.00466028
0000d0 d3 9a a3 bb c6 42 9e bb eb 33 8b 3b 07 10 12 bb
       -0.0049928217 -0.0048297374 0.0042481325 -0.0022287385
0000e0 60 58 8f bb ec 2a 55 3a f0 aa 0b bb 53 f7 c1 ba
       -0.004374549 0.0008131701 -0.0021311603 -0.001479844
0000f0 2d cf dc 3a f5 01 d6 ba 8a 98 9d bb d9 af 17 bb
       0.0016846411 -0.0016327488 -0.004809444 -0.0023145585

base.mlp.fc_h.0.weight f4 [64, 64]
000000 fb fb 92 bc 0c de b3 3d 59 b3 7c 3e 77 9d 7b 3e
       -0.01794242 0.087825865 0.2467779 0.24571787
000010 ce 14 df bd fe 30 44 ba 72 0f 24 bd 9f e9 bc be
       -0.1089264 -0.0007484107 -0.040053792 -0.3689699
000020 2a 38 05 3e ec c5 8e 3e 73 08 a3 3d 18 63 63 3e
       0.13009706 0.27885377 0.07960596 0.2220577
000030 f2 74 63 3e e5 1a 6f 3e 1b f5 89 3d 77 52 02 bc
       0.2221258 0.23350103 0.06736203 -0.007954231
000040 fd 28 a7 bd db 8b 3b be 11 85 88 3c 99 96 11 3e
       -0.08162115 -0.1831507 0.016665014 0.14217605
000050 b3 aa 4f 3c 5b 3d 57 3d 6f e7 65 3e c8 86 84 be
       0.012674975 0.052548748 0.22451566 -0.2588408
000060 7a 09 f7 bd 44 61 dc bd 50 b5 f4 3e cb 48 e2 bd
       -0.120623544 -0.107607394 0.4779458 -0.110490404
000070 64 5c 3d 3e a2 2e 3c be 3a a4 d5 3c 7b 03 ae bd
       0.18492275 -0.18377164 0.026079286 -0.084967576
000080 02 52 26 be 04 a1 e2 3d ce 27 c1 3d 09 d1 d7 bc
       -0.16242221 0.110658675 0.0943142 -0.026344793
000090 27 ef ce 3d c0 42 36 3e 61 25 4e 3d 0d 10 13 be
       0.101042084 0.177989 0.050328616 -0.14361592
0000a0 e5 dc 09 be ae 84 0d 3d 31 89 75 3e b4 3d 86 bc
       -0.13463171 0.03455036 0.23978116 -0.016386844
0000b0 0e 18 eb 3d ed 5b 58 be c5 db 80 3d f4 55 b5 bd
       0.114791974 -0.21128817 0.06291918 -0.08854285
0000c0 1c 58 c8 3b 66 ea e7 3b 37 83 45 3c 6c 80 b1 bd
       0.006114019 0.007077503 0.01205521 -0.08667073
0000d0 ef 0b 36 be d0 2c 3b be 5e 58 8d bd 82 ed 8b be
       -0.1777799 -0.18278813 -0.0690162 -0.27329642
0000e0 7b a5 bd be 9f d7 dc be 48 9e a9 bc c9 87 82 be
       -0.37040314 -0.43133256 -0.020705357 -0.2549422
0000f0 e1 bd 99 3e 82 73 41 3d 58 d3 57 be 5c 82 fc bc
       0.3002768 0.047229297 -0.21076715 -0.030823879
000100 0a da 04 3e ff 52 6b 3e 15 b8 11 be 52 85 f2 bd
       0.129738 0.22980879 -0.14230378 -0.11841835
000110 fa 41 5f be b8 55 76 be 7b 63 43 bd 1d 36 1a b9
       -0.21802512 -0.24056137 -0.047702294 -0.00014706743
000120 68 38 ab 3e 64 ec 25 be 7a 87 36 be 23 a0 dc 3d
       0.33441472 -0.16203457 -0.17825118 0.10772731
000130 f5 f0 db 3d 14 14 8a bc f9 d9 5e be 74 2f 93 bd
       0.10739318 -0.016855277 -0.21762837 -0.07186785
000140 f4 9e fc bd 58 ba 05 3e c1 e6 c6 bd 27 c5 56 bd
       -0.123350054 0.13059366 -0.097119816 -0.052434113
000150 79 52 0e bd 68 42 2f 3e 05 93 3e 3d 17 7f 4a bd
       -0.03474662 0.17115176 0.046526928 -0.04943761
000160 c3 18 77 3e 9b c9 6b bd 4e d1 9e 3e 72 52 b0 bd
       0.2413054 -0.057565313 0.31019062 -0.08609475
000170 e1 8c f4 be bb f4 bc bc 04 7b fc bc 64 f6 bf 3d
       -0.47763732 -0.023065915 -0.030820377 0.09373167
000180 e9 42 ca 3e 17 5c cc be 4d 63 99 3d dc f0 a9 bd
       0.39504173 -0.3991401 0.07489643 -0.082978934
000190 75 b6 8f be df 15 cc bc 69 d1 7f 3d 57 9c 17 3e
       -0.2806889 -0.024912773 0.06245557 0.14805733
0001a0 d0 cd 8c 3e ca 3a 08 be 41 ea 59 3e d8 0a d9 bd
       0.27500772 -0.13303676 0.21280767 -0.105977714
0001b0 65 f2 9f 3d fb db 4a bd 38 d0 8d be 11 fc 9e 3c
       0.07809905 -0.049526196 -0.2769792 0.019407304
0001c0 6f f8 e5 3d 2a bf 88 bc 16 78 86 be ba 3b de bd
       0.112290256 -0.016692717 -0.26263493 -0.10851236
0001d0 b9 6a 14 3e 12 af 9f be 33 79 30 bd e4 64 f8 3d
       0.14493836 -0.31188256 -0.043084335 0.12128618
0001e0 b9 be a6 be 9d f4 49 3d 11 bb 0a 3e d9 f6 19 3c
       -0.32567385 0.049305547 0.13547923 0.009397232
0001f0 93 bc e7 bd 85 ce 6e bc 35 ea 0b be a1 18 7b 3d
       -0.113152646 -0.014575605 -0.13663562 0.061302785
000200 f9 cd e5 bd 5a f3 0f be 70 df 69 be c2 c1 f0 bc
       -0.11220927 -0.14057675 -0.22839141 -0.029389266
000210 07 1a 00 bd d5 58 9e be 6a 9d d0 bd 4d 9b c0 3c
       -0.03127482 -0.30927148 -0.10186274 0.023511553
000220 48 3b 85 3c a8 2e 47 3e 27 59 b3 bc e1 4d 97 bd
       0.016263619 0.19451392 -0.021893097 -0.07387901
000230 ce 25 1c be 47 fd 14 3c 8c d9 f9 3b e2 c7 29 3d
       -0.15248796 0.009093589 0.0076248106 0.04145039
000240 dc 0e cc bc 72 c4 c5 3c f8 18 5f 3e e5 0f d1 3d
       -0.02490943 0.024141524 0.21786869 0.1020811
000250 3d d4 50 be c0 4d b0 3e 6c 7c 99 be 8e 14 04 3e
       -0.20393462 0.3443432 -0.2997774 0.12898466
000260 f7 ea 75 3d 8a 64 e3 bc 90 17 80 be 0a 38 41 be
       0.060038533 -0.027757902 -0.25017977 -0.18869033
000270 b0 56 5c be 1d 5f 10 bd 96 0b 84 3c 62 49 16 3d
       -0.21517444 -0.035246957 0.016118806 0.036691077
000280 95 1e 1c be 1f 54 ff bd 68 62 96 3e da c2 cf bd
       -0.15246041 -0.12467217 0.29371953 -0.10144587
000290 8b 24 62 3e 4b 00 4f be 33 df 32 be b6 3c 8a bc
       0.22084253 -0.20214956 -0.17467956 -0.016874652
0002a0 a0 54 5f bc 3d 9e fc 3d 4c fb 9e 3e 08 28 94 bd
       -0.013631016 0.12334869 0.310511 -0.07234198
0002b0 14 08 90 3e 3f ef a7 be 2f b4 43 bc 92 30 36 bd
       0.28131163 -0.32799718 -0.011944815 -0.044479914
0002c0 43 cc df 3d 11 33 72 3e 01 5b 12 be f8 9b 1c bc
       0.10927632 0.23652293 -0.14292528 -0.00955867
0002d0 74 e2 e8 bd 38 0c db 3e 5f 56 33 3e 84 ba 9c bd
       -0.113713175 0.4278276 0.17513417 -0.076527625
0002e0 f1 8f 8b 3e 6f 62 08 be 94 83 1a 3e 8d ac 3b bd
       0.27258256 -0.133188 0.15089256 -0.045818854
0002f0 b2 d2 6d 3e 66 84 3f 3d 05 20 d0 be f9 c4 4b 3e
       0.23224905 0.046757124 -0.4064943 0.19899358
000300 5a ba 7c 3e e8 04 de 3e e8 59 b6 be 9f 72 22 be
       0.24680462 0.43363118 -0.35615468 -0.15864037
000310 5c ff 9e 3e ef 81 c5 ba 28 26 1c 3d 86 23 8b bc
       0.310542 -0.001506863 0.038122326 -0.016984712
000320 27 50 82 3e ec a9 72 3d ff 1d 28 bd e1 73 f6 3d
       0.25451776 0.05924408 -0.04104423 0.12033821
000330 57 6e 5d be bb f0 2e 3e 2f 1a 92 3b 78 fb 5d 3d
       -0.21624123 0.17084019 0.0044586877 0.054194897
000340 76 61 e4 bc 0f 6d 9a bc ea cf 1d 3d 70 f9 33 be
       -0.027878504 -0.018850831 0.03852836 -0.17575622
000350 eb 2f 39 be 3a 93 12 bd 58 66 d2 3d 97 d0 c5 3d
       -0.18084686 -0.035784937 0.10273427 0.09658926
000360 fa b9 a5 3d e9 a4 c8 3d 48 15 84 3e 4a c6 83 3d
       0.08092113 0.09797079 0.25797486 0.06434305
000370 6e 5d d0 3e c8 9b 0c 3d 70 ab 79 3d 07 fe b1 3e
       0.4069628 0.034328252 0.06095451 0.3476412
000380 59 7f 3d 3e c7 04 8c 3d ed b2 30 3e 4a e9 f4 3d
       0.1850561 0.06836849 0.17255755 0.11958559
000390 66 85 97 bd 1b f5 cc be f5 0c bc bc 8b d1 87 3e
       -0.073984906 -0.4003075 -0.022955397 0.26527056
0003a0 80 81 a6 3c d0 94 1e 3e 64 aa cf bd 80 77 07 be
       0.020325422 0.15486455 -0.10139921 -0.1322918
0003b0 23 e0 3c bb 60 52 ae 3d 25 c7 90 3d d2 01 17 3d
       -0.002882012 0.085118055 0.07069234 0.03686697
0003c0 c4 f2 ac be 00 ec ef 39 7a f3 19 3e a5 5f ea bd
       -0.33778965 0.00045761466 0.15034285 -0.11444024
0003d0 6d da 7d be 33 f0 43 3e 5d f3 c4 3d af cd ab be
       -0.24790354 0.19134597 0.0961673 -0.33555362
0003e0 0b 14 a5 bd f8 17 b8 bc 67 3f bf bd b2 47 8c 3e
       -0.080604635 -0.022472367 -0.09338265 0.2739845
0003f0 df ea 02 3e 5f 1a 84 bd f7 1d 7c bb fc c0 97 3d
       0.12784909 -0.064503424 -0.003847001 0.07409856

base.mlp.fc_h.0.bias f4 [64]
000000 00 00 00 00 00 00 00 00 00 00 00 00 00 00 00 00
       0.0 0.0 0.0 0.0
000010 00 00 00 00 00 00 00 00 00 00 00 00 00 00 00 00
       0.0 0.0 0.0 0.0
000020 00 00 00 00 00 00 00 00 00 00 00 00 00 00 00 00
       0.0 0.0 0.0 0.0
000030 00 00 00 00 00 00 00 00 00 00 00 00 00 00 00 00
       0.0 0.0 0.0 0.0
000040 00 00 00 00 00 00 00 00 00 00 00 00 00 00 00 00
       0.0 0.0 0.0 0.0
000050 00 00 00 00 00 00 00 00 00 00 00 00 00 00 00 00
       0.0 0.0 0.0 0.0
000060 00 00 00 00 00 00 00 00 00 00 00 00 00 00 00 00
       0.0 0.0 0.0 0.0
000070 00 00 00 00 00 00 00 00 00 00 00 00 00 00 00 00
       0.0 0.0 0.0 0.0
000080 00 00 00 00 00 00 00 00 00 00 00 00 00 00 00 00
       0.0 0.0 0.0 0.0
000090 00 00 00 00 00 00 00 00 00 00 00 00 00 00 00 00
       0.0 0.0 0.0 0.0
0000a0 00 00 00 00 00 00 00 00 00 00 00 00 00 00 00 00
       0.0 0.0 0.0 0.0
0000b0 00 00 00 00 00 00 00 00 00 00 00 00 00 00 00 00
       0.0 0.0 0.0 0.0
0000c0 00 00 00 00 00 00 00 00 00 00 00 00 00 00 00 00
       0.0 0.0 0.0 0.0
0000d0 00 00 00 00 00 00 00 00 00 00 00 00 00 00 00 00
       0.0 0.0 0.0 0.0
0000e0 00 00 00 00 00 00 00 00 00 00 00 00 00 00 00 00
       0.0 0.0 0.0 0.0
0000f0 00 00 00 00 00 00 00 00 00 00 00 00 00 00 00 00
       0.0 0.0 0.0 0.0

base.mlp.fc_h.2.weight f4 [64]
000000 00 00 80 3f 00 00 80 3f 00 00 80 3f 00 00 80 3f
       1.0 1.0 1.0 1.0
000010 00 00 80 3f 00 00 80 3f 00 00 80 3f 00 00 80 3f
       1.0 1.0 1.0 1.0
000020 00 00 80 3f 00 00 80 3f 00 00 80 3f 00 00 80 3f
       1.0 1.0 1.0 1.0
000030 00 00 80 3f 00 00 80 3f 00 00 80 3f 00 00 80 3f
       1.0 1.0 1.0 1.0
000040 00 00 80 3f 00 00 80 3f 00 00 80 3f 00 00 80 3f
       1.0 1.0 1.0 1.0
000050 00 00 80 3f 00 00 80 3f 00 00 80 3f 00 00 80 3f
       1.0 1.0 1.0 1.0
000060 00 00 80 3f 00 00 80 3f 00 00 80 3f 00 00 80 3f
       1.0 1.0 1.0 1.0
000070 00 00 80 3f 00 00 80 3f 00 00 80 3f 00 00 80 3f
       1.0 1.0 1.0 1.0
000080 00 00 80 3f 00 00 80 3f 00 00 80 3f 00 00 80 3f
       1.0 1.0 1.0 1.0
000090 00 00 80 3f 00 00 80 3f 00 00 80 3f 00 00 80 3f
       1.0 1.0 1.0 1.0
0000a0 00 00 80 3f 00 00 80 3f 00 00 80 3f 00 00 80 3f
       1.0 1.0 1.0 1.0
0000b0 00 00 80 3f 00 00 80 3f 00 00 80 3f 00 00 80 3f
       1.0 1.0 1.0 1.0
0000c0 00 00 80 3f 00 00 80 3f 00 00 80 3f 00 00 80 3f
       1.0 1.0 1.0 1.0
0000d0 00 00 80 3f 00 00 80 3f 00 00 80 3f 00 00 80 3f
       1.0 1.0 1.0 1.0
0000e0 00 00 80 3f 00 00 80 3f 00 00 80 3f 00 00 80 3f
       1.0 1.0 1.0 1.0
0000f0 00 00 80 3f 00 00 80 3f 00 00 80 3f 00 00 80 3f
       1.0 1.0 1.0 1.0

base.mlp.fc_h.2.bias f4 [64]
000000 00 00 00 00 00 00 00 00 00 00 00 00 00 00 00 00
       0.0 0.0 0.0 0.0
000010 00 00 00 00 00 00 00 00 00 00 00 00 00 00 00 00
       0.0 0.0 0.0 0.0
000020 00 00 00 00 00 00 00 00 00 00 00 00 00 00 00 00
       0.0 0.0 0.0 0.0
000030 00 00 00 00 00 00 00 00 00 00 00 00 00 00 00 00
       0.0 0.0 0.0 0.0
000040 00 00 00 00 00 00 00 00 00 00 00 00 00 00 00 00
       0.0 0.0 0.0 0.0
000050 00 00 00 00 00 00 00 00 00 00 00 00 00 00 00 00
       0.0 0.0 0.0 0.0
000060 00 00 00 00 00 00 00 00 00 00 00 00 00 00 00 00
       0.0 0.0 0.0 0.0
000070 00 00 00 00 00 00 00 00 00 00 00 00 00 00 00 00
       0.0 0.0 0.0 0.0
000080 00 00 00 00 00 00 00 00 00 00 00 00 00 00 00 00
       0.0 0.0 0.0 0.0
000090 00 00 00 00 00 00 00 00 00 00 00 00 00 00 00 00
       0.0 0.0 0.0 0.0
0000a0 00 00 00 00 00 00 00 00 00 00 00 00 00 00 00 00
       0.0 0.0 0.0 0.0
0000b0 00 00 00 00 00 00 00 00 00 00 00 00 00 00 00 00
       0.0 0.0 0.0 0.0
0000c0 00 00 00 00 00 00 00 00 00 00 00 00 00 00 00 00
       0.0 0.0 0.0 0.0
0000d0 00 00 00 00 00 00 00 00 00 00 00 00 00 00 00 00
       0.0 0.0 0.0 0.0
0000e0 00 00 00 00 00 00 00 00 00 00 00 00 00 00 00 00
       0.0 0.0 0.0 0.0
0000f0 00 00 00 00 00 00 00 00 00 00 00 00 00 00 00 00
       0.0 0.0 0.0 0.0

base.mlp.fc2.0.0.weight f4 [64, 64]
000000 c9 77 b4 bc 46 83 ab 3d 88 87 78 3e 6a 12 80 3e
       -0.022029774 0.08374648 0.24270451 0.2501405
000010 a5 6f e7 bd 31 13 9e bb 86 be 34 bd 96 d4 ba be
       -0.113005914 -0.004824065 -0.04412701 -0.36490315
000020 f0 f0 00 3e ad af 8c 3e 70 b0 9a 3d 76 ca 67 3e
       0.1259191 0.2747778 0.07553184 0.22635826
000030 6c 41 5f 3e 8e 4f 73 3e e8 b4 81 3d 31 21 45 bc
       0.218023 0.23760816 0.06333333 -0.012031839
000040 3d 43 ad bd 7a f8 36 be c1 37 4e 3c 64 fc 15 3e
       -0.0846009 -0.17868224 0.012586535 0.1464706
000050 5b d8 80 3c 4a e2 46 3d 9f 9d 69 3e 09 92 86 be
       0.015728166 0.04855565 0.22814034 -0.2628329
000060 da e3 ed bd eb 21 d7 bd 71 58 f3 3e dc a3 ea bd
       -0.11615725 -0.10504516 0.47528413 -0.11457035
000070 01 58 3f 3e 2e 76 37 be a5 74 f7 3c 99 5c b6 bd
       0.18685915 -0.17916176 0.030206988 -0.0890438
000080 29 7f 2a be 03 ab eb 3d c5 cf b8 3d d8 3c f9 bc
       -0.1665007 0.11507227 0.09024004 -0.03042452
000090 dd 94 c6 3d d8 23 37 3e 21 bf 58 3d ce 3a 17 be
       0.09696362 0.17884767 0.05291665 -0.14768526
0000a0 04 bc 0d be bb a2 f9 3c 3f 5d 71 3e a9 cc 46 bc
       -0.13841254 0.030473104 0.23570727 -0.012133756
0000b0 9b bc e2 3d 14 51 5c be 12 02 71 3d b6 74 ac bd
       0.1107113 -0.21515304 0.058839865 -0.08420698
0000c0 51 6a 05 3b 94 f4 cb 3b 5d 02 81 3c d0 a0 ab bd
       0.002035756 0.0062242243 0.015748197 -0.08380282
0000d0 64 44 3a be cd 50 3f be 88 d3 95 bd 2f 04 8e be
       -0.18190151 -0.18683167 -0.07315737 -0.27737567
0000e0 44 bc bf be e6 ed de be 7e e3 85 bc 18 9e 84 be
       -0.37448323 -0.43540877 -0.016343828 -0.25901866
0000f0 02 db 97 3e f1 a2 53 3d 37 00 5c be 15 f2 0e bd
       0.29659277 0.051669065 -0.21484457 -0.034898836
000100 06 d2 03 3e c2 43 6a 3e 1a c7 12 be d0 23 f0 bd
       0.12873086 0.2287741 -0.14333764 -0.11725581
000110 45 50 60 be 84 64 77 be d0 9f 47 bd 38 e3 be 37
       -0.2190562 -0.24159437 -0.048736393 2.2755572e-05
000120 96 b0 aa 3e 0c fb 26 be 8e 96 37 be 17 f7 df 3d
       0.3333785 -0.16306704 -0.17928526 0.109358005
000130 2d ee d9 3d f1 50 7e bc 5b d5 5f be cb 4c 95 bd
       0.106411316 -0.015522228 -0.21858732 -0.07290038
000140 c4 23 fd bd 8f 36 07 3e 9a 03 c9 bd ec 15 50 bd
       -0.123603374 0.13204406 -0.0981514 -0.050802156
000150 e3 bf 03 bd 69 57 2e 3e d7 a2 3b 3d df fa 4e bd
       -0.03216542 0.17025532 0.045809593 -0.050532218
000160 80 2b 78 3e c0 09 72 bd ee f3 9d 3e c1 70 b2 bd
       0.24235344 -0.05909133 0.30850166 -0.08712912
000170 aa b9 f4 be cf 06 b8 bc 2e 39 f6 bc d9 d6 bd 3d
       -0.477979 -0.022464184 -0.030056562 0.092694946
000180 22 bb c9 3e e3 d9 cb be 60 45 97 3d 53 0f ac bd
       0.39400584 -0.39814672 0.07386279 -0.0840136
000190 08 3e 90 be 76 1c bc bc ca 4e 83 3d 8f 8e 16 3e
       -0.28172326 -0.02296279 0.06411512 0.1470282
0001a0 88 4f 8c 3e 5d 49 09 be 20 da 58 3e 2f a2 d5 bd
       0.27404428 -0.13406892 0.21176958 -0.10431325
0001b0 8d d4 9d 3d 55 e7 4f bd ee 57 8e be b1 04 a2 3c
       0.077065565 -0.050757725 -0.2780146 0.019777628
0001c0 63 db e3 3d 2f 1b 7e bc 8e d8 85 be 8e f4 de bd
       0.11125829 -0.015509411 -0.2614178 -0.10886489
0001d0 73 6c 13 3e e4 2f a0 be 85 44 35 bd ad 46 f6 3d
       0.14396839 -0.31286538 -0.0442548 0.12025199
0001e0 60 46 a7 be c9 b5 45 3d 37 5e 0b 3e 8a 0a 09 3c
       -0.3267088 0.048269067 0.13610159 0.008364329
0001f0 4e 1c ec bd f7 40 52 bc d6 f9 0c be 90 d8 76 3d
       -0.11528836 -0.012832872 -0.1376718 0.060265124
000200 f9 cd e5 bd 5a f3 0f be 70 df 69 be c2 c1 f0 bc
       -0.11220927 -0.14057675 -0.22839141 -0.029389266
000210 07 1a 00 bd d5 58 9e be 6a 9d d0 bd 4d 9b c0 3c
       -0.03127482 -0.30927148 -0.10186274 0.023511553
000220 48 3b 85 3c a8 2e 47 3e 27 59 b3 bc e1 4d 97 bd
       0.016263619 0.19451392 -0.021893097 -0.07387901
000230 ce 25 1c be 47 fd 14 3c 8c d9 f9 3b e2 c7 29 3d
       -0.15248796 0.009093589 0.0076248106 0.04145039
000240 dc 0e cc bc 72 c4 c5 3c f8 18 5f 3e e5 0f d1 3d
       -0.02490943 0.024141524 0.21786869 0.1020811
000250 3d d4 50 be c0 4d b0 3e 6c 7c 99 be 8e 14 04 3e
       -0.20393462 0.3443432 -0.2997774 0.12898466
000260 f7 ea 75 3d 8a 64 e3 bc 90 17 80 be 0a 38 41 be
       0.060038533 -0.027757902 -0.25017977 -0.18869033
000270 b0 56 5c be 1d 5f 10 bd 96 0b 84 3c 62 49 16 3d
       -0.21517444 -0.035246957 0.016118806 0.036691077
000280 95 1e 1c be 1f 54 ff bd 68 62 96 3e da c2 cf bd
       -0.15246041 -0.12467217 0.29371953 -0.10144587
000290 8b 24 62 3e 4b 00 4f be 33 df 32 be b6 3c 8a bc
       0.22084253 -0.20214956 -0.17467956 -0.016874652
0002a0 a0 54 5f bc 3d 9e fc 3d 4c fb 9e 3e 08 28 94 bd
       -0.013631016 0.12334869 0.310511 -0.07234198
0002b0 14 08 90 3e 3f ef a7 be 2f b4 43 bc 92 30 36 bd
       0.28131163 -0.32799718 -0.011944815 -0.044479914
0002c0 43 cc df 3d 11 33 72 3e 01 5b 12 be f8 9b 1c bc
       0.10927632 0.23652293 -0.14292528 -0.00955867
0002d0 74 e2 e8 bd 38 0c db 3e 5f 56 33 3e 84 ba 9c bd
       -0.113713175 0.4278276 0.17513417 -0.076527625
0002e0 f1 8f 8b 3e 6f 62 08 be 94 83 1a 3e 8d ac 3b bd
       0.27258256 -0.133188 0.15089256 -0.045818854
0002f0 b2 d2 6d 3e 66 84 3f 3d 05 20 d0 be f9 c4 4b 3e
       0.23224905 0.046757124 -0.4064943 0.19899358
000300 e1 d3 7d 3e f0 91 de 3e 05 ce b5 be 8c f3 23 be
       0.24787857 0.43470716 -0.35508743 -0.16010875
000310 f6 8b 9f 3e fb 6e e5 b9 0e 85 20 3d f0 27 93 bc
       0.3116147 -0.0004376097 0.03918939 -0.01796338
000320 50 dc 82 3e 0e 0a 77 3d 97 bd 23 bd f8 01 f3 3d
       0.2555871 0.060312323 -0.03997573 0.1186561
000330 88 56 5c be 6a 44 2d 3e 0e e7 a0 3b 9c 60 62 3d
       -0.21517384 0.16920629 0.0049103564 0.055267915
000340 c9 02 da bc 7d b9 a7 bc 69 33 22 3d 01 8a 35 be
       -0.026612656 -0.02047419 0.03959981 -0.17728426
000350 29 fe 38 be eb e9 0d bd 37 f0 d3 3d 7f 0b c8 3d
       -0.18065704 -0.03464691 0.10348552 0.09767818
000360 ff 47 a3 3d 50 ba c5 3d ad 13 84 3e 0f fa 85 3d
       0.079727165 0.09654677 0.2579626 0.065418355
000370 4c a1 cf 3e 61 49 0a 3d e1 04 73 3d cd 8a b2 3e
       0.40552747 0.033761386 0.059330825 0.34871522
000380 59 99 3e 3e eb b5 88 3d cf ca 31 3e 43 1d f7 3d
       0.18613185 0.06675323 0.17362522 0.12066128
000390 dc 51 95 bd df 5a cc be 53 56 c4 bc 71 5d 88 3e
       -0.07291004 -0.3991308 -0.023966944 0.2663379
0003a0 87 49 af 3c d6 ad 1f 3e e9 78 cd bd fa 13 09 be
       0.021397365 0.15593657 -0.100328274 -0.13386527
0003b0 a5 cd ec ba 21 85 b0 3d 73 fb 92 3d 8d d2 14 3d
       -0.0018066658 0.08619142 0.071768664 0.03633361
0003c0 23 66 ac be 2f 41 4f ba 02 f4 19 3e 8e 8d e8 bd
       -0.33671674 -0.00079061365 0.15034488 -0.113551244
0003d0 89 c0 7c be fd 09 45 3e 6d 8b c6 3d d2 40 ab be
       -0.24682821 0.19242091 0.09694562 -0.3344789
0003e0 bc df a2 bd 92 4f af bc 19 78 c0 bd 28 d4 8c 3e
       -0.0795283 -0.021400247 -0.09397907 0.27505612
0003f0 19 93 03 3e 53 70 87 bd aa a7 35 bb 42 f3 99 3d
       0.12849082 -0.06613221 -0.0027718344 0.07517101

base.mlp.fc2.0.0.bias f4 [64]
000000 ef c4 89 3b 32 9b a5 3a 00 00 00 00 08 68 a9 ba
       0.0042043845 0.0012634753 0.0 -0.001292468
000010 af 44 20 3b 00 34 1b bb 00 00 00 00 00 00 00 00
       0.0024455 -0.0023682117 0.0 0.0
000020 40 db 08 3a 00 00 00 00 00 00 00 00 c1 1b 8a 3b
       0.0005220659 0.0 0.0 0.0042147343
000030 d3 cc 0c 3b a0 a9 44 ba 43 44 bf 39 32 05 73 3a
       0.002148439 -0.0007502083 0.00036481218 0.00092704885
000040 00 00 00 00 9f 00 3d bb 00 00 00 00 00 00 00 00
       0.0 -0.0028839482 0.0 0.0
000050 20 cc e0 3a 00 00 00 00 57 90 bf b6 db 56 fa 3a
       0.0017150678 0.0 -5.709047e-06 0.0019099371
000060 b2 be 23 3b 28 0f 6e 3b e7 8b 16 ba eb ec ff ba
       0.002498549 0.0036324952 -0.0005742893 -0.0019525563
000070 18 31 f1 ba 8e 86 8c 3b f6 58 b5 3b 00 a5 70 bb
       -0.0018401472 0.004288501 0.0055342866 -0.0036719441
000080 fd 61 50 ba fb ae 46 bb 00 00 00 00 00 00 00 00
       -0.00079491717 -0.0030316699 0.0 0.0
000090 20 ca 6f 3a 46 65 b8 bb c7 d5 60 39 2f 47 a4 3b
       0.00091472454 -0.005627307 0.00021441943 0.0050133686
0000a0 95 76 aa bb 65 64 c1 3b 23 fd 8b 3a 92 8e 2a 3b
       -0.0052021244 0.0059018605 0.0010680299 0.002602492
0000b0 2b fe 7b 3a 7a ff 39 bb 3b a6 b0 3a d1 c3 00 bb
       0.0009612764 -0.0028381036 0.0013477275 -0.0019647966
0000c0 ac 29 60 bb 1d 5b 12 ba a9 e1 1f 3b 00 00 00 00
       -0.0034204526 -0.0005583035 0.0024395979 0.0
0000d0 00 00 00 00 00 00 00 00 00 00 00 00 69 04 a9 3b
       0.0 0.0 0.0 0.0051579964
0000e0 48 df a1 39 b4 d9 5d 3b 88 f4 32 38 00 00 00 00
       0.0003087467 0.0033851685 4.2666245e-05 0.0
0000f0 90 43 1a 3b 00 00 00 00 92 e6 36 bb 25 86 78 bb
       0.0023538806 0.0 -0.0027908427 -0.0037921753

base.mlp.fc2.0.2.weight f4 [64]
000000 0e 73 80 3f a7 21 80 3f e1 07 80 3f 05 c8 80 3f
       1.0035112 1.001027 1.0002404 1.0061041
000010 22 00 80 3f 76 46 80 3f e1 17 80 3f 0c 6e 7f 3f
       1.000004 1.0021503 1.0007287 0.99777293
000020 39 4e 80 3f 19 a7 7e 3f 55 c6 7f 3f fa 4e 80 3f
       1.0023872 0.9947372 0.99912006 1.0024102
000030 d1 78 7f 3f f3 48 80 3f c4 3b 80 3f ce 4f 80 3f
       0.99793726 1.0022262 1.0018239 1.0024354
000040 72 af 80 3f 31 15 7f 3f f0 4e 7f 3f 30 54 80 3f
       1.0053542 0.9964171 0.99729824 1.0025692
000050 a5 db 7f 3f 06 bd 7e 3f d5 3a 80 3f fa 26 80 3f
       0.99944526 0.99507177 1.0017954 1.0011895
000060 a0 26 80 3f fe dd 7e 3f 47 50 80 3f 23 29 80 3f
       1.0011787 0.99557483 1.0024499 1.0012554
000070 9b c5 7f 3f a0 8a 80 3f 55 9f 80 3f 44 f9 7e 3f
       0.99910897 1.0042305 1.0048624 0.995991
000080 a5 61 80 3f ff b8 80 3f d9 6a 80 3f 8f 0b 80 3f
       1.0029799 1.0056456 1.0032607 1.0003527
000090 6a 30 80 3f a3 27 7f 3f 5a 00 80 3f 55 2d 7f 3f
       1.0014775 0.99669856 1.0000107 0.99678546
0000a0 2e f1 7e 3f 58 ed 7e 3f ef d1 7f 3f 28 a7 7e 3f
       0.9958676 0.9958091 0.9992971 0.9947381
0000b0 2e 2a 80 3f bd 66 7f 3f 44 1c 80 3f 3c 77 7f 3f
       1.0012872 0.9976614 1.0008626 0.9979131
0000c0 4a a9 80 3f 0f 00 80 3f f8 69 80 3f 5c 38 80 3f
       1.0051663 1.0000018 1.0032339 1.00172
0000d0 12 d0 7e 3f 1e 16 80 3f d7 35 80 3f 3c c8 7f 3f
       0.9953624 1.000675 1.0016431 0.9991491
0000e0 02 2f 80 3f 65 4c 80 3f d4 2a 80 3f 10 2f 80 3f
       1.0014346 1.0023314 1.001307 1.0014362
0000f0 ae 55 7f 3f 89 b8 7f 3f f4 91 7f 3f 6c 9e 80 3f
       0.9974011 0.99890953 0.9983208 1.0048347

base.mlp.fc2.0.2.bias f4 [64]
000000 e3 60 80 3b 6f 6e 35 ba 68 14 c5 b8 ad eb ce bb
       0.0039178 -0.0006921058 -9.397493e-05 -0.006314716
000010 d0 e6 17 39 36 19 3a bb 07 a8 4d ba 9c 3b 1b 3b
       0.00014486467 -0.0028396375 -0.00078451674 0.0023686653
000020 ef 87 2d bb 3f 0e b7 3b 2e c8 97 3a 98 01 09 bb
       -0.0026478728 0.005586415 0.0011580044 -0.002090549
000030 85 73 18 3b 26 94 1e bb a2 9e 70 3a ba 3b 57 ba
       0.0023262214 -0.002419719 0.00091789116 -0.0008210499
000040 78 8d b8 bb e4 79 50 bb c5 04 42 3b b7 ad 31 bb
       -0.0056320988 -0.0031810934 0.0029604894 -0.0027111599
000050 ba ae b1 3a 5f 14 b0 3b c8 25 06 bb a3 1a 40 3a
       0.0013556101 0.005373522 -0.0020469297 0.0007328188
000060 d3 3d f6 3a a8 ce 96 3b b9 49 ae ba 59 dc 29 bb
       0.0018786736 0.004602272 -0.0013297118 -0.002591869
000070 3e fa 0e bb f8 c2 84 3b e8 37 b5 3b ee 61 6b bb
       -0.0021816636 0.0040515624 0.005530346 -0.0035916525
000080 79 ef 00 bb 3d 2d bf bb 33 e2 61 bb 5d 14 f4 b9
       -0.0019673987 -0.0058342502 -0.00344671 -0.00046554478
000090 39 bb 96 3a 80 17 ba bb 57 d7 d2 b9 db 39 88 3b
       0.0011499888 -0.005679071 -0.00040214762 0.0041572875
0000a0 99 06 aa bb 24 c7 c3 3b ed 41 51 3a 1f 8c bd 3b
       -0.005188775 0.005974667 0.0007982541 0.005784526
0000b0 ca 04 95 3a e3 b5 4b bb c9 5e bd 39 8a 6e ff ba
       0.0011369225 -0.0031083755 0.0003611951 -0.0019487899
0000c0 53 55 af bb 78 69 4d b8 6d 70 bc 3a 5d ab ef ba
       -0.0053507476 -4.8974034e-05 0.0014376767 -0.0018285323
0000d0 9e d6 a7 3b 93 9d 3c ba 80 05 02 bb 87 fd a9 3b
       0.00512202 -0.0007195111 -0.0019839704 0.0051876935
0000e0 a0 ad be ba 4a 1d 4b 3b 8c 5e a5 ba 53 98 bd ba
       -0.0014547594 0.00309928 -0.0012616678 -0.0014464952
0000f0 4f 1c 1f 3b d5 a9 94 3a 81 39 54 bb 9e 15 a9 bb
       0.0024278348 0.0011342118 -0.0032382908 -0.0051600477
