MAPPO/results/MyEnv/MyEnv/rmappo/check/run19/models/actor_agent4.pt (torch, 322326 bytes, 22 tensors)

base.feature_norm.weight f4 [651]
000000 b2 07 80 3f 01 18 80 3f a3 bb 7f 3f be ca 7f 3f
       1.0002348 1.0007325 0.99895686 0.99918735
000010 fa 18 80 3f f6 17 80 3f 12 ba 7f 3f c5 0b 80 3f
       1.0007622 1.0007312 0.99893296 1.0003592
000020 2b fd 7f 3f a6 08 80 3f b7 0e 80 3f b1 cc 7f 3f
       0.9999568 1.0002639 1.0004491 0.9992171
000030 9f ed 7f 3f e3 e7 7f 3f 91 15 80 3f 42 c8 7f 3f
       0.99971956 0.99963206 1.0006582 0.99914944
000040 55 ee 7f 3f 4d 08 80 3f e9 a6 7f 3f d1 fe 7f 3f
       0.9997304 1.0002533 0.9986406 0.99998194
000050 53 ee 7f 3f b2 dc 7f 3f ea 18 80 3f e1 ca 7f 3f
       0.9997303 0.9994613 1.0007603 0.99918944
000060 b1 de 7f 3f 11 e5 7f 3f 4b 09 80 3f 96 1d 80 3f
       0.99949175 0.999589 1.0002836 1.0009029
000070 4b 23 80 3f 0a 21 80 3f 92 09 80 3f b7 7f 7f 3f
       1.001077 1.0010083 1.0002921 0.9980425
000080 41 c3 7f 3f 5d c5 7f 3f 3f 06 80 3f 57 94 7f 3f
       0.9990731 0.9991053 1.0001906 0.99835724
000090 59 05 80 3f 57 07 80 3f a8 d9 7f 3f 36 09 80 3f
       1.0001632 1.000224 0.9994149 1.0002811
0000a0 1f 04 80 3f 15 d0 7f 3f 19 0f 80 3f ad d0 7f 3f
       1.0001258 0.99926883 1.0004607 0.9992779
0000b0 a4 09 80 3f e6 b8 7f 3f a4 04 80 3f 0b 1c 80 3f
       1.0002942 0.9989151 1.0001416 1.0008558
0000c0 f6 1f 80 3f e7 0c 80 3f 84 11 80 3f a4 ef 7f 3f
       1.0009754 1.0003937 1.0005345 0.9997504
0000d0 7c 0d 80 3f 2b cb 7f 3f e5 05 80 3f 84 e8 7f 3f
       1.0004115 0.99919385 1.0001799 0.99964166
0000e0 ac 1d 80 3f 08 ba 7f 3f bc 16 80 3f 15 20 80 3f
       1.0009055 0.99893236 1.0006938 1.0009791
0000f0 db ed 7f 3f ef ed 7f 3f 68 1e 80 3f 08 24 80 3f
       0.99972314 0.9997243 1.0009279 1.0010996
000100 7f e9 7f 3f e6 10 80 3f b0 d7 7f 3f 49 f3 7f 3f
       0.9996566 1.0005157 0.9993849 0.999806
000110 b9 07 80 3f e3 04 80 3f 93 f9 7f 3f 68 fe 7f 3f
       1.0002357 1.0001491 0.99990195 0.9999757
000120 9a 23 80 3f 65 f7 7f 3f a5 a5 7f 3f 2d 34 80 3f
       1.0010865 0.9998687 0.9986213 1.0015923
000130 d1 14 80 3f 8f 16 80 3f a6 27 80 3f 88 f6 7f 3f
       1.0006353 1.0006884 1.00121 0.9998555
000140 e4 11 80 3f 47 17 80 3f 6c 93 7f 3f b1 1c 80 3f
       1.000546 1.0007104 0.9983432 1.0008756
000150 8e f0 7f 3f 73 29 80 3f 4c 1a 80 3f b9 06 80 3f
       0.9997643 1.0012649 1.0008025 1.0002052
000160 92 eb 7f 3f 6c cd 7f 3f 42 0f 80 3f 25 17 80 3f
       0.99968827 0.99922824 1.0004656 1.0007063
000170 97 22 80 3f 70 d3 7f 3f ef ee 7f 3f 55 05 80 3f
       1.0010556 0.99932003 0.9997396 1.0001627
000180 2c f7 7f 3f 34 01 80 3f 68 34 80 3f 47 9a 7f 3f
       0.9998653 1.0000367 1.0015993 0.99844784
000190 89 03 80 3f df e7 7f 3f 30 2a 80 3f 9c de 7f 3f
       1.0001079 0.9996318 1.0012875 0.9994905
0001a0 bf 17 80 3f 0c cc 7f 3f 26 20 80 3f 3e d9 7f 3f
       1.0007247 0.99920726 1.0009811 0.9994086
0001b0 88 f9 7f 3f da 8c 7f 3f 3d 18 80 3f a7 35 80 3f
       0.9999013 0.998243 1.0007397 1.0016373
0001c0 f3 0d 80 3f 86 0f 80 3f 29 be 7f 3f 8d ee 7f 3f
       1.0004257 1.0004737 0.99899536 0.99973375
0001d0 fb f6 7f 3f 87 d9 7f 3f d4 0e 80 3f e7 cd 7f 3f
       0.9998624 0.99941295 1.0004525 0.9992356
0001e0 17 0c 80 3f 0a ce 7f 3f 0f 05 80 3f 02 08 80 3f
       1.000369 0.99923766 1.0001544 1.0002444
0001f0 57 05 80 3f dc e6 7f 3f 92 fa 7f 3f 33 17 80 3f
       1.000163 0.9996164 0.99991715 1.000708
000200 a6 08 80 3f b7 02 80 3f 5d 17 80 3f dc ac 7f 3f
       1.0002639 1.0000829 1.000713 0.9987314
000210 dd 10 80 3f 1b ce 7f 3f eb 16 80 3f b1 2a 80 3f
       1.0005146 0.99923867 1.0006994 1.0013028
000220 16 04 80 3f bd 2e 80 3f 72 d5 7f 3f 23 15 80 3f
       1.0001247 1.0014263 0.99935067 1.000645
000230 05 34 80 3f cd bb 7f 3f 14 f7 7f 3f 7b 00 80 3f
       1.0015875 0.99895936 0.99986386 1.0000147
000240 a1 eb 7f 3f e7 32 80 3f 71 fe 7f 3f 67 18 80 3f
       0.99968916 1.0015534 0.9999762 1.0007447
000250 b0 b7 7f 3f 5d f3 7f 3f 2e bc 7f 3f 50 22 80 3f
       0.9988966 0.9998072 0.99896514 1.0010471
000260 1e d9 7f 3f c2 23 80 3f 1a 27 80 3f 57 d5 7f 3f
       0.9994067 1.0010912 1.0011933 0.99934906
000270 54 3d 80 3f ea ef 7f 3f f6 02 80 3f 39 ec 7f 3f
       1.0018716 0.99975455 1.0000904 0.9996982
000280 4f 12 80 3f 7b 02 80 3f b0 00 80 3f 30 05 80 3f
       1.0005587 1.0000757 1.000021 1.0001583
000290 2c ef 7f 3f bf f0 7f 3f 80 0b 80 3f c3 12 80 3f
       0.9997432 0.99976724 1.000351 1.0005726
0002a0 54 c6 7f 3f 81 d2 7f 3f 21 d5 7f 3f 30 cd 7f 3f
       0.99912 0.9993058 0.99934584 0.99922466
0002b0 d6 0a 80 3f ea c2 7f 3f e4 ed 7f 3f 77 11 80 3f
       1.0003307 0.9990679 0.9997237 1.000533
0002c0 34 d3 7f 3f ef 0b 80 3f ee 05 80 3f 2e 33 80 3f
       0.99931645 1.0003642 1.000181 1.0015619
0002d0 66 8a 7f 3f 53 ef 7f 3f 32 d3 7f 3f dc 20 80 3f
       0.99820554 0.99974555 0.99931633 1.0010028
0002e0 c6 01 80 3f 4f e5 7f 3f 5b f5 7f 3f 94 05 80 3f
       1.0000541 0.9995927 0.9998376 1.0001702
0002f0 42 cc 7f 3f d2 eb 7f 3f 3c d0 7f 3f be 32 80 3f
       0.9992105 0.9996921 0.99927115 1.0015485
000300 ad c8 7f 3f eb 00 80 3f 7f b8 7f 3f 30 d1 7f 3f
       0.9991558 1.000028 0.99890894 0.9992857
000310 09 0a 80 3f 72 a6 7f 3f fa b1 7f 3f 82 08 80 3f
       1.0003062 0.9986335 0.99880946 1.0002596
000320 7a 01 80 3f fc 30 80 3f c5 c5 7f 3f 5d d4 7f 3f
       1.0000451 1.0014949 0.9991115 0.99933416
000330 32 d0 7f 3f ef 8d 7f 3f 2d fb 7f 3f f3 01 80 3f
       0.99927056 0.9982595 0.9999264 1.0000595
000340 09 1a 80 3f 53 b6 7f 3f 00 de 7f 3f 5a e2 7f 3f
       1.0007945 0.9988758 0.9994812 0.9995476
000350 b7 2e 80 3f 44 ad 7f 3f 59 0c 80 3f 54 0e 80 3f
       1.0014256 0.9987376 1.0003768 1.0004373
000360 65 dd 7f 3f c9 16 80 3f 4e 45 80 3f 0f d0 7f 3f
       0.99947196 1.0006953 1.002115 0.9992685
000370 85 e8 7f 3f e1 c6 7f 3f fc c5 7f 3f 7a c0 7f 3f
       0.9996417 0.9991284 0.99911475 0.9990307
000380 89 df 7f 3f 2c 29 80 3f 86 2e 80 3f da 2e 80 3f
       0.9995046 1.0012565 1.0014198 1.0014298
000390 43 03 80 3f 35 bc 7f 3f 36 24 80 3f db d9 7f 3f
       1.0000995 0.99896556 1.0011051 0.99941796
0003a0 57 da 7f 3f a1 ee 7f 3f 73 1a 80 3f 15 ee 7f 3f
       0.99942535 0.99973494 1.0008072 0.9997266
0003b0 41 bb 7f 3f 21 1a 80 3f 84 13 80 3f a7 04 80 3f
       0.998951 1.0007974 1.0005956 1.000142
0003c0 fc 00 80 3f 9a 16 80 3f d3 22 80 3f 5b c0 7f 3f
       1.00003 1.0006897 1.0010628 0.99902886
0003d0 6c 97 7f 3f 60 fa 7f 3f 50 ef 7f 3f 7e e7 7f 3f
       0.99840426 0.99991417 0.99974537 0.99962604
0003e0 9e 0d 80 3f 1f c4 7f 3f e0 d8 7f 3f 67 36 80 3f
       1.0004156 0.9990863 0.999403 1.0016602
0003f0 01 0c 80 3f bd 09 80 3f dc d0 7f 3f 6b 17 80 3f
       1.0003663 1.0002972 0.9992807 1.0007147

base.feature_norm.bias f4 [651]
000000 e8 88 ef b9 8a 50 d6 ba 7a 1a fc 3a d2 27 fc 3a
       -0.00045687635 -0.0016350907 0.0019233965 0.0019237942
000010 71 56 84 ba 73 87 2a bb ae 8d 38 3b db 26 8c ba
       -0.0010096562 -0.0026020675 0.002816062 -0.0010692732
000020 46 e4 3e 39 ca 54 86 ba c2 f7 16 ba 78 25 05 3b
       0.0001820485 -0.0010248658 -0.00057589647 0.0020316523
000030 6c f1 62 3a 4b f9 35 3a da 16 1f bb 04 fb 12 3b
       0.00086571905 0.00069417496 -0.0024275095 0.002242745
000040 2b e9 91 3a 8a db 4e ba 13 10 7d 3b e0 38 e7 39
       0.0011132112 -0.000789099 0.0038614317 0.0004410213
000050 58 53 9e 3a 1f 7a 0b 3b e0 8f 38 bb 61 b7 c0 3a
       0.0012079282 0.0021282507 -0.0028161928 0.0014703089
000060 3c 22 bb 3a 18 e8 67 3a 5e a0 8e b9 2f 15 4d bb
       0.001427717 0.00088465353 -0.00027203833 -0.0031293144
000070 3b 32 1e bb 1e e1 32 bb 88 0e 20 ba 14 13 85 3b
       -0.0024138826 -0.0027294825 -0.0006105681 0.004061112
000080 4f 70 09 3b 34 67 14 3b ca e9 0e ba 21 df 53 3b
       0.0020971482 0.0022644522 -0.00054517074 0.003232904
000090 da 50 55 ba 10 20 9a b9 ee 48 77 3a 79 a8 8c ba
       -0.0008137353 -0.00029397057 0.00094331696 -0.0010731361
0000a0 c7 3c 15 ba 00 9f bc 3a a9 b7 66 ba 06 97 f2 3a
       -0.00056929555 0.0014390647 -0.0008801171 0.0018508143
0000b0 74 dc 10 ba 26 fc 13 3b a1 68 57 ba d3 4b 2d bb
       -0.0005526014 0.0022580712 -0.000821719 -0.00264429
0000c0 4c 3b 07 bb 64 9c d9 ba 72 a2 9a ba be bf 69 3a
       -0.002063471 -0.0016602394 -0.001179768 0.00089168164
0000d0 d9 fd 81 ba 98 8a f4 3a 94 7c de b9 7a 5e 32 3a
       -0.0009917571 0.0018657027 -0.00042435958 0.0006804239
0000e0 81 fc 20 bb 8a 11 cd 3a 1f 3f e9 ba 1b 4f 33 bb
       -0.0024564567 0.0015645486 -0.0017795301 -0.0027360383
0000f0 33 95 5e 3a 2a 85 4b 3a 41 62 22 bb e5 7c 6b bb
       0.00084908603 0.00077636784 -0.0024777802 -0.0035932597
000100 48 da b3 3a 80 5e ee ba f4 4e 15 3b 2a 60 84 3a
       0.0013721669 -0.0018186122 0.0022782655 0.001009946
000110 ff bf a7 ba 97 f2 20 ba ec 32 95 38 20 5c 29 37
       -0.0012798308 -0.00061396643 7.1143586e-05 1.00946345e-05
000120 27 24 32 bb c0 a5 0b 3a 2f b4 93 3b a1 97 8d bb
       -0.0027182193 0.0005327128 0.0045075635 -0.004321054
000130 59 41 9f ba ec 6d de ba 4c e1 57 bb b3 88 22 3a
       -0.0012150212 -0.0016970015 -0.0032940684 0.00062001793
000140 cc 49 cb ba 79 66 00 bb e9 6a 68 3b b4 3e 0d bb
       -0.0015509664 -0.0019592328 0.0035464114 -0.0021552267
000150 83 45 9f 39 cf 73 0c bb 1d 99 04 bb b2 35 eb b9
       0.00030378634 -0.0021431332 -0.0020232864 -0.000448627
000160 2a 47 94 3a a7 80 01 3b 12 c9 dd ba d4 bd b7 ba
       0.0011312712 0.001976052 -0.0016920886 -0.0014018365
000170 b4 d9 3f bb 16 4f d9 3a 5e 75 66 3a 60 7a 2a ba
       -0.0029274048 0.0016579356 0.0008791293 -0.00065032206
000180 db 2e 85 38 9b d0 d7 b8 db e1 79 bb 1d 80 8a 3b
       6.350662e-05 -0.00010290855 -0.0038129005 0.004226698
000190 ba ce e1 b9 fd b4 d3 3a fb c0 7d bb 55 bb 10 3b
       -0.00043069368 0.0016151961 -0.0038719762 0.0022084315
0001a0 92 48 05 bb 99 16 19 3b 90 f7 e7 ba a4 0f c7 3a
       -0.0020337445 0.0023359417 -0.0017697681 0.0015187156
0001b0 c3 56 0b 3a 29 f1 6f 3b f0 67 27 bb 14 08 62 bb
       0.00053153577 0.0036612249 -0.002554413 -0.0034489678
0001c0 35 1d 45 ba f7 6a 07 bb 43 62 0c 3b 1c 28 20 3a
       -0.0007519306 -0.0020663121 0.0021420873 0.00061094924
0001d0 5c 6e e4 39 50 d7 d7 3a f1 44 9b ba 84 40 ff 3a
       0.00043569773 0.0016467366 -0.0011846108 0.0019474183
0001e0 90 9f 39 ba 7e f6 ea 3a 8e 6e ef b9 c4 17 0d ba
       -0.00070809666 0.0017926244 -0.00045668002 -0.00053822645
0001f0 bc 0f 98 b9 0c cb 05 3a f8 23 c9 b9 2e 2b 06 bb
       -0.00029003422 0.00051038037 -0.00038364506 -0.0020472514
000200 47 9c fc b9 28 47 20 ba a4 11 bc ba 45 8b 54 3b
       -0.0004818162 -0.0006114119 -0.0014348519 0.0032431644
000210 da ae dd ba 6c c7 2b 3b bf d0 3d bb c6 02 5f bb
       -0.0016913072 0.0026211394 -0.0028963534 -0.0034028753
000220 04 d2 41 b9 83 0c 5c bb 0b fa e5 3a 32 54 ae ba
       -0.00018484151 -0.0033576794 0.0017545832 -0.0013300239
000230 c3 cd 51 bb f1 d1 2e 3b 0f c4 bc 39 90 24 f4 b8
       -0.0032013513 0.0026675428 0.0003600423 -0.00011641637
000240 ff 48 ef 39 e5 be 6a bb 50 db 1f b8 68 0d ff ba
       0.0004564002 -0.0035819348 -3.8112805e-05 -0.0019458951
000250 c9 03 55 3b 72 b4 18 39 fd 8a 61 3b fe d4 0c bb
       0.0032503477 0.0001456307 0.003441512 -0.0021489258
000260 a8 02 23 3b d0 d5 1c bb dd 66 73 bb 4f 03 fb 3a
       0.002487341 -0.0023931153 -0.0037140169 0.0019150766
000270 38 d3 9c bb d0 47 31 3a d4 f0 7f b9 98 40 7c 3a
       -0.0047859214 0.0006762715 -0.0002440841 0.00096226623
000280 c6 20 ea ba 32 a5 3a b9 96 a7 75 b9 f8 af 93 ba
       -0.001786255 -0.00017799882 -0.00023427451 -0.0011267653
000290 50 3c 45 3a 13 a6 2d 3a e2 4d a1 ba 90 c6 3c ba
       0.0007523941 0.0006624173 -0.0012306536 -0.0007201219
0002a0 09 32 0f 3b a5 f6 21 3b 1e 64 2a 3b 28 d1 23 3b
       0.0021849892 0.0024713662 0.0025999616 0.0024996493
0002b0 75 3e d1 ba 9e 3e fc 3a 31 10 3b 3a d9 20 ff ba
       -0.0015964048 0.0019244736 0.00071358966 -0.0019464745
0002c0 cb cf 27 3b a6 87 80 ba 49 41 99 ba 1f 3e 90 bb
       0.0025606032 -0.0009806051 -0.001169243 -0.0044019367
0002d0 52 04 9d 3b f2 35 82 3a 4e 47 0b 3b 6a 03 8b ba
       0.004791775 0.000993429 0.0021252218 -0.0010605876
0002e0 12 b8 86 ba 0b f7 9d 3a 40 0d 23 39 84 7c f7 b8
       -0.0010278246 0.0012051774 0.00015549827 -0.00011801071
0002f0 37 94 1e 3b c9 3b 62 3a 31 1f f4 3a 44 24 28 bb
       0.002419723 0.00086301245 0.0018625018 -0.0025656382
000300 7e 07 2a 3b 3e 7e c6 39 a6 1d 47 3b 95 3c 20 3b
       0.0025944407 0.0003785956 0.0030382662 0.0024450172
000310 46 92 46 b9 a6 df 58 3b be a1 37 3b 4c 84 ae ba
       -0.00018937243 0.003309229 0.002801999 -0.0013314574
000320 c8 88 19 ba b3 ec 8a bb ef 9e 16 3b 00 e0 f3 3a
       -0.0005856869 -0.0042396425 0.0022982915 0.0018606186
000330 97 ac 3c 3b 98 dc 3b 3b c4 f1 09 3a a6 21 d5 b8
       0.0028789395 0.002866542 0.0005262161 -0.00010162899
000340 61 de 37 bb bd a1 2f 3b 11 41 d7 3a 33 e1 23 3a
       -0.0028056132 0.0026799284 0.001642259 0.0006251514
000350 5d 0f 54 bb f9 36 41 3b 4f 58 a5 ba 41 b2 ba ba
       -0.003235779 0.002948223 -0.0012614819 -0.0014243798
000360 c4 01 b9 3a a6 ab cc ba d2 36 aa bb 4d 27 32 3b
       0.0014114906 -0.001561512 -0.0051945234 0.002718407
000370 0e 35 7f 3a e5 31 d4 3a 11 cb 0e 3b 38 27 66 3b
       0.0009735384 0.0016189186 0.0021788517 0.003511859
000380 36 93 7d 3a 60 27 7a bb 5c 8c 2e bb 5b a4 53 bb
       0.000967312 -0.0038170442 -0.0026633954 -0.0032294008
000390 be d2 22 ba 48 3c 38 3b 39 c1 23 bb b3 5f eb 3a
       -0.00062112126 0.0028112102 -0.0024986996 0.0017957598
0003a0 4f 48 01 3b 1f 8d 01 3a 69 90 2b bb c0 6f 86 3a
       0.0019726937 0.0004941988 -0.0026178604 0.0010256693
0003b0 ac 3b 1a 3b c0 98 1b bb bd 5d fe ba 4d 78 15 ba
       0.0023534102 -0.002374217 -0.0019406598 -0.0005701825
0003c0 50 4b 80 39 d5 c9 3a bb fb 18 1b bb f4 59 0e 3b
       0.00024470175 -0.002850165 -0.0023666013 0.0021721097
0003d0 98 ed 78 3b 93 f4 5f 3a b0 7c 89 3a 84 18 9e 3a
       0.0037983414 0.00085432193 0.001048943 0.001206175
0003e0 8b c8 76 ba 68 da 13 3b 04 b1 e5 3a ca 49 68 bb
       -0.00094140385 0.00225606 0.0017524068 -0.0035444372
0003f0 66 c0 78 ba 05 40 2e ba 8a 99 28 3b 53 bc d9 ba
       -0.0009489119 -0.0006647113 0.0025726282 -0.0016611911

base.mlp.fc1.0.weight f4 [64, 651]
000000 9d 51 2d 3c 9c 56 34 bd 55 c5 99 3d 91 42 60 bd
       0.01057854 -0.04402791 0.07508341 -0.054750983
000010 1f 40 38 bd 35 93 b4 3d 87 87 55 3d 17 09 59 bc
       -0.044983026 0.0881714 0.052131202 -0.013246796
000020 bc 7b 35 bd 85 50 82 bd 3f c2 29 3c 28 93 3b 3d
       -0.044307455 -0.06363014 0.010361253 0.045794636
000030 b5 5c d5 bb 12 9d 70 3d eb b1 19 3d 0d 54 08 bd
       -0.0065112957 0.058743544 0.03752319 -0.033283282
000040 3b f0 44 bc ac 41 b6 3c 26 82 bc 3c 2e 37 92 3d
       -0.012020166 0.022248112 0.023011278 0.07139431
000050 3f 1f 37 bc 0c e6 88 bd ff bb 84 3d 63 91 36 bc
       -0.011176883 -0.06684503 0.0648117 -0.011143061
000060 e8 00 7e bd f9 4a ca 3c 82 d4 06 3d c8 ef 5a 3c
       -0.062012583 0.024693953 0.032917507 0.013362832
000070 59 8a 98 3d 80 51 60 bd 4a d6 b7 bd 97 d1 e6 3c
       0.07448263 -0.054765224 -0.08976419 0.028176112
000080 d1 72 52 3c c1 6c 86 3d d5 4f 59 3a 15 af 05 3d
       0.012844757 0.06563712 0.0008289789 0.032637674
000090 4e cd 20 bb 39 e2 a2 3d 71 e3 ba bd 41 07 c0 bc
       -0.0024536434 0.07953305 -0.09125412 -0.023440959
0000a0 62 ed f1 bd e5 42 1e bd f1 e2 2b 3e cd fb 82 bc
       -0.11812855 -0.038638014 0.1678579 -0.015989209
0000b0 5d cb 22 bd 35 72 99 3d 48 c8 98 3d b1 19 ec bc
       -0.039744724 0.074924864 0.074600756 -0.028820844
0000c0 29 64 bf 3c 0c e5 87 bd 35 bc cf bd 8b f8 ea bc
       0.02336319 -0.06635484 -0.101433195 -0.028682968
0000d0 bb 1f 24 3d 1b 90 77 3d fb 67 95 bc 52 3d a7 bd
       0.040069323 0.060440164 -0.018238058 -0.08165993
0000e0 ed 7a 1a bd 0b 35 2e bd 28 7d ab bb 93 d5 b5 bd
       -0.037714887 -0.042531054 -0.0052334256 -0.08878627
0000f0 30 45 a4 3c 6b e4 88 3d 0a 69 97 bc cc d4 41 3c
       0.020052522 0.06684192 -0.018482704 0.01183052
000100 85 22 d5 bb 9e fc 10 3d e2 09 78 3a 0d f0 36 3d
       -0.006504359 0.035397165 0.0009461922 0.044662524
000110 33 d9 90 bd 63 28 97 3d f1 47 6b 3d 09 fe 8c 3d
       -0.070726775 0.0738075 0.057441656 0.06884391
000120 e4 85 d2 bb 2d fb 2a bd c4 91 e9 3b 4e 3d 0f be
       -0.0064246524 -0.041743446 0.0071279723 -0.1398823
000130 17 fb 30 bb e1 05 7d 3b ea 5f 3d bd 41 55 b9 bb
       -0.002700513 0.003860824 -0.04623405 -0.005655915
000140 6c ff 70 3a 73 3e 00 3d 61 a5 a5 bc 63 55 5e bc
       0.0009193334 0.031309556 -0.02022046 -0.0135701625
000150 c4 16 25 be 8f b8 60 bc 2f fd a6 3d 2f c9 e4 3a
       -0.16121966 -0.013715877 0.0815376 0.0017454977
000160 5c 77 e2 3c 34 35 e0 3d c2 70 5f bb cf 51 8e bc
       0.027644806 0.10947648 -0.0034094309 -0.017372994
000170 3f f1 8e 3c 20 25 e6 bc c3 d3 36 bd f0 10 28 bd
       0.01744902 -0.028093874 -0.044635545 -0.041031778
000180 27 1c 41 bc 4e 02 f8 bc 59 c6 b6 3d b1 85 03 3e
       -0.011786497 -0.030274536 0.089245506 0.12843968
000190 89 75 ea bc c4 74 32 bd 49 ff 87 3d 53 b2 66 3c
       -0.028620498 -0.043568388 0.06640489 0.014080602
0001a0 8b 66 ef 3c 9d e3 24 bd f6 7f fb bc fe 5e 47 3d
       0.029223701 -0.04025613 -0.030700665 0.048674576
0001b0 36 43 e9 3c 27 3e 94 bd 19 7b c4 bc f7 9e ac bd
       0.028474431 -0.07238417 -0.023984479 -0.08428758
0001c0 ba 4a 00 bd 75 d5 9a bc 5d 01 d1 3b 9f d0 5f 3d
       -0.031321265 -0.018900612 0.0063783363 0.054642316
0001d0 71 d8 f6 bc 52 e4 3d 3d b7 af c5 bd ce 2d 14 3d
       -0.030132504 0.04636032 -0.096526556 0.036176495
0001e0 c6 ed 80 3d c4 34 38 bc 76 93 8c bb dd c2 15 bb
       0.06295352 -0.011243049 -0.0042900397 -0.0022851743
0001f0 3c 75 aa 3d ef 50 1d 3c b6 18 d3 bc b2 95 71 bc
       0.08323142 0.009601816 -0.025768619 -0.014745163
000200 4e 2b b1 bd 46 a6 81 bd ad e7 b6 3c da c4 fa bc
       -0.08650838 -0.06330542 0.022327268 -0.030611444
000210 7f 4e 7d bb 0c 3e 5c 3d 85 87 a7 3b 2f a3 b5 3c
       -0.0038651524 0.05377011 0.0051125907 0.022172539
000220 62 de 11 be c5 e9 d7 3d ea e3 00 3d 17 04 a2 bd
       -0.14244989 0.10542635 0.031467356 -0.07910936
000230 b6 87 b2 bc 31 3c 66 bd 46 4f 18 3a 03 33 cf 3c
       -0.021793228 -0.056209747 0.00058101525 0.025292879
000240 46 1d 04 3d 5b c8 5a 3d b1 03 65 bd 20 f1 fe bc
       0.03225448 0.05341373 -0.055911724 -0.031120837
000250 93 4f 03 3d 6e 2c f7 3a b2 63 45 3d b7 f8 31 3c
       0.03205831 0.0018857846 0.04819078 0.010862521
000260 58 88 66 bd d1 26 0b bd 91 b9 89 bc 5f b9 a8 bd
       -0.05628237 -0.033972565 -0.016812118 -0.08238482
000270 5a a1 f6 bd 20 9a a5 bb e5 81 31 bd 96 fd ae bd
       -0.12042494 -0.0050537735 -0.043336768 -0.085444614
000280 bd 4b 1b bd 79 41 5b bd 6a b3 2d 3d c2 86 55 3c
       -0.037914027 -0.053529236 0.04240743 0.013032617
000290 df d8 fa 3b f1 ce da bc bc d5 f9 bb d6 de 6f 3c
       0.0076552476 -0.026710005 -0.007624356 0.014640531
0002a0 7c c8 5f 3d 1e f1 05 3c 4a 48 af bc cc c0 c3 3d
       0.054634556 0.008175163 -0.021396775 0.095582575
0002b0 0f 95 4f 3d 64 53 b4 bd d7 03 47 bd 2e 92 62 3d
       0.050679263 -0.08804968 -0.048587646 0.05531519
0002c0 c7 6e 5f bc 02 6a 28 bd 37 09 cf 3d 91 26 bb 3d
       -0.013637251 -0.041116722 0.101091795 0.09138215
0002d0 bc ab 63 3d bc 79 f4 3c 1b a4 6c bd 77 44 b9 bd
       0.0555837 0.029843204 -0.05777369 -0.09046262
0002e0 51 96 f2 bc 72 b9 06 bd 3f 6e 5f bd 40 c8 53 bc
       -0.029612692 -0.0328917 -0.0545485 -0.012926161
0002f0 ee d0 a9 ba 37 52 8f 3d 16 de 2d bd be ce 5f bd
       -0.0012955943 0.06998103 -0.042448126 -0.054640524
000300 a2 eb 63 3d 70 a8 de 3b a9 e9 41 3d bb 18 3f 3c
       0.05564464 0.0067949817 0.047341976 0.011663611
000310 1d 97 88 3c 4e f2 8c 3d c0 af f4 3d 82 c5 8f bc
       0.016673619 0.068821535 0.11947584 -0.017550234
000320 68 44 b2 bc 1a 11 8c bc d9 90 dd 3d 4b 37 08 3d
       -0.021761134 -0.017097998 0.10818643 0.033255856
000330 ce 21 76 bd 52 35 12 bc f4 5f 4a 3d d0 00 bf 3d
       -0.060090832 -0.008923845 0.049407914 0.09326327
000340 7d 1c cc bb 84 b5 58 bd fb e9 d0 bc 76 86 15 3d
       -0.006228982 -0.05290748 -0.025502196 0.036505185
000350 3e a2 81 bd da 0c bc 3b 6a 07 87 3d f4 a1 c8 3c
       -0.06329773 0.0057388367 0.06593211 0.024491288
000360 41 44 b6 3d 05 c0 b3 bc 71 7b 15 bc 79 44 aa bc
       0.08899737 -0.021942148 -0.009123669 -0.020784603
000370 7b f7 93 bd c4 47 fa 3d 4e 17 91 bd 41 b6 d0 bc
       -0.072249375 0.122207195 -0.07084523 -0.02547753
000380 df 1b f9 bd 3e f6 bd 3c 6c d3 80 bd 4d 2b 91 bd
       -0.12163519 0.023188706 -0.062903255 -0.07088337
000390 c2 a8 91 3c 29 09 cd 3c 65 bc 39 3c 66 be 2d bd
       0.017780665 0.025028782 0.011336421 -0.042417906
0003a0 c5 e6 b2 3d a5 06 5e bc 58 ba ab 3b f1 80 89 3c
       0.08735422 -0.013551389 0.0052407198 0.016785117
0003b0 09 67 e1 bc a6 20 12 bc 79 97 80 bd d9 2f 31 be
       -0.027514951 -0.008918917 -0.06278891 -0.17303409
0003c0 a3 04 30 bc b0 f7 a6 3c f5 8e 17 bd 4e 35 65 3d
       -0.010743293 0.020381778 -0.03700157 0.05595904
0003d0 d0 9f 42 3d 27 4b d4 3c 14 70 9d 3c ec 6b 63 bd
       0.04751569 0.025914742 0.019218482 -0.055522844
0003e0 83 26 57 3d a4 72 29 3c 88 08 36 bd 65 ab 27 bd
       0.052526962 0.010342274 -0.04444173 -0.04093494
0003f0 d3 43 b6 bb 43 67 ff bc c7 3f ae 3c 0b 7b f2 3b
       -0.0055622845 -0.031177169 0.021270646 0.007399922

base.mlp.fc1.0.bias f4 [64]
000000 2c 94 27 3a 00 00 00 00 bc 15 4a 3a 00 00 00 00
       0.0006392624 0.0 0.0007708927 0.0
000010 a1 28 e3 3a 00 00 00 00 00 00 00 00 5f 90 41 bb
       0.0017330834 0.0 0.0 -0.0029535515
000020 2a f4 35 39 40 13 96 b8 00 00 00 00 00 00 00 00
       0.00017352463 -7.156143e-05 0.0 0.0
000030 31 d0 1b 3b 00 00 00 00 fb 56 32 bb 00 00 00 00
       0.0023775215 0.0 -0.002721249 0.0
000040 fa e0 a0 3a 04 25 92 b9 4e 6a f6 ba 87 ba 22 3b
       0.001227408 -0.0002787487 -0.0018799992 0.0024830417
000050 00 00 00 00 a4 ec 15 3b ed 9e 41 3a 05 f9 58 ba
       0.0 0.0022876645 0.00073860475 -0.0008276853
000060 00 00 00 00 00 00 00 00 9f 85 17 bb 9f 71 c3 ba
       0.0 0.0 -0.0023120416 -0.0014911181
000070 00 00 00 00 65 7f 6b bb 45 32 45 3b 00 00 00 00
       0.0 -0.0035934087 0.0030089777 0.0
000080 00 00 00 00 00 00 00 00 c3 35 d6 ba cd e6 37 3b
       0.0 0.0 -0.0016342927 0.0028061152
000090 80 44 80 3b 12 13 20 bb 27 a1 ee 3a 24 cf 16 bb
       0.003914416 -0.002442543 0.0018205986 -0.002301165
0000a0 00 00 00 00 00 00 00 00 e8 8b 0a ba be b2 23 ba
       0.0 0.0 -0.000528513 -0.0006244591
0000b0 00 00 00 00 00 00 00 00 67 45 e9 3a 00 00 00 00
       0.0 0.0 0.0017797173 0.0
0000c0 11 46 e1 3a 6e f3 64 38 e1 35 a2 3a a6 c1 6d b8
       0.0017187019 5.4586148e-05 0.0012375676 -5.6685552e-05
0000d0 48 60 aa 3b 99 2f 80 b8 d9 a0 6e bb 00 00 00 00
       0.005199466 -6.1123814e-05 -0.003641179 0.0
0000e0 ff bf 3f bb 18 ba 28 bb eb 57 2e 3b 92 1b ad bb
       -0.0029258726 -0.0025745686 0.0026602696 -0.0052828277
0000f0 00 00 00 00 88 65 96 ba 00 00 00 00 00 00 00 00
       0.0 -0.001147435 0.0 0.0

base.mlp.fc1.2.weight f4 [64]
000000 dc bf 80 3f a1 8e 80 3f 5c 50 80 3f 68 0b 7f 3f
       1.0058551 1.0043527 1.0024524 0.9962678
000010 a7 8c 7f 3f 58 94 7f 3f fc 8e 7f 3f 41 73 7f 3f
       0.99823993 0.9983573 0.9982755 0.9978524
000020 d3 42 80 3f 8c 1a 80 3f 71 be 7e 3f 5e e3 7e 3f
       1.0020393 1.0008101 0.9950934 0.99565685
000030 88 78 7f 3f 7f 7e 7e 3f b2 3e 80 3f 2e 09 80 3f
       0.9979329 0.9941177 1.0019133 1.0002801
000040 66 68 80 3f c8 36 80 3f 42 f3 7f 3f 12 9c 80 3f
       1.003186 1.0016718 0.99980557 1.0047629
000050 b1 6e 7f 3f b5 5e 80 3f 4d 39 80 3f 37 2f 80 3f
       0.99778277 1.0028902 1.0017487 1.0014409
000060 2d 10 80 3f ac 86 80 3f a7 42 80 3f af c0 7f 3f
       1.0004936 1.0041099 1.0020341 0.99903387
000070 0c 97 7f 3f 27 21 80 3f 4f 83 80 3f 39 06 80 3f
       0.99839854 1.0010117 1.0040072 1.0001899
000080 cc 4e 80 3f ea d9 7e 3f 15 9b 7f 3f fa dc 7e 3f
       1.0024047 0.9955126 0.9984601 0.99555933
000090 26 68 80 3f 26 0e 80 3f 9b 4e 80 3f 9b c9 7f 3f
       1.0031784 1.0004318 1.0023988 0.99917
0000a0 b0 1f 7f 3f d0 13 80 3f 2f d3 7f 3f cd 9d 7f 3f
       0.99657726 1.0006046 0.99931616 0.9985016
0000b0 13 3c 80 3f 1f c4 7f 3f 13 58 80 3f 59 b5 7e 3f
       1.0018333 0.9990863 1.0026878 0.99495465
0000c0 b4 16 80 3f 4e 15 80 3f 9e 7e 80 3f c8 62 80 3f
       1.0006928 1.0006502 1.003864 1.0030146
0000d0 ef 24 80 3f 58 53 80 3f 07 44 7f 3f 27 e5 7f 3f
       1.0011271 1.0025434 0.99713176 0.99959034
0000e0 02 52 7f 3f 89 e2 7f 3f 6f 24 80 3f da f8 7e 3f
       0.9973451 0.9995504 1.0011119 0.9959847
0000f0 bc f1 7e 3f af d6 7f 3f fc 27 7f 3f a4 58 7f 3f
       0.9958761 0.99936956 0.99670386 0.9974463

base.mlp.fc1.2.bias f4 [64]
000000 a9 47 dc 3a bc 92 91 bb ce 68 bc 3a 48 0b 76 3b
       0.0016806024 -0.004442541 0.0014374496 0.0037543345
000010 0c 44 17 3b 08 34 d4 3a 00 0d f2 3a f1 fb 16 bb
       0.002308133 0.0016189823 0.0018467009 -0.0023038352
000020 09 d0 84 ba 4d f9 92 3a a6 3c a5 3b 7a 5a 91 3b
       -0.00101328 0.0011213213 0.0050426302 0.0044358345
000030 a8 3b 3b 3b af bb c6 3b 61 3d 0f bb 92 1f 9d b9
       0.0028569493 0.006064854 -0.0021856653 -0.00029968895
000040 40 84 17 3b 3a 15 ae 3a 14 0e a3 ba 54 bf 51 3b
       0.0023119599 0.0013281472 -0.0012440109 0.003200491
000050 13 79 13 3b de b4 37 3b 94 8d b3 3a 94 b3 33 b8
       0.0022502586 0.002803139 0.001369881 -4.284417e-05
000060 d8 5d 03 ba 4b 03 8a bb 8c 11 e6 ba e4 93 0c 38
       -0.0005011237 -0.0042118183 -0.0017552837 3.3516335e-05
000070 7e b9 d8 3a ec 2d b3 ba 38 e1 5b 3b b9 fc 29 b9
       0.0016534773 -0.0013670302 0.003355099 -0.00016211242
000080 5e 95 26 bb db 7f 99 3b f8 78 b0 3a 7a 99 a1 3b
       -0.002541862 0.004684431 0.0013463786 0.004931626
000090 d9 92 89 3b 90 63 97 ba d1 d9 14 3b 24 0a c2 ba
       0.004198414 -0.0011550058 0.0022712837 -0.0014804048
0000a0 51 6c 67 3b 34 cc 2a ba 0a a9 a8 38 e8 1e 45 3a
       0.0035312364 -0.0006515414 8.04235e-05 0.0007519559
0000b0 f4 b6 ff ba 8c eb 66 3a 6b 15 18 ba 50 4b ad 3b
       -0.001950948 0.0008808903 -0.00058015314 0.005288519
0000c0 ef 6b 44 3b 7c 97 08 3a 89 ed 2a 3b 60 3d 8c 3a
       0.002997156 0.0005210561 0.0026081523 0.0010699444
0000d0 0e 02 db b8 70 33 26 bb 10 c5 4d bb 47 1e 16 3a
       -0.000104431165 -0.002536025 -0.0031397976 0.00057265576
0000e0 e4 92 2c bb 21 c7 b6 ba 40 b1 de b9 e4 63 93 bb
       -0.002633267 -0.0013944843 -0.000424752 -0.004497992
0000f0 0a 01 8f 3b 62 ff 2b 3a 1e a9 61 3b 7d 4b 2e 3b
       0.0043641375 0.00065611873 0.0034433077 0.0026595287

base.mlp.fc_h.0.weight f4 [64, 64]
000000 cb d5 34 be b5 de 8f be 7a 66 11 3c 7b a3 f7 bb
       -0.1765968 -0.280996 0.00887453 -0.00755733
000010 8c 5b b7 bd 6b 75 83 bc f2 11 26 3d 66 b8 26 3e
       -0.08953008 -0.0160472 0.040544458 0.1628128
000020 bb d1 5f be e8 dc 08 3e e0 7f ad be ef dd 36 bc
       -0.2185735 0.13365519 -0.33886623 -0.0111613115
000030 01 2f 0c bd 89 21 9e be 13 5f f8 bd eb db 24 3e
       -0.034224514 -0.3088496 -0.12127509 0.16099517
000040 83 a8 9c bd 11 d3 15 3e bb 50 99 3e c1 88 0c 3e
       -0.076493286 0.14631297 0.29944405 0.13724042
000050 ff 02 d1 bd aa 6c a1 3c 8b f3 b2 bd 04 b8 b4 be
       -0.102056496 0.019705135 -0.087378584 -0.35296643
000060 3a f4 9c be 29 f5 b6 3c 06 c8 6f bd 58 37 4f 3b
       -0.3065508 0.022333698 -0.058540367 0.003161868
000070 ed f1 aa 3b e3 21 0e 3e 8f 99 8e 3e f5 e6 8d bd
       0.005216828 0.13880114 0.2785153 -0.06928817
000080 0c 11 b7 bd e7 4e a1 bd 64 e5 11 bc ca 8d 47 bd
       -0.08938798 -0.078763776 -0.008904789 -0.048719205
000090 84 a2 28 3e 9e 6a c4 be d2 13 5d be 50 63 a9 3c
       0.16468245 -0.38362592 -0.21589592 0.020677239
0000a0 32 56 76 be 35 1c 8f 3d f4 11 f3 3c 1a 1d 32 bd
       -0.24056318 0.06987802 0.029671647 -0.043484785
0000b0 f4 40 8c bd 0f 9b 28 be 14 fd 34 3e eb da 54 be
       -0.06848326 -0.164654 0.17674667 -0.20786636
0000c0 e6 ad 2c be 61 50 dd be 89 95 5f be de 7c ac 3e
       -0.16863212 -0.43225387 -0.21834387 0.33689016
0000d0 53 95 08 3e 8a b3 3b be b1 9d 02 3e 4d cd 99 3c
       0.13338213 -0.18330207 0.12755467 0.018774653
0000e0 34 08 90 be 01 ea f4 3d a2 44 b0 3d 92 ad 5c bd
       -0.28131258 0.11958695 0.08606841 -0.053876467
0000f0 11 5d b2 3d ca 6f 5e be a3 84 ff 3d 61 f6 2d 3e
       0.08709157 -0.21722332 0.1247647 0.16988517
000100 5e f9 bf 3d a9 84 ab 3e d3 4b d9 be 33 a7 1a 3d
       0.09373735 0.3349965 -0.42440662 0.03775711
000110 8b 99 e5 3c 0c a9 10 3e 56 cf 2b bd 46 05 f0 bc
       0.028027317 0.14126986 -0.041945778 -0.02929939
000120 7e a4 2f 3d ac fe d0 bb 5f a4 e6 be 95 9c 07 3e
       0.04288148 -0.0063780155 -0.4504728 0.13243325
000130 a7 29 5b 3e ed fb 19 3d d4 22 e9 bc 25 a4 d8 bd
       0.21402608 0.03759377 -0.02845899 -0.10578183
000140 7a 97 0b be 8e ba 88 3e 44 30 62 be ba c9 06 be
       -0.13632002 0.2670483 -0.22088724 -0.1316289
000150 54 23 64 3e c5 b2 99 bd 9f 89 e3 bc 10 b1 21 3e
       0.22279102 -0.07504801 -0.027775584 0.157902
000160 c5 cc 66 be 7a 01 ca bd fc 91 c7 bc cd 66 4f be
       -0.22539051 -0.09863563 -0.024361603 -0.20254059
000170 5a 52 62 be b2 08 04 3e 4c f1 00 be b2 ad 2b 3e
       -0.22101727 0.12893942 -0.12592047 0.16765478
000180 45 dd 5c be 7f 33 f2 bd 2e af 07 be 6f 62 09 3e
       -0.21568783 -0.11826228 -0.1325042 0.13416456
000190 32 f7 e5 3c a7 9b b5 3e f9 bd c8 3d ad 0b 86 bd
       0.028071973 0.35470316 0.098018594 -0.06545196
0001a0 09 ca 90 3d 03 75 d0 bb d7 d6 63 3e 33 a3 0a 3e
       0.07069785 -0.006361605 0.22249924 0.13538818
0001b0 c1 60 89 3e b9 c1 d0 3d fe 17 3b be e3 84 4a 3e
       0.2683163 0.101932 -0.18270871 0.19777255
0001c0 43 40 a4 be 90 81 7e be 47 d9 44 3c ce 3c 6b 3d
       -0.32080278 -0.24854112 0.012014694 0.057431035
0001d0 8d 5a a9 3e ca 9c da bd a7 c3 f4 3d e1 e0 57 3e
       0.33076897 -0.106744364 0.1195138 0.21081878
0001e0 89 2b 13 3d af 87 0d 3d bb ef 37 3c 01 c4 43 be
       0.03593019 0.034553226 0.01122659 -0.19117738
0001f0 43 3e 0c bd ce ec 1c be 9c 34 61 3e e7 0c 10 3e
       -0.034239065 -0.15324709 0.21992725 0.14067422
000200 16 c5 91 3e 03 46 c3 bc ee bb 79 bc b4 79 f1 3d
       0.28470677 -0.023837095 -0.01524256 0.11790791
000210 9f 0d 43 3e 46 c1 02 bd 80 7a 3a be 13 27 b4 3b
       0.19048165 -0.0319226 -0.18210793 0.005497822
000220 c7 63 80 bd d0 87 b5 3e 80 41 71 3e 87 32 88 3e
       -0.06269031 0.3545518 0.23560143 0.2660105
000230 48 6e a7 bc 97 e8 50 be 76 ea b2 3e 91 b9 31 be
       -0.020438328 -0.20401226 0.34944504 -0.17355944
000240 f0 ef 3b bd 50 f1 c0 3d 08 78 33 be c0 4b 05 bc
       -0.04588312 0.09421027 -0.17526257 -0.008135736
000250 1c d3 2d bd b1 55 88 be cb 7e 72 3d 4c 8f 6b 3d
       -0.042437658 -0.26627877 0.05920295 0.057509705
000260 f7 ee d3 bd a1 74 ba bd 57 f8 81 3b 9c fa 03 3e
       -0.10348313 -0.091042764 0.003966372 0.12888569
000270 ca 07 92 bd e8 cc 78 bd f8 78 b3 3c c4 4f c7 3d
       -0.07130392 -0.06074229 0.021908268 0.09732011
000280 36 f8 52 be ad 59 80 3e ca b9 39 3e 2f ff 84 be
       -0.20602497 0.25068417 0.18137279 -0.2597594
000290 5d 9e 39 be 2f 2c 28 3c c3 f6 9f 3a 60 16 0e 3e
       -0.18126817 0.01026444 0.0012204278 0.13875723
0002a0 ba ab 9a 3b 99 ee d5 bd aa 83 c2 be a6 c6 36 be
       0.0047201784 -0.104458995 -0.37991077 -0.17849216
0002b0 7f 62 44 3e 1f a3 23 3e 0a 31 f5 3c 57 54 73 be
       0.19178198 0.15980195 0.02993061 -0.23762642
0002c0 84 7f a8 3d 04 f9 15 be 23 d5 a4 be 6b 8d a8 bd
       0.08227447 -0.14645773 -0.3219386 -0.08230098
0002d0 9c 8d 29 be 14 a9 d4 bd 5d 5e 09 3a 31 7f 9a bd
       -0.16557926 -0.103838116 0.00052401965 -0.07543791
0002e0 bd 99 1f 3e a3 da 9a 3e f9 29 cf be 29 36 a1 bd
       0.1558599 0.30244932 -0.4046171 -0.07871658
0002f0 6a ba da bd c0 06 ba be 5c f9 e2 3d d4 6a 0e 3e
       -0.10680087 -0.36333275 0.11082718 0.13907939
000300 3d 05 63 3e b4 5c b8 bc 33 aa 7a 3c 98 47 e1 3d
       0.22169967 -0.022505142 0.015299368 0.109999835
000310 46 7f f9 3d b9 bd 5a be 3f 80 49 be c1 38 a6 3d
       0.121824786 -0.21361436 -0.19677828 0.08116294
000320 b6 12 0a 3c f6 6b 9c bd 50 d3 15 3e 5a ae a5 be
       0.008427313 -0.076377794 0.1463139 -0.32359582
000330 9c 3a da bd 77 cb 00 be 6e c1 f1 bd 59 3f a1 3d
       -0.1065571 -0.12577616 -0.11804472 0.07873411
000340 cc b2 58 3e 1b 56 7d bd 7f c4 c5 be c0 6b f4 3d
       0.21161956 -0.061849695 -0.38626477 0.11934614
000350 76 e9 c3 3c 96 25 cb 3d ad 7f 46 be 4d 59 f4 3d
       0.023915034 0.09919278 -0.19384642 0.11931095
000360 42 fb 7a be cd d4 47 3e 86 0b c7 be d6 c9 98 bd
       -0.2450991 0.19514771 -0.3887598 -0.07460372
000370 1a c9 0f 3e b7 e0 1b 3e 8e 52 a5 3e 3f 30 ac 3d
       0.14041558 0.1522244 0.32289547 0.0840764
000380 39 64 29 3e 9e a8 cd 3d fa 21 10 3e 9f 2d 1b bd
       0.16542138 0.10041927 0.14075461 -0.037885305
000390 4f 16 6b bc a9 32 b3 3d 4a ee 35 be 28 62 56 3c
       -0.0143485805 0.08749897 -0.17766681 0.013084926
0003a0 a1 7b a0 3e 93 c0 57 be 9f 64 79 3d 26 b6 08 be
       0.3134432 -0.21069555 0.060886975 -0.13350734
0003b0 3f d5 8a 3d 52 1d d9 3c 7c 86 74 3e b3 4a 76 3d
       0.06778955 0.026503239 0.23879427 0.060129832
0003c0 db 7c 17 be da 08 52 be 4e c8 94 39 1f fa 90 be
       -0.14793722 -0.20511189 0.00028377998 -0.28315827
0003d0 7f 81 0e 3c 0f ab a0 bd 41 b9 96 3d ea a7 04 3f
       0.008697866 -0.07845127 0.07359553 0.51818717
0003e0 e5 7a 06 bd 78 a7 68 3e 95 4b 6d 3e a2 70 31 3e
       -0.032832045 0.22720134 0.23173364 0.17328122
0003f0 16 28 eb 3d 57 05 ab 3d 8a e5 9c bc a3 9a 7a be
       0.11482255 0.08350628 -0.019152422 -0.24473052

base.mlp.fc_h.0.bias f4 [64]
000000 00 00 00 00 00 00 00 00 00 00 00 00 00 00 00 00
       0.0 0.0 0.0 0.0
000010 00 00 00 00 00 00 00 00 00 00 00 00 00 00 00 00
       0.0 0.0 0.0 0.0
000020 00 00 00 00 00 00 00 00 00 00 00 00 00 00 00 00
       0.0 0.0 0.0 0.0
000030 00 00 00 00 00 00 00 00 00 00 00 00 00 00 00 00
       0.0 0.0 0.0 0.0
000040 00 00 00 00 00 00 00 00 00 00 00 00 00 00 00 00
       0.0 0.0 0.0 0.0
000050 00 00 00 00 00 00 00 00 00 00 00 00 00 00 00 00
       0.0 0.0 0.0 0.0
000060 00 00 00 00 00 00 00 00 00 00 00 00 00 00 00 00
       0.0 0.0 0.0 0.0
000070 00 00 00 00 00 00 00 00 00 00 00 00 00 00 00 00
       0.0 0.0 0.0 0.0
000080 00 00 00 00 00 00 00 00 00 00 00 00 00 00 00 00
       0.0 0.0 0.0 0.0
000090 00 00 00 00 00 00 00 00 00 00 00 00 00 00 00 00
       0.0 0.0 0.0 0.0
0000a0 00 00 00 00 00 00 00 00 00 00 00 00 00 00 00 00
       0.0 0.0 0.0 0.0
0000b0 00 00 00 00 00 00 00 00 00 00 00 00 00 00 00 00
       0.0 0.0 0.0 0.0
0000c0 00 00 00 00 00 00 00 00 00 00 00 00 00 00 00 00
       0.0 0.0 0.0 0.0
0000d0 00 00 00 00 00 00 00 00 00 00 00 00 00 00 00 00
       0.0 0.0 0.0 0.0
0000e0 00 00 00 00 00 00 00 00 00 00 00 00 00 00 00 00
       0.0 0.0 0.0 0.0
0000f0 00 00 00 00 00 00 00 00 00 00 00 00 00 00 00 00
       0.0 0.0 0.0 0.0

base.mlp.fc_h.2.weight f4 [64]
000000 00 00 80 3f 00 00 80 3f 00 00 80 3f 00 00 80 3f
       1.0 1.0 1.0 1.0
000010 00 00 80 3f 00 00 80 3f 00 00 80 3f 00 00 80 3f
       1.0 1.0 1.0 1.0
000020 00 00 80 3f 00 00 80 3f 00 00 80 3f 00 00 80 3f
       1.0 1.0 1.0 1.0
000030 00 00 80 3f 00 00 80 3f 00 00 80 3f 00 00 80 3f
       1.0 1.0 1.0 1.0
000040 00 00 80 3f 00 00 80 3f 00 00 80 3f 00 00 80 3f
       1.0 1.0 1.0 1.0
000050 00 00 80 3f 00 00 80 3f 00 00 80 3f 00 00 80 3f
       1.0 1.0 1.0 1.0
000060 00 00 80 3f 00 00 80 3f 00 00 80 3f 00 00 80 3f
       1.0 1.0 1.0 1.0
000070 00 00 80 3f 00 00 80 3f 00 00 80 3f 00 00 80 3f
       1.0 1.0 1.0 1.0
000080 00 00 80 3f 00 00 80 3f 00 00 80 3f 00 00 80 3f
       1.0 1.0 1.0 1.0
000090 00 00 80 3f 00 00 80 3f 00 00 80 3f 00 00 80 3f
       1.0 1.0 1.0 1.0
0000a0 00 00 80 3f 00 00 80 3f 00 00 80 3f 00 00 80 3f
       1.0 1.0 1.0 1.0
0000b0 00 00 80 3f 00 00 80 3f 00 00 80 3f 00 00 80 3f
       1.0 1.0 1.0 1.0
0000c0 00 00 80 3f 00 00 80 3f 00 00 80 3f 00 00 80 3f
       1.0 1.0 1.0 1.0
0000d0 00 00 80 3f 00 00 80 3f 00 00 80 3f 00 00 80 3f
       1.0 1.0 1.0 1.0
0000e0 00 00 80 3f 00 00 80 3f 00 00 80 3f 00 00 80 3f
       1.0 1.0 1.0 1.0
0000f0 00 00 80 3f 00 00 80 3f 00 00 80 3f 00 00 80 3f
       1.0 1.0 1.0 1.0

base.mlp.fc_h.2.bias f4 [64]
000000 00 00 00 00 00 00 00 00 00 00 00 00 00 00 00 00
       0.0 0.0 0.0 0.0
000010 00 00 00 00 00 00 00 00 00 00 00 00 00 00 00 00
       0.0 0.0 0.0 0.0
000020 00 00 00 00 00 00 00 00 00 00 00 00 00 00 00 00
       0.0 0.0 0.0 0.0
000030 00 00 00 00 00 00 00 00 00 00 00 00 00 00 00 00
       0.0 0.0 0.0 0.0
000040 00 00 00 00 00 00 00 00 00 00 00 00 00 00 00 00
       0.0 0.0 0.0 0.0
000050 00 00 00 00 00 00 00 00 00 00 00 00 00 00 00 00
       0.0 0.0 0.0 0.0
000060 00 00 00 00 00 00 00 00 00 00 00 00 00 00 00 00
       0.0 0.0 0.0 0.0
000070 00 00 00 00 00 00 00 00 00 00 00 00 00 00 00 00
       0.0 0.0 0.0 0.0
000080 00 00 00 00 00 00 00 00 00 00 00 00 00 00 00 00
       0.0 0.0 0.0 0.0
000090 00 00 00 00 00 00 00 00 00 00 00 00 00 00 00 00
       0.0 0.0 0.0 0.0
0000a0 00 00 00 00 00 00 00 00 00 00 00 00 00 00 00 00
       0.0 0.0 0.0 0.0
0000b0 00 00 00 00 00 00 00 00 00 00 00 00 00 00 00 00
       0.0 0.0 0.0 0.0
0000c0 00 00 00 00 00 00 00 00 00 00 00 00 00 00 00 00
       0.0 0.0 0.0 0.0
0000d0 00 00 00 00 00 00 00 00 00 00 00 00 00 00 00 00
       0.0 0.0 0.0 0.0
0000e0 00 00 00 00 00 00 00 00 00 00 00 00 00 00 00 00
       0.0 0.0 0.0 0.0
0000f0 00 00 00 00 00 00 00 00 00 00 00 00 00 00 00 00
       0.0 0.0 0.0 0.0

base.mlp.fc2.0.0.weight f4 [64, 64]
000000 62 b7 39 be 35 9c 8f be d3 66 d1 3b 4b f9 e6 bb
       -0.18136361 -0.28048864 0.0063904314 -0.007048761
000010 39 bb ba bd 3a 8e 7e bc cf 28 28 3d 56 68 26 3e
       -0.09117741 -0.015536839 0.041054543 0.16250739
000020 6c bb 60 be 3a 84 09 3e 4f 3d ad be fc 90 2e bc
       -0.21946496 0.13429347 -0.33835837 -0.010654684
000030 04 07 11 bd cd de 9d be 51 f2 f4 bd 51 60 25 3e
       -0.03540708 -0.30834046 -0.11960281 0.16150023
000040 39 0c 9d bd 6c df 16 3e 64 21 9a 3e 00 63 11 3e
       -0.07668347 0.14733666 0.301036 0.14197922
000050 1a fa cf bd 68 7e a6 3c fd 14 b4 bd 03 0e b6 be
       -0.10155125 0.020323947 -0.08793066 -0.35557565
000060 8c b1 9c be f7 1b bb 3c 46 4f 7f bd 05 2e 9e b9
       -0.30604208 0.022840483 -0.06233146 -0.00030170396
000070 cb 8e bb 3b dc 77 0e 3e 8f 51 8f 3e d6 da 8c bd
       0.0057238094 0.1391291 0.27991912 -0.06877677
000080 bb 07 b6 bd 55 44 a0 bd ea 62 11 bc 8d 7e 3e bd
       -0.08888193 -0.07825533 -0.008873681 -0.046507407
000090 21 d1 26 3e 7e ed c5 be 56 8a 5c be 43 61 a8 3c
       0.16290714 -0.38657755 -0.21537146 0.02055419
0000a0 60 d0 75 be 0b 27 90 3d 5f 4c fc 3c ad 1b 21 bd
       -0.2400527 0.07038697 0.030798135 -0.039333034
0000b0 a4 38 8b bd e8 15 28 be a3 24 37 3e 93 55 54 be
       -0.06797913 -0.16414607 0.1788507 -0.20735769
0000c0 32 55 28 be ec d3 dd be b7 88 5f be 97 f8 ac 3e
       -0.1643875 -0.43325746 -0.21829496 0.3378341
0000d0 ee 2d 0b 3e db 30 3b be 34 7a 01 3e 38 fc 9d 3c
       0.1359174 -0.18280356 0.12644273 0.019285306
0000e0 eb e2 90 be bd b0 f1 3d 04 4f ae 3d 75 98 60 bd
       -0.28298125 0.11801288 0.08511165 -0.054832894
0000f0 24 67 b3 3d 4c de 5d be 33 48 00 3e d5 7a 2e 3e
       0.08759907 -0.21666831 0.12527542 0.17039044
000100 5e f9 bf 3d a9 84 ab 3e d3 4b d9 be 33 a7 1a 3d
       0.09373735 0.3349965 -0.42440662 0.03775711
000110 8b 99 e5 3c 0c a9 10 3e 56 cf 2b bd 46 05 f0 bc
       0.028027317 0.14126986 -0.041945778 -0.02929939
000120 7e a4 2f 3d ac fe d0 bb 5f a4 e6 be 95 9c 07 3e
       0.04288148 -0.0063780155 -0.4504728 0.13243325
000130 a7 29 5b 3e ed fb 19 3d d4 22 e9 bc 25 a4 d8 bd
       0.21402608 0.03759377 -0.02845899 -0.10578183
000140 7a 97 0b be 8e ba 88 3e 44 30 62 be ba c9 06 be
       -0.13632002 0.2670483 -0.22088724 -0.1316289
000150 54 23 64 3e c5 b2 99 bd 9f 89 e3 bc 10 b1 21 3e
       0.22279102 -0.07504801 -0.027775584 0.157902
000160 c5 cc 66 be 7a 01 ca bd fc 91 c7 bc cd 66 4f be
       -0.22539051 -0.09863563 -0.024361603 -0.20254059
000170 5a 52 62 be b2 08 04 3e 4c f1 00 be b2 ad 2b 3e
       -0.22101727 0.12893942 -0.12592047 0.16765478
000180 45 dd 5c be 7f 33 f2 bd 2e af 07 be 6f 62 09 3e
       -0.21568783 -0.11826228 -0.1325042 0.13416456
000190 32 f7 e5 3c a7 9b b5 3e f9 bd c8 3d ad 0b 86 bd
       0.028071973 0.35470316 0.098018594 -0.06545196
0001a0 09 ca 90 3d 03 75 d0 bb d7 d6 63 3e 33 a3 0a 3e
       0.07069785 -0.006361605 0.22249924 0.13538818
0001b0 c1 60 89 3e b9 c1 d0 3d fe 17 3b be e3 84 4a 3e
       0.2683163 0.101932 -0.18270871 0.19777255
0001c0 43 40 a4 be 90 81 7e be 47 d9 44 3c ce 3c 6b 3d
       -0.32080278 -0.24854112 0.012014694 0.057431035
0001d0 8d 5a a9 3e ca 9c da bd a7 c3 f4 3d e1 e0 57 3e
       0.33076897 -0.106744364 0.1195138 0.21081878
0001e0 89 2b 13 3d af 87 0d 3d bb ef 37 3c 01 c4 43 be
       0.03593019 0.034553226 0.01122659 -0.19117738
0001f0 43 3e 0c bd ce ec 1c be 9c 34 61 3e e7 0c 10 3e
       -0.034239065 -0.15324709 0.21992725 0.14067422
000200 0b f7 93 3e 41 c6 be bc 3e 39 7f bc fa 90 f2 3d
       0.28899416 -0.023287894 -0.015577612 0.11844058
000210 dd 36 44 3e 20 8e 00 bd 1f ec 39 be 28 fd a2 3b
       0.19161554 -0.03138554 -0.1815648 0.0049740262
000220 34 4e 80 bd 5e 84 b4 3e 86 cd 71 3e bd 78 88 3e
       -0.06264916 0.35257238 0.23613557 0.26654616
000230 24 c8 a3 bc e5 5c 50 be bc 3b b3 3e ac 2a 31 be
       -0.019992895 -0.20347936 0.3500651 -0.17301434
000240 58 bf 3f bd a8 98 c4 3d ac d8 34 be 79 62 31 bc
       -0.04681334 0.09599429 -0.17660779 -0.0108267
000250 46 9c 2b bd 32 ac 88 be ee ef 6e 3d 0c 8e 6b 3d
       -0.04189708 -0.26693875 0.058334284 0.057508513
000260 eb cf d2 bd 07 56 b9 bd 8d 8b 9c 3b 00 46 08 3e
       -0.102935635 -0.090496115 0.004777378 0.13307953
000270 10 ee 90 bd fa 61 75 bd 9b 51 aa 3c 7b 6a c8 3d
       -0.07076657 -0.05990789 0.020790866 0.097859345
000280 6c 68 52 be c2 9f 80 3e 78 49 3a 3e 62 c6 84 be
       -0.20547646 0.25121886 0.18192089 -0.25932604
000290 29 f5 38 be e7 81 2e 3c 56 97 b8 39 b4 49 0d 3e
       -0.18062271 0.010651088 0.0003520797 0.13797647
0002a0 81 57 ac 3b 2e d0 d4 bd ef db c1 be a0 e1 39 be
       0.0052594547 -0.103912696 -0.3786311 -0.18152475
0002b0 f3 ef 44 3e 27 2f 24 3e 51 e7 f7 3c 9f c8 72 be
       0.19232158 0.16033612 0.030261667 -0.23709343
0002c0 a5 a7 a1 3d ee 45 16 be db 21 a5 be 16 f9 aa bd
       0.07893304 -0.14675114 -0.32252392 -0.083482906
0002d0 4a 7f 29 be b1 8b d3 bd 1f d4 fe 39 9b 62 99 bd
       -0.16552463 -0.103293784 0.00048604698 -0.074895106
0002e0 e9 17 1f 3e 72 43 9b 3e 5c b9 ce be fe 2d a0 bd
       0.15536465 0.30324894 -0.40375793 -0.07821272
0002f0 5f a1 d9 bd b2 a5 b9 be 42 14 e4 3d c1 f7 0e 3e
       -0.10626482 -0.36259228 0.11136676 0.13961698
000300 3d 05 63 3e b4 5c b8 bc 33 aa 7a 3c 98 47 e1 3d
       0.22169967 -0.022505142 0.015299368 0.109999835
000310 46 7f f9 3d b9 bd 5a be 3f 80 49 be c1 38 a6 3d
       0.121824786 -0.21361436 -0.19677828 0.08116294
000320 b6 12 0a 3c f6 6b 9c bd 50 d3 15 3e 5a ae a5 be
       0.008427313 -0.076377794 0.1463139 -0.32359582
000330 9c 3a da bd 77 cb 00 be 6e c1 f1 bd 59 3f a1 3d
       -0.1065571 -0.12577616 -0.11804472 0.07873411
000340 cc b2 58 3e 1b 56 7d bd 7f c4 c5 be c0 6b f4 3d
       0.21161956 -0.061849695 -0.38626477 0.11934614
000350 76 e9 c3 3c 96 25 cb 3d ad 7f 46 be 4d 59 f4 3d
       0.023915034 0.09919278 -0.19384642 0.11931095
000360 42 fb 7a be cd d4 47 3e 86 0b c7 be d6 c9 98 bd
       -0.2450991 0.19514771 -0.3887598 -0.07460372
000370 1a c9 0f 3e b7 e0 1b 3e 8e 52 a5 3e 3f 30 ac 3d
       0.14041558 0.1522244 0.32289547 0.0840764
000380 39 64 29 3e 9e a8 cd 3d fa 21 10 3e 9f 2d 1b bd
       0.16542138 0.10041927 0.14075461 -0.037885305
000390 4f 16 6b bc a9 32 b3 3d 4a ee 35 be 28 62 56 3c
       -0.0143485805 0.08749897 -0.17766681 0.013084926
0003a0 a1 7b a0 3e 93 c0 57 be 9f 64 79 3d 26 b6 08 be
       0.3134432 -0.21069555 0.060886975 -0.13350734
0003b0 3f d5 8a 3d 52 1d d9 3c 7c 86 74 3e b3 4a 76 3d
       0.06778955 0.026503239 0.23879427 0.060129832
0003c0 db 7c 17 be da 08 52 be 4e c8 94 39 1f fa 90 be
       -0.14793722 -0.20511189 0.00028377998 -0.28315827
0003d0 7f 81 0e 3c 0f ab a0 bd 41 b9 96 3d ea a7 04 3f
       0.008697866 -0.07845127 0.07359553 0.51818717
0003e0 e5 7a 06 bd 78 a7 68 3e 95 4b 6d 3e a2 70 31 3e
       -0.032832045 0.22720134 0.23173364 0.17328122
0003f0 16 28 eb 3d 57 05 ab 3d 8a e5 9c bc a3 9a 7a be
       0.11482255 0.08350628 -0.019152422 -0.24473052

base.mlp.fc2.0.0.bias f4 [64]
000000 36 87 e8 b9 00 00 00 00 48 e0 27 ba 00 00 00 00
       -0.00044351228 0.0 -0.0006403965 0.0
000010 00 00 00 00 cc da 34 3b 1c 82 a5 ba 26 5d 9e 3b
       0.0 0.0027596233 -0.0012627277 0.0048328815
000020 48 6c a1 b9 00 00 00 00 00 00 00 00 3e bd e8 b9
       -0.0003078899 0.0 0.0 -0.00044391485
000030 a5 a2 80 bb e4 88 02 3a 00 00 00 00 30 77 2a bb
       -0.0039256387 0.0004979505 0.0 -0.0026010983
000040 df 44 73 3b 00 00 00 00 00 00 00 00 0d 22 66 3b
       0.0037119908 0.0 0.0 0.003511551
000050 00 00 00 00 e0 a5 1c 39 cd 79 41 3a 00 00 00 00
       0.0 0.00014939113 0.00073805155 0.0
000060 00 00 00 00 6c ea 23 bb 65 3a e2 3a ad 42 c2 ba
       0.0 -0.0025011552 0.0017259835 -0.0014820896
000070 00 00 00 00 06 17 e6 3a 5a 68 e6 ba 00 00 00 00
       0.0 0.0017554469 -0.0017578707 0.0
000080 00 00 00 00 c3 0e 15 3b 3e a0 a2 bb b4 1c 1b bb
       0.0 0.0022744394 -0.00496295 -0.0023668231
000090 21 9e 5b bb 00 00 00 00 08 53 a9 3b f1 ef 49 bb
       -0.0033511 0.0 0.005167369 -0.0030813182
0000a0 00 00 00 00 00 00 00 00 60 94 31 bb 00 00 00 00
       0.0 0.0 -0.0027096495 0.0
0000b0 00 00 00 00 ce a4 3b 3a 00 00 00 00 00 00 00 00
       0.0 0.00071580417 0.0 0.0
0000c0 9b ab 18 bb f2 e2 88 bb bf 2d 70 bb 00 00 00 00
       -0.0023295644 -0.0041774446 -0.003664836 0.0
0000d0 65 c0 1c 3b bc 3b 04 3b 00 00 00 00 00 00 00 00
       0.0023918387 0.0020177206 0.0 0.0
0000e0 00 00 00 00 00 00 00 00 00 00 00 00 00 00 00 00
       0.0 0.0 0.0 0.0
0000f0 bc 69 0a 3b 00 00 00 00 e9 54 1c 3b 00 00 00 00
       0.0021120152 0.0 0.0023854321 0.0

base.mlp.fc2.0.2.weight f4 [64]
000000 d2 81 80 3f f9 59 80 3f 6e 61 80 3f 9f 04 80 3f
       1.0039618 1.0027457 1.0029733 1.000141
000010 7a 52 7f 3f 60 25 80 3f 24 36 80 3f 2b 40 80 3f
       0.99735224 1.0011406 1.0016522 1.0019583
000020 02 79 80 3f 8b 43 80 3f be 36 7f 3f 92 31 80 3f
       1.0036929 1.0020612 0.99692905 1.0015128
000030 10 0b 7f 3f 2a e8 7f 3f b3 0d 80 3f e2 c1 7f 3f
       0.99626255 0.9996363 1.0004181 0.99905217
000040 ff b1 80 3f b3 27 80 3f 11 cb 7f 3f 5b 3a 80 3f
       1.005432 1.0012115 0.9991923 1.0017809
000050 e8 94 7f 3f e5 38 80 3f 39 fd 7f 3f 10 03 80 3f
       0.9983659 1.0017363 0.9999576 1.0000935
000060 2c 33 80 3f 0c 4f 80 3f 8c 74 80 3f f6 ad 7f 3f
       1.0015616 1.0024123 1.0035567 0.9987482
000070 4c 13 7f 3f bf c6 7f 3f ae 05 80 3f 7a 5c 80 3f
       0.9963882 0.9991264 1.0001733 1.0028222
000080 3d cb 7e 3f a3 50 80 3f 21 3e 7f 3f ff fe 7f 3f
       0.99528867 1.0024608 0.99704176 0.9999847
000090 e8 ec 7f 3f e5 44 80 3f e0 95 80 3f e7 19 80 3f
       0.99970865 1.0021025 1.0045738 1.0007905
0000a0 64 e3 7f 3f 43 4e 80 3f d6 e6 7f 3f 20 70 80 3f
       0.99956346 1.0023884 0.999616 1.0034218
0000b0 6d 3e 80 3f e3 6f 80 3f c2 7c 7f 3f 28 5d 80 3f
       1.0019051 1.0034145 0.9979974 1.0028429
0000c0 64 2a 7f 3f 1c 5a 7f 3f 75 47 7f 3f 79 66 80 3f
       0.9967406 0.9974687 0.9971841 1.0031272
0000d0 30 50 80 3f 6c 70 7f 3f 90 e7 7f 3f f5 0b 80 3f
       1.0024471 0.9978092 0.9996271 1.0003649
0000e0 7b 50 80 3f 0b a7 80 3f a6 75 80 3f d4 5f 80 3f
       1.0024561 1.0050977 1.0035903 1.0029244
0000f0 bf 6b 80 3f 3f 10 7f 3f ba 2d 80 3f 35 68 7f 3f
       1.0032881 0.99634165 1.0013955 0.9976838

base.mlp.fc2.0.2.bias f4 [64]
000000 1c 48 ed ba 7a 38 3e bb 5c 70 ca ba 7e d4 d1 b9
       -0.0018103155 -0.0029025362 -0.0015444863 -0.00040021905
000010 c2 36 44 3b 86 95 b8 3a da 8d e0 ba 87 c1 8e 3b
       0.0029939865 0.0014082647 -0.0017132119 0.0043565664
000020 7d 75 bf ba a5 63 11 bb cf fb 58 3b 77 b6 cd ba
       -0.0014607158 -0.0022184637 0.0033109074 -0.0015694638
000030 43 ff 6b bb 73 6b 19 ba 53 13 a5 b9 53 b9 75 3a
       -0.0036010302 -0.0005852498 -0.0003148565 0.0009373624
000040 73 4a 5c 3b 08 b6 9e ba 77 a1 4b 3a 3c 8d bc 39
       0.003361371 -0.0012108693 0.00077678956 0.00035963382
000050 e2 18 df 3a a1 dd 78 b9 65 fa e6 39 00 8e e4 38
       0.0017020965 -0.00023733686 0.00044055577 0.00010898337
000060 54 d9 df ba be 6d 36 bb ea 88 1a 3b 06 e6 d1 ba
       -0.0017078319 -0.0027836408 0.0023580142 -0.0016013987
000070 e0 7b 7f 3b ec b2 c0 3a 83 8e 0a bb 7f 89 47 bb
       0.0038983747 0.001470176 -0.0021142073 -0.0030446944
000080 64 3b a5 3b 39 6d b9 3a d8 d0 5b bb 8f d8 1c bb
       0.0050424803 0.0014146931 -0.0033541229 -0.002393279
000090 57 5e 6f bb b3 db 11 bb f6 b6 8e 3b be 3f 5a bb
       -0.0036524737 -0.0022256195 0.0043553067 -0.0033302153
0000a0 a4 c5 0a 3a ab 30 23 bb 0f 78 e3 ba fe 3c 77 bb
       0.0005293733 -0.0024900835 -0.0017354506 -0.0037725563
0000b0 5d ae 09 bb 58 df 6b bb 4b af 11 3b 20 70 49 bb
       -0.002100847 -0.0035991278 0.0022229727 -0.0030736998
0000c0 24 1c 5c 3b fa c1 36 bb 77 e6 7c bb d1 79 58 bb
       0.003358611 -0.0027886615 -0.0038589516 -0.0033031593
0000d0 f6 8b 1b 3b f0 c5 cf 3a b1 1b 0b 3a d0 f7 c6 b9
       0.0023734546 0.0015851837 0.00053065555 -0.00037950138
0000e0 ce c5 2a bb 46 22 b3 bb 35 8e 81 bb b4 7b 60 bb
       -0.0026057842 -0.005466732 -0.00395372 -0.003425342
0000f0 74 3b 16 3b 55 66 81 3b f9 bc 1e 3a 2c 98 28 3b
       0.002292362 0.0039489665 0.0006055381 0.0025725467
