MAPPO/results/MyEnv/MyEnv/rmappo/check/run19/models/actor_agent0.pt (torch, 322326 bytes, 22 tensors)

base.feature_norm.weight f4 [651]
1.0009083 0.99928254 1.0019947 1.0011067 1.0009319 1.0006025 1.0004612 1.0006481
0.99914765 1.0012745 0.99978715 0.999287 1.0005575 1.0000776 0.99990267 1.000152
0.99900085 1.0004544 1.0004908 1.0006561 0.99989897 1.0002663 1.0005007 0.9984916
0.99882823 1.0005568 0.9993822 0.9981851 1.0000713 0.9998781 0.9992011 0.99875134
0.9995913 0.9996478 1.0002601 0.9984719 1.000739 1.000448 0.99980325 0.99883753
1.0007824 0.998774 0.9998176 1.0006405 1.0007266 0.99863994 0.9996949 0.99958843
0.9989847 0.9988372 1.0009753 0.9992918 1.000564 1.0008036 0.9991287 0.99936426
1.0002353 1.0020208 0.9990559 0.999279 1.0003611 1.0007224 1.0026186 0.9995848
1.0002235 0.99911296 1.0001985 0.9999213 1.000436 0.9990339 0.9994854 0.99908394
1.0000877 0.99908864 1.0015534 0.9996444 1.0011791 1.0008049 1.0005976 1.0010667
1.0001901 1.0006485 0.9992738 1.0005003 0.9986271 1.000784 0.99829847 0.9998126
1.0006516 0.9982341 1.0000819 1.0013115 1.0012708 1.0007268 0.9993622 0.999923
1.0008024 1.0003029 1.0002888 1.0006044 1.0010239 0.9991304 0.9998357 0.9985703
0.9979779 1.0002586 0.9991215 1.0004379 0.99931675 1.0004338 1.0004697 0.9984338
0.99860716 0.998344 1.000363 0.99975955 1.0004332 0.9994279 0.9988542 1.0017236
1.0004565 1.0002182 1.0008305 0.99873734 1.0007367 1.0014064 0.9981617 0.99869907
1.0002 0.9985454 0.9999947 0.9994085 1.0002677 1.0011466 0.99944305 1.001244
1.0006115 1.0018557 1.0009704 1.0003833 0.9996614 0.9986416 0.99875623 1.0004098
0.99983335 0.9996339 1.0007789 1.001457 1.0004466 1.0009457 0.99922115 0.99798375
0.9999749 0.99984974 0.9991561 1.0014477 1.0012568 1.0009795 0.9992179 1.0003179
0.9994945 0.9995366 1.0012904 0.9993317 0.9990114 1.001289 1.0000209 1.0002942
1.0010958 1.0009289 0.99911 0.9988464 0.9999137 1.000181 0.99953085 0.99979717
1.0002855 0.9987971 1.0012094 1.0001935 1.0002548 1.0015869 1.0002577 1.0009297
1.0008224 0.9980215 0.9978951 0.9993969 1.0011969 1.0009714 0.9993233 1.0001947
1.0000992 0.9994746 1.0009688 0.99942833 1.0005732 0.99952346 0.9993145 1.0009573
1.0004989 0.99940443 0.99863154 0.99959403 1.0003889 0.9986351 1.0006266 1.0002524
1.000973 1.0000328 0.9999097 1.0001044 0.999093 1.0004745 1.0000483 1.0007273
0.9997588 1.0005838 1.0011755 1.000372 0.9996893 1.0019952 0.9993211 1.000272
1.0016059 1.0003452 0.99997026 0.99932355 0.9983902 1.000243 1.0003581 0.9992446
0.99969316 0.99914545 1.0014821 0.9996578 1.0013661 1.0006292 1.0006415 0.9992581
0.99919856 0.99952227 1.0007868 0.99901116 0.999576 1.0005661 1.0004573 1.0008668
1.0011443 0.99879867 0.9999523 1.0007737 0.9997154 1.0012203 0.9990163 1.000673
00000000: c31d 803f fbd0 7f3f 5d41 803f 4424 803f
00000010: 891e 803f be13 803f 1d0f 803f 3d15 803f
00000020: 24c8 7f3f c329 803f 0df2 7f3f 46d1 7f3f
00000030: 4512 803f 8b02 803f 9ff9 7f3f fb04 803f
00000040: 85be 7f3f e40e 803f 1510 803f 8015 803f
00000050: 61f9 7f3f ba08 803f 6810 803f 259d 7f3f
00000060: 35b3 7f3f 3f12 803f 83d7 7f3f 0f89 7f3f
00000070: 5602 803f 03f8 7f3f a5cb 7f3f 2bae 7f3f
00000080: 37e5 7f3f ebe8 7f3f 8608 803f db9b 7f3f
00000090: 3718 803f ae0e 803f 1bf3 7f3f d1b3 7f3f
000000a0: a319 803f a7af 7f3f 0cf4 7f3f fd14 803f
000000b0: cf17 803f dea6 7f3f 01ec 7f3f 07e5 7f3f
000000c0: 76bd 7f3f cbb3 7f3f f51f 803f 96d1 7f3f
000000d0: 7b12 803f 551a 803f e6c6 7f3f 56d6 7f3f
000000e0: b607 803f 3842 803f 21c2 7f3f c0d0 7f3f
000000f0: d50b 803f ac17 803f ce55 803f cae4 7f3f
00000100: 5307 803f dec5 7f3f 8106 803f d8fa 7f3f
00000110: 490e 803f b0c0 7f3f 46de 7f3f f7c3 7f3f
00000120: e002 803f 46c4 7f3f e732 803f b2e8 7f3f
00000130: a326 803f 601a 803f 9513 803f f422 803f
00000140: 3b06 803f 4015 803f 68d0 7f3f 6510 803f
00000150: 07a6 7f3f b119 803f 7d90 7f3f b8f3 7f3f
00000160: 5a15 803f 458c 7f3f af02 803f fa2a 803f
00000170: a429 803f d117 803f 33d6 7f3f f4fa 7f3f
00000180: 4b1a 803f ed09 803f 7709 803f ce13 803f
00000190: 8d21 803f 03c7 7f3f 3cf5 7f3f 4ea2 7f3f
000001a0: 7b7b 7f3f 7908 803f 6dc6 7f3f 590e 803f
000001b0: 39d3 7f3f 370e 803f 640f 803f 5c99 7f3f
000001c0: b8a4 7f3f 7993 7f3f e50b 803f 3ef0 7f3f
000001d0: 320e 803f 82da 7f3f e9b4 7f3f 7b38 803f
000001e0: f50e 803f 2607 803f 371b 803f 40ad 7f3f
000001f0: 2418 803f 162e 803f 8687 7f3f beaa 7f3f
00000200: 8e06 803f aca0 7f3f a7ff 7f3f 3cd9 7f3f
00000210: c608 803f 9225 803f 80db 7f3f c328 803f
00000220: 0a14 803f cf3c 803f cc1f 803f 8f0c 803f
00000230: cfe9 7f3f faa6 7f3f 7dae 7f3f 6e0d 803f
00000240: 14f5 7f3f 02e8 7f3f 8619 803f be2f 803f
00000250: a20e 803f fd1e 803f f5cc 7f3f dd7b 7f3f
00000260: 5bfe 7f3f 27f6 7f3f b2c8 7f3f 702f 803f
00000270: 2f29 803f 1920 803f bfcc 7f3f 6b0a 803f
00000280: dfde 7f3f a1e1 7f3f 492a 803f 34d4 7f3f
00000290: 36bf 7f3f 3d2a 803f af00 803f a409 803f
000002a0: e823 803f 701e 803f acc5 7f3f 66b4 7f3f
000002b0: 58fa 7f3f ee05 803f 41e1 7f3f b5f2 7f3f
000002c0: 5b09 803f 2bb1 7f3f a127 803f 5706 803f
000002d0: 5908 803f 0034 803f 7208 803f 771e 803f
000002e0: f31a 803f 567e 7f3f 0e76 7f3f 7ad8 7f3f
000002f0: 3827 803f d51f 803f a7d3 7f3f 6106 803f
00000300: 4003 803f 91dd 7f3f bf1f 803f 89da 7f3f
00000310: c812 803f c5e0 7f3f 13d3 7f3f 5e1f 803f
00000320: 5910 803f f8d8 7f3f 51a6 7f3f 65e5 7f3f
00000330: be0c 803f 8da6 7f3f 8814 803f 4508 803f
00000340: e21f 803f 1301 803f 15fa 7f3f 6c03 803f
00000350: 8fc4 7f3f 8c0f 803f 9501 803f d517 803f
00000360: 31f0 7f3f 2113 803f 8526 803f 310c 803f
00000370: a3eb 7f3f 6141 803f 82d3 7f3f ea08 803f
00000380: 9f34 803f 500b 803f 0dfe 7f3f abd3 7f3f
00000390: 8096 7f3f f607 803f bc0b 803f 7ece 7f3f
000003a0: e4eb 7f3f ffc7 7f3f 9130 803f 93e9 7f3f
000003b0: c42c 803f 9e14 803f 0515 803f 61cf 7f3f
000003c0: 7acb 7f3f b1e0 7f3f c819 803f 32bf 7f3f
000003d0: 36e4 7f3f 8d12 803f fc0e 803f 671c 803f
000003e0: 7f25 803f 45b1 7f3f e0fc 7f3f 5a19 803f
000003f0: 59ed 7f3f fd27 803f 88bf 7f3f 0e16 803f

base.feature_norm.bias f4 [651]
-0.0017306579 0.0013206231 -0.0044738324 -0.0021910653 -0.0025857585 -0.0019471754 -0.0010357024 -0.0017350669
0.002599327 -0.0030501313 0.0003901993 0.0020122908 -0.0012906941 -0.0003327 0.00042672319 -0.0006901593
0.002561696 -0.00087391725 -0.0013291265 -0.0022754045 0.0005670373 -0.0010916251 -0.0009469818 0.0034431606
0.0031585377 -0.000821606 0.0012817951 0.0045446632 1.784975e-05 0.00051511894 0.0017242851 0.0026237278
0.0008502545 0.0008072539 -0.00045094462 0.0036095788 -0.001568147 -0.0011964232 0.0008445502 0.002817051
-0.0022703896 0.0026421836 0.000540405 -0.0014388394 -0.0018991804 0.0037985865 0.0010717557 0.0010074592
0.0024629147 0.0029833457 -0.0023205406 0.0013164082 -0.0012101223 -0.0015420896 0.002239485 0.0017479799
-0.0006977177 -0.003988595 0.0019461752 0.0016304465 -0.00079738925 -0.002268397 -0.004569945 0.00091607485
-0.00025470232 0.0019484033 -0.0007950796 0.0007623106 -0.00065713597 0.0026957288 0.0015374298 0.0026709044
-0.00030403683 0.0020019228 -0.0035091047 0.0006510753 -0.0023932345 -0.0019131028 -0.0014515433 -0.0021907138
-0.000604433 -0.0021378777 0.0014238247 -0.0014020347 0.0024313314 -0.0016052398 0.0039236466 0.0005323064
-0.0017998008 0.0037965127 0.00014904716 -0.0024408796 -0.0034163888 -0.0011686404 0.0019361846 0.00044732128
-0.0015873001 -0.0011244058 -0.0005567819 -0.0014935042 -0.002362529 0.0017139288 0.00017586589 0.003205452
0.004704031 -0.0010455445 0.0023362397 -0.0008399239 0.001620305 -0.0011609469 -0.0012886556 0.0029356924
0.0031486982 0.004182811 -0.00069346593 -5.523832e-05 -0.0011221288 0.0015901225 0.0021158683 -0.0033053719
-0.00074897707 -0.00027601206 -0.0022145824 0.0025942358 -0.0020125462 -0.002442234 0.004103484 0.0028864555
1.2241553e-05 0.0027502086 -4.3962587e-05 0.0018191696 -0.0003820241 -0.002797822 0.0016055845 -0.0031154554
-0.0013726114 -0.0045122304 -0.0012881536 -0.0009907819 0.0005911122 0.0040332573 0.0027256608 -0.0008150622
0.00012837107 0.0011403648 -0.002137162 -0.003026815 -0.001395323 -0.0021544797 0.0013924419 0.0044780546
0.00040312912 0.00013760827 0.0021159486 -0.0035712589 -0.0034823562 -0.0022504297 0.0016583637 -0.0009177366
0.0008002336 0.0016481486 -0.0021848327 0.001862207 0.0028774666 -0.0027521243 -0.0003499064 -0.001009399
-0.0024427394 -0.0022523531 0.001652695 0.002668845 0.00020238294 -0.00082450244 0.0009794692 0.00034299082
-0.00073058705 0.003182175 -0.0026067174 -0.00051796046 -0.00057893764 -0.004068542 -0.0007577898 -0.0020766952
-0.0015433916 0.0044078548 0.0041965134 0.0014544489 -0.002987777 -0.0019351154 0.0016413227 -0.00087409565
0.00024579145 0.0014742769 -0.0019371465 0.0015861979 -0.0013583595 0.00047423833 0.0013284242 -0.0025950244
-0.0011057013 0.0014442694 0.0032464082 0.00057192 -0.00077623135 0.0022703873 -0.0012429752 -0.00094149605
-0.0028996617 -0.00022028916 0.0004104437 -0.00040975315 0.001967211 -0.00086154346 -0.0004294877 -0.0015068797
-0.00019145398 6.832945e-05 -0.0022699202 -0.00066663034 0.0010772067 -0.0033717083 0.0014436538 -0.00062666467
-0.0030201464 -0.0012714942 -0.00025388823 0.0015052208 0.0036575415 -5.318364e-05 0.0008360408 0.0018323688
0.000812671 0.002192913 -0.0042222617 0.0011287871 -0.0030474062 -0.0015396803 -0.0014334788 0.0019547066
0.0019322903 0.001381136 -0.002577959 0.0023680346 0.0007340651 -0.001158378 -0.000982802 -0.0017038368
-0.0033875355 0.002402457 -7.031759e-05 -0.001797912 0.0011255206 -0.003065659 0.0020413725 -0.0013655102
00000000: 3ed7 e2ba c218 ad3a 3a99 92bb fa97 0fbb
00000010: d475 29bb 5d38 ffba 68c0 87ba 2f6b e3ba
00000020: 7859 2a3b b6e4 47bb aa93 cc39 a3e0 033b
00000030: 822c a9ba 3d6e aeb9 d1b9 df39 ceeb 34ba
00000040: 21e2 273b 9817 65ba 1636 aeba f41e 15bb
00000050: 3ba5 143a dc14 8fba df3e 78ba a6a6 613b
00000060: 78ff 4e3b 0c61 57ba e801 a83a 66eb 943b
00000070: 0cbc 9537 0c09 073a 6801 e23a d9f2 2b3b
00000080: 9de3 5e3a e49d 533a c36c ecb9 af8e 6c3b
00000090: 488a cdba 4dd1 9cba ce64 5d3a 469e 383b
000000a0: d1ca 14bb 7c28 2d3b f7a9 0d3a 7097 bcba
000000b0: ebed f8ba b5f1 783b 277a 8c3a b90c 843a
000000c0: da68 213b 3c84 433b 3614 18bb 548b ac3a
000000d0: f79c 9eba f11f caba 53c4 123b 791c e53a
000000e0: 0be7 36ba c3b2 82bb ce16 ff3a b5b4 d53a
000000f0: e307 51ba 63a9 14bb 7abf 95bb be24 703a
00000100: 9189 85b9 9161 ff3a e46c 50ba ccd5 473a
00000110: a643 2cba d3aa 303b 9583 c93a 570a 2f3b
00000120: 2267 9fb9 b132 033b 02f9 65bb ecac 2a3a
00000130: d0d7 1cbb 14c1 faba b641 beba 1492 0fbb
00000140: d072 1eba a31b 0cbb a19f ba3a 7ac4 b7ba
00000150: f956 1f3b e966 d2ba ef91 803b 7a8a 0b3a
00000160: 4be7 ebba eace 783b 8b49 1c39 2af7 1fbb
00000170: 7ee5 5fbb 112d 99ba 93c7 fd3a 7286 ea39
00000180: f40c d0ba cc60 93ba 00f5 11ba afc1 c3ba
00000190: a9d4 1abb e8a5 e03a a468 3839 9012 523b
000001a0: 4624 9a3b a70a 89ba 991b 193b 572e 5cba
000001b0: 6a60 d43a ea2a 98ba 1be8 a8ba bf64 403b
000001c0: 645a 4e3b f60f 893b b6c9 35ba b2af 67b8
000001d0: 6514 93ba a86b d03a 61aa 0a3b f09e 58bb
000001e0: 0057 44ba b6b5 90b9 8722 11bb 0e04 2a3b
000001f0: ece4 03bb e30d 20bb 8576 863b b02a 3d3b
00000200: 1261 4d37 d83c 343b 7864 38b8 3471 ee3a
00000210: 684a c8b9 aa5b 37bb 7a72 d23a ab2c 4cbb
00000220: 32e9 b3ba 55db 93bb 43d7 a8ba 20dd 81ba
00000230: def4 1a3a 6a29 843b 00a1 323b e6a9 55ba
00000240: 599b 0639 4b78 953a a10f 0cbb 875d 46bb
00000250: 45e3 b6ba 2c32 0dbb 9982 b63a a5bc 923b
00000260: 135b d339 f04a 1039 baab 0a3b c80b 6abb
00000270: 3e38 64bb f27b 13bb 745d d93a 4394 70ba
00000280: c5c6 513a b106 d83a 692f 0fbb 4c15 f43a
00000290: e193 3c3b fc5c 34bb a473 b7b9 cf4d 84ba
000002a0: 5e16 20bb 379c 13bb 3e9f d83a cae7 2e3b
000002b0: c236 5439 6c23 58ba 8861 803a 73d3 b339
000002c0: de84 3fba 0a8c 503b 76d5 2abb bdc7 07ba
000002d0: d9c3 17ba 6751 85bb 6aa6 46ba 2a19 08bb
000002e0: a14b caba c46f 903b e882 893b 35a3 be3a
000002f0: 95ce 43bb b3a3 fdba a721 d73a 9123 65ba
00000300: 92dd 8039 863c c13a dae7 fdba f8e7 cf3a
00000310: fb0a b2ba 31a3 f839 851e ae3a 4911 2abb
00000320: 2eed 90ba a44d bd3a b1c1 543b e7ec 153a
00000330: 017c 4bba c7ca 143b 54eb a2ba bbce 76ba
00000340: 4008 3ebb 6cfd 66b9 d230 d739 23d4 d6b9
00000350: 53ec 003b 34d9 61ba dd2c e1b9 7e82 c5ba
00000360: 09c1 48b9 184c 8f38 f1c2 14bb cec0 2eba
00000370: 0f31 8d3a e1f7 5cbb fc38 bd3a c146 24ba
00000380: a6ed 45bb 44a8 a6ba 4d1c 85b9 d44a c53a
00000390: 5db3 6f3b 8011 5fb8 c029 5b3a 182c f03a
000003a0: 6d09 553a fab6 0f3b e65a 8abb cff3 933a
000003b0: feb6 47bb 19cf c9ba 91e3 bbba 891a 003b
000003c0: e744 fd3a 3c07 b53a faf2 28bb 0731 1b3b
000003d0: 466e 403a b7d4 97ba 5dd1 80ba 4753 dfba
000003e0: 6a01 5ebb 8a72 1d3b 7877 93b8 eaa7 ebba
000003f0: 3486 933a 39e9 48bb 8cc8 053b ebfa b2ba

base.mlp.fc1.0.weight f4 [64, 651]
-0.06218801 -0.022157323 0.09953774 0.047288537 0.025842411 0.020402165 -0.06215841 -0.028913107
-0.061530367 0.017418077 0.019928249 0.027703028 0.015761938 0.014071593 0.06042152 -0.008957969
-0.057451352 0.06571365 0.0018123004 0.094291076 -0.008056174 0.018438578 0.029861722 0.10699121
0.00040276197 0.01615709 0.023974283 0.062076744 -0.060273807 0.03224511 -0.05824856 0.057079904
0.008906004 -0.013023005 -0.09813013 -0.17523377 -0.08201118 0.0064511527 0.018897846 0.026010696
-0.027953966 0.024893178 -0.04914646 0.0068638106 0.033856668 0.008020478 0.07061983 -0.016707353
0.046284113 0.0009267441 0.045595583 -0.050219122 -0.042128496 -0.0063417875 0.075370945 0.03712268
-0.0029679385 -0.032154776 0.027679935 0.06940456 0.03449483 -0.07238879 -0.05158089 0.093100145
-0.019209905 0.08915182 0.07797607 -0.012090852 -0.038415752 -0.024335729 -0.08139918 0.010280224
-0.0001511356 0.021004777 0.048856437 -0.07463502 0.0653448 0.031848703 0.04979601 -0.010070708
0.028513264 0.032224357 -0.022571431 -0.023810841 0.038462594 0.042610087 0.05830795 0.029510321
-0.047902 0.06365948 -0.015252537 -0.031068565 -0.017834902 -0.016851302 -0.003996799 0.089208
0.0017546461 0.004720756 -0.0466634 -0.039390367 0.04075327 -0.0029474068 -0.057141222 -0.036980234
0.030171577 0.00521643 -0.08346277 0.003801737 -0.103953935 0.025860947 0.021536497 0.05236861
0.06727906 -0.016796492 -0.009379553 0.054215223 -0.10646219 0.025424438 -0.011983131 0.0009654125
0.062423665 0.051140163 -0.082791954 -0.07336717 0.009064055 0.06062268 -0.00536992 -0.034194555
-0.043311115 -0.0009158899 -0.017229667 -0.0665044 0.0703168 0.03900868 0.007626726 -0.0009956445
-0.017188938 -0.06727063 5.9020636e-05 0.04102768 0.07099932 -0.035215087 0.07442022 0.0150487535
0.026272198 0.067189254 0.105988406 -0.012359837 -0.011413752 -0.053265497 -0.07387342 0.015644722
0.0005978397 0.09507899 -0.039801177 0.015948776 -0.050793495 0.041883685 0.009444988 0.012009648
0.029154569 0.041740485 0.022267286 0.0056052925 0.025012163 0.012399761 -0.09756241 -0.036216795
-0.0054372996 0.061110523 -0.071701884 -0.12585853 0.0071369293 -0.06844978 -0.025639215 0.030807834
-0.03728888 -0.111676864 -0.065743364 0.07458075 -0.07860663 0.023850719 -0.091748536 -0.017614814
0.0044241203 0.029985072 -0.031140734 0.0017308604 -0.048007414 0.1103442 0.07684392 -0.05209874
0.01418254 0.029502917 0.015207735 -0.06317728 0.0712431 -0.07469083 -0.032253917 -0.07758984
0.0597877 -0.073379725 0.060135614 -0.11483997 -0.059098046 -0.022365699 0.06500677 0.010443369
-0.018182999 0.0015167424 0.06427864 0.005075503 0.027942657 -0.012680676 0.04047982 0.030532356
0.027368316 -0.10614806 0.02246715 -0.087779246 -0.12818952 0.11493202 0.10205016 -0.019219274
-0.008836242 0.049678896 -0.04256771 0.033664107 -0.03162195 0.05966302 0.01283799 0.057476636
-0.02912875 -0.0065043275 0.03817662 0.0433086 0.013004255 0.09458129 -0.05195406 0.06418944
0.057225917 -0.099544324 -0.0076817814 0.017127099 0.034725286 0.043208517 -0.031111144 -0.12097742
0.0374448 -0.071823 -0.040537767 -0.029337706 -0.06904839 0.10586475 -0.0132815335 -0.02811595
00000000: dbb8 7ebd 4683 b5bc 71da cb3d a0b1 413d
00000010: 77b3 d33c 7122 a73c d199 7ebd 2edb ecbc
00000020: 4407 7cbd 5bb0 8e3c 9140 a33c 76f1 e23c
00000030: 2e1f 813c 8a8c 663c 8e7c 773d 72c4 12bc
00000040: 1c52 6bbd e194 863d b68a ed3a ae1b c13d
00000050: 0bfe 03bc 800c 973c 92a0 f43c 351e db3d
00000060: cc29 d339 e05b 843c b765 c43c 2f44 7e3d
00000070: abe1 76bd 7313 043d 0b96 6ebd 9ecc 693d
00000080: 7dea 113c 715e 55bc 73f8 c8bd 7b70 33be
00000090: 7af5 a7bd 3164 d33b a8cf 9a3c 6214 d53c
000000a0: b7ff e4bc c7ec cb3c cc4d 49bd d1e9 e03b
000000b0: 4aad 0a3d 5368 033c 21a1 903d dcdd 88bc
000000c0: 6994 3d3d bef0 723a 6fc2 3a3d 91b2 4dbd
000000d0: ee8e 2cbd c5ce cfbb 155c 9a3d f40d 183d
000000e0: bf81 42bb bab4 03bd 08c1 e23c fa23 8e3d
000000f0: 734a 0d3d 9340 94bd 7c46 53bd 4aab be3d
00000100: 175e 9dbc 3b95 b63d ebb1 9f3d b518 46bc
00000110: d659 1dbd b95b c7bc 9db4 a6bd 626e 283c
00000120: 277a 1eb9 3612 ac3c b01d 483d 3fda 98bd
00000130: 7fd3 853d c973 023d e7f6 4b3d 9cff 24bc
00000140: a694 e93c b0fd 033d b9e7 b8bc f40e c3bc
00000150: f48a 1d3d ea87 2e3d 51d4 6e3d a1bf f13c
00000160: e334 44bd e75f 823d c7e5 79bc 8183 febc
00000170: 801a 92bc be0b 8abc 94f7 82bb afb2 b63d
00000180: 27fc e53a 92b0 9a3b 1f22 3fbd cb57 21bd
00000190: e7ec 263d 4829 41bb ea0c 6abd 9678 17bd
000001a0: 622a f73c 96ee aa3b 87ee aabd 9026 793b
000001b0: cde5 d4bd 56da d33c 4f6d b03c 7880 563d
000001c0: 9bc9 893d cc98 89bc b2ac 19bc c810 5e3d
000001d0: d908 dabd e946 d03c e554 44bc bc13 7d3a
000001e0: f5af 7f3d 5978 513d d48e a9bd 8741 96bd
000001f0: 6781 143c 7d4f 783d 27f6 afbb 970f 0cbd
00000200: ff66 31bd 5518 70ba 3b25 8dbc 7533 88bd
00000210: 4102 903d 91c7 1f3d 9de9 f93b 4980 82ba
00000220: d1cf 8cbc 2fc5 89bd ed8c 7738 a40c 283d
00000230: 1768 913d b23d 10bd a169 983d 0c8f 763c
00000240: cb38 d73c 859a 893d 7310 d93d ea80 4abc
00000250: bf00 3bbc ec2c 5abd f34a 97bd 5c29 803c
00000260: 58b8 1c3a c6b8 c23d 8f06 23bd 02a7 823c
00000270: d70c 50bd 3a8e 2b3d 27bf 1a3c 1dc4 443c
00000280: 90d5 ee3c 12f8 2a3d e269 b63c 9aac b73b
00000290: 4fe6 cc3c 5e28 4b3c cdce c7bd 1058 14bd
000002a0: 602b b2bb 074f 7a3d 70d8 92bd 0fe1 00be
000002b0: e7dc e93b 662f 8cbd 5509 d2bc b660 fc3c
000002c0: 3abc 18bd d7b6 e4bd 75a4 86bd cbbd 983d
000002d0: 83fc a0bd 9562 c33c a8e6 bbbd f14c 90bc
000002e0: 36f8 903b 41a3 f53c da1a ffbc 0ade e23a
000002f0: 6ca3 44bd 24fc e13d 5860 9d3d 7d65 55bd
00000300: e25d 683c 1ab0 f13c dd29 793c 1763 81bd
00000310: e7e7 913d 82f7 98bd af1c 04bd 6ce7 9ebd
00000320: f3e3 743d 1c48 96bd c350 763d 3831 ebbd
00000330: cb10 72bd 4538 b7bc 4522 853d aa1a 2b3c
00000340: 83f4 94bc 6ecd c63a 85a4 833d 6850 a63b
00000350: 00e8 e43c 9cc2 4fbc 2bce 253d fe1e fa3c
00000360: 8533 e03c 2764 d9bd 070d b83c 9bc5 b3bd
00000370: 1d44 03be 7b61 eb3d adff d03d bd71 9dbc
00000380: e3c5 10bc 197c 4b3d 7b5b 2ebd 60e3 093d
00000390: 0586 01bd 3661 743d 6f56 523c 9f6c 6b3d
000003a0: 6b9f eebc 4122 d5bb 165f 1c3d 5c64 313d
000003b0: cc0f 553c d6b3 c13d c8cd 54bd c175 833d
000003c0: b965 6a3d e5dd cbbd 74b7 fbbb 214e 8c3c
000003d0: 1a3c 0e3d 6afb 303d ccdc febc 02c3 f7bd
000003e0: b85f 193d f017 93bd ee0a 26bd a155 f0bc
000003f0: 3e69 8dbd 9ecf d83d ca9a 59bc 6c53 e6bc

base.mlp.fc1.0.bias f4 [64]
0.0 0.00338094 0.0 0.00015500071 0.0014211056 -0.00031369904 0.0 -0.00012777129
0.0029526318 0.0 0.0 -0.0030276661 -0.0015215061 -0.00029406536 0.003094272 -0.0029879687
0.0026416942 -0.0034323526 0.0 -0.0003320913 0.0 -0.00029797797 -0.0021258527 -0.002372012
-0.002873677 0.0 0.0006996018 -0.0025954882 0.00057129766 0.0005445756 0.0022812802 0.0
0.0 0.0 -0.0028546266 0.0010724321 -0.004054804 -0.0033254214 0.0 0.0018670923
0.0005931307 0.0036983695 0.001572165 -0.0015306523 0.0020336958 0.0 0.0031233814 0.0
0.001978957 0.004517216 -0.004878412 -0.001791436 -0.0019561201 -0.0017690714 0.0 0.004044363
3.433104e-05 -0.002077382 -0.0005658255 0.0 0.0022668 0.0 -0.001665063 0.0
00000000: 0000 0000 c392 5d3b 0000 0000 b087 2239
00000010: 6444 ba3a f977 a4b9 0000 0000 58fa 05b9
00000020: f180 413b 0000 0000 0000 0000 cf6b 46bb
00000030: 466d c7ba c92c 9ab9 45c9 4a3b ccd1 43bb
00000040: 4620 2d3b 52f1 60bb 0000 0000 8a1c aeb9
00000050: 0000 0000 ed39 9cb9 e451 0bbb c273 1bbb
00000060: 4d54 3cbb 0000 0000 7b65 373a 1119 2abb
00000070: 23c3 153a dac1 0e3a 8881 153b 0000 0000
00000080: 0000 0000 0000 0000 b014 3bbb da90 8c3a
00000090: 29de 84bb 50ef 59bb 0000 0000 39b9 f43a
000000a0: 547c 1b3a 5860 723b 1b11 ce3a 2ba0 c8ba
000000b0: c147 053b 0000 0000 a5b1 4c3b 0000 0000
000000c0: 64b1 013b 2705 943b 16db 9fbb 9ece eaba
000000d0: 4032 00bb 30e0 e7ba 0000 0000 9386 843b
000000e0: acfe 0f38 b024 08bb e853 14ba 0000 0000
000000f0: 988e 143b 0000 0000 3e3e daba 0000 0000

base.mlp.fc1.2.weight f4 [64]
1.0017319 1.0035259 0.9984429 1.0005381 1.0015017 0.9993983 1.0000285 0.99988014
0.9979791 0.9997492 0.9938621 0.9967832 1.0004388 1.0036756 0.99597895 0.99798936
1.0019156 1.0001208 1.0003829 0.99978554 0.9958396 1.003166 0.99819136 0.9974406
0.99706024 0.9977836 0.9991648 0.9987948 1.0008243 1.0056379 1.0021309 1.000156
0.998168 1.0023681 0.9970439 1.0014055 0.996684 1.0035329 1.0012909 0.99996257
1.0013732 0.9967824 1.0014992 0.9989149 1.0023593 1.0053718 1.0029696 0.9986028
1.0024271 1.0016309 0.9993111 1.0006412 1.0023694 1.003617 1.0001613 0.99836284
0.9990861 1.0003575 1.0003815 1.0013522 0.9977188 1.0019543 1.0040003 0.99660707
00000000: c038 803f 8973 803f f499 7f3f a211 803f
00000010: 3531 803f 91d8 7f3f ef00 803f 25f8 7f3f
00000020: 8f7b 7f3f 90ef 7f3f bf6d 7e3f 2f2d 7f3f
00000030: 610e 803f 7178 803f 7af8 7e3f 3b7c 7f3f
00000040: c53e 803f f503 803f 8c0c 803f f2f1 7f3f
00000050: 58ef 7e3f be67 803f 7889 7f3f 4458 7f3f
00000060: 573f 7f3f bf6e 7f3f 44c9 7f3f 04b1 7f3f
00000070: 031b 803f beb8 803f d345 803f 1d05 803f
00000080: f087 7f3f 994d 803f 453e 7f3f 0e2e 803f
00000090: af26 7f3f c473 803f 4d2a 803f 8cfd 7f3f
000000a0: ff2c 803f 222d 7f3f 2031 803f e3b8 7f3f
000000b0: 4f4d 803f 06b0 803f 4f61 803f 6fa4 7f3f
000000c0: 884f 803f 7135 803f dad2 7f3f 0315 803f
000000d0: a44d 803f 8676 803f 4905 803f b594 7f3f
000000e0: 1bc4 7f3f b70b 803f 800c 803f 4f2c 803f
000000f0: 806a 7f3f 0a40 803f 1583 803f a421 7f3f

base.mlp.fc1.2.bias f4 [64]
-0.0017084106 0.0031621673 0.0016189648 0.00024127855 0.0014999127 0.0006973541 0.00010010056 -0.00010953656
0.00243291 0.00019849918 0.0063916803 -0.0026427652 -0.0013705811 -0.0035405974 0.0041951276 -0.002930784
0.0025339539 -0.0033408727 -0.00031301627 5.1297866e-05 0.004220429 -0.0033307294 -0.0020056863 -0.0021695264
-0.0029470332 0.0022764835 0.0007127739 -0.0025456415 0.00013727347 -0.005656888 0.0024108924 -5.6192446e-05
0.0018645832 -0.002428541 -0.0027664753 0.0010405841 -0.0038034753 -0.0033238423 -0.0012789713 0.0019105049
-0.0014266871 0.003971392 0.0014799291 -0.0013277984 0.002142981 -0.0055811964 0.0033234397 0.0014018386
0.0017949619 0.0048757996 -0.004397838 -0.0016745811 -0.002589419 -0.0031918064 3.3268007e-06 0.0025039245
0.0009520799 -0.0019534621 -0.00056097005 -0.0015295703 0.0031356798 -0.0020429664 -0.0035003833 0.0034805066
00000000: bfec dfba 5d3c 4f3b 7233 d43a b8ff 7c39
00000010: b898 c43a a4ce 363a 14ed d138 feb6 e5b8
00000020: 7571 1f3b 3824 5039 4d71 d13b 3e32 2dbb
00000030: 12a5 b3ba 5e09 68bb 4877 893b 6512 40bb
00000040: b110 263b 8bf2 5abb 551c a4b9 aa28 5738
00000050: 864b 8a3b 5e48 5abb d571 03bb 9d2e 0ebb
00000060: 0323 41bb 0e31 153b 72d9 3a3a c7d4 26bb
00000070: 11f1 0f39 6a5d b9bb 1000 1e3b 2eb0 6bb8
00000080: 0865 f43a 2828 1fbb c14d 35bb 3564 883a
00000090: ba43 79bb d2d4 59bb 28a3 a7ba e869 fa3a
000000a0: adff baba 7322 823b 2efa c13a 8509 aeba
000000b0: 4171 0c3b 78e2 b6bb 11ce 593b e6bd b73a
000000c0: ed44 eb3a 2cc5 9f3b bd1b 90bb 9e7d dbba
000000d0: 3eb3 29bb a02d 51bb 0042 5f36 e218 243b
000000e0: 0095 793a a805 00bb 100e 13ba dd7b c8ba
000000f0: fa7f 4d3b 4ae3 05bb b066 65bb 3619 643b

base.mlp.fc_h.0.weight f4 [64, 64]
-0.1428006 -0.25381216 -0.029023062 -0.019216828 -0.044886626 0.032374073 0.32637376 -0.060226634
-0.2048247 -0.4273621 0.15112402 -0.046850257 -0.055612877 -0.23531987 0.056163274 -0.32586882
0.14971958 0.31062582 0.17734884 0.045998648 -0.19850442 -0.29742548 -0.13413654 0.10612602
-0.0618357 -0.15203063 -0.17641088 0.14445609 0.103100345 0.2514375 0.039908912 0.24166158
-0.036667995 0.09743695 -0.060214385 0.015260792 -0.10033738 0.04200117 0.17823495 -0.12943825
-0.35480097 -0.042126834 0.104114726 0.38958776 -0.1865309 -0.1392709 -0.33907667 0.17047022
-0.06831511 -0.11093749 -0.13183972 -0.08311203 -0.03305016 -0.06041318 0.17866513 -0.043543007
-0.102787994 -0.21335693 0.259008 0.20182237 -0.014999121 -0.14769144 -0.07976524 0.15901735
0.2085718 -0.22079886 -0.25309512 0.21874323 -0.17004684 -0.16301258 -0.19277245 0.13039698
-0.008371594 0.0355998 0.09006842 0.10207593 0.07084519 0.14310642 -0.006947694 0.23580694
0.23851863 0.25329384 -0.24632709 0.08612035 -0.2721228 0.13183573 -0.084101714 0.15466613
-0.07344174 0.088943265 -0.20984857 0.109734975 -0.06594669 -0.10255858 0.446094 0.043950424
-0.020847945 0.19843428 -0.04468137 0.25718948 -0.038161915 -0.13548261 -0.059835657 -0.15598567
0.3073938 0.16657881 -0.22920711 0.11890061 -0.07465988 -0.020668281 0.2779897 0.11593059
-0.27843648 0.120583005 0.035533756 -0.2664639 0.11201645 -0.1485912 -0.026422376 0.31191894
-0.032443915 -0.37871185 -0.025947247 0.10472051 -0.057866435 0.15120043 0.09199073 0.24365316
-0.009437276 -0.07927067 0.114879265 -0.4891103 -0.04908137 -0.19981039 -0.09634565 0.0031104314
0.08774736 -0.08930322 -0.22347373 -0.16623583 0.18447456 0.10472369 0.19158931 -0.3118596
0.13277936 0.17060116 0.2759394 -0.079394855 0.016586049 0.05980704 -0.16522549 -0.011749639
0.25171217 -0.07659549 0.091749854 0.06249265 -0.46888533 -0.39836365 -0.11811403 -0.2590679
-0.25965047 0.050080787 -0.062543586 0.07854418 0.093603 0.008833891 0.18125966 -0.06704408
-0.021046352 -0.007584595 -0.05814627 -0.022967525 -0.19949852 0.2749486 0.119628645 -0.104847
0.15862173 0.27966422 0.16215545 0.1828456 -0.03244926 0.13280153 0.005189072 0.22776793
-0.06091408 -0.014568 0.09062495 0.24275807 -0.017083349 -0.074348696 -0.0622312 0.3605153
0.33743465 -0.21990436 0.0567449 -0.11930605 0.07493586 -0.11846174 -0.20919624 -0.11037347
0.22043912 -0.03927121 0.03485975 -0.12010284 0.004675185 0.04096727 -0.06154793 -0.031960905
0.15193099 -0.12672262 0.0076089073 -0.09312482 -0.13517015 0.22679316 0.019547107 -0.08313051
0.04603579 -0.29400057 -0.09380825 0.22305214 0.051423557 -0.14712751 0.21468483 -0.087945834
0.009333134 -0.2147975 0.19527012 0.1541747 0.14490944 0.3811365 -0.1651789 -0.08730801
-0.23666635 -0.104624115 0.010650619 0.12904611 0.15562628 0.07346725 -0.29557303 0.05757191
-0.2149336 -0.23556148 0.25465098 0.20068312 -0.06090277 -0.18130979 -0.13839345 0.020190774
0.33061638 -0.031118045 0.25480637 -0.23664835 -0.40967175 -0.17325203 0.24638876 -0.23734158
00000000: 523a 12be abf3 81be c6c1 edbc 9c6c 9dbc
00000010: 0adb 37bd ad9a 043d 761a a73e 34b0 76bd
00000020: 91bd 51be 35cf dabe 41c0 1a3e 0ee6 3fbd
00000030: 54ca 63bd b1f7 70be 760b 663d 47d8 a6be
00000040: 1750 193e 590a 9f3e ef9a 353e 1469 3c3d
00000050: be44 4bbe 2748 98be 175b 09be 9958 d93d
00000060: 6e47 7dbd ebad 1bbe 0ea5 34be 4cec 133e
00000070: 4626 d33d 6abc 803e 8777 233d 2276 773e
00000080: 2e31 16bd 068d c73d 5ca3 76bd 6708 7a3c
00000090: af7d cdbd 6b09 2c3d 3983 363e 768b 04be
000000a0: 79a8 b5be 308d 2cbd 1a3a d53d 0c78 c73e
000000b0: f501 3fbe 089d 0ebe 759b adbe bf8f 2e3e
000000c0: cbe8 8bbd 3233 e3bd fe00 07be a436 aabd
000000d0: 9b5f 07bd d073 77bd fef3 363e 275a 32bd
000000e0: 8382 d2bd 3d7a 5abe b29c 843e 86aa 4e3e
000000f0: e0be 75bc 6d3c 17be f55b a3bd 72d5 223e
00000100: d993 553e 1919 62be af95 81be 3afe 5f3e
00000110: c220 2ebe c5ec 26be 2466 45be c986 053e
00000120: 0329 09bc 19d1 113d cb75 b83d 2f0d d13d
00000130: 4817 913d 7d8a 123e 7ba9 e3bb 6077 713e
00000140: 3a3e 743e bbaf 813e 2b3d 7cbe de5f b03d
00000150: ae53 8bbe f2ff 063e 853d acbd cc60 1e3e
00000160: 9f68 96bd e327 b63d 8be2 56be bbbc e03d
00000170: 0f0f 87bd 3c0a d2bd 6f66 e43e 5c05 343d
00000180: 4fc9 aabc 5b32 4b3e d003 37bd 57ae 833e
00000190: ab4f 1cbd f4bb 0abe 3c16 75bd b5ba 1fbe
000001a0: b862 9d3e a393 2a3e 45b5 6abe 2a82 f33d
000001b0: 47e7 98bd 8750 a9bc aa54 8e3e 046d ed3d
000001c0: 3a8f 8ebe 39f4 f63d d88b 113d f56d 88be
000001d0: e168 e53d 4b28 18be bd73 d8bc d7b3 9f3e
000001e0: e9e3 04bd 85e6 c1be 528f d4bc b577 d63d
000001f0: 5b05 6dbd 49d4 1a3e a365 bc3d 3780 793e
00000200: ce9e 1abc a958 a2bd d245 eb3d aa6c fabe
00000210: 8c09 49bd 189b 4cbe de50 c5bd 61d8 4b3b
00000220: e3b4 b33d 9be4 b6bd 4cd6 64be ba39 2abe
00000230: e6e6 3c3e 6079 d63d fd2f 443e 10ac 9fbe
00000240: 50f7 073e 12b2 2e3e ee47 8d3e c599 a2bd
00000250: 77df 873c 3af8 743d df30 29be 8f81 40bc
00000260: 6be0 803e 19de 9cbd 59e7 bb3d 4bf8 7f3d
00000270: bd11 f0be 52f6 cbbe c5e5 f1bd 8ca4 84be
00000280: e8f0 84be 8321 4d3d da16 80bd c5db a03d
00000290: eeb2 bf3d 06bc 103c 229c 393e 684e 89bd
000002a0: 6669 acbc 3288 f8bb c92a 6ebd 6426 bcbc
000002b0: 5749 4cbe 10c6 8c3e ddff f43d 06ba d6bd
000002c0: bc6d 223e 2630 8f3e 140c 263e e13b 3b3e
000002d0: 84e9 04bd 20fd 073e 1709 aa3b ff3b 693e
000002e0: 0b81 79bd 9fae 6ebc 9399 b93d 9295 783e
000002f0: 61f2 8bbc 2144 98bd 25e6 7ebd 7695 b83e
00000300: 3cc4 ac3e 9c2e 61be 576d 683d bb56 f4bd
00000310: f977 993d 129c f2bd 8a37 56be 7c0b e2bd
00000320: cbba 613e d9da 20bd 19c9 0e3d 7af8 f5bd
00000330: 4b32 993b 4ccd 273d af19 7cbd 70e9 02bd
00000340: cc93 1b3e 93c3 01be 2454 f93b 3ab8 bebd
00000350: 0b6a 0abe 773c 683e 4121 a03c 5440 aabd
00000360: 0690 3c3d 3e87 96be 8a1e c0bd c867 643e
00000370: 82a1 523d 98a8 16be 57d6 5b3e f21c b4bd
00000380: 00ea 183c e0f3 5bbe e4f4 473e f9df 1d3e
00000390: 2463 143e 5324 c33e a824 29be 8bce b2bd
000003a0: aa58 72be 2b45 d6bd ef7f 2e3c aa24 043e
000003b0: 7f5c 1f3e ff75 963d 5955 97be 86d0 6b3d
000003c0: 8e17 5cbe 0737 71be 9d61 823e e07f 4d3e
000003d0: 2f75 79bd 46a9 39be 03b7 0dbe 1f67 a53c
000003e0: 8d46 a93e 45eb febc fb75 823e f253 72be
000003f0: 7fc0 d1be fb68 31be 564d 7c3e ac09 73be

base.mlp.fc_h.0.bias f4 [64]
0.0 0.0 0.0 0.0 0.0 0.0 0.0 0.0
0.0 0.0 0.0 0.0 0.0 0.0 0.0 0.0
0.0 0.0 0.0 0.0 0.0 0.0 0.0 0.0
0.0 0.0 0.0 0.0 0.0 0.0 0.0 0.0
0.0 0.0 0.0 0.0 0.0 0.0 0.0 0.0
0.0 0.0 0.0 0.0 0.0 0.0 0.0 0.0
0.0 0.0 0.0 0.0 0.0 0.0 0.0 0.0
0.0 0.0 0.0 0.0 0.0 0.0 0.0 0.0
00000000: 0000 0000 0000 0000 0000 0000 0000 0000
00000010: 0000 0000 0000 0000 0000 0000 0000 0000
00000020: 0000 0000 0000 0000 0000 0000 0000 0000
00000030: 0000 0000 0000 0000 0000 0000 0000 0000
00000040: 0000 0000 0000 0000 0000 0000 0000 0000
00000050: 0000 0000 0000 0000 0000 0000 0000 0000
00000060: 0000 0000 0000 0000 0000 0000 0000 0000
00000070: 0000 0000 0000 0000 0000 0000 0000 0000
00000080: 0000 0000 0000 0000 0000 0000 0000 0000
00000090: 0000 0000 0000 0000 0000 0000 0000 0000
000000a0: 0000 0000 0000 0000 0000 0000 0000 0000
000000b0: 0000 0000 0000 0000 0000 0000 0000 0000
000000c0: 0000 0000 0000 0000 0000 0000 0000 0000
000000d0: 0000 0000 0000 0000 0000 0000 0000 0000
000000e0: 0000 0000 0000 0000 0000 0000 0000 0000
000000f0: 0000 0000 0000 0000 0000 0000 0000 0000

base.mlp.fc_h.2.weight f4 [64]
1.0 1.0 1.0 1.0 1.0 1.0 1.0 1.0
1.0 1.0 1.0 1.0 1.0 1.0 1.0 1.0
1.0 1.0 1.0 1.0 1.0 1.0 1.0 1.0
1.0 1.0 1.0 1.0 1.0 1.0 1.0 1.0
1.0 1.0 1.0 1.0 1.0 1.0 1.0 1.0
1.0 1.0 1.0 1.0 1.0 1.0 1.0 1.0
1.0 1.0 1.0 1.0 1.0 1.0 1.0 1.0
1.0 1.0 1.0 1.0 1.0 1.0 1.0 1.0
00000000: 0000 803f 0000 803f 0000 803f 0000 803f
00000010: 0000 803f 0000 803f 0000 803f 0000 803f
00000020: 0000 803f 0000 803f 0000 803f 0000 803f
00000030: 0000 803f 0000 803f 0000 803f 0000 803f
00000040: 0000 803f 0000 803f 0000 803f 0000 803f
00000050: 0000 803f 0000 803f 0000 803f 0000 803f
00000060: 0000 803f 0000 803f 0000 803f 0000 803f
00000070: 0000 803f 0000 803f 0000 803f 0000 803f
00000080: 0000 803f 0000 803f 0000 803f 0000 803f
00000090: 0000 803f 0000 803f 0000 803f 0000 803f
000000a0: 0000 803f 0000 803f 0000 803f 0000 803f
000000b0: 0000 803f 0000 803f 0000 803f 0000 803f
000000c0: 0000 803f 0000 803f 0000 803f 0000 803f
000000d0: 0000 803f 0000 803f 0000 803f 0000 803f
000000e0: 0000 803f 0000 803f 0000 803f 0000 803f
000000f0: 0000 803f 0000 803f 0000 803f 0000 803f

base.mlp.fc_h.2.bias f4 [64]
0.0 0.0 0.0 0.0 0.0 0.0 0.0 0.0
0.0 0.0 0.0 0.0 0.0 0.0 0.0 0.0
0.0 0.0 0.0 0.0 0.0 0.0 0.0 0.0
0.0 0.0 0.0 0.0 0.0 0.0 0.0 0.0
0.0 0.0 0.0 0.0 0.0 0.0 0.0 0.0
0.0 0.0 0.0 0.0 0.0 0.0 0.0 0.0
0.0 0.0 0.0 0.0 0.0 0.0 0.0 0.0
0.0 0.0 0.0 0.0 0.0 0.0 0.0 0.0
00000000: 0000 0000 0000 0000 0000 0000 0000 0000
00000010: 0000 0000 0000 0000 0000 0000 0000 0000
00000020: 0000 0000 0000 0000 0000 0000 0000 0000
00000030: 0000 0000 0000 0000 0000 0000 0000 0000
00000040: 0000 0000 0000 0000 0000 0000 0000 0000
00000050: 0000 0000 0000 0000 0000 0000 0000 0000
00000060: 0000 0000 0000 0000 0000 0000 0000 0000
00000070: 0000 0000 0000 0000 0000 0000 0000 0000
00000080: 0000 0000 0000 0000 0000 0000 0000 0000
00000090: 0000 0000 0000 0000 0000 0000 0000 0000
000000a0: 0000 0000 0000 0000 0000 0000 0000 0000
000000b0: 0000 0000 0000 0000 0000 0000 0000 0000
000000c0: 0000 0000 0000 0000 0000 0000 0000 0000
000000d0: 0000 0000 0000 0000 0000 0000 0000 0000
000000e0: 0000 0000 0000 0000 0000 0000 0000 0000
000000f0: 0000 0000 0000 0000 0000 0000 0000 0000

base.mlp.fc2.0.0.weight f4 [64, 64]
-0.1428006 -0.25381216 -0.029023062 -0.019216828 -0.044886626 0.032374073 0.32637376 -0.060226634
-0.2048247 -0.4273621 0.15112402 -0.046850257 -0.055612877 -0.23531987 0.056163274 -0.32586882
0.14971958 0.31062582 0.17734884 0.045998648 -0.19850442 -0.29742548 -0.13413654 0.10612602
-0.0618357 -0.15203063 -0.17641088 0.14445609 0.103100345 0.2514375 0.039908912 0.24166158
-0.036667995 0.09743695 -0.060214385 0.015260792 -0.10033738 0.04200117 0.17823495 -0.12943825
-0.35480097 -0.042126834 0.104114726 0.38958776 -0.1865309 -0.1392709 -0.33907667 0.17047022
-0.06831511 -0.11093749 -0.13183972 -0.08311203 -0.03305016 -0.06041318 0.17866513 -0.043543007
-0.102787994 -0.21335693 0.259008 0.20182237 -0.014999121 -0.14769144 -0.07976524 0.15901735
0.2085718 -0.22079886 -0.25309512 0.21874323 -0.17004684 -0.16301258 -0.19277245 0.13039698
-0.008371594 0.0355998 0.09006842 0.10207593 0.07084519 0.14310642 -0.006947694 0.23580694
0.23851863 0.25329384 -0.24632709 0.08612035 -0.2721228 0.13183573 -0.084101714 0.15466613
-0.07344174 0.088943265 -0.20984857 0.109734975 -0.06594669 -0.10255858 0.446094 0.043950424
-0.020847945 0.19843428 -0.04468137 0.25718948 -0.038161915 -0.13548261 -0.059835657 -0.15598567
0.3073938 0.16657881 -0.22920711 0.11890061 -0.07465988 -0.020668281 0.2779897 0.11593059
-0.27843648 0.120583005 0.035533756 -0.2664639 0.11201645 -0.1485912 -0.026422376 0.31191894
-0.032443915 -0.37871185 -0.025947247 0.10472051 -0.057866435 0.15120043 0.09199073 0.24365316
-0.009437276 -0.07927067 0.114879265 -0.4891103 -0.04908137 -0.19981039 -0.09634565 0.0031104314
0.08774736 -0.08930322 -0.22347373 -0.16623583 0.18447456 0.10472369 0.19158931 -0.3118596
0.13277936 0.17060116 0.2759394 -0.079394855 0.016586049 0.05980704 -0.16522549 -0.011749639
0.25171217 -0.07659549 0.091749854 0.06249265 -0.46888533 -0.39836365 -0.11811403 -0.2590679
-0.25965047 0.050080787 -0.062543586 0.07854418 0.093603 0.008833891 0.18125966 -0.06704408
-0.021046352 -0.007584595 -0.05814627 -0.022967525 -0.19949852 0.2749486 0.119628645 -0.104847
0.15862173 0.27966422 0.16215545 0.1828456 -0.03244926 0.13280153 0.005189072 0.22776793
-0.06091408 -0.014568 0.09062495 0.24275807 -0.017083349 -0.074348696 -0.0622312 0.3605153
0.34068877 -0.22384603 0.059998937 -0.122678265 0.07517597 -0.11509136 -0.20594172 -0.10857924
0.2229176 -0.036016174 0.03811367 -0.1236105 0.0029949215 0.04424233 -0.05899089 -0.035441868
0.14960375 -0.12893067 0.010863171 -0.09169575 -0.13191518 0.22999294 0.016034797 -0.08512343
0.042934686 -0.2907461 -0.09560722 0.2224023 0.053588256 -0.14391935 0.21303378 -0.08469239
0.012587473 -0.21154267 0.19203229 0.15186845 0.14148659 0.38473693 -0.16192621 -0.09115574
-0.23342565 -0.101931415 0.011670979 0.12917744 0.15170221 0.07672161 -0.29475355 0.060826145
-0.21871771 -0.23628202 0.25687662 0.20207544 -0.05790509 -0.17785057 -0.13513805 0.023644337
0.3337642 -0.035463147 0.25138268 -0.23339349 -0.4066486 -0.1699976 0.24921057 -0.23408687
00000000: 523a 12be abf3 81be c6c1 edbc 9c6c 9dbc
00000010: 0adb 37bd ad9a 043d 761a a73e 34b0 76bd
00000020: 91bd 51be 35cf dabe 41c0 1a3e 0ee6 3fbd
00000030: 54ca 63bd b1f7 70be 760b 663d 47d8 a6be
00000040: 1750 193e 590a 9f3e ef9a 353e 1469 3c3d
00000050: be44 4bbe 2748 98be 175b 09be 9958 d93d
00000060: 6e47 7dbd ebad 1bbe 0ea5 34be 4cec 133e
00000070: 4626 d33d 6abc 803e 8777 233d 2276 773e
00000080: 2e31 16bd 068d c73d 5ca3 76bd 6708 7a3c
00000090: af7d cdbd 6b09 2c3d 3983 363e 768b 04be
000000a0: 79a8 b5be 308d 2cbd 1a3a d53d 0c78 c73e
000000b0: f501 3fbe 089d 0ebe 759b adbe bf8f 2e3e
000000c0: cbe8 8bbd 3233 e3bd fe00 07be a436 aabd
000000d0: 9b5f 07bd d073 77bd fef3 363e 275a 32bd
000000e0: 8382 d2bd 3d7a 5abe b29c 843e 86aa 4e3e
000000f0: e0be 75bc 6d3c 17be f55b a3bd 72d5 223e
00000100: d993 553e 1919 62be af95 81be 3afe 5f3e
00000110: c220 2ebe c5ec 26be 2466 45be c986 053e
00000120: 0329 09bc 19d1 113d cb75 b83d 2f0d d13d
00000130: 4817 913d 7d8a 123e 7ba9 e3bb 6077 713e
00000140: 3a3e 743e bbaf 813e 2b3d 7cbe de5f b03d
00000150: ae53 8bbe f2ff 063e 853d acbd cc60 1e3e
00000160: 9f68 96bd e327 b63d 8be2 56be bbbc e03d
00000170: 0f0f 87bd 3c0a d2bd 6f66 e43e 5c05 343d
00000180: 4fc9 aabc 5b32 4b3e d003 37bd 57ae 833e
00000190: ab4f 1cbd f4bb 0abe 3c16 75bd b5ba 1fbe
000001a0: b862 9d3e a393 2a3e 45b5 6abe 2a82 f33d
000001b0: 47e7 98bd 8750 a9bc aa54 8e3e 046d ed3d
000001c0: 3a8f 8ebe 39f4 f63d d88b 113d f56d 88be
000001d0: e168 e53d 4b28 18be bd73 d8bc d7b3 9f3e
000001e0: e9e3 04bd 85e6 c1be 528f d4bc b577 d63d
000001f0: 5b05 6dbd 49d4 1a3e a365 bc3d 3780 793e
00000200: ce9e 1abc a958 a2bd d245 eb3d aa6c fabe
00000210: 8c09 49bd 189b 4cbe de50 c5bd 61d8 4b3b
00000220: e3b4 b33d 9be4 b6bd 4cd6 64be ba39 2abe
00000230: e6e6 3c3e 6079 d63d fd2f 443e 10ac 9fbe
00000240: 50f7 073e 12b2 2e3e ee47 8d3e c599 a2bd
00000250: 77df 873c 3af8 743d df30 29be 8f81 40bc
00000260: 6be0 803e 19de 9cbd 59e7 bb3d 4bf8 7f3d
00000270: bd11 f0be 52f6 cbbe c5e5 f1bd 8ca4 84be
00000280: e8f0 84be 8321 4d3d da16 80bd c5db a03d
00000290: eeb2 bf3d 06bc 103c 229c 393e 684e 89bd
000002a0: 6669 acbc 3288 f8bb c92a 6ebd 6426 bcbc
000002b0: 5749 4cbe 10c6 8c3e ddff f43d 06ba d6bd
000002c0: bc6d 223e 2630 8f3e 140c 263e e13b 3b3e
000002d0: 84e9 04bd 20fd 073e 1709 aa3b ff3b 693e
000002e0: 0b81 79bd 9fae 6ebc 9399 b93d 9295 783e
000002f0: 61f2 8bbc 2144 98bd 25e6 7ebd 7695 b83e
00000300: c26e ae3e e537 65be 72c1 753d be3e fbbd
00000310: dcf5 993d 05b5 ebbd 63e2 52be cb5e debd
00000320: 8344 643e b285 13bd 141d 1c3d 8027 fdbd
00000330: 7246 443b 7237 353d 6ea0 71bd 7e2b 11bd
00000340: ba31 193e 6706 04be 71fb 313c fbca bbbd
00000350: c614 07be 4583 6b3e 685b 833c 3155 aebd
00000360: 48dc 2f3d acdc 94be b8cd c3bd 6ebd 633e
00000370: 5c7f 5b3d 985f 13be 8725 5a3e 3473 adbd
00000380: b03b 4e3c a49e 58be 1da4 443e 6783 1b3e
00000390: dce1 103e 3dfc c43e fccf 25be dcaf babd
000003a0: 2207 6fbe 6bc1 d0bd a237 3f3c 1747 043e
000003b0: d357 1b3e 3820 9d3d f0e9 96be d624 793d
000003c0: 89f7 5fbe eaf3 71be 5585 833e ddec 4e3e
000003d0: e32d 6dbd 761e 36be a161 0abe c5b1 c13c
000003e0: 24e3 aa3e ce41 11bd 3bb5 803e b4fe 6ebe
000003f0: 3f34 d0be da13 2ebe 0e31 7f3e 78b4 6fbe

base.mlp.fc2.0.0.bias f4 [64]
0.0 0.0 0.0 -0.0033431922 0.0019457792 0.00068999163 0.0031167713 0.0
0.00069974165 0.0017469669 0.0 0.0 -0.00016529961 0.0018931319 0.00086878735 0.00021894737
-0.0013649947 0.0 -0.0050272746 -0.0046811015 0.0 -0.0017784529 0.0040392573 0.0010209706
0.0017042765 -0.0012281581 0.00058923004 0.0020239132 -0.0042608385 -0.0030580068 -0.0024715436 -0.00021266939
-0.00046851864 0.0 -0.00062755967 -0.0051382165 0.0013358535 0.0011271556 0.0002791669 -0.00068341766
0.0043234313 -0.00082214177 0.0 0.00050742034 0.0013730591 -7.356919e-05 -0.0036321282 0.00054927554
0.0 0.0031024197 -0.0022621143 0.0 0.0009739492 0.0023064332 -0.00022793372 0.0
0.0 -0.00041384017 -0.000364273 0.0025918458 0.0031624802 0.0 0.0 0.0054931333
00000000: 0000 0000 0000 0000 0000 0000 7519 5bbb
00000010: 8409 ff3a 8ee0 343a bf42 4c3b 0000 0000
00000020: de6e 373a 7bfa e43a 0000 0000 0000 0000
00000030: 4754 2db9 f722 f83a 55bf 633a 3d95 6539
00000040: 9fe9 b2ba 0000 0000 d6bb a4bb ed63 99bb
00000050: 0000 0000 fa1a e9ba bf5b 843b 17d2 853a
00000060: 0862 df3a 26fa a0ba 8f76 1a3a a1a3 043b
00000070: 819e 8bbb d768 48bb 9ff9 21bb 0100 5fb9
00000080: 82a3 f5b9 0000 0000 d182 24ba 7c5e a8bb
00000090: ce17 af3a 11bd 933a 265d 9239 6227 33ba
000000a0: 92ab 8d3b 0085 57ba 0000 0000 6704 053a
000000b0: 38f8 b33a 2849 9ab8 0009 6ebb 42fd 0f3a
000000c0: 0000 0000 f751 4b3b fb3f 14bb 0000 0000
000000d0: a050 7f3a 8727 173b 7e01 6fb9 0000 0000
000000e0: 0000 0000 b0f8 d8b9 e5fb beb9 f5db 293b
000000f0: 9d41 4f3b 0000 0000 0000 0000 beff b33b

base.mlp.fc2.0.2.weight f4 [64]
1.0039612 0.99721414 1.0004529 0.9987493 1.0019594 1.0031313 1.0047457 1.0018768
1.0003033 1.0024557 0.99524665 1.0047189 1.0018446 1.0032837 0.99455106 1.0010568
0.9985381 0.995933 0.9988661 0.9976751 1.0041968 0.99892694 0.9997332 1.0016651
1.0022339 1.002643 1.0000771 1.0019826 0.99936444 1.0022136 0.9971174 1.001926
1.0049514 1.0000746 0.99814713 0.99671525 1.0016322 1.0023925 1.0040829 1.0005624
1.0009489 1.0024751 1.004942 0.9971829 1.0048022 1.0010799 1.0020628 1.0021755
0.9974681 0.99611074 1.0040938 0.9944474 1.0015335 1.0021183 1.0008497 0.9965242
0.9968172 1.0009825 0.9952487 0.9968225 0.9990081 0.9995637 0.99673533 1.0055289
00000000: cd81 803f 6d49 7f3f d70e 803f 09ae 7f3f
00000010: 3540 803f 9b66 803f 829b 803f 803d 803f
00000020: f009 803f 7850 803f 7cc8 7e3f a19a 803f
00000030: 723c 803f 9a6b 803f e69a 7e3f a122 803f
00000040: 31a0 7f3f 77f5 7e3f b0b5 7f3f a367 7f3f
00000050: 8589 803f adb9 7f3f 84ee 7f3f 9036 803f
00000060: 3349 803f 9b56 803f 8702 803f f740 803f
00000070: 59d6 7f3f 8948 803f 1643 7f3f 1c3f 803f
00000080: 3fa2 803f 7202 803f 9286 7f3f bb28 7f3f
00000090: 7c35 803f 664e 803f ca85 803f 6e12 803f
000000a0: 181f 803f 1b51 803f f1a1 803f 6147 7f3f
000000b0: 5c9d 803f 6323 803f 9843 803f 4947 803f
000000c0: 125a 7f3f 1d01 7f3f 2586 803f 1b94 7e3f
000000d0: 4032 803f 6a45 803f d81b 803f 361c 7f3f
000000e0: 692f 7f3f 3220 803f 9ec8 7e3f c22f 7f3f
000000f0: ffbe 7f3f 68e3 7f3f 0c2a 7f3f 2cb5 803f

base.mlp.fc2.0.2.bias f4 [64]
-0.004062967 0.0028183467 -0.00054974674 -0.0031202321 0.00247421 0.0015883858 -0.0042828047 -0.0019638757
0.001014231 0.0019470557 0.005061675 -0.0048937947 -0.001890522 0.0025128587 0.005615074 -0.0007965224
-0.0009294326 0.0042100265 -0.0045798398 -0.0042617884 -0.0043759733 -0.0012722083 0.004160355 -0.0016975948
0.0022798372 -0.0018079696 0.00080546096 0.0020683003 -0.004538045 -0.002488702 -0.0023664925 0.00014169345
-0.0017739643 -7.863523e-05 0.0018704061 -0.0044215294 0.0017799984 0.0022194856 -0.0041588233 -0.00025119795
0.004004154 0.0015484757 -0.0050886404 0.0029099868 -0.0044201813 -0.00046513614 -0.0024568776 0.0017733938
0.0026056182 0.0046302006 -0.004208998 0.0057829907 0.0009335472 0.0022290177 -0.001513657 0.0036650815
0.0032993432 -0.00012545887 0.004977983 0.0034441713 0.0027560843 0.00056156015 0.0033353327 0.005459348
00000000: a322 85bb 03b4 383b e11c 10ba cf7c 4cbb
00000010: 5b26 223b 6231 d03a c556 8cbb 5eb4 00bb
00000020: f2ef 843a 5934 ff3a 68dc a53b 205c a0bb
00000030: 64cb f7ba c6ae 243b a8fe b73b b7cd 50ba
00000040: 2aa5 73ba 43f4 893b 7b12 96bb 79a6 8bbb
00000050: 5364 8fbb 3ac0 a6ba 9653 883b d481 deba
00000060: 5269 153b 65f9 ecba 9225 533a 528c 073b
00000070: e1b3 94bb 7e19 23bb 2817 1bbb 8c93 1439
00000080: 5d84 e8ba f8e8 a4b8 6a28 f53a 7ae2 90bb
00000090: d64e e93a ca74 113b bd46 88bb 38b3 83b9
000000a0: 4735 833b 39f6 ca3a 9cbe a6bb 7ab5 3e3b
000000b0: 2bd7 90bb 84dd f3b9 9103 21bb 3971 e83a
000000c0: 05c3 2a3b f0b8 973b a2eb 89bb 3e7f bd3b
000000d0: 4bb9 743a b614 123b e765 c6ba dd31 703b
000000e0: cb39 583b 9c8d 03b9 591e a33b 9bb7 613b
000000f0: 6c9f 343b aa35 133a 9995 5a3b 55e4 b23b

rnn.rnn.weight_ih_l0 f4 [192, 64]
-0.06859222 0.051504973 -0.077231914 0.04213982 0.051869426 0.0039428445 -0.05574246 0.012159807
0.15692444 -0.053866163 0.11635704 0.05318426 -0.046028536 -0.033442553 0.035565846 -0.09439045
-0.007622661 0.11639462 -0.01940872 0.020030584 0.07679299 0.014709966 0.11500147 0.04757159
0.055024937 -0.0008225746 -0.030387856 0.06001046 -0.010923277 -0.11321947 0.04192757 0.05329879
-0.02870992 0.0027775832 -0.0980866 -0.08308491 -0.06328235 -0.06887876 -0.039906595 0.1235422
-0.003482314 0.07312189 -0.00679131 -0.043279707 0.0074155526 0.047840822 -0.020148125 -0.0048403097
0.07492502 -0.06142388 -0.062774315 0.12829275 0.0711271 0.08350231 0.020316647 0.17631207
-0.001374101 0.023153912 0.06886018 0.008398351 0.06861184 0.060283776 0.07533602 -0.026977435
0.0235457 0.04470392 0.007003735 0.054620527 -0.037182886 0.05082184 -0.004776865 -0.020058027
-0.0075757965 0.11972955 -0.04336419 0.004755428 -0.073737934 0.03273285 0.014111574 0.012803173
-0.011476692 -0.016347097 -0.018768582 0.012944395 -0.00033175084 -0.013600974 0.1389949 -0.01758922
-0.0673431 -0.06780865 0.00037791862 -0.07773352 0.09965764 0.012415741 0.006773414 0.10558164
0.03198824 -0.01143 -0.0045709927 0.046605714 -0.05510211 -0.014375491 0.03236962 -0.023852183
0.1002235 0.05992105 0.010053125 -0.025645724 -0.14511433 0.026550451 0.01888986 0.047118854
0.08907061 0.040274825 -0.06854884 0.082397014 -0.08261644 0.007992038 0.03329228 0.003122892
0.0030278007 -0.06755301 -0.066378064 0.056326084 0.051904004 0.03899082 0.051511582 -0.08165562
-0.06379743 0.004509714 0.007856081 0.024495626 0.027741216 0.0842893 0.06590482 0.06789681
-0.08490387 0.20096558 0.0030596326 -0.04285088 0.023618788 -0.06680033 -0.07673443 0.08790928
-0.008509849 -0.0316445 0.07468295 0.13061485 -0.021063909 0.15703188 0.008527174 0.0019797634
-0.0076558096 -0.051654935 -0.0750835 0.032935992 0.038931716 -0.15694383 -0.010739244 -0.06418495
0.022943715 0.040909875 0.0050561805 0.045181327 0.057891622 -0.008183425 0.07375227 0.016930368
0.034537103 0.04008678 0.046364523 -0.08191927 -0.024688317 0.15015829 -0.0850679 -0.024180874
0.06705747 -0.030213814 0.016623236 0.024157118 -0.04840946 -0.033992965 -0.05621199 -0.03760706
-0.038375735 0.11254202 -0.035098128 -0.096223794 -0.12953116 -0.014728191 -0.0678322 0.15957521
0.05516926 -0.01176997 -0.010520024 -0.046453785 0.10759462 -0.07978004 -0.0043148603 -0.018770246
0.093144566 -0.0031375564 0.056024253 0.093814254 -0.062258676 0.044514537 -0.006435911 -0.012152264
-0.041617177 0.040790696 -0.007570598 -0.038919054 -0.044501025 -0.07456953 -0.05223361 -0.15133712
0.008778299 -0.017534137 0.08300375 -0.013329812 -0.05348928 -0.10769306 0.015252905 0.061009698
0.132936 -0.0055633723 -0.020393267 -0.0626974 0.02748355 -0.056654718 -0.0856711 0.012861707
0.036127616 -0.12185253 0.01254408 -0.01855225 -0.0051265666 0.074656494 -0.032916296 0.14949337
0.05141786 0.0077040563 0.05143282 -0.048621297 0.0031391187 -0.00040346285 -0.00096830935 -0.11766933
-0.13632965 -0.07701003 0.060179293 -0.09562169 -0.04284424 0.044663597 -0.05741361 0.21906842
00000000: 147a 8cbd e1f6 523d c42b 9ebd ce9a 2c3d
00000010: 0975 543d fa32 813b 3552 64bd ed39 473c
00000020: cdb0 203e c4a2 5cbd 9a4c ee3d bdd7 593d
00000030: 6b88 3cbd 0ffb 08bd 7ead 113d c84f c1bd
00000040: 84c7 f9bb 4d60 ee3d 09ff 9ebc 2e17 a43c
00000050: a545 9d3d 1202 713c e485 eb3d 6dda 423d
00000060: d461 613d 0ca2 57ba f4ef f8bc 87cd 753d
00000070: 8bf7 32bc 9cdf e7bd 3ebc 2b3d d54f 5a3d
00000080: 1131 ebbc 1d08 363b a1e1 c8bd 6c28 aabd
00000090: 2d9a 81bd 4f10 8dbd 1975 23bd b103 fd3d
000000a0: 8937 64bb eec0 953d a389 debb 1046 31bd
000000b0: 2afe f23b bdf4 433d ae0d a5bc 769b 9ebb
000000c0: 4a72 993d 9b97 7bbd d28f 80bd 2d5f 033e
000000d0: 16ab 913d 4203 ab3d 196f a63c 278b 343e
000000e0: 2e1b b4ba 46ad bd3c 9106 8d3d 3d99 093c
000000f0: 5d84 8c3d 1fec 763d c549 9a3d c8ff dcbc
00000100: e9e2 c03c 751b 373d 967f e53b c6b9 5f3d
00000110: 154d 18bd 902a 503d 3f87 9cbb bb50 a4bc
00000120: 633e f8bb c434 f53d a69e 31bd 6cd3 9b3b
00000130: ea03 97bd e212 063d 3b34 673c 66c4 513c
00000140: bc08 3cbc 59ea 85bc 92c0 99bc ba14 543c
00000150: d8ee adb9 9fd6 5ebc ae54 0e3e 4517 90bc
00000160: 2eeb 89bd 43df 8abd 6123 c639 c032 9fbd
00000170: 4e19 cc3d 646b 4b3c 84f3 dd3b 303b d83d
00000180: 1a06 033d e544 3bbc 44c8 95bb a2e5 3e3d
00000190: c0b2 61bd 2e87 6bbc 0296 043d a765 c3bc
000001a0: fa41 cd3d c66f 753d ddb5 243c fb16 d2bc
000001b0: da98 14be 5580 d93c e8be 9a3c b3ff 403d
000001c0: a76a b63d 37f7 243d 5663 8cbd c4bf a83d
000001d0: cf32 a9bd 09f1 023c 7c5d 083d 6fa9 4c3b
000001e0: 116e 463b 3c59 8abd 39f1 87bd 2eb6 663d
000001f0: 4b99 543d d7b4 1f3d cffd 523d 103b a7bd
00000200: 3aa8 82bd 39c6 933b cbb6 003c 0dab c83c
00000210: 8c41 e33c de9f ac3d 1bf9 863d 7c0d 8b3d
00000220: 15e2 adbd ecc9 4d3e 1e84 483b 6884 2fbd
00000230: 307c c13c 9dce 88bd f126 9dbd c809 b43d
00000240: e56c 0bbc aa9d 01bd 60f3 983d e6bf 053e
00000250: 388e acbc f7cc 203e 8fb5 0b3c ebbe 013b
00000260: 96dd fabb 2094 53bd 61c5 99bd e4e7 063d
00000270: dd76 1f3d e2b5 20be a7f3 2fbc 6673 83bd
00000280: 75f4 bb3c 1d91 273d 51ae a53b 0e10 393d
00000290: c41f 6d3d c613 06bc 6e0b 973d 8eb1 8a3c
000002a0: c776 0d3d 0932 243d bae8 3d3d 4ac5 a7bd
000002b0: 273f cabc 18c3 193e 1438 aebd f816 c6bc
000002c0: 6d55 893d f682 f7bc 742d 883c 26e5 c53c
000002d0: ff48 46bd 353c 0bbd 8b3e 66bd dc09 1abd
000002e0: e02f 1dbd 6e7c e63d 0ec3 0fbd fb10 c5bd
000002f0: d1a3 04be 834e 71bc 9ceb 8abd af67 233e
00000300: 29f9 613d d5d6 40bc 2e5c 2cbc 5346 3ebd
00000310: 915a dc3d b863 a3bd ac63 8dbb 0fc4 99bc
00000320: 94c2 be3d 769f 4dbb b079 653d b021 c03d
00000330: f402 7fbd e054 363d 56e4 d2bb 4a1a 47bc
00000340: c676 2abd 2514 273d c712 f8bb 9669 1fbd
00000350: b546 36bd e9b7 98bd e9f2 55bd 1ef8 1abe
00000360: dbd2 0f3c c0a3 8fbc dffd a93d 4965 5abc
00000370: 9317 5bbd 2e8e dcbd 52e7 793c 4ee5 793d
00000380: 6020 083e f34c b6bb c80f a7bc 7f67 80bd
00000390: 2f25 e13c c70e 68bd 5474 afbd e9b9 523c
000003a0: 8dfa 133d d28d f9bd af85 4d3c e3fa 97bc
000003b0: c2fc a7bb 81e5 983d 3dd3 06bd ca14 193e
000003c0: 899b 523d 4f72 fc3b 38ab 523d 2027 47bd
000003d0: acb9 4d3b de87 d3b9 24d6 7dba 9efc f0bd
000003e0: 009a 0bbe 6fb7 9dbd 907e 763d 4ed5 c3bd
000003f0: 717d 2fbd 2df1 363d 892a 6bbd 7953 603e
