MAPPO/results/MyEnv/MyEnv/rmappo/check/run19/models/critic_agent4.pt (torch, 314992 bytes, 21 tensors)

base.feature_norm.weight f4 [651]
0.9983048 1.0006564 0.9984081 0.9982415 0.9978137 1.0018195 1.002889 1.0018432
1.0030276 1.0035288 1.0008813 1.0001217 1.0017197 1.0003594 1.000661 1.001929
1.0000814 0.9997026 1.0020967 0.9996489 1.001758 1.0016528 0.9964234 0.9982739
1.0011398 0.9978792 0.99918526 1.0005482 1.001254 1.0017432 1.0025953 1.0017766
0.99831223 0.9994124 0.9985874 0.9976104 1.0004315 0.9982738 0.99791867 0.9976589
0.99638796 1.0001332 0.9978911 0.99918115 1.0014701 0.99787384 1.0034188 0.99772924
0.9985331 0.9995161 1.0019403 0.9983235 0.9985034 0.99848336 1.0019923 0.9997414
1.0012126 1.0008525 0.9981473 1.0016768 1.0019903 0.99774134 0.9994373 1.0028172
0.9969442 1.0010391 1.0012059 0.99943703 0.9985769 0.99804825 0.9963533 1.002174
1.0027915 0.9963664 1.0031434 1.0001775 1.0016531 1.001453 0.9999558 1.0004122
1.0015684 0.9977652 0.998231 0.99757344 1.0009276 1.000948 1.0012703 1.0005335
0.998441 1.0018198 0.9999113 0.9988078 0.9997463 0.999322 1.0019733 1.0010266
0.9987109 0.9998212 0.99860287 1.0018787 0.998067 0.998016 0.9971756 1.0010467
1.001509 0.99955904 0.9980519 0.9984577 1.0031273 1.001683 0.99659073 0.9982931
0.9979119 1.0011734 0.99774015 1.0005494 1.000464 0.9972871 1.0006468 0.99782246
0.9982004 0.99790996 1.001809 0.99789727 1.0017086 1.0014874 0.99832106 1.003542
0.99815744 0.99809194 1.0007833 0.9990119 0.9981804 1.0015739 1.0010753 0.9977397
0.9988055 1.001787 0.99847615 0.99871594 1.0006216 1.000818 0.99654984 0.9997489
1.001897 0.99927837 0.99810076 1.0014123 1.0019541 0.99765563 1.001581 0.9985617
0.9979604 0.9992403 1.0018394 0.9982753 0.9964852 0.99636227 1.00007 0.9974939
1.0015863 0.9964433 1.0013822 0.9979183 0.9986891 0.9986185 0.99800825 1.0020815
1.0015537 0.9997507 1.001554 1.0015788 1.0012956 1.0014625 1.0018966 1.00074
0.99836844 0.9987553 1.0005857 1.0014567 1.0034971 0.9981872 0.99852455 1.0005591
0.9982409 0.99967384 1.0014375 1.0011357 1.0021187 1.0016685 0.99799204 0.99857384
1.0014385 1.0014329 0.99724936 1.0000018 0.99769646 1.0016977 0.99800795 0.9986822
0.9974637 0.9973721 0.9998162 1.0009713 1.0013174 0.9985804 1.0015522 1.0012909
1.0020708 0.998815 1.0034629 0.99879247 0.99854666 0.99684083 1.0013213 0.9974672
0.9975215 0.997609 1.0001113 0.9981244 0.9983187 1.0029788 1.002053 1.0036683
0.9992601 1.0033672 0.99852544 0.99800307 1.0013661 0.9986313 1.0012908 1.0012417
1.001252 1.0027341 0.99977773 1.0010406 1.0022877 0.9981322 1.0027738 0.9988555
1.0020578 1.0015714 0.9976465 0.99863166 1.0012292 0.99808 0.9964712 0.99856824
0.9981956 1.0009491 0.9988719 1.0013722 0.99671245 1.000481 1.0009542 0.9989087
00000000: e790 7f3f 8215 803f ac97 7f3f c18c 7f3f
00000010: b870 7f3f 9f3b 803f ab5e 803f 663c 803f
00000020: 3563 803f a273 803f e11c 803f fd03 803f
00000030: 5a38 803f c70b 803f a915 803f 363f 803f
00000040: ab02 803f 82ec 7f3f b444 803f fee8 7f3f
00000050: 9b39 803f 2936 803f 9b15 7f3f e18e 7f3f
00000060: 5925 803f 0375 7f3f 9bca 7f3f f711 803f
00000070: 1729 803f 1f39 803f 0b55 803f 373a 803f
00000080: 6491 7f3f 7ed9 7f3f 6da3 7f3f 6563 7f3f
00000090: 240e 803f df8e 7f3f 9977 7f3f 9366 7f3f
000000a0: 4813 7f3f 5d04 803f cb75 7f3f 56ca 7f3f
000000b0: 2c30 803f a974 7f3f 0770 803f 2f6b 7f3f
000000c0: de9f 7f3f 4ae0 7f3f 943f 803f 2192 7f3f
000000d0: eb9d 7f3f 9b9c 7f3f 4941 803f 0def 7f3f
000000e0: bc27 803f ef1b 803f 9586 7f3f f236 803f
000000f0: 3841 803f fa6b 7f3f 1fdb 7f3f 505c 803f
00000100: bc37 7f3f 0d22 803f 8427 803f 1bdb 7f3f
00000110: bca2 7f3f 1780 7f3f 0311 7f3f 3d47 803f
00000120: 795b 803f de11 7f3f 0167 803f d105 803f
00000130: 2b36 803f 9d2f 803f 1afd 7f3f 820d 803f
00000140: 6533 803f 8a6d 7f3f 118c 7f3f f960 7f3f
00000150: 651e 803f 101f 803f a029 803f 7b11 803f
00000160: d499 7f3f a23b 803f 30fa 7f3f deb1 7f3f
00000170: 60ef 7f3f 91d3 7f3f a940 803f a421 803f
00000180: 84ab 7f3f 48f4 7f3f 70a4 7f3f 903d 803f
00000190: 5281 7f3f fa7d 7f3f e646 7f3f 4c22 803f
000001a0: 7231 803f 1ae3 7f3f 5480 7f3f ec9a 7f3f
000001b0: 7a66 803f 2637 803f 9220 7f3f 2390 7f3f
000001c0: 2777 7f3f 7326 803f e66b 7f3f 0112 803f
000001d0: 340f 803f 354e 7f3f 3215 803f 4b71 7f3f
000001e0: 108a 7f3f 0777 7f3f 473b 803f 3276 7f3f
000001f0: fd37 803f bd30 803f f891 7f3f 1074 803f
00000200: 3f87 7f3f f482 7f3f ab19 803f 3ebf 7f3f
00000210: c088 7f3f 9333 803f 3c23 803f de6b 7f3f
00000220: b8b1 7f3f 8e3a 803f 229c 7f3f d9ab 7f3f
00000230: 5e14 803f ce1a 803f e41d 7f3f 8bef 7f3f
00000240: 293e 803f b5d0 7f3f 8883 7f3f 472e 803f
00000250: 0840 803f 5c66 7f3f ce33 803f bda1 7f3f
00000260: 557a 7f3f 36ce 7f3f 463c 803f f88e 7f3f
00000270: a719 7f3f 9911 7f3f 4b02 803f c35b 7f3f
00000280: fb33 803f e816 7f3f 4b2d 803f 9377 7f3f
00000290: 17aa 7f3f 76a5 7f3f 787d 7f3f 3544 803f
000002a0: e932 803f a9ef 7f3f ec32 803f bc33 803f
000002b0: 742a 803f ec2f 803f 263e 803f 4018 803f
000002c0: 1395 7f3f 6dae 7f3f 3113 803f bc2f 803f
000002d0: 9872 803f 3289 7f3f 4e9f 7f3f 5212 803f
000002e0: b78c 7f3f a0ea 7f3f 1b2f 803f 3725 803f
000002f0: 6d45 803f ac36 803f 687c 7f3f 89a2 7f3f
00000300: 232f 803f f42e 803f bc4b 7f3f 0f00 803f
00000310: 0969 7f3f a137 803f 737d 7f3f a3a9 7f3f
00000320: c859 7f3f c753 7f3f f4f3 7f3f d41f 803f
00000330: 2b2b 803f f7a2 7f3f dd32 803f 4d2a 803f
00000340: db43 803f 57b2 7f3f 7971 803f ddb0 7f3f
00000350: c1a0 7f3f f630 7f3f 4c2b 803f 035a 7f3f
00000360: 925d 7f3f 4e63 7f3f a603 803f 1585 7f3f
00000370: d091 7f3f 9c61 803f 4643 803f 3478 803f
00000380: 83cf 7f3f 566e 803f 5d9f 7f3f 217d 7f3f
00000390: c42c 803f 4da6 7f3f 4c2a 803f b028 803f
000003a0: 0729 803f 9759 803f 6ff1 7f3f 1922 803f
000003b0: f74a 803f 9885 7f3f e45a 803f feb4 7f3f
000003c0: 6e43 803f 7e33 803f c365 7f3f 53a6 7f3f
000003d0: 4728 803f 2c82 7f3f bd18 7f3f 2ba2 7f3f
000003e0: bf89 7f3f 1a1f 803f 12b6 7f3f f72c 803f
000003f0: 8c28 7f3f c30f 803f 441f 803f 7bb8 7f3f

base.feature_norm.bias f4 [651]
0.0017130902 -0.00066229166 0.0016010052 0.0017669485 0.0022215745 -0.0018396578 -0.0031342264 -0.0018616384
-0.0031271074 -0.0036852288 -0.00089546765 -7.935704e-05 -0.0017381815 -0.0003980184 -0.00070047966 -0.0019520767
-0.000110853005 0.00018893086 -0.0021265766 0.00035986456 -0.0017701122 -0.0016624233 0.0036452177 0.0017620358
-0.0011632587 0.0021634027 0.0008263913 -0.0005613396 -0.0012652123 -0.001754531 -0.002621033 -0.0018035214
0.0016999647 0.00064169965 0.0014258912 0.002493588 -0.0004682291 0.0017425586 0.0020923961 0.002359295
0.0037333125 -0.00013951056 0.0021215952 0.00083567295 -0.0014840661 0.0021758706 -0.003571891 0.0022977795
0.0014787472 0.00053609634 -0.0019611646 0.00169158 0.0015523627 0.0015305856 -0.002028865 0.00026433537
-0.0012262185 -0.0008559612 0.001863635 -0.0016887439 -0.002000899 0.002281998 0.00058441644 -0.0028533952
0.00327531 -0.0010581636 -0.001207828 0.0005686692 0.001434551 0.0019635027 0.0037320505 -0.0022005565
-0.002819359 0.0037251664 -0.0035273829 -0.00013907357 -0.0016825869 -0.0014690723 1.913459e-05 -0.00044441235
-0.0015857497 0.0022610724 0.0017932401 0.0024472454 -0.00094676006 -0.0009610495 -0.0012831538 -0.00053396536
0.0015783838 -0.0018366539 6.87225e-05 0.0012028044 0.0001816623 0.00069740583 -0.0019980439 -0.0010350137
0.0013054146 0.00020107756 0.0014274273 -0.0018902519 0.0020103494 0.0020143501 0.0036144287 -0.0010594022
-0.0015237817 0.0003163175 0.0019749834 0.0015512065 -0.003184633 -0.0016956168 0.0036815235 0.0025019427
0.0021048863 -0.0011863586 0.0022818719 -0.00037968653 -0.000475528 0.002752501 -0.0006669805 0.0021982545
0.0018194313 0.0021062621 -0.0018262616 0.0021457116 -0.0017323471 -0.0014984129 0.0017064356 -0.0037143806
0.0019207749 0.0019207872 -0.0007990604 0.0010196833 0.0018321711 -0.0015980697 -0.0010844575 0.0022774707
0.0011993389 -0.0018030807 0.0015451534 0.0012955634 -0.0006364299 -0.00082802377 0.0037218735 0.00018284489
-0.0019065192 0.0007647881 0.0019480787 -0.0014239264 -0.0019740008 0.0023676092 -0.0015950453 0.0014690604
0.0020669568 0.000779726 -0.0018528551 0.0017447456 0.003738225 0.003692705 -9.952044e-05 0.0025331646
-0.001602607 0.0037118734 -0.0013977407 0.0020939892 0.001355907 0.0013934444 0.002004639 -0.0021331266
-0.0015802715 -3.391364e-05 -0.0015734136 -0.0015880214 -0.0013105996 -0.0014770875 -0.001907878 -0.00075934466
0.0016486504 0.00071332965 -0.0005991936 -0.0014712402 -0.0036834362 0.0018243898 0.0015062663 -0.00065489823
0.0017827144 0.00022620051 -0.0014413964 -0.001145821 -0.0021306046 -0.0017503 0.0020403466 0.0015755614
-0.0015426462 -0.0015088173 0.0027876024 -1.6888953e-05 0.0023211564 -0.0017061008 0.0020048923 0.0015524246
0.0025436527 0.0026724925 0.00014534437 -0.0009894748 -0.0013219829 0.0014660626 -0.0017327319 -0.0013088986
-0.0021470855 0.0011969081 -0.0035374723 0.001248876 0.0014689028 0.003611011 -0.0013821864 0.0025657194
0.0025141044 0.0025157891 -0.00023494742 0.0018840312 0.0016928302 -0.0005680784 -0.00210138 -0.0037718492
0.00075642194 -0.0036206974 0.0014834311 0.0020398942 -0.0013784899 0.0014092634 -0.0013855961 -0.0011454526
-0.001266194 -0.002782269 0.0002563644 -0.0010986777 -0.0023144917 0.0018810285 -0.0029672878 0.0011598265
-0.0021040929 -0.0015725483 0.002371684 0.0013752562 -0.001224414 0.0019267678 0.00359899 0.0014316944
0.0018157772 -0.00093877857 0.0012377432 -0.0013900216 0.0033493333 -0.0005881963 -0.0009511611 0.0010908312
00000000: c589 e03a a49d 2dba d2d8 d13a f498 e73a
00000010: d697 113b ac20 f1ba 9867 4dbb 3802 f4ba
00000020: 28f0 4cbb e183 71bb d1bd 6aba 7d6c a6b8
00000030: b1d3 e3ba 20ad d0b9 65a0 37ba d3dc ffba
00000040: c179 e8b8 be1b 4639 095e 0bbb 34ac bc39
00000050: 1c03 e8ba abe5 d9ba 9be4 6e3b 1cf4 e63a
00000060: 7c78 98ba e0c7 0d3b 2ea2 583a dd26 13ba
00000070: 7bd5 a5ba 4bf8 e5ba a3c5 2bbb 2364 ecba
00000080: 5ad1 de3a bc37 283a f8e4 ba3a 776b 233b
00000090: a57c f5b9 9066 e43a 9520 093b 679e 1a3b
000000a0: 97aa 743b 9549 12b9 760a 0b3b 1011 5b3a
000000b0: ff84 c2ba 0d99 0e3b 6316 6abb 5896 163b
000000c0: 86d2 c13a d188 0c3a e286 00bb 02b8 dd3a
000000d0: a678 cb3a ee9d c83a b5f6 04bb 7e96 8a39
000000e0: 11b9 a0ba 9562 60ba 3745 f43a d858 ddba
000000f0: 8421 03bb 938d 153b 8633 193a 0700 3bbb
00000100: 95a6 563b 14b2 8aba fc4f 9eba be12 153a
00000110: 8b07 bc3a 1cae 003b 6b95 743b 3637 10bb
00000120: ffc4 38bb ec21 743b aa2b 67bb 47d4 11b9
00000130: 3f8a dcba e38d c0ba 3883 a037 0400 e9b9
00000140: eed8 cfba 802e 143b 270b eb3a f761 203b
00000150: fe2f 78ba f1ee 7bba 7f2f a8ba cff9 0bba
00000160: c6e1 ce3a e1bb f0ba 1c1f 9038 6ba7 9d3a
00000170: 9a7c 3e39 1dd2 363a 9df1 02bb 4ca9 87ba
00000180: 721a ab3a 59d8 5239 8318 bb3a 54c2 f7ba
00000190: 11c0 033b 3003 043b 0de0 6c3b a4db 8aba
000001a0: a1b9 c7ba 6bd7 a539 b96e 013b da51 cb3a
000001b0: 47b5 50bb 753f deba b745 713b a2f7 233b
000001c0: 22f2 093b 977f 9bba 758b 153b aa10 c7b9
000001d0: 4a50 f9b9 4e63 343b 4ed8 2eba 9710 103b
000001e0: fc79 ee3a 3709 0a3b 2c5f efba 119f 0c3b
000001f0: ec0f e3ba 6566 c4ba 7aaa df3a f76c 73bb
00000200: 83c2 fb3a ecc2 fb3a 0978 51ba e5a6 853a
00000210: 7625 f03a 5276 d1ba 5b24 8eba 9e41 153b
00000220: 2333 9d3a 5955 ecba bf86 ca3a e5cf a93a
00000230: 16d6 26ba bc0f 59ba adea 733b 0dba 3f39
00000240: 2be4 f9ba 107c 483a ad56 ff3a 0ba3 baba
00000250: 3d5e 01bb e429 1b3b d710 d1ba 7d8d c03a
00000260: c875 073b 8766 4c3a 80db f2ba f3af e43a
00000270: 02fd 743b 4f01 723b a1b5 d0b8 7303 263b
00000280: 910e d2ba e742 733b 6534 b7ba 4f3b 093b
00000290: b0b8 b13a 3ca4 b63a 4360 033b edcb 0bbb
000002a0: 1d21 cfba 7e3e 0eb8 003b ceba 2825 d0ba
000002b0: 6dc8 abba d59a c1ba c311 faba c20e 47ba
000002c0: 8717 d83a befe 3a3a 3413 1dba a1d6 c0ba
000002d0: ce65 71bb 5d20 ef3a e96d c53a 7aad 2bba
000002e0: f8a9 e93a 3d30 6d39 3ded bcba 5f2f 96ba
000002f0: 9da1 0bbb 536a e5ba 56b7 053b 1183 ce3a
00000300: 9e32 caba 82c3 c5ba 35b0 363b c0ac 8db7
00000310: 8b1e 183b 3e9f dfba 8364 033b ba7a cb3a
00000320: 69b3 263b fc24 2f3b 9567 1839 44b1 81ba
00000330: 6346 adba e628 c03a d61c e3ba 598f abba
00000340: 1eb6 0cbb 92e1 9c3a f0d4 67bb 53b1 a33a
00000350: 3388 c03a b6a6 6c3b 7b2a b5ba a125 283b
00000360: acc3 243b f0df 243b 385c 76b9 99f1 f63a
00000370: f5e1 dd3a 19eb 14ba 4eb7 09bb 2131 77bb
00000380: 9e4a 463a 3949 6dbb b06f c23a bfaf 053b
00000390: 72ae b4ba 08b7 b83a e49c b5ba 0323 96ba
000003a0: 6cf6 a5ba ba56 36bb a668 8639 8201 90ba
000003b0: baae 17bb d88c f63a d476 42bb 5205 983a
000003c0: d2e4 09bb f71d ceba 416e 1b3b f141 b43a
000003d0: 847c a0ba 998b fc3a 08dd 6b3b b1a7 bb3a
000003e0: 5fff ed3a 5d18 76ba c53b a23a 6331 b6ba
000003f0: 7d80 5b3b 2f31 1aba 5757 79ba 39fa 8e3a

base.mlp.fc1.0.weight f4 [64, 651]
0.10411677 0.06259357 -0.09692865 -0.016416395 0.10065731 0.028246736 -0.08799026 -0.029054664
0.042684782 0.033691064 0.10945105 0.07330966 0.015735188 0.10270215 -0.031245166 -0.06035157
0.02621478 0.002215527 0.018194009 0.03289668 -0.08691925 -0.02806004 0.039835222 -0.037223622
0.029216371 0.029741013 -0.0074230265 -0.071139544 -0.12597941 -0.044622924 -0.016267257 0.0011329922
-0.053686954 0.015397265 0.043923218 0.025547532 -0.085342936 -0.0015125024 0.0016820653 -0.036310863
-0.10645996 -0.042133585 0.021474006 -0.071139835 -0.016123207 0.013379809 -0.10993967 0.017286995
0.010586599 0.015572006 0.03536648 0.0308656 -0.08299879 -0.08527153 -0.005844845 -0.011719127
-0.029905103 0.08666813 0.06965876 0.04306373 0.15910603 0.032417316 -0.04361964 -0.0757231
-0.049048483 0.055612795 0.062365923 -0.05495648 -0.022254633 0.0141680045 -0.024301058 -0.051848236
-0.073667325 0.053994954 0.09990859 0.027022377 -0.09294878 0.009834187 -0.0022660792 -0.038052466
0.02314221 -0.014692086 0.13480496 -0.016204536 -0.046330024 0.065134905 -0.048090547 0.01281872
0.017721364 0.08696995 0.09447837 -0.062501065 -0.090629235 0.011639611 0.00043023372 0.0082598105
-0.008573039 0.07604901 0.04425443 -0.07436151 -0.07595523 -0.11283632 -0.079177104 0.0061300606
0.06855057 -0.024215078 -0.032119807 0.02280851 0.00116911 0.07606387 0.10321976 0.07314478
-0.06323636 0.038009383 -0.028493386 -0.0129568335 -0.02035751 -0.014174747 0.050039936 -0.0146543
-0.042789333 0.049158506 -0.035374817 0.020096548 -0.07578059 0.05952601 -0.0017527245 -0.10539087
-0.011321774 -0.033768214 0.064438306 -0.032236636 0.049035538 -0.04748508 -0.0117351785 0.012006325
0.00455711 -0.14364018 0.037210554 -0.04847667 -0.009887134 0.1038269 -0.014790027 -0.004818329
0.011645563 0.072611086 0.037670746 -0.13533773 0.062343664 -0.0038123806 0.058568135 0.016843723
0.010549579 -0.03724455 -0.015385437 0.047708426 -0.020803835 0.09854626 0.04734398 -0.014029703
-0.1305515 0.07841419 -0.014561748 0.061938856 0.014053037 0.027074557 -0.08204337 0.05775056
-0.12675665 -0.0012384773 0.041046023 -0.10056601 -0.04216671 -0.057240568 0.060287435 -0.005049712
-0.08438318 -0.034750644 -0.080902405 0.006747664 -0.062289376 -0.05742578 -0.019726705 0.0021708696
-0.0447867 -0.13264042 0.054351654 0.084218 0.09218369 -0.15335563 -0.050704695 -0.014387698
0.041222636 0.038020723 0.07611873 0.055832762 0.03449253 0.01882638 0.033559628 -0.0734899
0.076627485 0.11934436 0.014108263 0.10572044 0.05095296 -0.027723165 -0.011255369 -0.09790381
-0.042043187 0.03498053 -0.07295498 0.023186753 0.06515246 -0.07361806 0.03215869 0.02375499
-0.00479512 -0.056645676 0.028168915 -0.024092337 0.016416429 -0.05353986 0.036528148 0.06679943
0.056324575 -0.020404601 0.03510509 -0.08018381 -0.021029655 -0.027494263 -0.029033 0.021519339
-0.101134665 0.01730849 0.016828198 -0.029394547 -0.02618008 -0.0035352698 -0.017372128 0.14401782
0.009671824 -0.017905671 0.03181241 0.07918567 -0.020904887 -0.0003022801 0.011068937 -0.07202126
-0.040664908 -0.003478799 0.014700971 0.00189798 0.013229817 -0.00023758027 -0.02526503 0.16951758
00000000: 2c3b d53d 0f31 803d 8782 c6bd ad7b 86bc
00000010: 6b25 ce3d b365 e73c 3d34 b4bd 0c04 eebc
00000020: 3dd6 2e3d a4ff 093d df27 e03d 6023 963d
00000030: 15e7 803c 8155 d23d ddf5 ffbc 3533 77bd
00000040: 61c0 d63c 6032 113b 9a0b 953c abbe 063d
00000050: b802 b2bd 2bde e5bc 422a 233d cc77 18bd
00000060: 2c57 ef3c 6da3 f33c dc3c f3bb 9cb1 91bd
00000070: bf00 01be 87c6 36bd e942 85bc e980 943a
00000080: dae6 5bbd cf44 7c3c d5e8 333d 0f49 d13c
00000090: 47c8 aebd 293f c6ba bf78 dc3a b3ba 14bd
000000a0: ae07 dabd 4494 2cbd 41ea af3c c3b1 91bd
000000b0: d114 84bc fd36 5b3c 0d28 e1bd 759d 8d3c
000000c0: 6a73 2d3c ba21 7f3c 71dc 103d dbd9 fc3c
000000d0: 45fb a9bd d7a2 aebd 1d86 bfbb 9501 40bc
000000e0: 8cfb f4bc 0f7f b13d 41a9 8e3d 9863 303d
000000f0: b1ec 223e 05c8 043d 82aa 32bd b614 9bbd
00000100: 10e7 48bd 3eca 633d 6973 7f3d 0c1a 61bd
00000110: 594f b6bc eb20 683c 0313 c7bc d15e 54bd
00000120: e5de 96bd d029 5d3d e09c cc3d 085e dd3c
00000130: ee5b bebd 921f 213c 8082 14bb e7dc 1bbd
00000140: bb94 bd3c 13b7 70bc 500a 0a3e 60bf 84bc
00000150: 8dc4 3dbd 7365 853d 98fa 44bd 9c05 523c
00000160: 652c 913c 4d1d b23d e07d c13d 8f00 80bd
00000170: d29b b9bd 11b4 3e3c fe90 e139 2854 073c
00000180: ef75 0cbc 95bf 9b3d 2244 353d d94a 98bd
00000190: 6a8e 9bbd bb16 e7bd 9b27 a2bd adde c83b
000001a0: 3e64 8c3d b35e c6bc 0f90 03bd ead8 ba3c
000001b0: d23c 993a 60c7 9b3d e264 d33d eecc 953d
000001c0: 1182 81bd baaf 1b3d f66a e9bc e648 54bc
000001d0: cbc4 a6bc 333d 68bc adf6 4c3d 9718 70bc
000001e0: de43 2fbd 6e5a 493d 2fe5 10bd 84a1 a43c
000001f0: db32 9bbd 8cd1 733d adbb e5ba 2bd7 d7bd
00000200: f67e 39bc 8a50 0abd 3bf8 833d 900a 04bd
00000210: 7dd9 483d b77f 42bd e844 40bc 2db6 443c
00000220: cf53 953b 6916 13be 186a 183d 798f 46bd
00000230: a5fd 21bc 33a3 d43d df51 72bc 13e3 9dbb
00000240: 08cd 3e3c 1fb5 943d a44c 1a3d f995 0abe
00000250: 125c 7f3d 22d9 79bb 24e5 6f3d d9fb 893c
00000260: 24d8 2c3c be8d 18bd 3313 7cbc e969 433d
00000270: ce6c aabc 9fd2 c93d c3eb 413d d7dc 65bc
00000280: 4baf 05be 9e97 a03d 6694 6ebc 99b3 7d3d
00000290: b63e 663c 76cb dd3c 5b06 a8bd da8b 6c3d
000002a0: 7fcc 01be 6754 a2ba e01f 283d 8df5 cdbd
000002b0: 00b7 2cbd 1675 6abd f5ef 763d 0e78 a5bb
000002c0: 17d1 acbd b156 0ebd 29b0 a5bd 821b dd3b
000002d0: 2523 7fbd 4b37 6bbd e699 a1bc 2645 0e3b
000002e0: 4272 37bd e4d2 07be d79f 5e3d 7d7a ac3d
000002f0: cdca bc3d 4209 1dbe baaf 4fbd 61ba 6bbc
00000300: 11d9 283d 9ebb 1b3d 23e4 9b3d e5b0 643d
00000310: 0a48 0d3d c839 9a3c d275 093d df81 96bd
00000320: dfee 9c3d d16a f43d 5826 673c f583 d83d
00000330: 0db4 503d b11b e3bc 7068 38bc cb81 c8bd
00000340: 7a35 2cbd bf47 0f3d 6c69 95bd 25f2 bd3c
00000350: a76e 853d 11c5 96bd d5b8 033d d399 c23c
00000360: 6220 9dbb 4c05 68bd 7fc2 e63c 4b5d c5bc
00000370: bf7b 863c 9d4c 5bbd 8a9e 153d 24ce 883d
00000380: 99b4 663d 8d27 a7bc 5bca 0f3d 6937 a4bd
00000390: 6246 acbc a63b e1bc 9dd6 edbc 5349 b03c
000003a0: b11f cfbd 89ca 8d3c 4adb 893c d5cc f0bc
000003b0: 9b77 d6bc fcaf 67bb fe4f 8ebc 6879 133e
000003c0: 9276 1e3c eaae 92bc bb4d 023d 192c a23d
000003d0: ba40 abbc 597b 9eb9 7d5a 353c e27f 93bd
000003e0: 3f90 26bd 90fc 63bb 57dc 703c a4c5 f83a
000003f0: e0c1 583c f81e 79b9 9cf8 cebc 0496 2d3e

base.mlp.fc1.0.bias f4 [64]
0.0036090026 0.0013511591 -0.0012925382 -0.0029531668 -0.0012824193 0.0 0.0036163977 0.0024413355
0.0031242827 -0.0013926909 -0.0014533359 0.0005523999 -0.002825151 0.0 0.0 0.0
0.0020742712 0.000852432 -0.0024601452 0.0016205634 -7.25959e-05 0.0 -0.0024364362 -0.0013919496
-0.0026380627 0.0 -0.0012200275 0.0 0.0 0.0 0.001844382 0.0
0.0 0.0017500428 0.0 0.0012084268 -0.002174903 0.0 0.0 0.0
0.0 0.0 0.0 0.0 0.0 0.0 0.0 0.0
0.00096059503 -0.00046220905 0.0 0.0 0.0021315354 0.0 0.0 -0.0013721883
0.0 0.0022873448 0.0031991038 -0.0024324392 -0.0024143662 0.0 -0.0018891604 0.0015641431
00000000: 0485 6c3b 6019 b13a 636a a9ba eb89 41bb
00000010: da16 a8ba 0000 0000 1601 6d3b d0fe 1f3b
00000020: c4c0 4c3b f48a b6ba dc7d beba eece 103a
00000030: 2b26 39bb 0000 0000 0000 0000 0000 0000
00000040: 7ff0 073b be75 5f3a 633a 21bb 1669 d43a
00000050: a13e 98b8 0000 0000 9eac 1fbb 1472 b6ba
00000060: 59e3 2cbb 0000 0000 54e9 9fba 0000 0000
00000070: 0000 0000 0000 0000 31bf f13a 0000 0000
00000080: 0000 0000 b161 e53a 0000 0000 1364 9e3a
00000090: d188 0ebb 0000 0000 0000 0000 0000 0000
000000a0: 0000 0000 0000 0000 0000 0000 0000 0000
000000b0: 0000 0000 0000 0000 0000 0000 0000 0000
000000c0: 71d0 7b3a a654 f2b9 0000 0000 0000 0000
000000d0: 3bb1 0b3b 0000 0000 0000 0000 00db b3ba
000000e0: 0000 0000 47e7 153b 0ea8 513b 8f69 1fbb
000000f0: 583a 1ebb 0000 0000 b49d f7ba ef03 cd3a

base.mlp.fc1.2.weight f4 [64]
1.0033182 0.9974239 0.99668324 0.9969832 0.9976256 1.0011334 1.0035594 0.99689484
1.0000038 1.0000039 0.99747574 0.99748987 0.9976862 1.0015343 1.0030268 1.0016476
1.0017521 0.99982154 0.9999991 1.001411 1.0001149 0.99879503 1.0016631 0.99841917
0.99723846 0.9992128 0.9987762 1.0036627 0.9986403 0.998126 0.99680483 0.9979874
1.0031319 0.99766505 1.0008763 1.0009058 1.0021191 1.002051 1.0037209 0.99688154
0.9985042 0.99817765 0.99905694 0.9986984 1.0011346 0.9994662 1.0023645 1.0036821
1.000332 0.9999623 0.99871725 1.0025139 1.0019877 0.9984715 1.0027887 1.000135
0.9984021 1.0021949 1.003025 1.001583 1.0013791 1.0016611 0.9996448 0.9981548
00000000: bb6c 803f 2c57 7f3f a226 7f3f 4a3a 7f3f
00000010: 6464 7f3f 2425 803f a274 803f 8034 7f3f
00000020: 2000 803f 2100 803f 925a 7f3f 7f5b 7f3f
00000030: 5d68 7f3f 4732 803f 2f63 803f fd35 803f
00000040: 6a39 803f 4ef4 7f3f f1ff 7f3f 3c2e 803f
00000050: c403 803f 08b1 7f3f 7f36 803f 6698 7f3f
00000060: 054b 7f3f 69cc 7f3f ccaf 7f3f 0578 803f
00000070: e4a6 7f3f 2f85 7f3f 9a2e 7f3f 1a7c 7f3f
00000080: a066 803f fa66 7f3f b71c 803f ae1d 803f
00000090: 7045 803f 3543 803f ed79 803f a133 7f3f
000000a0: f99d 7f3f 9288 7f3f 32c2 7f3f b3aa 7f3f
000000b0: 2e25 803f 04dd 7f3f 7b4d 803f a878 803f
000000c0: e10a 803f 87fd 7f3f efab 7f3f 6052 803f
000000d0: 2241 803f d49b 7f3f 615b 803f 6c04 803f
000000e0: 4897 7f3f ec47 803f 2063 803f df33 803f
000000f0: 312d 803f 6e36 803f b9e8 7f3f 1387 7f3f

base.mlp.fc1.2.bias f4 [64]
0.00310662 0.0014146498 -0.0010922579 -0.0031799902 -0.0011979168 -0.0011359109 0.003480744 0.002365107
0.0029031457 -0.0007746655 -0.0013919718 0.0008436748 -0.003182152 -0.0015370604 -0.003036789 -0.0016463439
0.0020329296 0.0010549759 -4.9193113e-05 0.0016147993 0.00026373978 0.0012102618 -0.001681078 -0.0013278966
-0.0030842705 0.00079452625 -0.0010772309 -0.0036782788 0.0013664541 0.0018688412 0.001829946 0.002014536
-0.00320646 0.0020413648 -0.0008785252 0.0012560696 -0.0021193798 -0.0020525146 -0.0037289197 0.0031294723
0.001497748 0.0018237177 0.00094969984 0.0013059847 -0.0011425486 0.0005308767 -0.002366592 -0.0036841845
0.0010122525 6.409276e-05 0.0012892 -0.0024962432 0.0020445383 0.0015315538 -0.0027847476 -0.0011898552
0.0016011505 0.0022342242 0.002960371 -0.0016065006 -0.0013873555 -0.0016654698 -0.0016889409 0.0018382779
00000000: 6f98 4b3b c56b b93a 182a 8fba 6267 50bb
00000010: 6b03 9dba d8e2 94ba 321d 643b e9ff 1a3b
00000020: b442 3e3b ec12 4bba d372 b6ba 0f2a 5d3a
00000030: a78b 50bb 3077 c9ba dd04 47bb 22ca d7ba
00000040: e63a 053b 1e47 8a3a b454 4eb8 aca7 d33a
00000050: 8e46 8a39 a6a1 9e3a 9e57 dcba d10c aeba
00000060: 7921 4abb c147 503a df31 8dba 470f 71bb
00000070: 971a b33a e8f3 f43a ccda ef3a 4e06 043b
00000080: 7923 52bb 6bc8 053b d44c 66ba b4a2 a43a
00000090: 4be5 0abb 7b83 06bb e460 74bb d517 4d3b
000000a0: 1550 c43a d009 ef3a 47f5 783a 932d ab3a
000000b0: 92c1 95ba 882a 0b3a d318 1bbb 5c72 71bb
000000c0: 8fad 843a 8a69 8638 60fa a83a 0398 23bb
000000d0: a9fd 053b 6bbe c83a 5080 36bb eaf4 9bba
000000e0: b2dd d13a 106c 123b c902 423b 3791 d2ba
000000f0: edd7 b5ba e54b daba 745f ddba 5ff2 f03a

base.mlp.fc_h.0.weight f4 [64, 64]
-0.19904725 -0.10270354 -0.08460653 -0.090420805 -0.0017260691 0.08455571 0.029322684 0.032341834
-0.0010913674 -0.014718424 0.012137974 0.3346811 0.21945204 -0.14560217 -0.15104826 -0.16793866
-0.1930082 0.15516403 -0.055880457 -0.2343032 0.22010854 0.20048052 0.09908507 -0.0028123502
0.027680693 0.31406024 -0.14282444 0.1368713 -0.41549 -0.11580944 0.09369589 0.12961203
-0.3282363 0.1009845 -0.10889015 0.17812191 -0.19475104 -0.0045072706 0.18155856 0.18196651
-0.11528913 -0.2056344 -0.039773762 0.048960637 -0.0417535 0.03699272 0.08175167 -0.01245585
-0.2857299 -0.18194973 -0.041789357 -0.052290842 0.3759817 -0.2844353 0.1704608 0.24067608
-0.056817617 0.085037954 -0.3223803 -0.13631146 -0.16435786 0.0036332384 -0.14105146 0.4257897
0.025773933 0.2090222 -0.07746561 -0.15028605 -0.11949718 -0.122026876 -0.0725015 0.15675837
0.115391746 -0.12440143 -0.1624085 -0.14646654 0.07126601 -0.11701237 -0.21173742 0.32136714
0.012800825 -0.28415546 0.20976105 -0.19859155 -0.39241076 -0.12036666 -0.03750155 0.19603783
0.015291676 0.08475169 -0.052690476 -0.16570573 0.27941 -0.00083736994 -0.31273252 0.09341949
-0.18658227 0.2650553 0.08988378 0.08971371 -0.07510158 -0.12654345 0.12974186 -0.17683172
-0.072554216 -0.0289572 -0.41559798 0.026513545 -0.16982923 -0.048952825 -0.2530661 0.04422962
-0.07327814 0.18807665 -0.12432982 -0.1336826 -0.12795855 -0.0720772 0.092086636 -0.2265442
-0.14847022 0.078316 -0.5918524 -0.010314631 -0.059570175 -0.12691684 0.023870507 0.08771284
-0.21270862 -0.093757726 0.04977528 -0.06438611 -0.02542311 -0.23922823 -0.29686505 -0.13501656
0.053200822 -0.14369601 -0.16830729 0.1555517 -0.14629546 -0.07213325 -0.08116171 0.09090603
0.37007764 0.06373696 -0.16202743 -0.10797419 -0.08859365 -0.00867837 -0.26224375 -0.012905931
-0.08860032 -0.1434053 -0.058326643 0.0565432 -0.24663147 0.17450953 -0.17861563 0.06909626
-0.0680459 0.13455273 0.12036971 -0.08284011 -0.08223526 -0.2196585 0.00028241682 0.282165
-0.13567951 -0.12010655 0.19933404 0.06929243 -0.027292162 0.28594494 -0.2388527 -0.31142402
-0.056918032 0.07732022 -0.1489839 -0.25070426 0.0603059 -0.17149158 0.11686301 0.12613633
0.41806188 -0.3158808 0.05134677 0.11504295 -0.21509895 0.018149765 0.25136063 -0.43492842
-0.22107035 0.06287916 -0.0015639719 -0.25768 0.104673326 -0.073455974 0.03462054 0.24770775
-0.15994094 -0.14736122 -0.28917181 -0.20388563 0.20225488 -0.06944212 -0.053459827 -0.08389038
-0.3324549 -0.13720833 -0.20773168 -0.21114628 -0.098817214 0.15146658 0.38085914 -0.1988391
-0.011177751 0.17234367 -0.037402067 -0.18973224 -0.0035859512 -0.038654942 0.21182987 0.2004616
0.20102504 -0.07234834 -0.088782944 -0.1333435 0.15581846 -0.16919045 -0.25883266 0.0357604
-0.030762581 -0.32035485 0.13149178 -0.11158883 -0.14777572 0.39110318 -0.29010156 0.16784179
-0.13760376 -0.10039381 0.03668068 -0.07232912 -0.20682935 0.10603068 -0.121792465 -0.01154648
-0.17899686 0.23814891 0.19785975 0.08796918 -0.18266784 0.11273494 -0.049782235 -0.28960598
00000000: 0bd3 4bbe 3c56 d2bd 3046 adbd 8b2e b9bd
00000010: 453d e2ba 8b2b ad3d 2036 f03c df78 043d
00000020: 370c 8fba 8b25 71bc 5ade 463c 525b ab3e
00000030: 09b8 603e bc18 15be 65ac 1abe 1df8 2bbe
00000040: f1a3 45be 52e3 1e3e e8e2 64bd 2eed 6fbe
00000050: 2264 613e c44a 4d3e 1ded ca3d 684f 38bb
00000060: 9fc2 e23c 81cc a03e 9240 12be fd27 0c3e
00000070: 1bbb d4be 802d edbd a1e3 bf3d 04b9 043e
00000080: 970e a8be f6d0 ce3d cd01 dfbd 9765 363e
00000090: d16c 47be bab1 93bb 7dea 393e 6e55 3a3e
000000a0: b51c ecbd d391 52be d0e9 22bd f38a 483d
000000b0: b805 2bbd ae85 173d 6b6d a73d 9f13 4cbc
000000c0: 304b 92be 0851 3abe 512b 2bbd ec2e 56bd
000000d0: ac80 c03e 81a1 91be 478d 2e3e ca73 763e
000000e0: 97b9 68bd 6128 ae3d 080f a5be 3b95 0bbe
000000f0: 6d4d 28be a01b 6e3b cb6f 10be 1c01 da3e
00000100: db23 d33c ea09 563e 4aa6 9ebd 96e4 19be
00000110: f0ba f4bd 3ae9 f9bd ab7b 94bd 4485 203e
00000120: 8252 ec3d 2dc6 febd 6a4e 26be 53fb 15be
00000130: eaf3 913d 2ea4 efbd b2d1 58be 3c8a a43e
00000140: 8dba 513c d37c 91be 9acb 563e 955b 4bbe
00000150: 10ea c8be cc82 f6bd 3a9b 19bd 24be 483e
00000160: f089 7a3c 4b92 ad3d f8d1 57bd c3ae 29be
00000170: d40e 8f3e f282 5bba 7a1e a0be b852 bf3d
00000180: 6c0f 3fbe 54b5 873e fd14 b83d d2bb b73d
00000190: dbce 99bd 9b94 01be 0ddb 043e 6013 35be
000001a0: 4e97 94bd a637 edbc 42c9 d4be ef32 d93c
000001b0: b7e7 2dbe c282 48bd e191 81be 1e2a 353d
000001c0: d912 96bd 2a97 403e a2a0 febd 17e4 08be
000001d0: 9107 03be 369d 93bd eb97 bc3d 34fb 67be
000001e0: 9408 18be 2464 a03d a483 17bf b3fe 28bc
000001f0: dbff 73bd 7df6 01be 158c c33c caa2 b33d
00000200: 4ad0 59be 0d04 c0bd 2ae1 4b3d dddc 83bd
00000210: 2044 d0bc 3ff8 74be b2fe 97be c841 0abe
00000220: 1be9 593d 0c25 13be bf58 2cbe f248 1f3e
00000230: 7ace 15be 99ba 93bd 1c38 a6bd f12c ba3d
00000240: d17a bd3e 8688 823d 85ea 25be 9221 ddbd
00000250: 9670 b5bd b92f 0ebc d044 86be 6673 53bc
00000260: 1674 b5bd d7d8 12be ebe7 6ebd d899 673d
00000270: f68c 7cbe a0b2 323e 04e7 36be 5782 8d3d
00000280: a65b 8bbd 31c8 093e 6584 f63d 13a8 a9bd
00000290: f66a a8bd 28ee 60be 5811 9439 ee77 903e
000002a0: 92ef 0abe 6cfa f5bd 391e 4c3e 31e9 8d3d
000002b0: d093 dfbc 6067 923e cd95 74be f872 9fbe
000002c0: e222 69bd 105a 9e3d 3c8f 18be 4f5c 80be
000002d0: 5203 773d 7d9b 2fbe e055 ef3d e229 013e
000002e0: 350c d63e 21bb a1be fe50 523d a39b eb3d
000002f0: e642 5cbe d1ae 943c 57b2 803e f0ae debe
00000300: 4460 62be cac6 803d 30fe ccba a2ee 83be
00000310: f85e d63d 1670 96bd 44ce 0d3d 1aa7 7d3e
00000320: 8fc7 23be dce5 16be 540e 94be 65c7 50be
00000330: e71b 4f3e ac37 8ebd b1f8 5abd b8ce abbd
00000340: 8737 aabe 5780 0cbe 9db7 54be bb36 58be
00000350: ae60 cabd 0e1a 1b3e f8ff c23e 7a9c 4bbe
00000360: e322 37bc dc7a 303e e932 19bd 2b49 42be
00000370: 4702 6bbb a554 1ebd eee9 583e ce45 4d3e
00000380: 82d9 4d3e 5e2b 94bd d5d3 b5bd 338b 08be
00000390: e08e 1f3e 4340 2dbe b785 84be 7f79 123d
000003a0: cf01 fcbc 8d05 a4be c8a5 063e af88 e4bd
000003b0: 8552 17be ad3e c83e 3188 94be b8de 2b3e
000003c0: 00e8 0cbe 459b cdbd 7b3e 163d 4a21 94bd
000003d0: 13cb 53be 9d26 d93d 546e f9bd 722d 3dbc
000003e0: f44a 37be 4fdd 733e bf9b 4a3e 2f29 b43d
000003f0: 470d 3bbe 94e1 e63d 75e8 4bbd 3c47 94be

base.mlp.fc_h.0.bias f4 [64]
0.0 0.0 0.0 0.0 0.0 0.0 0.0 0.0
0.0 0.0 0.0 0.0 0.0 0.0 0.0 0.0
0.0 0.0 0.0 0.0 0.0 0.0 0.0 0.0
0.0 0.0 0.0 0.0 0.0 0.0 0.0 0.0
0.0 0.0 0.0 0.0 0.0 0.0 0.0 0.0
0.0 0.0 0.0 0.0 0.0 0.0 0.0 0.0
0.0 0.0 0.0 0.0 0.0 0.0 0.0 0.0
0.0 0.0 0.0 0.0 0.0 0.0 0.0 0.0
00000000: 0000 0000 0000 0000 0000 0000 0000 0000
00000010: 0000 0000 0000 0000 0000 0000 0000 0000
00000020: 0000 0000 0000 0000 0000 0000 0000 0000
00000030: 0000 0000 0000 0000 0000 0000 0000 0000
00000040: 0000 0000 0000 0000 0000 0000 0000 0000
00000050: 0000 0000 0000 0000 0000 0000 0000 0000
00000060: 0000 0000 0000 0000 0000 0000 0000 0000
00000070: 0000 0000 0000 0000 0000 0000 0000 0000
00000080: 0000 0000 0000 0000 0000 0000 0000 0000
00000090: 0000 0000 0000 0000 0000 0000 0000 0000
000000a0: 0000 0000 0000 0000 0000 0000 0000 0000
000000b0: 0000 0000 0000 0000 0000 0000 0000 0000
000000c0: 0000 0000 0000 0000 0000 0000 0000 0000
000000d0: 0000 0000 0000 0000 0000 0000 0000 0000
000000e0: 0000 0000 0000 0000 0000 0000 0000 0000
000000f0: 0000 0000 0000 0000 0000 0000 0000 0000

base.mlp.fc_h.2.weight f4 [64]
1.0 1.0 1.0 1.0 1.0 1.0 1.0 1.0
1.0 1.0 1.0 1.0 1.0 1.0 1.0 1.0
1.0 1.0 1.0 1.0 1.0 1.0 1.0 1.0
1.0 1.0 1.0 1.0 1.0 1.0 1.0 1.0
1.0 1.0 1.0 1.0 1.0 1.0 1.0 1.0
1.0 1.0 1.0 1.0 1.0 1.0 1.0 1.0
1.0 1.0 1.0 1.0 1.0 1.0 1.0 1.0
1.0 1.0 1.0 1.0 1.0 1.0 1.0 1.0
00000000: 0000 803f 0000 803f 0000 803f 0000 803f
00000010: 0000 803f 0000 803f 0000 803f 0000 803f
00000020: 0000 803f 0000 803f 0000 803f 0000 803f
00000030: 0000 803f 0000 803f 0000 803f 0000 803f
00000040: 0000 803f 0000 803f 0000 803f 0000 803f
00000050: 0000 803f 0000 803f 0000 803f 0000 803f
00000060: 0000 803f 0000 803f 0000 803f 0000 803f
00000070: 0000 803f 0000 803f 0000 803f 0000 803f
00000080: 0000 803f 0000 803f 0000 803f 0000 803f
00000090: 0000 803f 0000 803f 0000 803f 0000 803f
000000a0: 0000 803f 0000 803f 0000 803f 0000 803f
000000b0: 0000 803f 0000 803f 0000 803f 0000 803f
000000c0: 0000 803f 0000 803f 0000 803f 0000 803f
000000d0: 0000 803f 0000 803f 0000 803f 0000 803f
000000e0: 0000 803f 0000 803f 0000 803f 0000 803f
000000f0: 0000 803f 0000 803f 0000 803f 0000 803f

base.mlp.fc_h.2.bias f4 [64]
0.0 0.0 0.0 0.0 0.0 0.0 0.0 0.0
0.0 0.0 0.0 0.0 0.0 0.0 0.0 0.0
0.0 0.0 0.0 0.0 0.0 0.0 0.0 0.0
0.0 0.0 0.0 0.0 0.0 0.0 0.0 0.0
0.0 0.0 0.0 0.0 0.0 0.0 0.0 0.0
0.0 0.0 0.0 0.0 0.0 0.0 0.0 0.0
0.0 0.0 0.0 0.0 0.0 0.0 0.0 0.0
0.0 0.0 0.0 0.0 0.0 0.0 0.0 0.0
00000000: 0000 0000 0000 0000 0000 0000 0000 0000
00000010: 0000 0000 0000 0000 0000 0000 0000 0000
00000020: 0000 0000 0000 0000 0000 0000 0000 0000
00000030: 0000 0000 0000 0000 0000 0000 0000 0000
00000040: 0000 0000 0000 0000 0000 0000 0000 0000
00000050: 0000 0000 0000 0000 0000 0000 0000 0000
00000060: 0000 0000 0000 0000 0000 0000 0000 0000
00000070: 0000 0000 0000 0000 0000 0000 0000 0000
00000080: 0000 0000 0000 0000 0000 0000 0000 0000
00000090: 0000 0000 0000 0000 0000 0000 0000 0000
000000a0: 0000 0000 0000 0000 0000 0000 0000 0000
000000b0: 0000 0000 0000 0000 0000 0000 0000 0000
000000c0: 0000 0000 0000 0000 0000 0000 0000 0000
000000d0: 0000 0000 0000 0000 0000 0000 0000 0000
000000e0: 0000 0000 0000 0000 0000 0000 0000 0000
000000f0: 0000 0000 0000 0000 0000 0000 0000 0000

base.mlp.fc2.0.0.weight f4 [64, 64]
-0.20139372 -0.10539655 -0.084469855 -0.08963946 -0.0007835487 0.08403933 0.029786363 0.032656554
-0.0022413137 -0.014872177 0.013487512 0.33212435 0.22196347 -0.1461185 -0.15156458 -0.168455
-0.19573739 0.15262955 -0.055639386 -0.23389608 0.22114022 0.19996013 0.09865152 -0.002159931
0.029170679 0.31353977 -0.14223449 0.13635503 -0.4160105 -0.11632988 0.09100583 0.12909164
-0.32875288 0.09843504 -0.10940653 0.1785935 -0.19526736 -0.0050236373 0.18104224 0.18144612
-0.11580957 -0.2061548 -0.040294185 0.048440203 -0.042269886 0.03647232 0.081235304 -0.012972193
-0.28853977 -0.18130295 -0.04230979 -0.052807212 0.3764404 -0.2849558 0.16994448 0.24058491
-0.05733805 0.08551351 -0.3218863 -0.1368278 -0.1648742 0.0031168647 -0.13865711 0.42513606
0.025773933 0.2090222 -0.07746561 -0.15028605 -0.11949718 -0.122026876 -0.0725015 0.15675837
0.115391746 -0.12440143 -0.1624085 -0.14646654 0.07126601 -0.11701237 -0.21173742 0.32136714
0.012800825 -0.28415546 0.20976105 -0.19859155 -0.39241076 -0.12036666 -0.03750155 0.19603783
0.015291676 0.08475169 -0.052690476 -0.16570573 0.27941 -0.00083736994 -0.31273252 0.09341949
-0.18658227 0.2650553 0.08988378 0.08971371 -0.07510158 -0.12654345 0.12974186 -0.17683172
-0.072554216 -0.0289572 -0.41559798 0.026513545 -0.16982923 -0.048952825 -0.2530661 0.04422962
-0.07327814 0.18807665 -0.12432982 -0.1336826 -0.12795855 -0.0720772 0.092086636 -0.2265442
-0.14847022 0.078316 -0.5918524 -0.010314631 -0.059570175 -0.12691684 0.023870507 0.08771284
-0.2149245 -0.091471724 0.047450654 -0.06679114 -0.027708298 -0.23688914 -0.29922786 -0.13283484
0.051076297 -0.14152956 -0.17061874 0.15783392 -0.14859813 -0.06979417 -0.07882263 0.09324511
0.36769664 0.06179544 -0.15968934 -0.110372156 -0.09097117 -0.00633929 -0.25991777 -0.015318689
-0.0909087 -0.14106621 -0.06074289 0.05888229 -0.24429238 0.17684862 -0.17670184 0.07143534
-0.06570682 0.13689055 0.12270879 -0.085211754 -0.07989618 -0.2173194 0.0026214963 0.2845041
-0.13334042 -0.11776747 0.20167314 0.07163151 -0.024953084 0.28828403 -0.2365136 -0.30908492
-0.059239827 0.07491423 -0.1466448 -0.24836516 0.057899177 -0.16915248 0.11920209 0.12458544
0.42040098 -0.31828433 0.048934847 0.11737271 -0.21275985 0.020488843 0.2523503 -0.43258932
-0.22107035 0.06287916 -0.0015639719 -0.25768 0.104673326 -0.073455974 0.03462054 0.24770775
-0.15994094 -0.14736122 -0.28917181 -0.20388563 0.20225488 -0.06944212 -0.053459827 -0.08389038
-0.3324549 -0.13720833 -0.20773168 -0.21114628 -0.098817214 0.15146658 0.38085914 -0.1988391
-0.011177751 0.17234367 -0.037402067 -0.18973224 -0.0035859512 -0.038654942 0.21182987 0.2004616
0.20102504 -0.07234834 -0.088782944 -0.1333435 0.15581846 -0.16919045 -0.25883266 0.0357604
-0.030762581 -0.32035485 0.13149178 -0.11158883 -0.14777572 0.39110318 -0.29010156 0.16784179
-0.13760376 -0.10039381 0.03668068 -0.07232912 -0.20682935 0.10603068 -0.121792465 -0.01154648
-0.17899686 0.23814891 0.19785975 0.08796918 -0.18266784 0.11273494 -0.049782235 -0.28960598
00000000: 283a 4ebe 25da d7bd 88fe acbd e594 b7bd
00000010: 1067 4dba d01c ac3d 8802 f43c e1c2 053d
00000020: 01e3 12bb 6eaa 73bc bafa 5c3c 340c aa3e
00000030: 644a 633e 17a0 15be bf33 1bbe 787f 2cbe
00000040: 626f 48be ec4a 1c3e 20e6 63bd 7482 6fbe
00000050: 9572 623e 59c2 4c3e cf09 ca3d a18d 0dbb
00000060: 59f7 ee3c 4988 a03e eba5 11be a7a0 0b3e
00000070: 54ff d4be 5c3e eebd 4461 ba3d 9930 043e
00000080: 4c52 a8be 4f98 c93d 8810 e0bd 37e1 363e
00000090: 2bf4 47be 539d a4bb 2363 393e 03cd 393e
000000a0: 912d edbd 3e1a 53be 840b 25bd 3c69 463d
000000b0: 3023 2dbd 0064 153d b25e a63d 5289 54bc
000000c0: 7cbb 93be 7ba7 39be 084d 2dbd 604c 58bd
000000d0: ccbc c03e bae5 91be ed05 2e3e e45b 763e
000000e0: 4edb 6abd b521 af3d 48ce a4be 961c 0cbe
000000f0: c8d4 28be 5044 4c3b 21fc 0dbe 6fab d93e
00000100: db23 d33c ea09 563e 4aa6 9ebd 96e4 19be
00000110: f0ba f4bd 3ae9 f9bd ab7b 94bd 4485 203e
00000120: 8252 ec3d 2dc6 febd 6a4e 26be 53fb 15be
00000130: eaf3 913d 2ea4 efbd b2d1 58be 3c8a a43e
00000140: 8dba 513c d37c 91be 9acb 563e 955b 4bbe
00000150: 10ea c8be cc82 f6bd 3a9b 19bd 24be 483e
00000160: f089 7a3c 4b92 ad3d f8d1 57bd c3ae 29be
00000170: d40e 8f3e f282 5bba 7a1e a0be b852 bf3d
00000180: 6c0f 3fbe 54b5 873e fd14 b83d d2bb b73d
00000190: dbce 99bd 9b94 01be 0ddb 043e 6013 35be
000001a0: 4e97 94bd a637 edbc 42c9 d4be ef32 d93c
000001b0: b7e7 2dbe c282 48bd e191 81be 1e2a 353d
000001c0: d912 96bd 2a97 403e a2a0 febd 17e4 08be
000001d0: 9107 03be 369d 93bd eb97 bc3d 34fb 67be
000001e0: 9408 18be 2464 a03d a483 17bf b3fe 28bc
000001f0: dbff 73bd 7df6 01be 158c c33c caa2 b33d
00000200: 2b15 5cbe 8755 bbbd 9e5b 423d cbc9 88bd
00000210: 83fc e2bc 1193 72be 6534 99be db05 08be
00000220: 6135 513d 20ed 10be aeb6 2ebe 379f 213e
00000230: 1c2a 18be 3ff0 8ebd c26d a1bd 4bf7 be3d
00000240: bc42 bc3e 371d 7d3d 9a85 23be cc0a e2bd
00000250: 184f babd d2b9 cfbb f113 85be 3dfb 7abc
00000260: 572e babd a973 10be 89cd 78bd 8e2e 713d
00000270: c827 7abe ce17 353e 54f1 34be b14c 923d
00000280: 4c91 86bd 092d 0c3e bf4e fb3d 8083 aebd
00000290: 9ca0 a3bd fa88 5ebe 69cd 2b3b 85aa 913e
000002a0: 648a 08be 1230 f1bd 6783 4e3e 8bb3 923d
000002b0: 696a ccbc f799 933e 9f30 72be 6140 9ebe
000002c0: 76a5 72bd a26c 993d 0e2a 16be 7053 7ebe
000002d0: b027 6d3d 4f36 2dbe 3a20 f43d a726 ff3d
000002e0: cc3e d73e 2af6 a2be e86f 483d 1a61 f03d
000002f0: b8dd 59be 38d8 a73c 0f34 813e 597c ddbe
00000300: 4460 62be cac6 803d 30fe ccba a2ee 83be
00000310: f85e d63d 1670 96bd 44ce 0d3d 1aa7 7d3e
00000320: 8fc7 23be dce5 16be 540e 94be 65c7 50be
00000330: e71b 4f3e ac37 8ebd b1f8 5abd b8ce abbd
00000340: 8737 aabe 5780 0cbe 9db7 54be bb36 58be
00000350: ae60 cabd 0e1a 1b3e f8ff c23e 7a9c 4bbe
00000360: e322 37bc dc7a 303e e932 19bd 2b49 42be
00000370: 4702 6bbb a554 1ebd eee9 583e ce45 4d3e
00000380: 82d9 4d3e 5e2b 94bd d5d3 b5bd 338b 08be
00000390: e08e 1f3e 4340 2dbe b785 84be 7f79 123d
000003a0: cf01 fcbc 8d05 a4be c8a5 063e af88 e4bd
000003b0: 8552 17be ad3e c83e 3188 94be b8de 2b3e
000003c0: 00e8 0cbe 459b cdbd 7b3e 163d 4a21 94bd
000003d0: 13cb 53be 9d26 d93d 546e f9bd 722d 3dbc
000003e0: f44a 37be 4fdd 733e bf9b 4a3e 2f29 b43d
000003f0: 470d 3bbe 94e1 e63d 75e8 4bbd 3c47 94be

base.mlp.fc2.0.0.bias f4 [64]
0.0005305663 0.0 -0.0023710213 0.0 -0.0017902174 0.0022178334 -0.00021967854 0.001825366
0.0 0.0 -0.0023597425 -0.0011665876 -0.0009236821 -0.0020623507 -0.0010870089 0.00017957839
-0.0019060571 -0.00366668 -0.0023892932 -0.0035657827 -0.0013644425 0.0 -0.0015998135 9.0241025e-05
0.0017338725 -0.0012735395 0.0 0.0 -0.0010269589 0.0037353137 -0.002036706 0.0021697646
0.0015762727 0.00041895374 0.0 0.0011932077 0.003589693 -0.002303037 -0.0002857746 0.0015732453
0.0015868384 -0.001958705 0.002090791 -0.0014196879 -0.0012763769 0.0 0.0028284579 -0.0015418632
0.0 -0.0010948072 0.0015762947 0.0 0.0013952884 -0.00066995237 0.002120395 0.0
0.0003515011 0.0 0.001468197 0.0 0.0011781439 0.0 -0.0024155816 -0.0019129681
00000000: b415 0b3a 0000 0000 2363 1bbb 0000 0000
00000010: baa5 eaba 1259 113b 8259 66b9 1f41 ef3a
00000020: 0000 0000 0000 0000 e9a5 1abb 2fe8 98ba
00000030: 4223 72ba 8128 07bb f779 8eba 354d 3c39
00000040: aad4 f9ba af4c 70bb b095 1cbb e8af 69bb
00000050: 18d7 b2ba 0000 0000 d5b0 d1ba c83f bd38
00000060: 1b43 e33a e5ec a6ba 0000 0000 0000 0000
00000070: 069b 86ba 2acc 743b 427a 05bb 9c32 0e3b
00000080: ef9a ce3a 05a7 db39 0000 0000 6865 9c3a
00000090: 0e41 6b3b 8dee 16bb 04d4 95b9 5a35 ce3a
000000a0: 76fd cf3a 9e5d 00bb a705 093b d214 baba
000000b0: 1a4c a7ba 0000 0000 a65d 393b 5818 caba
000000c0: 0000 0000 a27f 8fba ac9b ce3a 0000 0000
000000d0: 1ce2 b63a be9f 2fba 53f6 0a3b 0000 0000
000000e0: ae49 b839 0000 0000 8470 c03a 0000 0000
000000f0: f36b 9a3a 0000 0000 bc4e 1ebb 8fbc faba

base.mlp.fc2.0.2.weight f4 [64]
0.9986435 0.9987865 1.0005841 0.99736995 0.9984897 1.0018518 0.99978644 0.99890345
0.9989953 0.9987123 1.0013251 0.99776417 0.998937 1.0002389 1.0017924 0.9989
1.0000386 1.0037693 1.0016322 0.99646497 0.997257 1.0013821 0.99844337 1.0023419
1.0016422 1.0010432 0.99844766 1.00087 0.99860775 1.0037097 0.9977565 1.0023459
0.99805963 0.9970041 1.001371 1.0010519 1.0037235 1.0023748 0.9994321 1.000721
1.0014789 1.0018786 1.0020622 1.0036982 0.99830663 1.0011404 0.99944746 0.9979486
1.0012736 1.0018536 1.0008078 1.0021614 0.9987979 1.000314 0.9982808 0.9987528
0.9990933 0.99845195 0.9967103 0.9989242 0.99801356 1.0020387 1.0007817 0.99798876
00000000: 1aa7 7f3f 79b0 7f3f 2413 803f a353 7f3f
00000010: 059d 7f3f ae3c 803f 01f2 7f3f 23b8 7f3f
00000020: 28be 7f3f 9cab 7f3f 6c2b 803f 796d 7f3f
00000030: 56ba 7f3f d407 803f bc3a 803f e9b7 7f3f
00000040: 4401 803f 837b 803f 7c35 803f 5418 7f3f
00000050: 3c4c 7f3f 4a2d 803f fc99 7f3f bd4c 803f
00000060: d035 803f 2f22 803f 449a 7f3f 821c 803f
00000070: c2a4 7f3f 8f79 803f f86c 7f3f df4c 803f
00000080: d680 7f3f a93b 7f3f ed2c 803f 7822 803f
00000090: 037a 803f d14d 803f c8da 7f3f a017 803f
000000a0: 7630 803f 8f3d 803f 9343 803f 2f79 803f
000000b0: 0691 7f3f 5e25 803f cadb 7f3f 8f79 7f3f
000000c0: bc29 803f bd3c 803f 781a 803f d346 803f
000000d0: 38b1 7f3f 4a0a 803f 558f 7f3f 43ae 7f3f
000000e0: 94c4 7f3f 8c9a 7f3f 6828 7f3f 7fb9 7f3f
000000f0: d17d 7f3f ce42 803f 9d19 803f 317c 7f3f

base.mlp.fc2.0.2.bias f4 [64]
0.0013389647 0.0011934584 -0.0005754193 0.0026478106 -0.0017556142 0.0022151754 -0.00020910647 0.0010688921
0.0009901554 0.0012700916 -0.001617651 -0.0011567678 -0.00088981853 -0.0019289141 -0.0016466749 0.0009659321
-0.0011492706 -0.0037438727 -0.0016263723 -0.0033472984 -0.0013379697 -0.0013686831 0.0015469643 -0.0023326504
0.0017603239 -0.00090814923 0.0015467753 -0.0008543213 -0.0009980758 0.0036306148 -0.0019958436 0.00235682
0.0016061363 0.0005387297 -0.0013496698 0.0011642718 0.003727273 -0.0023696285 0.00010310616 0.0015602292
0.0016094121 -0.001934631 0.0021663045 -0.0037081637 -0.00124901 -0.0011275087 0.0008278883 -0.0015099032
-0.0012558256 -0.001043463 0.0015921487 -0.002157011 0.001272927 -0.000609276 0.0017925528 0.0012305293
0.0003132725 0.0015389018 0.0014562146 0.0010570653 0.0019743352 -0.002032883 -0.00078589184 -0.0018723407
00000000: 3380 af3a d26d 9c3a bcd7 16ba e486 2d3b
00000010: a31c e6ba 7a2c 113b 9743 5bb9 111a 8c3a
00000020: 1ac8 813a 3479 a63a 5c07 d4ba b09e 97ba
00000030: b642 69ba 9ed3 fcba 3ed5 d7ba 9b36 7d3a
00000040: 1fa3 96ba c35b 75bb 002c d5ba 595e 5bbb
00000050: d05e afba 6265 b3ba 82c3 ca3a 61df 18bb
00000060: abba e63a dd10 6eba 2bbd ca3a 88f4 5fba
00000070: ded1 82ba 9cef 6d3b b3cc 02bb e174 1a3b
00000080: fe84 d23a 8a39 0d3a 67e7 b0ba 7b9a 983a
00000090: 4445 743b c54b 1bbb b33a d838 9b80 cc3a
000000a0: e9f2 d23a 7293 fdba 8ff8 0d3b aa04 73bb
000000b0: d2b5 a3ba eac8 93ba a506 593a f2e7 c5ba
000000c0: 849a a4ba cfc4 88ba a5af d03a a45c 0dbb
000000d0: 58d8 a63a d2b7 1fba 17f4 ea3a b649 a13a
000000e0: b93e a439 fab4 c93a 74de be3a 3a8d 8a3a
000000f0: d963 013b 1e3a 05bb 4f04 4eba 5469 f5ba

rnn.rnn.weight_ih_l0 f4 [192, 64]
0.055394128 0.12609378 -0.10923561 -0.029704744 0.101801515 0.105440035 -0.0052467952 -0.016587159
0.11378698 0.017195106 0.0014116191 0.08914924 -0.08862459 -0.024705498 -0.0008984187 -0.1414086
0.060406808 0.0079439515 0.039593935 -0.151415 0.043753825 0.204037 -0.053370424 -0.08614908
0.047550034 0.020540135 0.014113742 0.030011497 -0.04215735 -0.100058176 0.03111466 -0.121766835
-0.09185503 0.098175086 -0.031124754 0.02512999 0.06177862 -0.05015043 0.060875162 0.006339205
-0.048878204 0.0063846926 0.0148295 -0.10450611 -0.17372362 0.004190244 -0.012456154 -0.035125546
-0.021654243 -0.029942889 -0.02091545 -0.019770237 0.011047961 0.009089667 -0.106192306 -0.0121866185
-0.09294061 -0.011486965 -0.048252366 0.05179693 0.019477652 0.03352784 -0.10720073 0.08266585
0.04973209 0.0654519 0.019285211 -0.016189976 0.05891862 -0.06580998 0.04595543 -0.03715176
0.1391552 -0.00890201 0.020533986 -0.11085929 0.05392654 0.11121908 0.050906807 -0.04346821
0.063529745 -0.075030215 -0.06246497 -0.14977337 0.067393 -0.0025652675 0.043875955 0.11084932
0.0124675445 -0.021034336 -0.0422144 0.015801242 -0.032585584 -0.14029269 0.17009093 0.058544308
-0.068133265 0.050735522 -0.014124349 -0.08677638 0.11523848 -0.01448374 -0.10353405 -0.021618493
-0.04967341 -0.015129029 -0.04948106 0.03703484 -0.04240121 -0.115852095 -0.108457506 -0.026513154
0.015422858 0.02996682 -0.016778475 -0.04330725 0.006352515 -0.024737552 -0.021443658 0.04823191
-0.11793056 0.030274628 0.012921125 -0.052160725 0.08476379 -0.015488883 0.068626225 -0.033609405
-0.07435708 0.03266824 -0.081288144 -0.07557241 -0.0033965483 -0.18554461 0.18852818 -0.18581118
0.03683761 0.027552677 -0.05528502 0.07809667 -0.0014824949 -0.088499255 -0.016726883 0.067318626
0.04696195 0.025355637 -0.09462032 -0.0786585 -0.17106286 -0.0038954255 0.07587852 0.020345319
0.046106506 0.07426038 0.023659501 0.058877412 -0.06841685 -0.0016733941 -0.031272944 -0.052948613
0.0024124924 -0.11576048 -0.025560537 -0.08971204 -0.10013981 -0.017124217 0.035228413 0.06912455
-0.036571637 -0.062059734 -0.13924456 0.006188744 -0.13100345 -0.065703236 -0.06254942 0.025198204
-0.19468816 -0.051646337 -0.013869393 0.03824272 0.056218922 0.054692578 -0.080561936 -0.03267372
-0.08508253 -0.0060268855 0.11358389 -0.08686856 -0.015031479 0.02518907 -0.05068161 -0.015790176
0.09057568 -0.030626357 0.027514689 0.09854858 0.0053979564 -0.027674947 0.036554676 0.029550048
0.12051607 0.052442495 -0.07034715 0.07013766 -0.110732324 0.003353268 -0.12085058 -0.06291298
0.03189615 0.0475515 -0.07629188 0.038544785 -0.011288513 -0.010561546 -0.16960578 0.05330452
-0.014304315 -0.15366137 0.053255778 -0.08236233 0.03175919 -0.0703648 0.048150178 0.09727419
0.09918502 0.027530475 0.1650724 -0.12140778 -0.020467026 0.060513906 0.065672696 0.066803105
0.10416453 -0.04439905 -0.058250245 -0.06086968 0.06005442 -0.07332233 0.033764455 0.07313621
-0.0488679 0.06928549 0.03567353 0.06397351 0.004191879 0.08783599 -0.0008979547 -0.060146626
-0.031376094 -0.08161225 0.077786624 0.08574282 0.08146781 0.0822406 -0.06630525 0.016440373
00000000: f4e4 623d ba1e 013e ebb6 dfbd 5d57 f3bc
00000010: 507d d03d f2f0 d73d 4fed abbb cbe1 87bc
00000020: 2609 e93d c0dc 8c3c 1406 b93a e093 b63d
00000030: cf80 b5bd 2f63 cabc dc83 6bba 6bcd 10be
00000040: 216d 773d 5927 023c 402d 223d 890c 1bbe
00000050: 3637 333d 13ef 503e f29a 5abd ee6e b0bd
00000060: d3c3 423d c943 a83c 533d 673c acda f53c
00000070: 2fad 2cbd 4deb ccbd 2ce4 fe3c e460 f9bd
00000080: 7d1e bcbd 0510 c93d 57f9 febc 69dd cd3c
00000090: 940b 7d3d 8a6a 4dbd 3c58 793d 1bb9 cf3b
000000a0: 8334 48bd af36 d13b 6ef7 723c 4d07 d6bd
000000b0: 9be4 31be 504e 893b e614 4cbc cedf 0fbd
000000c0: 3d64 b1bc ca4a f5bc e156 abbc 31f5 a1bc
000000d0: 8202 353c d4ec 143c 5a7b d9bd 62aa 47bc
000000e0: a657 bebd d333 3cbc 46a4 45bd 0529 543d
000000f0: 998f 9f3c 7d54 093d 0e8c dbbd b74c a93d
00000100: e0b3 4b3d a50b 863d 05fc 9d3c d7a0 84bc
00000110: a754 713d 62c7 86bd c33b 3c3d 722c 18bd
00000120: b37e 0e3e bcd9 11bc e436 a83c 320a e3bd
00000130: 13e2 5c3d d4c6 e33d a883 503d b90b 32bd
00000140: e21b 823d 71a9 99bd 45db 7fbd 315e 19be
00000150: 5705 8a3d 0c1e 28bb 46b7 333d f804 e33d
00000160: ac44 4c3c 3350 acbc 02e9 2cbd 9b71 813c
00000170: 7678 05bd e3a8 0fbe 512c 2e3e 28cc 6f3d
00000180: 7489 8bbd 0dd0 4f3d d069 67bc d1b7 b1bd
00000190: 2702 ec3d 354d 6dbc a909 d4bd 4419 b1bc
000001a0: 5876 4bbd bfdf 77bc a7ac 4abd d8b1 173d
000001b0: e4ac 2dbd dd43 edbd f81e debd 1d32 d9bc
000001c0: 28b0 7c3c fa7c f53c 0373 89bc f162 31bd
000001d0: c228 d03b 68a6 cabc 9caa afbc d38e 453d
000001e0: 9485 f1bd 7f02 f83c 20b3 533c 7ca6 55bd
000001f0: a398 ad3d 15c5 7dbc e88b 8c3d 04aa 09bd
00000200: 8648 98bd 22cf 053d 667a a6bd b5c5 9abd
00000210: a098 5ebb 68ff 3dbe 880d 413e 4945 3ebe
00000220: 09e3 163d 27b6 e13c 8c72 62bd 26f1 9f3d
00000230: 4650 c2ba 193f b5bd d106 89bc 59de 893d
00000240: 2c5b 403d a0b6 cf3c 4cc8 c1bd b517 a1bd
00000250: 1a2b 2fbe 654a 7fbb 3366 9b3d 3aab a63c
00000260: 2dda 3c3d d315 983d 92d1 c13c 7129 713d
00000270: 221e 8cbd ca55 dbba 0f18 00bd a5e0 58bd
00000280: e81a 1e3b d513 edbd 5564 d1bc f2ba b7bd
00000290: 1a16 cdbd 1648 8cbc ab4b 103d 2c91 8d3d
000002a0: 24cc 15bd 5932 7ebd 2096 0ebe f3ca ca3b
000002b0: c525 06be 6b8f 86bd e919 80bd 776c ce3c
000002c0: 555c 47be 1c8b 53bd 733c 63bc 66a4 1c3d
000002d0: d045 663d 5305 603d a8fd a4bd e1d4 05bd
000002e0: c03f aebd 2e7d c5bb ac9e e83d 25e8 b1bd
000002f0: 9846 76bc 4f59 ce3c 8597 4fbd 665a 81bc
00000300: be7f b93d 20e4 fabc 7c66 e13c d7d3 c93d
00000310: 57e1 b03b 92b6 e2bc 5bba 153d f112 f23c
00000320: 21d1 f63d f1cd 563d 2b12 90bd 55a4 8f3d
00000330: a1c7 e2bd 80c2 5b3b 8280 f7bd 85d8 80bd
00000340: 8aa5 023d 5dc5 423d eb3e 9cbd 23e1 1d3d
00000350: 75f3 38bc 560a 2dbc 23ad 2dbe d755 5a3d
00000360: a55c 6abc 6859 1dbe bb22 5a3d 95ad a8bd
00000370: ed15 023d 6c1b 90bd 1f39 453d b137 c73d
00000380: 8421 cb3d 9787 e13c bd08 293e a4a4 f8bd
00000390: 77aa a7bc 6edd 773d 687f 863d 11d0 883d
000003a0: 3754 d53d c7db 35bd cf97 6ebd 7c52 79bd
000003b0: a0fb 753d 052a 96bd 994c 0a3d 70c8 953d
000003c0: b529 48bd 8de5 8d3d 681e 123d 8b04 833d
000003d0: 085c 893b 5be3 b33d b864 6bba 4f5c 76bd
000003e0: 3884 00bd 5324 a7bd 984e 9f3d ee99 af3d
000003f0: 98d8 a63d c26d a83d 0ccb 87bd f6ad 863c
