MAPPO/results/MyEnv/MyEnv/rmappo/check/run19/models/critic_agent0.pt (torch, 314992 bytes, 21 tensors)

base.feature_norm.weight f4 [651]
0	0x3f7f218f	0.9966058
1	0x3f80409b	1.0019716
2	0x3f7f6c53	0.99774665
3	0x3f804502	1.002106
4	0x3f803bf2	1.0018294
5	0x3f804cff	1.0023497
6	0x3f7f70ab	0.9978129
7	0x3f7f7150	0.99782276
8	0x3f803871	1.0017225
9	0x3f803f74	1.0019364
10	0x3f8049b7	1.0022496
11	0x3f7f52c0	0.9973564
12	0x3f7f4f39	0.9973026
13	0x3f804758	1.0021772
14	0x3f7f68c3	0.9976923
15	0x3f7f73d2	0.997861
16	0x3f7f654a	0.9976393
17	0x3f802723	1.0011944
18	0x3f7f6c27	0.997744
19	0x3f804e84	1.0023961
20	0x3f8056ef	1.002653
21	0x3f7f709e	0.99781215
22	0x3f7f6595	0.99764377
23	0x3f804713	1.002169
24	0x3f7f5894	0.99744534
25	0x3f804688	1.0021524
26	0x3f7f3fc4	0.99706674
27	0x3f804268	1.0020266
28	0x3f7f7990	0.99794865
29	0x3f7f6b1d	0.99772817
30	0x3f804279	1.0020286
31	0x3f80548a	1.0025799
32	0x3f7f7725	0.99791175
33	0x3f7fd559	0.9993492
34	0x3f803251	1.0015355
35	0x3f8048c2	1.0022204
36	0x3f7f6177	0.99758095
37	0x3f80463b	1.0021433
38	0x3f7f7bd8	0.99798346
39	0x3f805412	1.0025656
40	0x3f8042ae	1.0020349
41	0x3f802949	1.0012599
42	0x3f7f572a	0.99742377
43	0x3f80467e	1.0021513
44	0x3f7f5286	0.99735296
45	0x3f7f6ebf	0.9977836
46	0x3f7f69f6	0.9977106
47	0x3f7f6bbe	0.99773777
48	0x3f7f72d6	0.997846
49	0x3f7f4ee5	0.9972976
50	0x3f7f5cfa	0.99751246
51	0x3f7f6c43	0.9977457
52	0x3f804d00	1.0023499
53	0x3f7f7542	0.99788296
54	0x3f7fa0da	0.99854815
55	0x3f7f7ed8	0.99802923
56	0x3f7f40da	0.9970833
57	0x3f8047aa	1.002187
58	0x3f802a40	1.0012894
59	0x3f7f3aeb	0.99699277
60	0x3f7f6137	0.99757713
61	0x3f7f8077	0.99805397
62	0x3f803952	1.0017493
63	0x3f803135	1.0015017
64	0x3f807772	1.0036452
65	0x3f804aa1	1.0022775
66	0x3f80497b	1.0022424
67	0x3f804891	1.0022146
68	0x3f803ac9	1.001794
69	0x3f7f718b	0.9978263
70	0x3f7f7631	0.9978972
71	0x3f7f7691	0.9979029
72	0x3f804e87	1.0023965
73	0x3f7f666a	0.99765646
74	0x3f7f82d9	0.9980903
75	0x3f8038f9	1.0017387
76	0x3f802dd3	1.0013984
77	0x3f7ffd05	0.9999545
78	0x3f7f547d	0.99738294
79	0x3f7fb7b0	0.9988966
80	0x3f804c2b	1.0023245
81	0x3f7f45c2	0.99715817
82	0x3f7f6e6c	0.99777865
83	0x3f804c99	1.0023376
84	0x3f7f2f53	0.99681586
85	0x3f7f9749	0.9984022
86	0x3f7f7200	0.99783325
87	0x3f7f6645	0.99765426
88	0x3f802a5e	1.001293
89	0x3f7f64ae	0.99763
90	0x3f7f6767	0.99767154
91	0x3f80555d	1.0026051
92	0x3f804995	1.0022455
93	0x3f805479	1.0025779
94	0x3f7f6636	0.99765337
95	0x3f7f83b8	0.9981036
96	0x3f7f4d92	0.9972774
97	0x3f80450b	1.002107
98	0x3f804466	1.0020874
99	0x3f7f54aa	0.9973856
100	0x3f7f8d78	0.9982524
101	0x3f7f6ad8	0.99772406
102	0x3f804662	1.0021479
103	0x3f804bfe	1.0023191
104	0x3f7f6619	0.99765164
105	0x3f7f6526	0.99763715
106	0x3f7f570d	0.99742204
107	0x3f80474a	1.0021756
108	0x3f7f3a8d	0.99698716
109	0x3f801cae	1.0008752
110	0x3f8060ac	1.0029502
111	0x3f8010db	1.0005144
112	0x3f806edc	1.0033832
113	0x3f7f5a53	0.997472
114	0x3f80184d	1.0007416
115	0x3f7f9b4c	0.9984634
116	0x3f7f558d	0.99739915
117	0x3f7f6f05	0.9977878
118	0x3f7fedbf	0.99972147
119	0x3f8044cd	1.0020996
120	0x3f803f8a	1.001939
121	0x3f805166	1.0024841
122	0x3f804022	1.0019572
123	0x3f7f6433	0.99762267
124	0x3f7f5537	0.997394
125	0x3f804d04	1.0023503
126	0x3f804dc8	1.0023737
127	0x3f7f872c	0.9981563
128	0x3f804ea6	1.0024002
129	0x3f7f85c3	0.9981348
130	0x3f802e85	1.0014197
131	0x3f805134	1.0024781
132	0x3f7f9738	0.99840117
133	0x3f7f5c72	0.99750435
134	0x3f804bf9	1.0023185
135	0x3f803429	1.0015918
136	0x3f7f5690	0.9974146
137	0x3f805f0c	1.0029006
138	0x3f805480	1.0025787
139	0x3f7f6544	0.99763894
140	0x3f7f13f0	0.996398
141	0x3f804a30	1.002264
142	0x3f8047b8	1.0021887
143	0x3f7f71c6	0.9978298
144	0x3f805311	1.002535
145	0x3f7f580a	0.9974371
146	0x3f7f446f	0.99713796
147	0x3f804ff8	1.0024405
148	0x3f7f7866	0.9979309
149	0x3f7f634e	0.997609
150	0x3f804eef	1.0024089
151	0x3f7f5f7c	0.9975507
152	0x3f8041f4	1.0020127
153	0x3f7f680f	0.99768156
154	0x3f7f902d	0.9982937
155	0x3f7f6ae4	0.9977248
156	0x3f804b14	1.0022912
157	0x3f7f6741	0.9976693
158	0x3f80386d	1.001722
159	0x3f805922	1.0027201
160	0x3f7f18c9	0.99647194
161	0x3f8040bb	1.0019754
162	0x3f7fc3b1	0.99907976
163	0x3f7f6725	0.9976676
164	0x3f80378a	1.0016949
165	0x3f803ff5	1.0019518
166	0x3f804bbe	1.0023115
167	0x3f7f70ce	0.997815
168	0x3f806b58	1.0032759
169	0x3f7fbde0	0.998991
170	0x3f806bcc	1.0032897
171	0x3f804a2e	1.0022638
172	0x3f80362e	1.0016534
173	0x3f806450	1.0030613
174	0x3f804552	1.0021155
175	0x3f806f1f	1.0033911
176	0x3f7f6daa	0.9977671
177	0x3f7f6634	0.99765325
178	0x3f7f64ed	0.99763376
179	0x3f804c27	1.002324
180	0x3f801c45	1.0008627
181	0x3f803f71	1.0019361
182	0x3f7f7fc8	0.99804354
183	0x3f804813	1.0021995
184	0x3f7f7399	0.99785763
185	0x3f7f84cb	0.99812
186	0x3f7f63c7	0.99761623
187	0x3f8051b5	1.0024935
188	0x3f80488a	1.0022137
189	0x3f80486f	1.0022105
190	0x3f7f7d90	0.9980097
191	0x3f800722	1.0002177
192	0x3f7f3be3	0.99700755
193	0x3f7f5cb2	0.99750817
194	0x3f8049af	1.0022486
195	0x3f80443a	1.0020821
196	0x3f8048f5	1.0022265
197	0x3f7f5ad1	0.9974795
198	0x3f8038a9	1.0017291
199	0x3f803105	1.001496
200	0x3f7f60e3	0.9975721
201	0x3f804cd8	1.0023451
202	0x3f7f37c0	0.9969444
203	0x3f804e36	1.0023868
204	0x3f80581f	1.0026892
205	0x3f7f6eb0	0.9977827
206	0x3f7f7063	0.99780864
207	0x3f804f13	1.0024132
208	0x3f7f5cc7	0.9975094
209	0x3f7f7098	0.9978118
210	0x3f7f6969	0.9977022
211	0x3f7fa4e6	0.9986099
212	0x3f7f502e	0.9973172
213	0x3f803bc8	1.0018244
214	0x3f7fa8aa	0.99866736
215	0x3f7f6be5	0.9977401
216	0x3f805aa4	1.0027661
217	0x3f805407	1.0025643
218	0x3f803c3c	1.0018382
219	0x3f8047f2	1.0021956
220	0x3f7f3970	0.9969702
221	0x3f7f6767	0.99767154
222	0x3f7f6446	0.9976238
223	0x3f7f6e1d	0.99777395
224	0x3f8055e9	1.0026218
225	0x3f807509	1.0035716
226	0x3f7f7bba	0.99798167
227	0x3f804722	1.0021708
228	0x3f8047e3	1.0021938
229	0x3f8034b8	1.0016088
230	0x3f80350a	1.0016186
231	0x3f804887	1.0022134
232	0x3f80449b	1.0020937
233	0x3f8028f3	1.0012497
234	0x3f7f637d	0.9976118
235	0x3f80319e	1.0015142
236	0x3f80430c	1.0020461
237	0x3f8047f8	1.0021963
238	0x3f8014d2	1.0006354
239	0x3f80452b	1.0021108
240	0x3f7f76f4	0.99790883
241	0x3f803661	1.0016595
242	0x3f803c1a	1.0018342
243	0x3f7f3425	0.9968894
244	0x3f80006c	1.0000129
245	0x3f80692a	1.0032094
246	0x3f8043e1	1.0020715
247	0x3f804734	1.002173
248	0x3f802140	1.0010147
249	0x3f802940	1.0012589
250	0x3f8053f4	1.002562
251	0x3f8071b5	1.0034701
252	0x3f7fef66	0.9997467
253	0x3f7f73cb	0.9978606
254	0x3f7f67c8	0.9976773
255	0x3f803bcf	1.0018252

base.feature_norm.bias f4 [651]
0	0x3b6b9b94	0.0035950886
1	0xbb038407	-0.0020067708
2	0x3b1503b3	0.00227378
3	0xbb0c2343	-0.0021383322
4	0xbaf3953a	-0.0018583902
5	0xbb1d2f59	-0.002398452
6	0x3b113f16	0.0022162846
7	0x3b0fc651	0.0021938274
8	0xbae83136	-0.0017714861
9	0xbb0031d4	-0.001956095
10	0xbb150b01	-0.0022742155
11	0x3b439702	0.0029844646
12	0x3b3345e9	0.0027354902
13	0xbb103c94	-0.0022008764
14	0x3b19a360	0.0023443326
15	0x3b0d42c0	0.0021554679
16	0x3b1bb59a	0.0023759366
17	0xba9a695a	-0.0011780665
18	0x3b14ebce	0.0022723558
19	0xbb1e62aa	-0.0024167695
20	0xbb30bb04	-0.0026966939
21	0x3b1020f3	0.0021992296
22	0x3b1baa6e	0.0023752707
23	0xbb0fd4e0	-0.0021946952
24	0x3b2a1ec3	0.0025958277
25	0xbb0e6020	-0.0021724775
26	0x3b41f117	0.0029593164
27	0xbb05ec74	-0.0020435126
28	0x3b076fd3	0.0020666018
29	0x3b1602b2	0.002288979
30	0xbb0652a4	-0.0020496035
31	0xbb2a4eb1	-0.0025986845
32	0x3b0febe9	0.0021960682
33	0x3a8f8058	0.0010948284
34	0xbaca8376	-0.0015450555
35	0xbb1265fe	-0.0022338624
36	0x3b207413	0.0024483248
37	0xbb0d7a0b	-0.0021587636
38	0x3b051672	0.0020307568
39	0xbb294097	-0.0025825852
40	0xbb072765	-0.0020622846
41	0xbaab676a	-0.0013077084
42	0x3b2a7818	0.0026011523
43	0xbb0db4e3	-0.002162271
44	0x3b51ffec	0.003204341
45	0x3b131423	0.0022442422
46	0x3b18ce9e	0.0023316513
47	0x3b1568b4	0.0022798004
48	0x3b0e9147	0.0021754073
49	0x3b3206d4	0.0027164714
50	0x3b2456b6	0.0025076098
51	0x3b156194	0.0022793757
52	0xbb1ae519	-0.0023635088
53	0x3b0bf1f8	0.0021353941
54	0x3abeab2d	0.0014546864
55	0x3b04532c	0.0020191176
56	0x3b420bd9	0.0029609113
57	0xbb106031	-0.002202999
58	0xbab17585	-0.0013539052
59	0x3b55d43e	0.0032627727
60	0x3b1f3893	0.0024295195
61	0x3b0085eb	0.0019611071
62	0xbae7964e	-0.0017668696
63	0xbac733fc	-0.0015197988
64	0xbb7fdb69	-0.003904069
65	0xbb17e9af	-0.0023180058
66	0xbb142604	-0.0022605667
67	0xbb11fae5	-0.002227479
68	0xbaef8141	-0.0018272774
69	0x3b0f54d8	0.002187064
70	0x3b0aec3a	0.002119793
71	0x3b0a86bd	0.002113744
72	0xbb1f03ac	-0.0024263663
73	0x3b1c44c4	0.0023844698
74	0x3afe24bc	0.001938961
75	0xbaeae0da	-0.0017919794
76	0xbabcca26	-0.0014403507
77	0xb9a5b262	-0.00031604158
78	0x3b2d68d6	0.0026460192
79	0x3a8ff4c1	0.0010982977
80	0xbb1aa945	-0.0023599428
81	0x3b3b13d0	0.0028545745
82	0x3b13d7b5	0.0022558991
83	0xbb1a6cd6	-0.0023563406
84	0x3b6716fa	0.0035261498
85	0x3ad4f1f5	0.0016246425
86	0x3b0f2691	0.0021843056
87	0x3b1b3181	0.002368063
88	0xbaaa1f4e	-0.00129793
89	0x3b1d11ce	0.0023966911
90	0x3b1a58ea	0.0023551532
91	0xbb2e9b89	-0.0026643
92	0xbb1436b2	-0.0022615609
93	0xbb2a3b23	-0.002597519
94	0x3b1a8ecc	0.0023583649
95	0x3afb3c28	0.0019167708
96	0x3b33d741	0.0027441534
97	0xbb0b2057	-0.0021228993
98	0xbb0a442e	-0.0021097767
99	0x3b2c4a41	0.0026289376
100	0x3ae8317d	0.0017714944
101	0x3b16284d	0.0022912205
102	0xbb0ea70e	-0.0021767053
103	0xbb1b6533	-0.0023711442
104	0x3b1a7af9	0.0023571833
105	0x3b1da535	0.002405477
106	0x3b2a8e06	0.0026024594
107	0xbb0fb65e	-0.0021928768
108	0x3b7a307c	0.0038175872
109	0xba6be331	-0.0008998393
110	0xbb4774be	-0.0030434574
111	0xba166a42	-0.00057378795
112	0xbb61f116	-0.0034475974
113	0x3b27e527	0.0025618763
114	0xba3c9a6b	-0.0007194641
115	0x3acdae50	0.0015692208
116	0x3b2ad190	0.002606485
117	0x3b12d552	0.002240498
118	0x39b1ace7	0.00033888893
119	0xbb0b5127	-0.0021258087
120	0xbb0112b8	-0.0019694995
121	0xbb23c2f2	-0.0024988023
122	0xbb02a461	-0.0019934403
123	0x3b1dd193	0.0024081215
124	0x3b2c5744	0.0026297132
125	0xbb1adf68	-0.0023631696
126	0xbb1cb048	-0.0023908783
127	0x3af4a34e	0.0018664391
128	0xbb1e28e8	-0.0024133269
129	0x3af7c67c	0.0018903757
130	0xbabe097c	-0.0014498676
131	0xbb2360ad	-0.002492945
132	0x3ad4929e	0.0016218012
133	0x3b245dd3	0.0025080338
134	0xbb19b850	-0.0023455806
135	0xbad70d14	-0.0016407096
136	0x3b2d4b00	0.0026442409
137	0xbb3ef653	-0.002913852
138	0xbb2c611d	-0.0026303001
139	0x3b1c54fd	0.0023854368
140	0x3b7d11d4	0.0038615363
141	0xbb157a9b	-0.0022808674
142	0xbb114f4f	-0.0022172516
143	0x3b0ef6f6	0.002181468
144	0xbb275e28	-0.00255383
145	0x3b299bdb	0.002588025
146	0x3b3c69ab	0.0028749506
147	0xbb20fd83	-0.0024565167
148	0x3b08bdb0	0.0020865016
149	0x3b1dcaa5	0.0024077084
150	0xbb1fe38a	-0.0024397098
151	0x3b212de6	0.0024594008
152	0xbb070374	-0.0020601423
153	0x3b1988c2	0.0023427461
154	0x3ae0909c	0.0017132941
155	0x3b16cbf2	0.0023009744
156	0xbb17dc94	-0.0023172246
157	0x3b197a2d	0.002341877
158	0xbae60861	-0.0017550105
159	0xbb348728	-0.002754638
160	0x3b71eb5d	0.003691397
161	0xbb0409ca	-0.0020147436
162	0x3a8bf9e7	0.0010679335
163	0x3b19fae2	0.0023495485
164	0xbae22d38	-0.0017255908
165	0xbb05be21	-0.0020407515
166	0xbb18855f	-0.0023272855
167	0x3b10cc4e	0.0022094431
168	0xbb6063e1	-0.003423922
169	0x3a8614d0	0.0010229591
170	0xbb7d82f4	-0.003868279
171	0xbb181d41	-0.0023210796
172	0xbae0a2f5	-0.0017138409
173	0xbb5114f7	-0.0031903365
174	0xbb0c048d	-0.0021365017
175	0xbb6737f5	-0.0035281156
176	0x3b13d0c1	0.0022554847
177	0x3b1c5f43	0.0023860491
178	0x3b1d0d57	0.002396425
179	0xbb1a934f	-0.0023586338
180	0xba6bdd0a	-0.0008997476
181	0xbb01b8b4	-0.001979393
182	0x3b0186db	0.0019764218
183	0xbb112a2c	-0.002215038
184	0x3b0daafe	0.0021616812
185	0x3afb4332	0.0019169806
186	0x3b1f9671	0.0024351145
187	0xbb242161	-0.002504431
188	0xbb1236ef	-0.0022310575
189	0xbb120da2	-0.0022285958
190	0x3b0404c2	0.0020144437
191	0x38cc6f10	9.748165e-05
192	0x3b4d001a	0.0031280578
193	0x3b24659c	0.0025084978
194	0xbb147a01	-0.0022655728
195	0xbb0b750b	-0.002127948
196	0xbb136295	-0.002248918
197	0x3b26c7c4	0.002544866
198	0xbae6425b	-0.0017567383
199	0xbac5d7c4	-0.001509421
200	0x3b222bc8	0.0024745334
201	0xbb1ae80f	-0.0023636853
202	0x3b49faf4	0.0030819746
203	0xbb1cf48e	-0.0023949477
204	0xbb31e45c	-0.002714417
205	0x3b13d29e	0.0022555958
206	0x3b10db26	0.002210328
207	0xbb20f731	-0.00245614
208	0x3b23f79c	0.0025019413
209	0x3b103817	0.0022006088
210	0x3b1971a4	0.0023413682
211	0xba5ec50b	-0.00084979896
212	0x3b31f621	0.002715476
213	0xbaf23482	-0.0018478783
214	0x3ab52b6c	0.0013822145
215	0x3b167de6	0.0022963225
216	0xbb3d6189	-0.0028897247
217	0xbb2b81e9	-0.0026169962
218	0xbaf89978	-0.0018966636
219	0xbb10cc8e	-0.002209458
220	0x3b7d8094	0.0038681375
221	0x3b19de31	0.0023478384
222	0x3b1df330	0.002410125
223	0x3b12fd2b	0.0022428732
224	0xbb2d1613	-0.0026410862
225	0xbb71013b	-0.0036774415
226	0x3b064107	0.0020485537
227	0xbb0f4e73	-0.0021866828
228	0xbb10edaf	-0.0022114327
229	0xbaf1e5cf	-0.0018455329
230	0xbadd9c49	-0.0016907539
231	0xbb13f456	-0.0022576055
232	0xbb0a40ae	-0.002109568
233	0xbaac4aee	-0.0013144889
234	0x3b1d61f2	0.0024014679
235	0xbac9c2cd	-0.0015393138
236	0xbb0a4b0b	-0.0021101858
237	0xbb228e14	-0.0024803923
238	0xba30f384	-0.0006750154
239	0xbb0b73bf	-0.0021278707
240	0x3b09f395	0.0021049727
241	0xbae189e6	-0.0017207235
242	0xbb6e48d0	-0.0036359318
243	0x3b5246c3	0.0032085634
244	0x39264e4d	0.00015860163
245	0xbb6aa6cf	-0.0035804992
246	0xbb0868b5	-0.0020814363
247	0xbb0f3142	-0.0021849428
248	0xbaba8622	-0.0014230649
249	0xbaa5d82b	-0.0012652924
250	0xbb2ab2e9	-0.002604658
251	0xbb6cd86a	-0.0036139735
252	0x39c14487	0.00036862885
253	0x3b0cc43e	0.0021479274
254	0x3b196645	0.0023406905
255	0xbaf62308	-0.0018778751

base.mlp.fc1.0.weight f4 [64, 651]
0	0x3b5ec889	0.003399404
1	0x3cae27af	0.021259157
2	0xbcc47138	-0.023979768
3	0x3cfa528a	0.030556936
4	0x3c0e2df1	0.0086779455
5	0x3ce730b2	0.028221462
6	0x3dba2f9d	0.09091113
7	0xbd83a8a0	-0.06428647
8	0x3e07eb1c	0.13273281
9	0x3cec9cd5	0.028883377
10	0xbc03df6c	-0.008048873
11	0xbc3b3e12	-0.011428373
12	0x3cf451f5	0.029824236
13	0xbd60af44	-0.054854646
14	0x3cb10f99	0.021613883
15	0xbc274fbd	-0.010211882
16	0x3ccb09d9	0.02478497
17	0x3d2933df	0.041309234
18	0x3c772bfd	0.015086171
19	0x3c64e998	0.013971709
20	0x3d8271ca	0.0636936
21	0x3d18f9e5	0.037347693
22	0xbce0336d	-0.027368272
23	0xbc387cd6	-0.011260232
24	0xbdb17799	-0.086653896
25	0x3cf98b38	0.030461892
26	0x3d2d7a9b	0.042353254
27	0x3c865506	0.016397964
28	0x3da7fb28	0.08202201
29	0xbbad3638	-0.0052860044
30	0xbe178dea	-0.1480023
31	0xbd330fe2	-0.04371632
32	0xbd2faccc	-0.0428894
33	0xbcad76ab	-0.02117475
34	0xbaedf71e	-0.0018155312
35	0x3d0d6151	0.034516636
36	0x3cb9940c	0.022653602
37	0xbd660dcd	-0.056165505
38	0x3c929f6a	0.01789828
39	0xbda7f5ab	-0.08201154
40	0xbd973bf1	-0.0738448
41	0xbc3b9521	-0.011449129
42	0xbcbadfda	-0.022811819
43	0xbdc32677	-0.09528821
44	0xbbd0bc14	-0.006370077
45	0xbc3943d9	-0.01130768
46	0xbd8a5899	-0.0675518
47	0x3cf8fc74	0.030393817
48	0xbc028476	-0.007966151
49	0x3d245682	0.040121563
50	0xbdb80a48	-0.08986336
51	0x3d58eacb	0.05295829
52	0x3cb2b422	0.02181441
53	0x3d61e99b	0.055154424
54	0xbd43869f	-0.047735807
55	0xbbde68d8	-0.0067874007
56	0x3d893595	0.06699673
57	0x3ddaa765	0.10676459
58	0xbd18668a	-0.037207164
59	0xbb29e0d9	-0.0025921373
60	0xbbfdc36e	-0.0077442443
61	0xbd677e2d	-0.056516815
62	0x3cd21196	0.025643151
63	0x3d5c3900	0.053765297
64	0x3de2b128	0.11068946
65	0x3b40b5f4	0.0029405328
66	0xba525172	-0.00080230006
67	0x3cbc0266	0.022950362
68	0x3d866251	0.06561721
69	0xbd2a6f0f	-0.04160982
70	0x3d85b560	0.06528735
71	0xbd55db72	-0.052211232
72	0xbbf9e73c	-0.0076264422
73	0xbd882fde	-0.06649755
74	0xbd73adc2	-0.05949188
75	0xbc232df2	-0.009959685
76	0xbdb725ad	-0.08942733
77	0x3d557510	0.052113593
78	0x3c84c648	0.01620783
79	0x3e2b01e7	0.16699944
80	0xbc392141	-0.011299432
81	0x3dc7a0ab	0.09747442
82	0xbdaf9613	-0.08573546
83	0xbd817241	-0.0632062
84	0x3dbe3c79	0.09288878
85	0x3e00297c	0.12515825
86	0xbd1581d2	-0.03650076
87	0xbd338ebf	-0.043837305
88	0x3d92d01a	0.071685985
89	0xbdaa3a3c	-0.083118886
90	0x3d0675aa	0.032827057
91	0x3dd1a6f3	0.10236921
92	0xbd1337ad	-0.03594177
93	0xbd2a0b8a	-0.04151491
94	0x3d32fe3a	0.04369948
95	0xbd771a5f	-0.060327884
96	0x3b45b847	0.0030169652
97	0x3ccd6910	0.025074512
98	0xbdb008a8	-0.08595401
99	0xbd3a65f9	-0.045507405
100	0xbb451030	-0.0030069463
101	0x3d01d9f8	0.03170201
102	0xbbe7241e	-0.007053866
103	0x3d2b5e7e	0.04183816
104	0x3dcb82bd	0.09937046
105	0x3cd0e414	0.025499381
106	0x3d8629c3	0.06550934
107	0x3c0c0004	0.008544926
108	0xbd0353f1	-0.032062475
109	0x3cbc3ff8	0.022979721
110	0xbbeb6910	-0.0071841553
111	0xbd0a1b3c	-0.03371738
112	0xbd8d107a	-0.06887908
113	0xbcff2aee	-0.0311484
114	0xbd657530	-0.05601996
115	0xbc7e2f6f	-0.015514239
116	0x3dd57046	0.10421805
117	0x3c984b1a	0.018590499
118	0xbd9b3364	-0.07578161
119	0x3d90fd9b	0.070796214
120	0x3c9bad7c	0.019003622
121	0x3ca8e1f2	0.020615552
122	0x3d31647e	0.043308727
123	0xbd1574c3	-0.036488306
124	0x3c7f0f15	0.015567561
125	0xbd8b854e	-0.06812535
126	0x3bd79347	0.006578836
127	0x3b11844b	0.0022204097
128	0xbd3756ba	-0.044760443
129	0xbe1316a1	-0.14364101
130	0xbc016a4f	-0.007898881
131	0xbb38a87f	-0.0028176603
132	0x3d812d1d	0.06307433
133	0xbd7e8e3f	-0.062147375
134	0xbd4c2498	-0.049839586
135	0xbd2eb7cf	-0.042655762
136	0x3a9ee82b	0.0012123635
137	0xb9340c8c	-0.00017170812
138	0x3c3d4f43	0.011554542
139	0x3bcba3cd	0.006214595
140	0xbcfdb19a	-0.030968476
141	0xbd0ac005	-0.03387453
142	0x3cdc1ba9	0.026868658
143	0x3d6f42e9	0.05841342
144	0xbd861f95	-0.065489925
145	0xbd81a436	-0.06330149
146	0xbdb86f17	-0.09005564
147	0xbd08c63a	-0.03339217
148	0xbd66cf46	-0.056350015
149	0x3b1bf19b	0.002379513
150	0x3d21a8a6	0.039467476
151	0x3dbb7a4d	0.091541864
152	0xbdaea166	-0.08526878
153	0xbd86c749	-0.065809794
154	0x3e2d33a6	0.16914234
155	0x3dab20b3	0.08355846
156	0x3bcd23fc	0.006260393
157	0xbdc27db7	-0.094966345
158	0xbcd01931	-0.025402637
159	0x3d9591b0	0.07303178
160	0x3d2c7878	0.042107075
161	0x3da02700	0.07819939
162	0x3c637b0d	0.013884318
163	0x3d89f232	0.06735648
164	0x3be50db9	0.0069901613
165	0x3d7378df	0.059441444
166	0xbcf920bd	-0.030411119
167	0x3c4470ef	0.011989816
168	0xbd75cf13	-0.060011934
169	0xbdbed597	-0.09318083
170	0xbd2fe56f	-0.042943414
171	0xbce345d7	-0.027743263
172	0xbd5f8713	-0.054572176
173	0x3d0f3372	0.03496117
174	0x3c6ae482	0.014336707
175	0xbd372c52	-0.04472
176	0x3dfd51ac	0.12369093
177	0x3c9a6942	0.018849019
178	0x3dc86357	0.097845726
179	0xbbcb262e	-0.0061996197
180	0x3c906698	0.017627046
181	0x3d1f7d4b	0.038937848
182	0x3d389dde	0.04507243
183	0xbbf729b5	-0.0075428137
184	0x3cf97943	0.03045333
185	0xbd937895	-0.072007336
186	0xbd121c93	-0.03567178
187	0x3ca999e9	0.020703273
188	0xbc323cbc	-0.010878738
189	0xbcbc7abe	-0.023007747
190	0x3cb6c082	0.022308592
191	0x3ce51496	0.027963918
192	0xbc3c1a63	-0.0114809
193	0x3b03408f	0.0020027494
194	0x3ccaf638	0.02477561
195	0x39c2b627	0.00037138278
196	0xbb6f2978	-0.0036493223
197	0x3d127389	0.035754714
198	0xbd2e3e97	-0.04254016
199	0x3d8648b3	0.06556835
200	0xbd4a6930	-0.04941672
201	0x3c01d18f	0.007923498
202	0x3d99b141	0.075045116
203	0xbbdbf9a7	-0.0067131105
204	0xbd6dfdbf	-0.05810332
205	0x3d055364	0.03255023
206	0xbd3f2412	-0.04666526
207	0xbdde78d6	-0.108628914
208	0xbcb45d57	-0.022017164
209	0xbcd2bae6	-0.025723886
210	0xbd1fae0f	-0.038984355
211	0xbd53ee2c	-0.05174081
212	0xbd7f9467	-0.062397387
213	0x3d2d2418	0.04227075
214	0xbc024d20	-0.007952958
215	0x3d5dfeaa	0.054197945
216	0xbca72e83	-0.02040792
217	0xbd9d1772	-0.076704875
218	0x3d990ed3	0.074735306
219	0x3c1092c1	0.008824051
220	0x3cb4bcad	0.022062624
221	0xbd58bba4	-0.052913323
222	0xbd5bdc49	-0.053676877
223	0xbcb31c9a	-0.021864224
224	0xbdb3902b	-0.08767732
225	0xbdb078de	-0.086168036
226	0xbcd0c7a8	-0.025485829
227	0x3d83b853	0.064316414
228	0x3d11e96a	0.03562299
229	0xbd9499ee	-0.07255922
230	0xbcc3b858	-0.023891613
231	0xbd5b5daa	-0.053556122
232	0xbdc0ef9c	-0.09420702
233	0xbd75c700	-0.060004234
234	0xbcbf286b	-0.023334702
235	0x3da8d7ea	0.08244307
236	0xbded0b6c	-0.11574444
237	0xbcc3ca99	-0.023900317
238	0xbd92db60	-0.07170749
239	0x3d08ef80	0.03343153
240	0x3d3b34c5	0.04570462
241	0x3d09724b	0.033556264
242	0x3c50d36d	0.01274572
243	0xbdb7886f	-0.089615695
244	0x3e15a2dc	0.14612907
245	0xbcc0ee66	-0.023551177
246	0xbd3e89b4	-0.046518043
247	0xbc96adc3	-0.018393403
248	0xbdba596f	-0.09099089
249	0x3dbeb9c8	0.09312779
250	0x3daf3c74	0.085564524
251	0xbbeba270	-0.007190995
252	0xbbf82893	-0.007573196
253	0xbd3c238f	-0.04593235
254	0x3d4a880f	0.04944616
255	0x3d508e86	0.05091717

base.mlp.fc1.0.bias f4 [64]
0	0x3b143433	0.002261412
1	0x3b0c914a	0.0021448904
2	0x00000000	0.0
3	0x00000000	0.0
4	0x00000000	0.0
5	0x3b50961d	0.0031827756
6	0xbafe2555	-0.0019389788
7	0x00000000	0.0
8	0xbb1f56f6	-0.0024313307
9	0xbad1d42a	-0.0016008664
10	0xbb6f89ff	-0.0036550758
11	0x3a44a331	0.0007501124
12	0x3a84e776	0.0010139782
13	0x3b07882c	0.002068053
14	0xbb049ae4	-0.0020233924
15	0x3b28a0f4	0.00257307
16	0x00000000	0.0
17	0x38f85a8a	0.00011842426
18	0x3ae91b4e	0.0017784627
19	0x00000000	0.0
20	0x00000000	0.0
21	0xbb28d382	-0.0025760834
22	0xbb1e5a91	-0.0024162869
23	0x00000000	0.0
24	0x00000000	0.0
25	0x3b1f51cf	0.0024310236
26	0xbb0b8e27	-0.0021294446
27	0x3b1cbebd	0.00239174
28	0xb81666f0	-3.5858655e-05
29	0x00000000	0.0
30	0x3b1201c0	0.0022278875
31	0xbb03e613	-0.0020126149
32	0x00000000	0.0
33	0x00000000	0.0
34	0x3b1f9ff0	0.0024356805
35	0x3b2b27e8	0.0026116315
36	0xbb08534a	-0.0020801597
37	0xbb17c9d1	-0.0023161063
38	0xb9fc97cf	-0.00048178292
39	0x00000000	0.0
40	0x3b1cd456	0.0023930273
41	0x3ab7b5b3	0.0014015943
42	0x3acc41ad	0.0015583538
43	0x3b146efa	0.0022649155
44	0x3b11f50c	0.0022271303
45	0xbace3b7b	-0.0015734279
46	0xbb1e60cf	-0.002416659
47	0x00000000	0.0
48	0xbb25edd2	-0.0025318754
49	0x00000000	0.0
50	0x3b04f409	0.0020287058
51	0x00000000	0.0
52	0xbb1cefcc	-0.002394664
53	0xbb1eb0e4	-0.0024214322
54	0xbb1c6b55	-0.0023867686
55	0xbb06cf9b	-0.002057052
56	0xbb1f987c	-0.0024352362
57	0x3b4d4211	0.0031319896
58	0xbb0f61e1	-0.0021878409
59	0xbb1e4a99	-0.002415335
60	0xbb17caee	-0.0023161727
61	0xbb00af30	-0.001963567
62	0x3b30a8bb	0.002695604
63	0x00000000	0.0

base.mlp.fc1.2.weight f4 [64]
0	0x3f7f52e7	0.99735874
1	0x3f7f60a2	0.99756825
2	0x3f7fbe39	0.9989963
3	0x3f7f721b	0.99783486
4	0x3f8056f4	1.0026536
5	0x3f806bbd	1.0032879
6	0x3f7f7dba	0.9980122
7	0x3f805682	1.00264
8	0x3f804d7b	1.0023645
9	0x3f7f889d	0.9981783
10	0x3f802302	1.0010684
11	0x3f7fa742	0.9986459
12	0x3f7f70b0	0.9978132
13	0x3f7f65a8	0.9976449
14	0x3f7f08a1	0.9962254
15	0x3f8055db	1.0026201
16	0x3f80653f	1.0030898
17	0x3f7f7d05	0.9980014
18	0x3f803685	1.0016638
19	0x3f7f692a	0.9976984
20	0x3f804311	1.0020467
21	0x3f80541f	1.0025672
22	0x3f804482	1.0020907
23	0x3f804b52	1.0022986
24	0x3f80516c	1.0024848
25	0x3f804fed	1.0024391
26	0x3f7f6b95	0.9977353
27	0x3f7f6051	0.9975634
28	0x3f80072e	1.0002191
29	0x3f8046d2	1.0021613
30	0x3f804682	1.0021517
31	0x3f7f7b05	0.9979709
32	0x3f7f672e	0.99766815
33	0x3f7f3a51	0.9969836
34	0x3f804fdc	1.0024371
35	0x3f805ae7	1.0027741
36	0x3f801cf3	1.0008835
37	0x3f8034c3	1.0016102
38	0x3f7fc159	0.999044
39	0x3f7f5fd9	0.99755627
40	0x3f804dd5	1.0023752
41	0x3f7f66fc	0.99766517
42	0x3f7f5b1a	0.99748385
43	0x3f7f61a9	0.9975839
44	0x3f7f6081	0.9975663
45	0x3f7f6bf4	0.997741
46	0x3f804ed4	1.0024056
47	0x3f7fdda2	0.9994756
48	0x3f805dce	1.0028627
49	0x3f804a13	1.0022606
50	0x3f803f05	1.0019232
51	0x3f8043e9	1.0020725
52	0x3f7f007e	0.99610126
53	0x3f804fa8	1.0024309
54	0x3f7f62cb	0.9976012
55	0x3f7f0896	0.99622476
56	0x3f804314	1.0020471
57	0x3f7f4b1e	0.99723995
58	0x3f7f6c0a	0.9977423
59	0x3f7f606e	0.99756515
60	0x3f7f659e	0.9976443
61	0x3f7f5c4b	0.997502
62	0x3f806553	1.0030922
63	0x3f7f47a5	0.99718696

base.mlp.fc1.2.bias f4 [64]
0	0x3b15dbe2	0.0022866656
1	0x3b128cb9	0.002236171
2	0x3a8673ae	0.0010257864
3	0x3b0dc10b	0.0021629955
4	0xbb2de1ea	-0.002653236
5	0x3b4ecf40	0.0031556636
6	0xbaf51b4b	-0.001870015
7	0xbb2d333f	-0.002642825
8	0xbb1c5aba	-0.0023857788
9	0xbab9eae4	-0.0014184383
10	0xbb7ce582	-0.0038588946
11	0x3a902c23	0.0010999482
12	0x3b0ebc79	0.002177982
13	0x3b198c06	0.0023429408
14	0xbb02c0c1	-0.0019951316
15	0x3b28cc7d	0.002575665
16	0xbb4a85d3	-0.003090252
17	0x3afca6f9	0.0019275836
18	0x3aef73d0	0.0018268768
19	0x3b16cf30	0.0023011677
20	0xbb05dfb2	-0.0020427522
21	0xbb27e9af	-0.0025621464
22	0xbb09498e	-0.0020948383
23	0xbb169ce7	-0.0022981705
24	0xbb22e4fe	-0.0024855728
25	0x3b202d4c	0.0024441062
26	0xbb030b76	-0.0019995845
27	0x3b1d5055	0.002400418
28	0x39ecdcd2	0.00045177952
29	0xbb0d7e33	-0.0021590113
30	0x3b12b279	0.002238421
31	0xbafb0eb8	-0.0019154167
32	0x3b18d080	0.0023317635
33	0x3b4696bb	0.0030302245
34	0x3b1fdb80	0.0024392307
35	0x3b2b7135	0.0026160006
36	0xbaa5d624	-0.001265232
37	0xbb134323	-0.0022470437
38	0x3a73016b	0.00092699256
39	0x3b202fff	0.002444267
40	0x3b1d10e9	0.0023966378
41	0x3b0bd885	0.0021338772
42	0x3ac6e1e0	0.0015173517
43	0x3b1518ae	0.0022750306
44	0x3b1ee7d8	0.0024247076
45	0xbac513c2	-0.0015035796
46	0xbb1db0ab	-0.00240616
47	0x3a0bf54a	0.000533898
48	0xbb2671cb	-0.0025397416
49	0xbb140ab6	-0.0022589392
50	0x3b04b20b	0.0020247723
51	0xbb07c043	-0.0020713962
52	0x3b807940	0.003920704
53	0xbb1f5e5f	-0.0024317724
54	0xbb1bcc4f	-0.00237729
55	0xbb036b51	-0.002005298
56	0xbb0661bc	-0.0020505032
57	0x3b35970c	0.002770844
58	0xbb0e193e	-0.0021682526
59	0xbb1ddcf6	-0.0024088002
60	0xbb172525	-0.0023062911
61	0xbafa29fd	-0.0019086
62	0x3b30ea1a	0.0026995004
63	0x3b38cdc9	0.002819883

base.mlp.fc_h.0.weight f4 [64, 64]
0	0xbeb0de9c	-0.34544837
1	0x3e47b319	0.19501914
2	0xbd2cd830	-0.04219836
3	0xbe39e0f2	-0.18152216
4	0xbdd4652a	-0.10370858
5	0xbde189c4	-0.11012605
6	0xbddb0b3b	-0.106955014
7	0x3e817a3f	0.2528858
8	0x3ed63f3f	0.41845128
9	0x3cbdc7b7	0.02316652
10	0xbe8569ce	-0.26057285
11	0x3e1be702	0.15224841
12	0x3e739521	0.23787357
13	0xbe52bcef	-0.20579885
14	0x3c9a5c5e	0.018842872
15	0xbe2a6ac1	-0.16642286
16	0xbd8e8e7d	-0.06960771
17	0xbdba01c6	-0.090823695
18	0x3da0efc8	0.07858235
19	0xbde5fcc7	-0.11229854
20	0x3d8df577	0.06931584
21	0xbc931de3	-0.017958587
22	0xbcc402db	-0.023927143
23	0x3cbd6fd0	0.023124605
24	0xbd7cb830	-0.061699092
25	0xbd105cd4	-0.035244778
26	0x3e9ea362	0.30984026
27	0xbd5e28ef	-0.054238256
28	0xbdfb2ef1	-0.12264813
29	0x3e631387	0.22175418
30	0x3df6c91e	0.12050079
31	0x3d2e9d95	0.04263075
32	0x3e029cc1	0.1275511
33	0xbdbb8919	-0.09157009
34	0xbe931bc3	-0.28732118
35	0xbcc2c15d	-0.023773843
36	0x3cd8864e	0.026431229
37	0xbe3700ab	-0.17871349
38	0x3c2f31bf	0.010693013
39	0x3c926e69	0.017874913
40	0x3e08a3b7	0.13343702
41	0x3db6c3d9	0.08924074
42	0x3ba8ce5d	0.0051515535
43	0x3d206688	0.03916028
44	0xbeb2c609	-0.34916714
45	0x3dbae02e	0.0912479
46	0xbeca5487	-0.39517614
47	0xbdc9d06e	-0.09854208
48	0xbd1462e4	-0.036227122
49	0x3dbc0c85	0.091820754
50	0x3d9629c8	0.07332188
51	0xbe5f9a2f	-0.2183616
52	0xbd7291d0	-0.05922109
53	0x3e3db89e	0.18527457
54	0x3e2db4a8	0.16963446
55	0x3e3b2be6	0.18278465
56	0x3e41ca1f	0.1892476
57	0xbe5df875	-0.2167681
58	0xbd496cb3	-0.04917593
59	0x3f162500	0.5865021
60	0xbdd20443	-0.10254719
61	0x3d86e00a	0.06585701
62	0xbe0b6419	-0.13612403
63	0xbd746796	-0.0596691
64	0xbe8e9038	-0.27844405
65	0xba0e787a	-0.00054348225
66	0xbd641382	-0.055682667
67	0xbd1c1d80	-0.03811407
68	0x3d9d6f4c	0.07687244
69	0x3e0db3ff	0.13838194
70	0x3d61802a	0.055053867
71	0xbe304a3b	-0.17215817
72	0x3e2013df	0.1563258
73	0xbd8b2ee9	-0.06796057
74	0x3c73a05d	0.014869777
75	0x3e388554	0.1801961
76	0xbdda19e4	-0.106494695
77	0xbe51d2b4	-0.20490533
78	0x3e145d7c	0.14488786
79	0x3dc19bea	0.09453566
80	0xbd322005	-0.043487567
81	0x3e5e197e	0.21689412
82	0xbdd43afb	-0.10362812
83	0xbcda00ae	-0.026611652
84	0x3ea039cb	0.31294093
85	0x3da22767	0.07917672
86	0x3e85ad96	0.26108998
87	0x3df9844c	0.12183437
88	0x3d140d4e	0.0361455
89	0xbeaf1e50	-0.34202814
90	0x3e44e079	0.19226255
91	0xbe204147	-0.15649901
92	0x3e9faa26	0.311845
93	0xbe552549	-0.20815004
94	0xbd795a7c	-0.06087731
95	0xbe314e76	-0.17315087
96	0xbdd7ad35	-0.105310835
97	0x3d3fe6ee	0.04685109
98	0x3ae6c8e4	0.0017607477
99	0xbe69257b	-0.22768204
100	0xbeb22c7d	-0.34799567
101	0x3e071ee1	0.13195373
102	0x3cef8c2f	0.02924165
103	0x3ce92b46	0.028463017
104	0x3e44dbdc	0.19224495
105	0xbd070246	-0.032961152
106	0xbc5ce487	-0.01348222
107	0x3d9b5f06	0.07586484
108	0x3dbced52	0.09224953
109	0xbe78bafe	-0.24290082
110	0xbe149ad7	-0.14512192
111	0xbdd8f3ab	-0.10593351
112	0xbee9ce13	-0.45665035
113	0x3e3ac644	0.18239695
114	0xbd2df3b5	-0.042468745
115	0xbea70edd	-0.32628527
116	0x3e223855	0.15841801
117	0x3ea2314b	0.31678233
118	0xbe30ee78	-0.17278469
119	0xbbb67275	-0.0055678436
120	0x3db96352	0.09052147
121	0x3da7f73d	0.08201454
122	0xbdfbca02	-0.12294389
123	0xbe92b9b3	-0.28657302
124	0xbc8d2889	-0.017231243
125	0x3c9334ff	0.017969606
126	0x3e88784e	0.26654285
127	0x3e8c7a21	0.27436927
128	0x3dc1de24	0.09466198
129	0x3de1e84a	0.11030634
130	0x3dabde93	0.08392062
131	0x3e387489	0.18013205
132	0x3e357113	0.17718916
133	0xbd2d3861	-0.042290095
134	0xbe331edb	-0.17492239
135	0x3e56dade	0.20981929
136	0xbccabf46	-0.02474941
137	0x3d0908dc	0.033455715
138	0xbdc17ede	-0.09448026
139	0xbcefa576	-0.029253703
140	0x3e89d4d7	0.26920196
141	0xbe7e0da4	-0.24809891
142	0xbe5944e6	-0.21217689
143	0xbe2bbcd0	-0.16771245
144	0x3e304720	0.17214632
145	0xbc910db5	-0.017706731
146	0x3dbd13ab	0.09232267
147	0x3e5a6eb2	0.2133129
148	0x3e52541f	0.20539902
149	0xbd634e8a	-0.055494823
150	0x3e557885	0.20846756
151	0x3e593c75	0.21214469
152	0x3dfc3855	0.12315432
153	0xbd91b539	-0.071146436
154	0x3d04b097	0.03239497
155	0x3e16b833	0.14718704
156	0x3e91c81b	0.2847298
157	0x3dcdfa91	0.100575574
158	0xbe804701	-0.25054172
159	0x3d45f942	0.048333414
160	0x3e1bf0c2	0.1522856
161	0x3ca2b3b0	0.019861072
162	0x3cb4154a	0.021982808
163	0x3da9e336	0.0829529
164	0x3e2d0005	0.16894539
165	0x3d8c3c08	0.068473876
166	0xbef20480	-0.47269058
167	0x3e8ae400	0.27127075
168	0xbed3e65d	-0.4138669
169	0x3e2076fe	0.15670392
170	0x3e43664c	0.19081992
171	0xbe0ff577	-0.14058481
172	0x3e94d168	0.29066014
173	0x3e7b4301	0.24537279
174	0xbd5962b5	-0.05307265
175	0x3d6842d1	0.056704346
176	0x3e43f73f	0.19137286
177	0x3d41a8a0	0.047279954
178	0x3e1c306a	0.15252843
179	0xbd6562d2	-0.056002446
180	0x3e5db219	0.2164997
181	0x3e319b9c	0.17344517
182	0x3d98e3af	0.07465302
183	0xbc86c01f	-0.016449032
184	0x3ea6fbab	0.32613882
185	0x3e17b47a	0.1481494
186	0x3ddd9f08	0.108213484
187	0xbe141842	-0.14462379
188	0xbe021ade	-0.12705562
189	0x3e9aad31	0.3021026
190	0x3de66617	0.11249941
191	0x3d5e0448	0.0542033
192	0x3e6cdd49	0.23131289
193	0x3e8b96f1	0.27263597
194	0xbeffabc5	-0.49935737
195	0x3d8c0b5c	0.06838104
196	0xbcefa223	-0.029252117
197	0xbc7dc31d	-0.015488413
198	0x3e0052fd	0.12531658
199	0x3da35b88	0.079764426
200	0x3c8f2043	0.017471438
201	0xba4a0de3	-0.0007707758
202	0x3dd6320f	0.10458767
203	0xbdea6d12	-0.11446585
204	0x3ec3510b	0.38147768
205	0x3d9b068a	0.075696066
206	0xbe6799dc	-0.22617286
207	0x3da7be2d	0.0819057
208	0x3cdf1ad1	0.027234467
209	0x3dd577ec	0.10423264
210	0xbdb42703	-0.087965034
211	0x3d6d9571	0.058003847
212	0xbefa28a9	-0.48859146
213	0xbd81a4e7	-0.06330281
214	0x3c8d2605	0.017230043
215	0xbd7fd939	-0.06246302
216	0x3e427c1a	0.18992653
217	0x3d0d4feb	0.034500044
218	0x3e08be82	0.13353923
219	0xbdcfaa1f	-0.1013987
220	0x3dba7a9b	0.091054164
221	0xbe415a2b	-0.18882053
222	0xbe8476cd	-0.25871888
223	0x3dfd1af9	0.1235866
224	0x3e0fa8f7	0.14029299
225	0x3db2d1af	0.087314
226	0xbe56bafc	-0.20969766
227	0xbd0ea288	-0.03482297
228	0xbcc6aded	-0.024252856
229	0x3e549d25	0.20763071
230	0x3ea8c642	0.3296376
231	0xbe1433be	-0.14472863
232	0x3c96deb9	0.01841675
233	0xbea1a0f4	-0.3156811
234	0xbd557709	-0.052115474
235	0x3e366f68	0.17815936
236	0x3e5ba5ea	0.2145001
237	0x3c4f0829	0.012636223
238	0xbe4ddbcb	-0.20103376
239	0xbd2435ed	-0.04009049
240	0x3d18446c	0.037174627
241	0x3e31af27	0.17351972
242	0xbe61159b	-0.21980898
243	0x3e09d79d	0.13461156
244	0xbdc8b8c9	-0.0980087
245	0x3eca414c	0.39502943
246	0x3e863607	0.26213095
247	0x3cdc96c4	0.02692736
248	0x3e44bcd7	0.19212662
249	0x3debe569	0.11518366
250	0xbd67f1c7	-0.05662706
251	0xbdb8b08a	-0.09018047
252	0x3d846e3a	0.064663365
253	0xbdba3196	-0.09091489
254	0xbe205774	-0.1565836
255	0x3ca2b932	0.019863699

base.mlp.fc_h.0.bias f4 [64]
0	0x00000000	0.0
1	0x00000000	0.0
2	0x00000000	0.0
3	0x00000000	0.0
4	0x00000000	0.0
5	0x00000000	0.0
6	0x00000000	0.0
7	0x00000000	0.0
8	0x00000000	0.0
9	0x00000000	0.0
10	0x00000000	0.0
11	0x00000000	0.0
12	0x00000000	0.0
13	0x00000000	0.0
14	0x00000000	0.0
15	0x00000000	0.0
16	0x00000000	0.0
17	0x00000000	0.0
18	0x00000000	0.0
19	0x00000000	0.0
20	0x00000000	0.0
21	0x00000000	0.0
22	0x00000000	0.0
23	0x00000000	0.0
24	0x00000000	0.0
25	0x00000000	0.0
26	0x00000000	0.0
27	0x00000000	0.0
28	0x00000000	0.0
29	0x00000000	0.0
30	0x00000000	0.0
31	0x00000000	0.0
32	0x00000000	0.0
33	0x00000000	0.0
34	0x00000000	0.0
35	0x00000000	0.0
36	0x00000000	0.0
37	0x00000000	0.0
38	0x00000000	0.0
39	0x00000000	0.0
40	0x00000000	0.0
41	0x00000000	0.0
42	0x00000000	0.0
43	0x00000000	0.0
44	0x00000000	0.0
45	0x00000000	0.0
46	0x00000000	0.0
47	0x00000000	0.0
48	0x00000000	0.0
49	0x00000000	0.0
50	0x00000000	0.0
51	0x00000000	0.0
52	0x00000000	0.0
53	0x00000000	0.0
54	0x00000000	0.0
55	0x00000000	0.0
56	0x00000000	0.0
57	0x00000000	0.0
58	0x00000000	0.0
59	0x00000000	0.0
60	0x00000000	0.0
61	0x00000000	0.0
62	0x00000000	0.0
63	0x00000000	0.0

base.mlp.fc_h.2.weight f4 [64]
0	0x3f800000	1.0
1	0x3f800000	1.0
2	0x3f800000	1.0
3	0x3f800000	1.0
4	0x3f800000	1.0
5	0x3f800000	1.0
6	0x3f800000	1.0
7	0x3f800000	1.0
8	0x3f800000	1.0
9	0x3f800000	1.0
10	0x3f800000	1.0
11	0x3f800000	1.0
12	0x3f800000	1.0
13	0x3f800000	1.0
14	0x3f800000	1.0
15	0x3f800000	1.0
16	0x3f800000	1.0
17	0x3f800000	1.0
18	0x3f800000	1.0
19	0x3f800000	1.0
20	0x3f800000	1.0
21	0x3f800000	1.0
22	0x3f800000	1.0
23	0x3f800000	1.0
24	0x3f800000	1.0
25	0x3f800000	1.0
26	0x3f800000	1.0
27	0x3f800000	1.0
28	0x3f800000	1.0
29	0x3f800000	1.0
30	0x3f800000	1.0
31	0x3f800000	1.0
32	0x3f800000	1.0
33	0x3f800000	1.0
34	0x3f800000	1.0
35	0x3f800000	1.0
36	0x3f800000	1.0
37	0x3f800000	1.0
38	0x3f800000	1.0
39	0x3f800000	1.0
40	0x3f800000	1.0
41	0x3f800000	1.0
42	0x3f800000	1.0
43	0x3f800000	1.0
44	0x3f800000	1.0
45	0x3f800000	1.0
46	0x3f800000	1.0
47	0x3f800000	1.0
48	0x3f800000	1.0
49	0x3f800000	1.0
50	0x3f800000	1.0
51	0x3f800000	1.0
52	0x3f800000	1.0
53	0x3f800000	1.0
54	0x3f800000	1.0
55	0x3f800000	1.0
56	0x3f800000	1.0
57	0x3f800000	1.0
58	0x3f800000	1.0
59	0x3f800000	1.0
60	0x3f800000	1.0
61	0x3f800000	1.0
62	0x3f800000	1.0
63	0x3f800000	1.0

base.mlp.fc_h.2.bias f4 [64]
0	0x00000000	0.0
1	0x00000000	0.0
2	0x00000000	0.0
3	0x00000000	0.0
4	0x00000000	0.0
5	0x00000000	0.0
6	0x00000000	0.0
7	0x00000000	0.0
8	0x00000000	0.0
9	0x00000000	0.0
10	0x00000000	0.0
11	0x00000000	0.0
12	0x00000000	0.0
13	0x00000000	0.0
14	0x00000000	0.0
15	0x00000000	0.0
16	0x00000000	0.0
17	0x00000000	0.0
18	0x00000000	0.0
19	0x00000000	0.0
20	0x00000000	0.0
21	0x00000000	0.0
22	0x00000000	0.0
23	0x00000000	0.0
24	0x00000000	0.0
25	0x00000000	0.0
26	0x00000000	0.0
27	0x00000000	0.0
28	0x00000000	0.0
29	0x00000000	0.0
30	0x00000000	0.0
31	0x00000000	0.0
32	0x00000000	0.0
33	0x00000000	0.0
34	0x00000000	0.0
35	0x00000000	0.0
36	0x00000000	0.0
37	0x00000000	0.0
38	0x00000000	0.0
39	0x00000000	0.0
40	0x00000000	0.0
41	0x00000000	0.0
42	0x00000000	0.0
43	0x00000000	0.0
44	0x00000000	0.0
45	0x00000000	0.0
46	0x00000000	0.0
47	0x00000000	0.0
48	0x00000000	0.0
49	0x00000000	0.0
50	0x00000000	0.0
51	0x00000000	0.0
52	0x00000000	0.0
53	0x00000000	0.0
54	0x00000000	0.0
55	0x00000000	0.0
56	0x00000000	0.0
57	0x00000000	0.0
58	0x00000000	0.0
59	0x00000000	0.0
60	0x00000000	0.0
61	0x00000000	0.0
62	0x00000000	0.0
63	0x00000000	0.0

base.mlp.fc2.0.0.weight f4 [64, 64]
0	0xbeaf9f2a	-0.3430112
1	0x3e4a3235	0.19745715
2	0xbd22db01	-0.03975964
3	0xbe3761a8	-0.17908347
4	0xbdcf6692	-0.101269856
5	0xbde688e3	-0.11256578
6	0xbde00a93	-0.10939517
7	0x3e82b9e5	0.2553245
8	0x3ed77eb5	0.42088857
9	0x3ca9cc14	0.020727195
10	0xbe842a72	-0.25813633
11	0x3e1e6649	0.15468706
12	0x3e76146a	0.24031225
13	0xbe503dac	-0.20336026
14	0x3c86a37e	0.016435381
15	0xbe2cea44	-0.1688624
16	0xbd898fe5	-0.06716899
17	0xbdb5032e	-0.08838497
18	0x3d9bf0fc	0.076143235
19	0xbde0fe2f	-0.10985982
20	0x3d92f40f	0.07175457
21	0xbc7e48bd	-0.015520272
22	0xbcb00895	-0.021488467
23	0x3cd16a2e	0.025563326
24	0xbd72bb01	-0.059260372
25	0xbd1a5a6d	-0.037683893
26	0x3e9d63e1	0.30740264
27	0xbd542f50	-0.051802933
28	0xbe00169c	-0.12508625
29	0x3e6592d1	0.22419287
30	0x3df1ca78	0.11806196
31	0x3d249f0d	0.040190745
32	0x3e051c0b	0.12998979
33	0xbdb68a81	-0.08913136
34	0xbe945b8f	-0.28976104
35	0xbcd6b91e	-0.026211318
36	0x3cec70c7	0.02886237
37	0xbe3483c2	-0.17628387
38	0x3c572677	0.013131729
39	0x3ca668c7	0.020313634
40	0x3e06244f	0.13099788
41	0x3dbbc25d	0.09167931
42	0x3bf8b0ff	0.007589459
43	0x3d2a621b	0.041597467
44	0xbeb18665	-0.34672847
45	0x3db5e248	0.0888105
46	0xbec914e2	-0.39273745
47	0xbdc4d1d6	-0.096103355
48	0xbd0a76d8	-0.033804744
49	0x3dc10b1d	0.09425948
50	0x3d912a85	0.07088188
51	0xbe5d1ae5	-0.2159229
52	0xbd6894cb	-0.056782525
53	0x3e4037e7	0.18771325
54	0x3e2b3521	0.16719486
55	0x3e38b1be	0.18036553
56	0x3e444968	0.19168627
57	0xbe5b792b	-0.2143294
58	0xbd536ae6	-0.05161562
59	0x3f158538	0.584064
60	0xbdd70367	-0.10498696
61	0x3d81e24e	0.06341992
62	0xbe0de1d4	-0.13855678
63	0xbd6a6a67	-0.05723038
64	0xbe8e9038	-0.27844405
65	0xba0e787a	-0.00054348225
66	0xbd641382	-0.055682667
67	0xbd1c1d80	-0.03811407
68	0x3d9d6f4c	0.07687244
69	0x3e0db3ff	0.13838194
70	0x3d61802a	0.055053867
71	0xbe304a3b	-0.17215817
72	0x3e2013df	0.1563258
73	0xbd8b2ee9	-0.06796057
74	0x3c73a05d	0.014869777
75	0x3e388554	0.1801961
76	0xbdda19e4	-0.106494695
77	0xbe51d2b4	-0.20490533
78	0x3e145d7c	0.14488786
79	0x3dc19bea	0.09453566
80	0xbd322005	-0.043487567
81	0x3e5e197e	0.21689412
82	0xbdd43afb	-0.10362812
83	0xbcda00ae	-0.026611652
84	0x3ea039cb	0.31294093
85	0x3da22767	0.07917672
86	0x3e85ad96	0.26108998
87	0x3df9844c	0.12183437
88	0x3d140d4e	0.0361455
89	0xbeaf1e50	-0.34202814
90	0x3e44e079	0.19226255
91	0xbe204147	-0.15649901
92	0x3e9faa26	0.311845
93	0xbe552549	-0.20815004
94	0xbd795a7c	-0.06087731
95	0xbe314e76	-0.17315087
96	0xbdd7ad35	-0.105310835
97	0x3d3fe6ee	0.04685109
98	0x3ae6c8e4	0.0017607477
99	0xbe69257b	-0.22768204
100	0xbeb22c7d	-0.34799567
101	0x3e071ee1	0.13195373
102	0x3cef8c2f	0.02924165
103	0x3ce92b46	0.028463017
104	0x3e44dbdc	0.19224495
105	0xbd070246	-0.032961152
106	0xbc5ce487	-0.01348222
107	0x3d9b5f06	0.07586484
108	0x3dbced52	0.09224953
109	0xbe78bafe	-0.24290082
110	0xbe149ad7	-0.14512192
111	0xbdd8f3ab	-0.10593351
112	0xbee9ce13	-0.45665035
113	0x3e3ac644	0.18239695
114	0xbd2df3b5	-0.042468745
115	0xbea70edd	-0.32628527
116	0x3e223855	0.15841801
117	0x3ea2314b	0.31678233
118	0xbe30ee78	-0.17278469
119	0xbbb67275	-0.0055678436
120	0x3db96352	0.09052147
121	0x3da7f73d	0.08201454
122	0xbdfbca02	-0.12294389
123	0xbe92b9b3	-0.28657302
124	0xbc8d2889	-0.017231243
125	0x3c9334ff	0.017969606
126	0x3e88784e	0.26654285
127	0x3e8c7a21	0.27436927
128	0x3dc1de24	0.09466198
129	0x3de1e84a	0.11030634
130	0x3dabde93	0.08392062
131	0x3e387489	0.18013205
132	0x3e357113	0.17718916
133	0xbd2d3861	-0.042290095
134	0xbe331edb	-0.17492239
135	0x3e56dade	0.20981929
136	0xbccabf46	-0.02474941
137	0x3d0908dc	0.033455715
138	0xbdc17ede	-0.09448026
139	0xbcefa576	-0.029253703
140	0x3e89d4d7	0.26920196
141	0xbe7e0da4	-0.24809891
142	0xbe5944e6	-0.21217689
143	0xbe2bbcd0	-0.16771245
144	0x3e304720	0.17214632
145	0xbc910db5	-0.017706731
146	0x3dbd13ab	0.09232267
147	0x3e5a6eb2	0.2133129
148	0x3e52541f	0.20539902
149	0xbd634e8a	-0.055494823
150	0x3e557885	0.20846756
151	0x3e593c75	0.21214469
152	0x3dfc3855	0.12315432
153	0xbd91b539	-0.071146436
154	0x3d04b097	0.03239497
155	0x3e16b833	0.14718704
156	0x3e91c81b	0.2847298
157	0x3dcdfa91	0.100575574
158	0xbe804701	-0.25054172
159	0x3d45f942	0.048333414
160	0x3e1bf0c2	0.1522856
161	0x3ca2b3b0	0.019861072
162	0x3cb4154a	0.021982808
163	0x3da9e336	0.0829529
164	0x3e2d0005	0.16894539
165	0x3d8c3c08	0.068473876
166	0xbef20480	-0.47269058
167	0x3e8ae400	0.27127075
168	0xbed3e65d	-0.4138669
169	0x3e2076fe	0.15670392
170	0x3e43664c	0.19081992
171	0xbe0ff577	-0.14058481
172	0x3e94d168	0.29066014
173	0x3e7b4301	0.24537279
174	0xbd5962b5	-0.05307265
175	0x3d6842d1	0.056704346
176	0x3e43f73f	0.19137286
177	0x3d41a8a0	0.047279954
178	0x3e1c306a	0.15252843
179	0xbd6562d2	-0.056002446
180	0x3e5db219	0.2164997
181	0x3e319b9c	0.17344517
182	0x3d98e3af	0.07465302
183	0xbc86c01f	-0.016449032
184	0x3ea6fbab	0.32613882
185	0x3e17b47a	0.1481494
186	0x3ddd9f08	0.108213484
187	0xbe141842	-0.14462379
188	0xbe021ade	-0.12705562
189	0x3e9aad31	0.3021026
190	0x3de66617	0.11249941
191	0x3d5e0448	0.0542033
192	0x3e6cdd49	0.23131289
193	0x3e8b96f1	0.27263597
194	0xbeffabc5	-0.49935737
195	0x3d8c0b5c	0.06838104
196	0xbcefa223	-0.029252117
197	0xbc7dc31d	-0.015488413
198	0x3e0052fd	0.12531658
199	0x3da35b88	0.079764426
200	0x3c8f2043	0.017471438
201	0xba4a0de3	-0.0007707758
202	0x3dd6320f	0.10458767
203	0xbdea6d12	-0.11446585
204	0x3ec3510b	0.38147768
205	0x3d9b068a	0.075696066
206	0xbe6799dc	-0.22617286
207	0x3da7be2d	0.0819057
208	0x3cdf1ad1	0.027234467
209	0x3dd577ec	0.10423264
210	0xbdb42703	-0.087965034
211	0x3d6d9571	0.058003847
212	0xbefa28a9	-0.48859146
213	0xbd81a4e7	-0.06330281
214	0x3c8d2605	0.017230043
215	0xbd7fd939	-0.06246302
216	0x3e427c1a	0.18992653
217	0x3d0d4feb	0.034500044
218	0x3e08be82	0.13353923
219	0xbdcfaa1f	-0.1013987
220	0x3dba7a9b	0.091054164
221	0xbe415a2b	-0.18882053
222	0xbe8476cd	-0.25871888
223	0x3dfd1af9	0.1235866
224	0x3e0fa8f7	0.14029299
225	0x3db2d1af	0.087314
226	0xbe56bafc	-0.20969766
227	0xbd0ea288	-0.03482297
228	0xbcc6aded	-0.024252856
229	0x3e549d25	0.20763071
230	0x3ea8c642	0.3296376
231	0xbe1433be	-0.14472863
232	0x3c96deb9	0.01841675
233	0xbea1a0f4	-0.3156811
234	0xbd557709	-0.052115474
235	0x3e366f68	0.17815936
236	0x3e5ba5ea	0.2145001
237	0x3c4f0829	0.012636223
238	0xbe4ddbcb	-0.20103376
239	0xbd2435ed	-0.04009049
240	0x3d18446c	0.037174627
241	0x3e31af27	0.17351972
242	0xbe61159b	-0.21980898
243	0x3e09d79d	0.13461156
244	0xbdc8b8c9	-0.0980087
245	0x3eca414c	0.39502943
246	0x3e863607	0.26213095
247	0x3cdc96c4	0.02692736
248	0x3e44bcd7	0.19212662
249	0x3debe569	0.11518366
250	0xbd67f1c7	-0.05662706
251	0xbdb8b08a	-0.09018047
252	0x3d846e3a	0.064663365
253	0xbdba3196	-0.09091489
254	0xbe205774	-0.1565836
255	0x3ca2b932	0.019863699

base.mlp.fc2.0.0.bias f4 [64]
0	0xbb1fdb05	-0.002439202
1	0x00000000	0.0
2	0x00000000	0.0
3	0x00000000	0.0
4	0x3b09ccd8	0.0021026637
5	0xbaa3e31a	-0.0012503595
6	0xbb1ca2d4	-0.0023900764
7	0x00000000	0.0
8	0x3b1679cd	0.0022960783
9	0x3ad5d598	0.0016314266
10	0xbb30074a	-0.0026859813
11	0x3aac736b	0.0013156956
12	0x3afd2fa5	0.0019316567
13	0xbb08604c	-0.002080935
14	0xbb1eb2af	-0.002421539
15	0x3b3c99c5	0.0028778177
16	0x3b1015c3	0.0021985627
17	0x00000000	0.0
18	0xbb1fd322	-0.002438732
19	0xbb4bb5e8	-0.0031083766
20	0x00000000	0.0
21	0x3b1003e9	0.0021974987
22	0x3ae05e6d	0.0017117985
23	0xbb1f33f7	-0.0024292448
24	0x3b0d142b	0.0021526914
25	0xbb1fe7d8	-0.0024399664
26	0x00000000	0.0
27	0x3b16b04c	0.0022993265
28	0xbb25825a	-0.0025254698
29	0x00000000	0.0
30	0xbb211143	-0.002457694
31	0xbb0d073b	-0.0021519202
32	0xbb0ce84e	-0.002150077
33	0x3b1ca136	0.00238998
34	0x3b73271c	0.0037102168
35	0x3b1f3589	0.0024293384
36	0xbaf56127	-0.001872097
37	0xbb0e7df2	-0.002174255
38	0x00000000	0.0
39	0xbb1f622a	-0.0024319985
40	0x3b183360	0.0023223981
41	0x00000000	0.0
42	0xbb1bcb8d	-0.0023772449
43	0x3a6eb723	0.0009106269
44	0xbb1275a9	-0.0022347963
45	0x3b2e67b2	0.00266121
46	0x00000000	0.0
47	0x00000000	0.0
48	0x00000000	0.0
49	0x3b13896a	0.0022512325
50	0x00000000	0.0
51	0xbb1c9faf	-0.002389889
52	0xbb758e6a	-0.0037468919
53	0x3b1bae84	0.0023755142
54	0x00000000	0.0
55	0x00000000	0.0
56	0x3b026525	0.0019896713
57	0x3b1692cc	0.0022975681
58	0x3b0977ff	0.0020976064
59	0x00000000	0.0
60	0x00000000	0.0
61	0x3a876370	0.0010329317
62	0x3ab00818	0.0013430147
63	0xbb06f490	-0.0020592548

base.mlp.fc2.0.2.weight f4 [64]
0	0x3f8042ad	1.0020348
1	0x3f7f7c8b	0.9979941
2	0x3f80475d	1.0021778
3	0x3f7f8235	0.99808055
4	0x3f80369e	1.0016668
5	0x3f7f8ada	0.99821246
6	0x3f803911	1.0017415
7	0x3f7f4957	0.9972128
8	0x3f7f2425	0.9966453
9	0x3f7fd703	0.99937457
10	0x3f8050ec	1.0024695
11	0x3f7f719e	0.9978274
12	0x3f7f0160	0.99611473
13	0x3f7f6d40	0.9977608
14	0x3f803b47	1.001809
15	0x3f806497	1.0030698
16	0x3f801b91	1.0008413
17	0x3f802f51	1.001444
18	0x3f8048bd	1.0022198
19	0x3f7f62e6	0.9976028
20	0x3f7f82f4	0.99809194
21	0x3f803f55	1.0019327
22	0x3f80280b	1.001222
23	0x3f803af3	1.001799
24	0x3f803d7c	1.0018764
25	0x3f7eff7e	0.996086
26	0x3f804190	1.0020008
27	0x3f7f607a	0.99756587
28	0x3f806dae	1.0033472
29	0x3f80484b	1.0022062
30	0x3f804459	1.0020858
31	0x3f7f6c55	0.99774677
32	0x3f7f6b62	0.9977323
33	0x3f7f68bd	0.9976919
34	0x3f806f11	1.0033895
35	0x3f8050ca	1.0024655
36	0x3f7f7648	0.9978986
37	0x3f7f610b	0.9975745
38	0x3f7f7e66	0.99802244
39	0x3f803694	1.0016656
40	0x3f804ca5	1.002339
41	0x3f804207	1.002015
42	0x3f8046c5	1.0021597
43	0x3f7f6098	0.99756765
44	0x3f7f6c03	0.9977419
45	0x3f7fc029	0.9990259
46	0x3f8049fb	1.0022577
47	0x3f80439b	1.0020632
48	0x3f7f7ea2	0.998026
49	0x3f8043d3	1.0020698
50	0x3f7f6dbf	0.99776834
51	0x3f80450c	1.0021071
52	0x3f80507d	1.0024563
53	0x3f7f757e	0.99788654
54	0x3f7f7a7f	0.9979629
55	0x3f804c7b	1.002334
56	0x3f7f6932	0.9976989
57	0x3f804cd3	1.0023445
58	0x3f7f9a74	0.9984505
59	0x3f806f37	1.003394
60	0x3f803d67	1.0018739
61	0x3f7f7c4a	0.99799025
62	0x3f7f0a66	0.9962524
63	0x3f7f632d	0.99760705

base.mlp.fc2.0.2.bias f4 [64]
0	0xbb0b88f5	-0.002129135
1	0x3b04042a	0.0020144084
2	0xbb0eeaaa	-0.002180735
3	0x3afcbeaf	0.0019282902
4	0x3b0977d9	0.0020975976
5	0xbad9dfd2	-0.001662249
6	0xbb151608	-0.0022748727
7	0x3b368195	0.0027848233
8	0x3b19bb38	0.0023457538
9	0xbb763fd2	-0.003757466
10	0xbb1fe3d8	-0.002439728
11	0x3af0a0d6	0.001835848
12	0x3af714af	0.0018850769
13	0xbb0954ee	-0.0020955163
14	0xbb0db03c	-0.0021619936
15	0x3b4a44db	0.0030863795
16	0x3b114eb5	0.0022172157
17	0xbabec363	-0.0014554079
18	0xbb13ab37	-0.0022532472
19	0xbb2871fb	-0.0025702703
20	0x3afb7ee4	0.0019187597
21	0x3b109977	0.0022064128
22	0x3a891244	0.0010457714
23	0xbaf5ea60	-0.0018761866
24	0x3b0d2127	0.0021534653
25	0xbb117776	-0.0022196448
26	0xbb0da3d6	-0.0021612546
27	0x3b1a61e0	0.0023556873
28	0xbb40de87	-0.0029429512
29	0xbb110b80	-0.0022132099
30	0xbb141831	-0.0022597427
31	0xbb0d815b	-0.0021591994
32	0xbb0dfadc	-0.0021664416
33	0x3b200399	0.0024416207
34	0xbad13a8c	-0.0015962883
35	0x3b21591c	0.0024619764
36	0xbafeb7cd	-0.0019433439
37	0xbb0e6522	-0.002172776
38	0x3b01fed9	0.001983574
39	0xbb0b0cf8	-0.0021217447
40	0x3b1bfd9c	0.0023802286
41	0xbb04951a	-0.0020230473
42	0xbb0dee38	-0.0021656882
43	0x3b116d25	0.00221903
44	0xbb112301	-0.0022146108
45	0x3b640ed1	0.003479887
46	0xbb140cd3	-0.0022590652
47	0xbb079446	-0.0020687743
48	0x3b01c7ce	0.001980293
49	0x3b15a4fd	0.0022833936
50	0x3b129844	0.002236859
51	0xbb0ba79d	-0.0021309622
52	0xbb284de2	-0.0025681187
53	0x3b0e7d81	0.0021742287
54	0x3b05f571	0.0020440484
55	0xbb193d65	-0.0023382541
56	0x3b10eba3	0.0022113107
57	0x3b1a5543	0.0023549355
58	0x3acd8126	0.0015678748
59	0xbb5d2129	-0.0033741689
60	0xbaf72f62	-0.0018858726
61	0x3b03eb22	0.0020129164
62	0x3a50c4f8	0.0007963921
63	0xbb082288	-0.0020772535
