MAPPO/results/MyEnv/MyEnv/rmappo/check/run19/models/critic_agent1.pt (torch, 314992 bytes, 21 tensors)

base.feature_norm.weight f4 [651]
00000000: a74c 803f 035d 803f bd39 803f 0452 803f
00000010: fe4d 7f3f 2f40 7f3f 376d 803f 4737 7f3f
00000020: 126b 7f3f 753c 803f 3244 803f 5ab2 7f3f
00000030: d557 803f 3b2f 7f3f 4032 803f 103d 803f
00000040: 7c3e 803f b9a3 7f3f 6f50 803f bf0e 803f
00000050: af86 7f3f 0520 803f 8129 803f b742 803f
00000060: 8f29 803f 5054 803f 8136 803f af6f 7f3f
00000070: 09f1 7f3f fa3d 803f 4f37 803f bc76 7f3f
00000080: d33e 803f aaa3 7f3f c34f 803f a93e 803f
00000090: 0a51 803f 9a42 803f 4e63 803f 0c7a 7f3f
000000a0: e859 7f3f 2928 803f d4df 7f3f 7d13 803f
000000b0: 4974 7f3f 5665 803f 833a 803f 5635 803f
000000c0: 2f7e 7f3f bd48 7f3f 3350 7f3f 33d1 7f3f
000000d0: 9b49 7f3f 873c 803f aa19 803f e0a3 7f3f
000000e0: f866 7f3f d779 7f3f bb5c 803f 4e44 803f
000000f0: 4f75 803f 045e 803f 1a4e 803f fe90 7f3f
00000100: 4238 803f ac33 803f 7c71 7f3f b9a2 7f3f
00000110: d186 7f3f e23b 803f 14a4 7f3f 1d77 7f3f
00000120: 588d 7f3f cc11 7f3f 616f 7f3f 7016 803f
00000130: 883d 803f 733f 803f 7778 7f3f b101 803f
00000140: a28d 7f3f 2548 803f 163e 803f be51 803f
00000150: ee49 803f 3442 803f dace 7f3f 2737 7f3f
00000160: a742 803f dd93 7f3f d707 803f 5a21 803f
00000170: 79ed 7f3f 1e5e 7f3f 219f 7f3f 7362 803f
00000180: aa83 7f3f cc1c 803f 6561 7f3f c137 803f
00000190: 798f 7f3f ed57 803f e52a 803f ca49 803f
000001a0: 78f4 7f3f 844b 803f 514a 7f3f 9b63 7f3f
000001b0: f619 7f3f de23 803f fc87 7f3f e013 7f3f
000001c0: 3e33 803f 5f59 7f3f 425c 7f3f 106f 7f3f
000001d0: ff46 803f 714b 803f cd3f 803f d377 7f3f
000001e0: 0a25 803f 2d45 803f 6146 803f 585c 7f3f
000001f0: 3660 7f3f d355 7f3f b7af 7f3f 2645 803f
00000200: 4c57 7f3f c57c 7f3f 8217 7f3f 1756 803f
00000210: 2149 803f e087 803f 3750 803f a237 803f
00000220: 1934 803f 7a2d 803f 7152 803f f25c 7f3f
00000230: 6173 7f3f 1245 803f 5c51 803f 8c4c 7f3f
00000240: 99bf 7f3f d310 7f3f ea47 803f b95a 7f3f
00000250: e059 803f 1855 803f 7857 7f3f 8207 803f
00000260: 921a 803f 0d40 7f3f d33e 803f 1e44 803f
00000270: fd6e 7f3f 8032 803f 9d3f 803f 717e 7f3f
00000280: 2d49 7f3f c352 803f 0587 7f3f 0482 803f
00000290: 845e 7f3f fc67 7f3f 962b 803f 7b28 803f
000002a0: 2001 803f 1e60 7f3f f067 7f3f 4e29 7f3f
000002b0: 237c 7f3f c524 803f 313f 803f 6f45 803f
000002c0: f304 803f 2669 803f 7264 7f3f 57c4 7f3f
000002d0: c244 803f 0037 803f a63f 803f ea66 7f3f
000002e0: 932f 803f 8f04 803f 7a77 7f3f 748b 7f3f
000002f0: bf3f 803f 0a79 7f3f 6e46 7f3f 9984 7f3f
00000300: 6365 7f3f 9c3c 803f e07c 7f3f 57fd 7f3f
00000310: 9f35 803f d060 803f 254b 803f c171 7f3f
00000320: b684 7f3f e99e 7f3f d448 803f 84e5 7f3f
00000330: 492d 803f 1772 7f3f 0730 803f a968 7f3f
00000340: 6380 803f 21b9 7f3f e76f 7f3f 8816 7f3f
00000350: 2d11 803f b97e 7f3f 815a 7f3f d008 803f
00000360: b14b 803f 6ace 7f3f 532f 803f c35f 803f
00000370: aaba 7f3f 2e49 803f fc42 803f a756 803f
00000380: e05a 7f3f 8a42 803f 9862 7f3f 5d34 803f
00000390: 5970 7f3f b282 7f3f 4824 803f 92bc 7f3f
000003a0: 4646 803f efc4 7f3f 826b 7f3f fa88 7f3f
000003b0: 4072 7f3f fe48 803f a83f 803f 8f73 7f3f
000003c0: f257 7f3f 710a 803f c674 7f3f 6b44 803f
000003d0: d350 803f ab69 803f bf49 803f e537 803f
000003e0: 444a 803f 2c6f 7f3f 5597 7f3f 703b 803f
000003f0: 5b76 7f3f 5f4e 803f c074 7f3f 1a2e 803f
1.0023392 1.0028385 1.001762 1.0025029 0.9972838 0.9970731 1.003333 0.9969372
0.9977275 1.001845 1.0020812 0.9988152 1.0026804 0.9968144 1.0015335 1.0018635
1.0019069 0.99859196 1.0024546 1.00045 0.99814886 1.0009772 1.0012666 1.002036
1.0012683 1.002573 1.0016633 0.9977979 0.99977165 1.0018914 1.0016879 0.9979055
1.0019172 0.99859107 1.0024341 1.0019122 1.0024731 1.0020325 1.0030305 0.99795604
0.9974656 1.0012256 0.9995091 1.0005947 0.9978681 1.0030925 1.0017856 1.0016277
0.99801916 0.99720365 0.9973175 0.9992859 0.9972169 1.0018471 1.0007832 0.9985943
0.9976649 0.9979529 1.0028299 1.0020845 1.00358 1.0028691 1.0023835 0.99830616
1.0017169 1.0015769 0.9978254 0.9985767 0.9981509 1.0018275 0.9985974 0.9979113
0.9982505 0.9963653 0.99779326 1.0006847 1.0018778 1.0019363 0.9979319 1.0000516
0.9982549 1.0022017 1.0018947 1.0024946 1.0022562 1.0020204 0.99925005 0.9969353
1.0020341 0.99834996 1.0002393 1.0010178 0.9997173 0.99752986 0.99852186 1.0030044
0.9981028 1.0008788 0.9975799 1.0017015 0.99828297 1.0026833 1.001309 1.0022519
0.99982405 1.0023046 0.9972277 0.9976136 0.9964899 1.0010946 0.9981687 0.996397
1.0015638 0.99745744 0.9975015 0.9977884 1.0021666 1.0023023 1.001947 0.9979221
1.0011303 1.0021111 1.0021478 0.9975028 0.9975618 0.9974033 0.99877495 1.0021102
0.9974258 0.9979976 0.99645245 1.0026273 1.0022317 1.0041466 1.002448 1.0016978
1.0015899 1.0013878 1.0025159 0.997512 0.9978543 1.0021079 1.0024829 0.99726176
0.9990173 0.99635047 1.0021946 0.99747807 1.0027428 1.0025969 0.9974284 1.0002291
1.0008109 0.9970711 1.0019172 1.0020788 0.9977873 1.0015411 1.0019413 0.9980231
0.9972103 1.0025257 0.998154 1.0039678 0.99753594 0.9976804 1.0013301 1.0012354
1.0000343 0.9975604 0.9976797 0.996724 0.9979879 1.0011221 1.0019284 1.002119
1.000151 1.0032089 0.9976264 0.99908966 1.0020983 1.0016785 1.0019424 0.9976641
1.0014518 1.0001391 0.9979168 0.99822164 1.0019454 0.99794066 0.9971684 0.998117
0.9976408 1.0018497 0.9979992 0.9999594 1.0016364 1.0029545 1.0022932 0.9978295
0.99811876 0.9985185 1.0022225 0.9995959 1.001382 0.9978346 1.0014657 0.99769074
1.003918 0.9989186 0.99780124 0.99643755 1.0005242 0.9980274 0.99747473 1.0002689
1.0023099 0.9992434 1.0014442 1.0029224 0.998942 1.0022333 1.0020442 1.0026444
0.9974804 1.0020306 0.9975982 1.001598 0.99780804 0.998088 1.0011072 0.9989711
1.0021446 0.9990987 0.9977342 0.99818385 0.99783707 1.0022275 1.0019426 0.99785703
0.9974357 1.0003186 0.9978756 1.002088 1.0024666 1.0032247 1.0022506 1.0017058
1.0022664 0.9977901 0.9984029 1.0018139 0.9978997 1.0023917 0.9978752 1.0014069

base.feature_norm.bias f4 [651]
00000000: f7e3 19bb 7fc9 3fbb 41a8 e8ba 7632 26bb
00000010: 95a3 343b db07 413b e6a5 5ebb 9480 593b
00000020: c77a 163b 3f96 f9ba aa14 09bb ac5f 9e3a
00000030: e379 3abb b0fb 543b eda3 d1ba dc18 faba
00000040: 4c49 ffba 695b bc3a 2cd8 22bb 057f 0eba
00000050: d59f f63a f335 83ba 0b0d b8ba 5a69 06bb
00000060: 3d18 a8ba f8be 29bb 0ae5 e0ba 551d 113b
00000070: 6410 0e39 6403 f9ba af7d dfba ac89 0e3b
00000080: 933c ffba 17a0 bb3a 43fa 1fbb dca1 feba
00000090: 295f 22bb aec8 06bb e33d 48bb 44e3 073b
000000a0: 4f4d 293b 8d82 a4ba 8b50 c339 f959 30ba
000000b0: b19b 0d3b 0906 51bb 679e f2ba 8a0b d9ba
000000c0: 81c7 043b ef2d 5f3b 1ca4 313b b788 373a
000000d0: 7f77 383b 7549 f1ba 89c1 59ba 4e72 753a
000000e0: 952b 1a3b 2012 073b 18a3 3cbb f9fa 0bbb
000000f0: 2278 6fbb fcc6 3dbb 2104 1dbb 9c6b df3a
00000100: 5fb6 e5ba 33cc d2ba 17ee 0e3b 6fdb bd3a
00000110: 3280 f53a d9c0 f2ba 20b1 ba3a 42a1 0b3b
00000120: 57bd ec3a b10a 7e3b 5263 113b 8423 39ba
00000130: 4c45 f9ba ea81 ffba bf51 0c3b f06e 5438
00000140: 41b9 e73a 7512 1ebb d39f fbba 8148 24bb
00000150: 4247 15bb 7aa0 04bb 0f52 513a 93c1 4c3b
00000160: 9ca6 05bb d33c dc3a bd96 7db9 4aa6 87ba
00000170: 20d1 41b8 9aca 273b 733f c63a d4a9 48bb
00000180: 071a fa3a 0f6e 6bba 9a3b 203b 8e72 e1ba
00000190: 3f24 e43a bb7b 33bb 9d0d adba ab89 14bb
000001a0: a882 9139 17ac 17bb d5af 333b 9c17 213b
000001b0: 8ddb 6b3b 8ad3 92ba edcf f23a 7226 783b
000001c0: d4de d0ba c756 2d3b 5d2c 243b 97dd 123b
000001d0: 507b 0ebb 893a 18bb e3b8 00bb f679 083b
000001e0: ddf7 a1ba c5f3 0abb f38f 0dbb b92f 243b
000001f0: fd00 243b d90d 2d3b 9ed7 a13a 1001 0dbb
00000200: 4a25 2b3b fe53 043b ee47 6b3b 7445 2ebb
00000210: fc13 12bb 0fa9 8dbb e89a 21bb d367 e1ba
00000220: f9df d2ba 8a10 b9ba 6d05 26bb 6f3d 233b
00000230: 4cdd 0d3b f35d 0bbb 14ab 22bb 9d89 343b
00000240: 1449 843a 4ca2 723b ad8b 10bb b3a9 263b
00000250: 139f 39bb 8439 34bb f193 2a3b f6c3 83b9
00000260: a6ac 5cba 1c9c 413b af46 fcba c6ea 08bb
00000270: a859 113b f6bb ccba 5f1e 01bb efab 063b
00000280: 46aa 733b debf 26bb 3804 f43a 6d2a 89bb
00000290: 6ce1 243b 0af2 183b 9a7d b5ba 67ec a3ba
000002a0: d87f 53b8 2cb5 203b 458d 1a3b 531c 673b
000002b0: af19 053b c406 95ba fbc0 ffba b9d2 0cbb
000002c0: 77af 25b9 2b51 6fbb dba5 1c3b c0ab 723a
000002d0: cf34 0cbb 7a34 dfba 513a 00bb 9a41 1b3b
000002e0: de06 c2ba 4822 4238 999b 093b c587 eb3a
000002f0: 978d 01bb 4ab6 083b 08bf 3a3b 3b12 fe3a
00000300: 18bc 1c3b 762a f4ba fd6e 043b f08f b038
00000310: e584 d8ba f604 4bbb 4d96 19bb c3b2 0f3b
00000320: 75e5 f73a 7368 c73a 8b8d 12bb 84ea d539
00000330: de65 b8ba 918f 1d3b a6ca c3ba 14d7 183b
00000340: dd67 87bb c9ab 9a3a 1e6e 133b 1fbf 743b
00000350: 965a 10ba 47b3 023b d4a5 273b 3ea7 a2b9
00000360: 0d93 18bb 85a1 483a af1e c0ba 5cd7 4cbb
00000370: e868 903a da92 12bb 04b6 06bb 8a22 2fbb
00000380: 0dac 253b 173d 09bb 8aa7 1e3b c84d d4ba
00000390: a341 103b 8069 fc3a cc33 95ba 8191 893a
000003a0: e538 0dbb 6db6 633a d0f0 153b ca6d f03a
000003b0: e77c 0e3b 48d7 12bb 1b85 00bb 3a22 0c3b
000003c0: 0274 2a3b 2629 bab9 c8ef 0c3b e9fe 09bb
000003d0: 965c 22bb 4f79 60bb 5dc6 14bb 4a0b e5ba
000003e0: 38a8 15bb 28a8 113b 6a7c d43a 4822 f0ba
000003f0: 3310 0a3b 53d8 1dbb 859d 0c3b c163 bcba
-0.0023481825 -0.0029264388 -0.0017750339 -0.0025359667 0.0027563323 0.0029454145 -0.0033973395 0.003318821
0.0022961365 -0.0019041969 -0.0020916858 0.0012082956 -0.0028453998 0.003249865 -0.0015994288 -0.0019080895
-0.00194768 0.0014370504 -0.0024848087 -0.00054357975 0.0018815944 -0.0010010585 -0.0014041973 -0.0020509572
-0.0012824606 -0.002590118 -0.0017158103 0.0022142727 0.00013548281 -0.0018998203 -0.0017051006 0.002174954
-0.0019473009 0.0014314678 -0.0024410642 -0.00194269 -0.0024775958 -0.0020566392 -0.0030554465 0.0020734826
0.0025833433 -0.0012551114 0.00037253308 -0.0006727274 0.0021607692 -0.0031894466 -0.0018510342 -0.0016559225
0.0020260515 0.0034054478 0.0027105873 0.0007001268 0.0028147397 -0.0018408733 -0.0008306732 0.0009363041
0.0023524512 0.0020610169 -0.0028783735 -0.0021359308 -0.003654011 -0.0028957715 -0.002395876 0.001704562
-0.0017525664 -0.0016082585 0.0021809393 0.0014484952 0.0018730222 -0.0018520608 0.0014243461 0.0021305834
0.0018061799 0.0038763697 0.0022184444 -0.0007062482 -0.0019017844 -0.0019493673 0.002141103 5.0648057e-05
0.0017679111 -0.0024119888 -0.0019197412 -0.002506763 -0.0022778069 -0.0020237253 0.0007984945 0.003124331
-0.0020393496 0.0016802795 -0.00024184115 -0.0010349241 -4.620955e-05 0.0025602938 0.001512511 -0.0030618804
0.0019081243 -0.00089809386 0.0024449588 -0.0017200278 0.0017405822 -0.0027386982 -0.001320291 -0.0022665064
0.00027753902 -0.0023143345 0.0027418036 0.0024580723 0.0035989017 -0.001120196 0.0018525101 0.0037864712
-0.0015935549 0.0026449428 0.0025050857 0.002240991 -0.002174098 -0.002322825 -0.001964145 0.0020824648
-0.0012357194 -0.0021202427 -0.0021600693 0.002505286 0.0025025003 0.002640596 0.0012347584 -0.0021515526
0.0026114755 0.0020191665 0.0035901028 -0.002659169 -0.0022289744 -0.004323132 -0.0024658982 -0.001719708
-0.0016088478 -0.0014119309 -0.0025332824 0.0024908443 0.0021646796 -0.0021265715 -0.0024821209 0.0027547844
0.001009258 0.0037023006 -0.002205591 0.0025430738 -0.0028323575 -0.0027500102 0.0026028121 -0.0002513227
-0.00084180606 0.0029542511 -0.001924714 -0.002089189 0.0022178683 -0.0015619982 -0.001970194 0.0020549258
0.0037180348 -0.0025443952 0.001861698 -0.0041859658 0.0025158776 0.0023337626 -0.0013846636 -0.0012506366
-5.0425384e-05 0.002452205 0.0023582738 0.0035264685 0.0020309498 -0.0011369814 -0.0019512469 -0.0021487905
-0.00015800992 -0.0036516886 0.0023902569 0.000925716 -0.002139378 -0.0017029189 -0.001956601 0.0023690225
-0.0014803072 4.628513e-05 0.0020997284 0.001796954 -0.0019768232 0.0020860606 0.002849521 0.0019384095
0.0023915824 -0.0018628377 0.0020207756 8.4191444e-05 -0.0016519098 -0.0030978299 -0.0023435534 0.0021926619
0.0018912988 0.0015213623 -0.0022362198 0.00040801254 -0.0014068445 0.002404187 -0.0014937713 0.0023321556
-0.0041322545 0.0011800464 0.0022496055 0.0037345362 -0.00055066624 0.0019943283 0.002558102 -0.00031023653
-0.0023281008 0.0007653463 -0.0014657582 -0.0031256294 0.0011017593 -0.0022365362 -0.0020555267 -0.0026723468
0.0025279552 -0.0020940953 0.0024208748 -0.0016197497 0.0022011779 0.0019257516 -0.0011383235 0.0010495634
-0.0021548804 0.00086865464 0.002287913 0.0018343267 0.0021741928 -0.002240615 -0.0019610587 0.0021382705
0.0026009087 -0.00035507343 0.0021505225 -0.002105648 -0.0024774424 -0.0034251993 -0.0022701242 -0.0017474678
-0.0022835862 0.0022225473 0.0016211395 -0.0018320763 0.0021066784 -0.0024085238 0.0021456194 -0.0014372991

base.mlp.fc1.0.weight f4 [64, 651]
00000000: e295 893b 7add acbd 2f76 70bc 3500 623d
00000010: 1fcb 843d 70c0 b1bc de39 1fbd 1cf9 46bc
00000020: 332f 09bd f0d2 dfbc 1103 123c cc30 b33c
00000030: b491 a7bd 00c5 00bd c2bb 093c 9118 8dbc
00000040: 03ec 263d 7643 c0bc 2c70 433d f752 debd
00000050: 7e99 3e3d 2748 c13c f197 7fbd a4b9 cc3d
00000060: 9be0 873c 0f2b 8cbc 8a40 833d 513a 93bb
00000070: b31d e53c 6187 be3d 76fd 1d3e 3a1f f6bc
00000080: 14f6 69bd 9409 c5bc 0d0f bd3b 4127 43bc
00000090: a290 913d 4c69 ae3d 809e b83d b95b 30bd
000000a0: 2c29 c9bb d28b 03bd cda5 46bb 6005 2dbd
000000b0: e4b8 99bd b822 20bd 741d cebb fce0 6cbd
000000c0: 25b2 72bc ca53 73bd d84e 89bc 72c9 4e3d
000000d0: 218d 8d3d 6d4c 1d3d 45c2 07bd f94a 823b
000000e0: 46cd 00bd 0a98 b53b d684 9e3d 93e5 c4ba
000000f0: ec20 3ebc 6d84 093d de27 94bc 6159 e4bc
00000100: 76fe f63d f1b1 123d c9dc 4bbd 013f ef3c
00000110: 2ec5 babd 65d3 293d a470 eebc 1b3c ce3c
00000120: eea6 86bd a01c 973c e77c 193c 9bad 0b3c
00000130: 0233 c7bb 04ee 403d 9a81 e03a c417 d2bc
00000140: 78e2 82bd 5ddb f9bc 1e7b 853c 15c8 e13d
00000150: 4944 9fbc 274f aa3b 4fd5 e53c fc58 bebb
00000160: f880 263d 4104 a33d f2e3 983c e768 d8bd
00000170: 21d1 a1bc 2c70 e3bc 665e 02bd b83e 253c
00000180: 4fba 51bd 3af6 97bc a6f1 cebb 973f 5c3d
00000190: 8702 0a3d cd96 ef3d 29c5 44bd 50ef 083d
000001a0: a5df 45bc 1c85 2b3d 5536 253d 55c6 0a3d
000001b0: 85c1 19bd a3f5 903d 74ac 353d c05b a63c
000001c0: 0ca9 1f3d 8ac4 803c a3fc 36bd 40d2 063d
000001d0: 29c2 8f3d 5832 a83c 36e9 f43c d5a9 8abd
000001e0: 31c2 2f3d 18e7 e13c 3cc3 70bc 2b5e 87bd
000001f0: c86e 4f3d 52e9 303d 623c 803b c40b 963d
00000200: cd5e 11bd 5e44 b13c 6b63 7dbd aa1f 313d
00000210: a682 cabb 0794 303c 0526 043d ac5b cbbd
00000220: 3f5c 3ebd 651a 2e3d 29ed 813d 0adc 9fbd
00000230: 0010 2ebc ffb1 76bc a16b f83c 8638 23bd
00000240: a60c 753d f59d 053c 7aa0 a33d 04e0 e0bc
00000250: b4d9 763c 78c2 213d 955e a33d de7f a9bc
00000260: 92d5 09bd 5b2c 723c e996 e63d 0267 2eb8
00000270: c31a 76bd 04fa ef3d b2bb 953d f2a6 8e3d
00000280: 02ab 9a3b 4108 e5bc 4f2e 10be c811 31bd
00000290: 87c0 18bd 5cc5 fabc b7ba 6b3d 05c6 a63d
000002a0: 56d7 153d 4d02 cebd 97f2 d4bd 3e46 01bc
000002b0: eb74 363d bb7f 973d aa8e 4e3d ed92 2ebc
000002c0: fe34 9ebc 9176 523d 0e2c f4bc 8b6e b13b
000002d0: b972 b33d 26b1 18bd a4c1 05bd a0ba bf3c
000002e0: 80d4 eb3c a926 a9bd 873e c3bd ab20 a8bd
000002f0: e054 ac3c babd 55bd 0505 65bc 3605 9e3d
00000300: d1a0 1c3d 3d6f 393d 0dd5 813c c60b 4c3d
00000310: a112 3c3c 0148 3fbd 23a6 5c3d a636 803d
00000320: ae4e 233c ee16 18bd 389a 6d3c 73fb ec3c
00000330: ef26 003d 7a40 b83d 1dad 013d cf9b 0cbd
00000340: ebe6 2b3d 2178 a3bd 522c 86bd 7df4 76bc
00000350: a7ef 923d f605 5c3d b8d2 77bc 06a3 c4bd
00000360: 3861 dbbc 5e29 73bd 2204 693c ea42 853d
00000370: 5ce2 87bc e394 af3c 0a18 fe3d c473 5d3d
00000380: abf2 67bd ce78 b7bd 6f4f 56bd d651 97bd
00000390: 0238 263b 884f 3d3c 8797 263d 2d47 623d
000003a0: 86c5 8cbb 0ca7 07be c966 103d 6c08 55bd
000003b0: 8bd8 04bd 5433 c8bc bafc d33b d2dc 19be
000003c0: b42d 333d 4fb6 573d c5df 9abd bae4 9cbb
000003d0: 6838 8dbd 023e 5bbd c0fc 6f3d 0775 9abd
000003e0: 0359 f03b f843 7cbd cfb9 8fbd 1178 02bd
000003f0: a1c1 19be aeea 92bc fabd c23c acd0 663d
0.0041987756 -0.08440681 -0.014676615 0.05517598 0.06484055 -0.021698207 -0.038873546 -0.012144353
-0.03349228 -0.027322263 0.008911864 0.021873854 -0.081820875 -0.031437874 0.008406581 -0.017223628
0.040752422 -0.023469668 0.047714397 -0.10855668 0.0465331 0.023593975 -0.062400762 0.09996346
0.016586592 -0.017110376 0.06408794 -0.004493036 0.027968263 0.09303165 0.15428719 -0.030044187
-0.057119444 -0.024052419 0.0057696165 -0.011911214 0.07107665 0.085161775 0.090146065 -0.043056224
-0.0061389413 -0.032115765 -0.0030311227 -0.042241454 -0.07505968 -0.03909561 -0.006290132 -0.05783175
-0.014812981 -0.05940608 -0.016761228 0.050485082 0.06911684 0.038402963 -0.033144254 0.0039762226
-0.031445764 0.005541806 0.0774018 -0.0015022032 -0.011604529 0.033573557 -0.018085416 -0.02787465
0.12060253 0.03581423 -0.049771104 0.029204847 -0.0911964 0.041461367 -0.029106446 0.025175145
-0.06574808 0.018446267 0.009368158 0.0085252775 -0.0060790787 0.04710199 0.0017128468 -0.025646098
-0.06390852 -0.030500108 0.016294058 0.11024491 -0.01944174 0.005197424 0.028055815 -0.0058089476
0.040650338 0.07959796 0.01866338 -0.105668835 -0.01975304 -0.027763449 -0.031828307 0.010085754
-0.05120307 -0.018550027 -0.006315428 0.05377158 0.033693817 0.11698685 -0.04803959 0.03343135
-0.012077247 0.04187499 0.04033502 0.03388055 -0.03753807 0.070781015 0.044353917 0.020307422
0.038979575 0.015718717 -0.044674527 0.032915354 0.07019455 0.020531818 0.02989636 -0.06770674
0.042909805 0.027576014 -0.014694985 -0.06609758 0.05064276 0.04319126 0.003913448 0.07326463
-0.0354908 0.021639045 -0.06186239 0.043243088 -0.0061801253 0.01077748 0.03226282 -0.099295944
-0.04647469 0.04250564 0.06344063 -0.07805641 -0.010623932 -0.015057086 0.030324759 -0.039848827
0.059826516 0.008155336 0.07989593 -0.027450569 0.015066553 0.0394921 0.079770245 -0.020690855
-0.033650942 0.014781083 0.112592526 -4.1580766e-05 -0.060084116 0.117176086 0.07311191 0.06965436
0.0047200928 -0.027958037 -0.14080165 -0.04322985 -0.037292983 -0.030611686 0.057551112 0.08143238
0.036582313 -0.100590326 -0.10397833 -0.007890282 0.044545095 0.073974095 0.050429024 -0.010655147
-0.019312378 0.051382605 -0.029806163 0.005414789 0.08762116 -0.037278317 -0.032655373 0.02340442
0.028787851 -0.08259327 -0.095334105 -0.08209356 0.021036565 -0.05218289 -0.0139782475 0.07715838
0.038239304 0.0452721 0.01584866 0.049815916 0.011479051 -0.046699528 0.053869378 0.06260423
0.009967489 -0.037131242 0.014502101 0.028928494 0.03128713 0.08996673 0.031659234 -0.03432828
0.041968267 -0.07981897 -0.06551422 -0.015072939 0.07174616 0.053716622 -0.015125923 -0.09601407
-0.026779756 -0.059365623 0.014222177 0.065069035 -0.016587429 0.0214333 0.12406929 0.05406548
-0.05662791 -0.089585885 -0.052321848 -0.07388656 0.0025362973 0.011554606 0.04067185 0.05524366
-0.0042960076 -0.13247317 0.035254274 -0.052009985 -0.032433074 -0.024438538 0.0064693363 -0.15025643
0.043744758 0.052664097 -0.07562212 -0.0047880085 -0.06895524 -0.053525932 0.05859065 -0.075418524
0.00733483 -0.061588258 -0.07017862 -0.031852785 -0.1501527 -0.01793417 0.023772229 0.05635135

base.mlp.fc1.0.bias f4 [64]
00000000: 5a06 0ebb e018 fdba 0000 0000 4d25 20bb
00000010: 2924 d4ba 3a6e 12ba 8d48 713a 0000 0000
00000020: c357 30bb a074 dd3a 2ee4 ebba 0000 0000
00000030: 6355 e1ba c18b 29bb 0bac 1a3b 82c9 cb3a
00000040: 0000 0000 7184 1ebb 0000 0000 7244 1f3b
00000050: 0000 0000 0000 0000 dcb3 4539 4ea5 fa3a
00000060: 0800 923a 061c e43a 8368 323b 0000 0000
00000070: 0000 0000 f4ee 13bb 0000 0000 6816 333b
00000080: bf46 c5ba c5b2 07bb 398f c53a 0000 0000
00000090: 4d61 00bb cd1a b73a b700 1dbb f133 3a3a
000000a0: 0000 0000 953f 093b 53fa e2ba 675c 473b
000000b0: 9f25 1bbb 0000 0000 0000 0000 0346 753b
000000c0: 0000 0000 0000 0000 3c2f 1ebb 9e20 f83a
000000d0: 9422 0c3b 0000 0000 a000 10bb e69b 183b
000000e0: b6f9 f33a d9c2 d53a 273e 1fbb 3eb7 193b
000000f0: 78c7 9739 507f 00bb 3c95 22bb 61fd eaba
-0.0021671266 -0.0019309781 0.0 -0.0024436295 -0.0016185093 -0.0005585883 0.00092042313 0.0
-0.0026907779 0.0016895719 -0.001799708 0.0 -0.0017191585 -0.0025870653 0.002360108 0.0015547725
0.0 -0.0024187828 0.0 0.0024302271 0.0 0.0 0.00018854387 0.0019122751
0.0011138925 0.0017403371 0.0027222938 0.0 0.0 -0.0022572847 0.0 0.0027326588
-0.0015050991 -0.002070592 0.0015072591 0.0 -0.0019589246 0.0013969779 -0.0023956725 0.0007103077
0.0 0.002094244 -0.0017317034 0.0030420066 -0.0023673547 0.0 0.0 0.0037425763
0.0 0.0 -0.002413704 0.0018930619 0.0021382915 0.0 -0.0021973029 0.0023286282
0.0018613848 0.001630868 -0.002429852 0.0023455168 0.0002894958 -0.0019607134 -0.002480819 -0.0017928296

base.mlp.fc1.2.weight f4 [64]
00000000: 4225 803f 6e35 803f 3d69 7f3f 4450 803f
00000010: 766f 7f3f f07f 803f a47a 7f3f ea3c 803f
00000020: 2b45 803f b77b 7f3f 5f02 803f 8b46 803f
00000030: ba5c 7f3f e054 803f 3941 803f 2d71 7f3f
00000040: cc68 7f3f 3b42 803f 0485 7f3f ed51 803f
00000050: dc62 7f3f 5264 7f3f 5682 7f3f b934 803f
00000060: ad29 803f 032b 803f a45d 803f c57e 7f3f
00000070: 9b4b 803f e33b 803f 9b57 7f3f 555b 7f3f
00000080: b887 7f3f a871 7f3f b584 7f3f 558a 7f3f
00000090: 7d78 7f3f 9e37 7f3f 5344 803f cf91 7f3f
000000a0: 7c9c 7f3f f244 803f d493 7f3f 1083 803f
000000b0: d03d 803f 3c33 803f 957e 803f a912 7f3f
000000c0: bc97 7f3f 80b8 7f3f f044 803f 3d1f 7f3f
000000d0: 9547 803f d944 803f d65e 7f3f 2f4d 803f
000000e0: 3c3e 803f e437 7f3f 7150 803f 6857 7f3f
000000f0: 889b 7f3f 427c 7f3f 9364 7f3f 37f0 7f3f
1.001137 1.0016305 0.99769956 1.0024495 0.9977945 1.0039043 0.9979651 1.001859
1.0021108 0.9979815 1.0000724 1.0021528 0.99750865 1.0025902 1.0019904 0.9978207
0.9976928 1.0020212 0.9981234 1.0025002 0.9976022 0.9976245 0.9980825 1.001609
1.0012718 1.0013126 1.0028577 0.9980281 1.0023073 1.0018276 0.9974305 0.99748737
0.99816465 0.997828 0.9981187 0.9982045 0.99793226 0.9969424 1.0020851 0.9983186
0.9984815 1.002104 0.9983494 1.0039997 1.0018864 1.0015635 1.003863 0.9963785
0.99840903 0.998909 1.0021038 0.9965704 1.0021845 1.0021011 0.99754083 1.0023555
1.0018992 0.9969466 1.0024549 0.99742746 0.99846697 0.9979898 0.9976284 0.99975914

base.mlp.fc1.2.bias f4 [64]
00000000: 7000 e7ba c746 ebba 84e3 163b 44fa 20bb
00000010: c711 caba abc5 81bb 25e3 b93a aa07 f5ba
00000020: 8b11 17bb bf91 f03a fcc6 d5ba 2075 0dbb
00000030: 4902 cdba b983 29bb 73b7 1d3b 24a2 d93a
00000040: bd16 173b 4c56 0abb 216f f73a 096e 223b
00000050: 287e 1d3b 3c09 1c3b 5ca6 7e39 7ce3 033b
00000060: 5c90 b23a 8355 e83a 4a97 383b 71df 013b
00000070: efb8 17bb 5ad6 07bb 1f87 283b cf17 383b
00000080: 7655 bcba 7dae 04bb 12e5 fe3a babd ec3a
00000090: e5a1 f8ba abdc bd3a 2894 09bb b4ab 7b3a
000000a0: 1415 c93a d6a7 0b3b 909e d1ba 9d10 4c3b
000000b0: 12b6 f8ba 30cc ceba 3052 7cbb b799 7c3b
000000c0: e881 d23a a111 923a 5844 15bb 01e7 023b
000000d0: cf5a 123b d749 0abb a853 0cbb 17f3 1a3b
000000e0: 7881 fc3a ec5b db3a 7e50 21bb 3963 1c3b
000000f0: b133 c43a 3be2 f6ba 7566 1cbb bb1a c7ba
-0.0017624032 -0.001795017 0.0023023793 -0.0024563232 -0.0015416675 -0.0039603314 0.0014182074 -0.0018694301
-0.0023051228 0.0018353983 -0.0016309912 -0.0021584705 -0.001564094 -0.0025865866 0.0024065643 0.0016604108
0.0023054325 -0.0021108566 0.0018877723 0.0024784824 0.0024031494 0.0023809215 0.00024285301 0.0020124605
0.0013623345 0.001772568 0.0028166347 0.001981702 -0.0023151 -0.0020727129 0.0025715304 0.0028090363
-0.0014368731 -0.0020245605 0.001944693 0.0018061914 -0.0018969147 0.001448532 -0.002099285 0.0009600476
0.0015341365 0.0021309755 -0.001599269 0.0031137832 -0.001897516 -0.0015777405 -0.0038501136 0.003854377
0.0016060444 0.001114417 -0.0022776332 0.0019974115 0.0022331958 -0.002110114 -0.0021412168 0.0023643428
0.0019264659 0.0016735769 -0.0024614627 0.0023862852 0.0014969019 -0.0018835732 -0.002386478 -0.0015190461

base.mlp.fc_h.0.weight f4 [64, 64]
00000000: 4ff6 99bd 234d 1d3e cc44 c0be 348e e43d
00000010: cc6a 19be 8bd2 8e3e 83b6 24be 4d2a 2dbe
00000020: 8c2b f5be f03f a63e 3ab3 f7bd a503 f53c
00000030: 83e6 20be 3faf 82be 064c 9cbd ab78 99bd
00000040: bb39 803e a3f1 87bd 390c 14be e6f9 40bd
00000050: 6bc2 3c3c 11e6 273e 15df e13e 6625 4ebd
00000060: a306 9abe 6158 383b 2160 7d3d acef 9b3e
00000070: 0493 2cbd e6f0 a43d a075 89be 694a 5c3c
00000080: b1ce de3c 523c b93d fc18 71bd c67f 17bd
00000090: bf30 1f3e 2e67 33be dc97 cfbd 608e 2bbe
000000a0: 66c5 0d3c d4cf 46be 5b11 8c3e 6f2b 7a3c
000000b0: 49ef 4f3e b90f df3d 6cd4 913d 2401 273e
000000c0: 3f86 85bc 10ea 8c3d efe9 bfbc 1738 6cbe
000000d0: 0021 4b3d 1b2b d7bb 78a5 31bd b589 553e
000000e0: 4067 8cbd 2021 88be ca7a f53d 105d bc3c
000000f0: 6016 7bbe 620e 66be 058d 993c d0ba 033e
00000100: 5e00 13be 2fdd 8a3e a19a ddbd e83e d73d
00000110: 71d2 9ebe 5a1e 063d e4fe 31bd a831 37bd
00000120: 4e54 f53c 6b57 253e b390 983e b810 25be
00000130: ff34 95bc 1329 49bc 822b c73c f42a 7f3e
00000140: b05c 633e a3cc 813d b369 003e 93ed 9cbe
00000150: 0164 f13c 0b92 dd3d d9b8 81be bd09 cc3d
00000160: 8349 15bd eaec 2dbe 855e 86be f0d8 30bd
00000170: 05cb 2abe 3c1b 3d3e 6283 ce3e 8b11 06be
00000180: b0b4 243d ccb0 6bbe 9759 42be e608 d8bd
00000190: 2ceb 1fbe d493 8fbd 80c0 ca3d c832 e93d
000001a0: cef0 bb3e 3bfc 0a3e cf07 843e 79ea 013d
000001b0: a7a3 743c f099 103d b3f5 44be 1b27 373e
000001c0: 9ad2 a63e 1edc 92be e873 af3d 8ea7 733e
000001d0: 9a6e 74bd a94d 763e 4eb2 513e def6 d53d
000001e0: 234e 7abe da13 9dbd 1209 43be 9da6 4abe
000001f0: eeaf ae3c 985c 09be cf52 c6bb 45c4 ed3d
00000200: 920a 6abd 1428 13bd e232 8bbd 7874 97bd
00000210: 974f d63c 5b27 49bd 3893 76bd 73d3 8f3d
00000220: d524 b83e c39d 313e 4b1b e8bd de8b 47bc
00000230: 6f45 8f3c 7398 40be 3c88 1bbe 7828 553e
00000240: c0b1 373d 3fec 0b3f 51cb 8ebd 945a 4d3e
00000250: f301 f23d a643 843e f18c 923d 80cb f93c
00000260: ded7 d0bd 57fb 5abd 2635 10be c801 efbd
00000270: 0872 2bbe c790 1dbd e763 ae3d f091 46be
00000280: bb8e 183e 2c9b 003e 10b7 48bb 11a7 383e
00000290: f011 e4be 905a 8a3d 42da 88bd da0d 2ebe
000002a0: db4c d4be a6d7 a8bd 6eba 923e 7720 c7bc
000002b0: 219b 05be ff99 53bd 133f eb3d 9f89 1ebe
000002c0: 5fa4 a43e f9a6 8c3d 6ebc 40be d998 3abe
000002d0: 3cec efbd 2765 a93c a2d6 bf3d c54b f43c
000002e0: 8cd1 52be 02e9 cd3d 081d ce3e 523d 013e
000002f0: f8c4 77bd 8930 6f3e dc71 2cbe fb2e 573d
00000300: 8eca 8b3d f72e 09be f810 ecbc 3ecd 763e
00000310: e137 5dbd e5ac 67bb 9f99 05be e8f1 70be
00000320: 3a1b bcbd 20b8 b63d 7409 e1be ab31 92bd
00000330: a49f 4d3e 9cd8 3a3e 38d2 dcbd 679f 383e
00000340: 1c45 a23e 7959 513e 7de9 363e 368f dd3c
00000350: a035 143d ea39 c2bd df30 28be d3f0 61be
00000360: 74ce dd3d 6e3d e13d 940f 25be 8053 8abe
00000370: 3942 5c3e e3ca af3e d556 4ebe 7b8c 333e
00000380: f339 c93d a2d8 b6be b4a3 513e ae09 e0bd
00000390: 7e38 95bc abb9 c43d 5874 bd3a 0253 063e
000003a0: b533 75bd 28f7 f3bd 050b 02be ad97 bd3c
000003b0: 50b3 76be 1a2f 103e 460d d73e 3809 fe3d
000003c0: 213a 25be aeff 78be 9664 ee3d a15d deb9
000003d0: 562a e83d 3514 993e 5110 8bbd 7d0c 6d3e
000003e0: 1a40 703d 7bb7 1f3c a6b2 1dbd 1450 483e
000003f0: a9f1 bfbd 9b78 483d f891 71be 4633 9d3c
-0.07517683 0.15361457 -0.37552488 0.111599356 -0.14982146 0.27895007 -0.16085248 -0.16910668
-0.47884786 0.32470655 -0.12094732 0.029908964 -0.15712933 -0.25524327 -0.07631688 -0.07493719
0.25044045 -0.066378854 -0.14457788 -0.04711332 0.011520962 0.16396357 0.4411551 -0.050328635
-0.30083188 0.002812885 0.061859254 0.30456293 -0.042132393 0.0805376 -0.26847553 0.013445475
0.027198168 0.09044708 -0.058861718 -0.03698709 0.15545939 -0.17519829 -0.10136387 -0.1675353
0.0086530205 -0.19415218 0.2735699 0.015269144 0.20306124 0.10891671 0.071205944 0.16309029
-0.016299365 0.068805814 -0.023426978 -0.23068272 0.049592018 -0.006566418 -0.043370694 0.20853312
-0.06855631 -0.26587772 0.11986311 0.022993594 -0.24520254 -0.22466424 0.018744001 0.12864232
-0.14355609 0.27121875 -0.10820509 0.10510045 -0.3101993 0.03274379 -0.043455973 -0.04472509
0.029947426 0.16146629 0.29797897 -0.16119659 -0.018213747 -0.012277859 0.024312738 0.24918729
0.22203326 0.063378595 0.12540321 -0.30650005 0.02946663 0.10818871 -0.2533634 0.09962795
-0.03644706 -0.16984907 -0.26243988 -0.043175638 -0.16679008 0.1846742 0.40334612 -0.1309263
0.04021138 -0.23016661 -0.18979488 -0.10548572 -0.15617055 -0.07010618 0.09899998 0.11386639
0.36707157 0.13572781 0.25787207 0.03171775 0.014931596 0.035303056 -0.19234352 0.17886011
0.3258255 -0.2868356 0.08567029 0.23794386 -0.05967579 0.24053062 0.20478174 0.10447477
-0.2444387 -0.07669802 -0.19046429 -0.1979012 0.021324124 -0.13414228 -0.006052352 0.11609701
-0.057138987 -0.035926893 -0.067968145 -0.073952615 0.026160998 -0.049109798 -0.060198992 0.070227526
0.359656 0.17345338 -0.11333331 -0.012179343 0.017489163 -0.18808155 -0.15188688 0.20816219
0.04484725 0.5465736 -0.06972373 0.20054084 0.11816778 0.25832862 0.07155789 0.030492544
-0.101974234 -0.053462353 -0.14082775 -0.116702616 -0.16742718 -0.03846815 0.085151486 -0.19391608
0.14898197 0.12559193 -0.0030626692 0.18032481 -0.44544935 0.06755555 -0.066822544 -0.16997471
-0.41464886 -0.08244257 0.2865786 -0.024307473 -0.13047458 -0.051660534 0.1148664 -0.15482186
0.32156655 0.06867785 -0.1882188 -0.18222369 -0.1171498 0.020678116 0.0936711 0.029821286
-0.20587748 0.10054208 0.40256524 0.12621048 -0.06049058 0.23358358 -0.16840309 0.05253504
0.068257436 -0.13396822 -0.028816685 0.24101731 -0.05400837 -0.0035350856 -0.13046883 -0.2352978
-0.091848806 0.08921838 -0.43952525 -0.0713838 0.2008043 0.18246692 -0.107822835 0.18029557
0.3169335 0.20444287 0.17862506 0.027045827 0.036183953 -0.094837025 -0.16424893 -0.22064523
0.108303934 0.10998045 -0.16119224 -0.2701683 0.21509637 0.34334478 -0.20150311 0.17534058
0.09825506 -0.35712153 0.20472604 -0.10939346 -0.018215414 0.09605726 0.0014454229 0.13117602
-0.059863765 -0.11912376 -0.12699516 0.023143614 -0.2409184 0.14080468 0.42002314 0.12404102
-0.16135456 -0.24316284 0.11640279 -0.000424129 0.113362 0.2989823 -0.067902215 0.23149295
0.058654882 0.009748335 -0.03850045 0.19561797 -0.09372265 0.048943143 -0.23590839 0.019189488

base.mlp.fc_h.0.bias f4 [64]
00000000: 0000 0000 0000 0000 0000 0000 0000 0000
00000010: 0000 0000 0000 0000 0000 0000 0000 0000
00000020: 0000 0000 0000 0000 0000 0000 0000 0000
00000030: 0000 0000 0000 0000 0000 0000 0000 0000
00000040: 0000 0000 0000 0000 0000 0000 0000 0000
00000050: 0000 0000 0000 0000 0000 0000 0000 0000
00000060: 0000 0000 0000 0000 0000 0000 0000 0000
00000070: 0000 0000 0000 0000 0000 0000 0000 0000
00000080: 0000 0000 0000 0000 0000 0000 0000 0000
00000090: 0000 0000 0000 0000 0000 0000 0000 0000
000000a0: 0000 0000 0000 0000 0000 0000 0000 0000
000000b0: 0000 0000 0000 0000 0000 0000 0000 0000
000000c0: 0000 0000 0000 0000 0000 0000 0000 0000
000000d0: 0000 0000 0000 0000 0000 0000 0000 0000
000000e0: 0000 0000 0000 0000 0000 0000 0000 0000
000000f0: 0000 0000 0000 0000 0000 0000 0000 0000
0.0 0.0 0.0 0.0 0.0 0.0 0.0 0.0
0.0 0.0 0.0 0.0 0.0 0.0 0.0 0.0
0.0 0.0 0.0 0.0 0.0 0.0 0.0 0.0
0.0 0.0 0.0 0.0 0.0 0.0 0.0 0.0
0.0 0.0 0.0 0.0 0.0 0.0 0.0 0.0
0.0 0.0 0.0 0.0 0.0 0.0 0.0 0.0
0.0 0.0 0.0 0.0 0.0 0.0 0.0 0.0
0.0 0.0 0.0 0.0 0.0 0.0 0.0 0.0

base.mlp.fc_h.2.weight f4 [64]
00000000: 0000 803f 0000 803f 0000 803f 0000 803f
00000010: 0000 803f 0000 803f 0000 803f 0000 803f
00000020: 0000 803f 0000 803f 0000 803f 0000 803f
00000030: 0000 803f 0000 803f 0000 803f 0000 803f
00000040: 0000 803f 0000 803f 0000 803f 0000 803f
00000050: 0000 803f 0000 803f 0000 803f 0000 803f
00000060: 0000 803f 0000 803f 0000 803f 0000 803f
00000070: 0000 803f 0000 803f 0000 803f 0000 803f
00000080: 0000 803f 0000 803f 0000 803f 0000 803f
00000090: 0000 803f 0000 803f 0000 803f 0000 803f
000000a0: 0000 803f 0000 803f 0000 803f 0000 803f
000000b0: 0000 803f 0000 803f 0000 803f 0000 803f
000000c0: 0000 803f 0000 803f 0000 803f 0000 803f
000000d0: 0000 803f 0000 803f 0000 803f 0000 803f
000000e0: 0000 803f 0000 803f 0000 803f 0000 803f
000000f0: 0000 803f 0000 803f 0000 803f 0000 803f
1.0 1.0 1.0 1.0 1.0 1.0 1.0 1.0
1.0 1.0 1.0 1.0 1.0 1.0 1.0 1.0
1.0 1.0 1.0 1.0 1.0 1.0 1.0 1.0
1.0 1.0 1.0 1.0 1.0 1.0 1.0 1.0
1.0 1.0 1.0 1.0 1.0 1.0 1.0 1.0
1.0 1.0 1.0 1.0 1.0 1.0 1.0 1.0
1.0 1.0 1.0 1.0 1.0 1.0 1.0 1.0
1.0 1.0 1.0 1.0 1.0 1.0 1.0 1.0

base.mlp.fc_h.2.bias f4 [64]
00000000: 0000 0000 0000 0000 0000 0000 0000 0000
00000010: 0000 0000 0000 0000 0000 0000 0000 0000
00000020: 0000 0000 0000 0000 0000 0000 0000 0000
00000030: 0000 0000 0000 0000 0000 0000 0000 0000
00000040: 0000 0000 0000 0000 0000 0000 0000 0000
00000050: 0000 0000 0000 0000 0000 0000 0000 0000
00000060: 0000 0000 0000 0000 0000 0000 0000 0000
00000070: 0000 0000 0000 0000 0000 0000 0000 0000
00000080: 0000 0000 0000 0000 0000 0000 0000 0000
00000090: 0000 0000 0000 0000 0000 0000 0000 0000
000000a0: 0000 0000 0000 0000 0000 0000 0000 0000
000000b0: 0000 0000 0000 0000 0000 0000 0000 0000
000000c0: 0000 0000 0000 0000 0000 0000 0000 0000
000000d0: 0000 0000 0000 0000 0000 0000 0000 0000
000000e0: 0000 0000 0000 0000 0000 0000 0000 0000
000000f0: 0000 0000 0000 0000 0000 0000 0000 0000
0.0 0.0 0.0 0.0 0.0 0.0 0.0 0.0
0.0 0.0 0.0 0.0 0.0 0.0 0.0 0.0
0.0 0.0 0.0 0.0 0.0 0.0 0.0 0.0
0.0 0.0 0.0 0.0 0.0 0.0 0.0 0.0
0.0 0.0 0.0 0.0 0.0 0.0 0.0 0.0
0.0 0.0 0.0 0.0 0.0 0.0 0.0 0.0
0.0 0.0 0.0 0.0 0.0 0.0 0.0 0.0
0.0 0.0 0.0 0.0 0.0 0.0 0.0 0.0

base.mlp.fc2.0.0.weight f4 [64, 64]
00000000: 566b 97bd 63f6 1e3e 8158 bfbe 362e e83d
00000010: 79aa 1bbe 15c3 8f3e 5b81 22be 1a53 2bbe
00000020: e475 f4be 061c a83e 23d4 f6bd 9dde 013d
00000030: d364 23be 63c4 81be a9af 9ebd 6fd4 94bd
00000040: 0626 813e d38a 84bd a333 12be 0bb1 47bd
00000050: e34b 5a3c a8be 293e a303 e33e 55b1 53bd
00000060: 91eb 9abe 53a0 bb3a 4f35 763d f7db 9c3e
00000070: 6936 25bd 06b5 a73d 5589 88be 155c 843c
00000080: 350e ce3c f0fd b43d 219f 68bd 751d 10bd
00000090: 7d26 1d3e 85bd 30be 74ea cbbd b95d 29be
000000a0: 7b4e 2b3c 5394 48be d018 8b3e a5e5 6c3c
000000b0: 6ec6 513e 21be e23d b182 953d 293c 293e
000000c0: 1a83 6dbc 389b 903d d3e2 b4bc b1da 69be
000000d0: c42c 443d e044 9cbb 865d 3bbd 2bc4 533e
000000e0: 3308 90bd 918e 86be d718 f93d da92 d23c
000000f0: 8938 79be 6205 68be f158 893c 55f6 023e
00000100: 5e00 13be 2fdd 8a3e a19a ddbd e83e d73d
00000110: 71d2 9ebe 5a1e 063d e4fe 31bd a831 37bd
00000120: 4e54 f53c 6b57 253e b390 983e b810 25be
00000130: ff34 95bc 1329 49bc 822b c73c f42a 7f3e
00000140: b05c 633e a3cc 813d b369 003e 93ed 9cbe
00000150: 0164 f13c 0b92 dd3d d9b8 81be bd09 cc3d
00000160: 8349 15bd eaec 2dbe 855e 86be f0d8 30bd
00000170: 05cb 2abe 3c1b 3d3e 6283 ce3e 8b11 06be
00000180: b0b4 243d ccb0 6bbe 9759 42be e608 d8bd
00000190: 2ceb 1fbe d493 8fbd 80c0 ca3d c832 e93d
000001a0: cef0 bb3e 3bfc 0a3e cf07 843e 79ea 013d
000001b0: a7a3 743c f099 103d b3f5 44be 1b27 373e
000001c0: 9ad2 a63e 1edc 92be e873 af3d 8ea7 733e
000001d0: 9a6e 74bd a94d 763e 4eb2 513e def6 d53d
000001e0: 234e 7abe da13 9dbd 1209 43be 9da6 4abe
000001f0: eeaf ae3c 985c 09be cf52 c6bb 45c4 ed3d
00000200: 920a 6abd 1428 13bd e232 8bbd 7874 97bd
00000210: 974f d63c 5b27 49bd 3893 76bd 73d3 8f3d
00000220: d524 b83e c39d 313e 4b1b e8bd de8b 47bc
00000230: 6f45 8f3c 7398 40be 3c88 1bbe 7828 553e
00000240: c0b1 373d 3fec 0b3f 51cb 8ebd 945a 4d3e
00000250: f301 f23d a643 843e f18c 923d 80cb f93c
00000260: ded7 d0bd 57fb 5abd 2635 10be c801 efbd
00000270: 0872 2bbe c790 1dbd e763 ae3d f091 46be
00000280: bb8e 183e 2c9b 003e 10b7 48bb 11a7 383e
00000290: f011 e4be 905a 8a3d 42da 88bd da0d 2ebe
000002a0: db4c d4be a6d7 a8bd 6eba 923e 7720 c7bc
000002b0: 219b 05be ff99 53bd 133f eb3d 9f89 1ebe
000002c0: 5fa4 a43e f9a6 8c3d 6ebc 40be d998 3abe
000002d0: 3cec efbd 2765 a93c a2d6 bf3d c54b f43c
000002e0: 8cd1 52be 02e9 cd3d 081d ce3e 523d 013e
000002f0: f8c4 77bd 8930 6f3e dc71 2cbe fb2e 573d
00000300: 0cc8 8a3d 26bc 09be ed75 f0bc 0540 763e
00000310: 821b 5bbd 9080 85bb 6d18 06be 1c7f 71be
00000320: b730 bdbd 1641 b63d 0650 e1be 194c 93bd
00000330: 2bc8 4d3e 5e4b 3a3e 64bf dbbd fce8 383e
00000340: cdfe a13e 45cc 503e d95c 363e fa8f e33c
00000350: 2c03 123d 2553 c3bd fe59 28be 429e 61be
00000360: 8847 df3d 574e e23d c543 24be d299 8abe
00000370: fdb4 5b3e 9093 af3e 71e3 4ebe 88ea 333e
00000380: 88c2 c93d b18a b6be d25c 513e fa22 e1bd
00000390: d511 90bc a3c4 c43d 26b3 6d3a 5df1 053e
000003a0: 5e66 77bd 64c4 f2bd 7c54 01be 309e c13c
000003b0: 8440 77be eba1 0f3e 9ec6 d63e e7a5 fe3d
000003c0: c9c6 25be 5d8c 79be 4b62 ed3d 8206 cdb9
000003d0: e3cd e93d 99cd 983e f9d5 8bbd 63d3 6d3e
000003e0: 6d6e 733d 2a24 213c 8ce7 1fbd cf7f 483e
000003f0: fffa c0bd 2888 4b3d 05f5 70be d4d6 9b3c
-0.073935196 0.15523677 -0.3737221 0.11336939 -0.15201749 0.28078523 -0.15869658 -0.1673092
-0.47746193 0.3283388 -0.120521806 0.03170644 -0.1595643 -0.25345144 -0.07748348 -0.07267081
0.25224322 -0.06471791 -0.1427751 -0.048752826 0.013323757 0.16576636 0.44338712 -0.05168279
-0.30257848 0.0014314748 0.060109433 0.3063657 -0.040335093 0.08188824 -0.26667276 0.01615719
0.025153259 0.08837497 -0.056792382 -0.035184342 0.15346713 -0.17259796 -0.09956828 -0.16539659
0.010455723 -0.19587831 0.27167368 0.014459048 0.20485851 0.110714205 0.07300318 0.16526856
-0.014496589 0.070608556 -0.022080814 -0.2283733 0.047894254 -0.0047689527 -0.045743488 0.20680301
-0.07032814 -0.26280645 0.12162941 0.02570479 -0.24337973 -0.22658303 0.016766043 0.1278928
-0.14355609 0.27121875 -0.10820509 0.10510045 -0.3101993 0.03274379 -0.043455973 -0.04472509
0.029947426 0.16146629 0.29797897 -0.16119659 -0.018213747 -0.012277859 0.024312738 0.24918729
0.22203326 0.063378595 0.12540321 -0.30650005 0.02946663 0.10818871 -0.2533634 0.09962795
-0.03644706 -0.16984907 -0.26243988 -0.043175638 -0.16679008 0.1846742 0.40334612 -0.1309263
0.04021138 -0.23016661 -0.18979488 -0.10548572 -0.15617055 -0.07010618 0.09899998 0.11386639
0.36707157 0.13572781 0.25787207 0.03171775 0.014931596 0.035303056 -0.19234352 0.17886011
0.3258255 -0.2868356 0.08567029 0.23794386 -0.05967579 0.24053062 0.20478174 0.10447477
-0.2444387 -0.07669802 -0.19046429 -0.1979012 0.021324124 -0.13414228 -0.006052352 0.11609701
-0.057138987 -0.035926893 -0.067968145 -0.073952615 0.026160998 -0.049109798 -0.060198992 0.070227526
0.359656 0.17345338 -0.11333331 -0.012179343 0.017489163 -0.18808155 -0.15188688 0.20816219
0.04484725 0.5465736 -0.06972373 0.20054084 0.11816778 0.25832862 0.07155789 0.030492544
-0.101974234 -0.053462353 -0.14082775 -0.116702616 -0.16742718 -0.03846815 0.085151486 -0.19391608
0.14898197 0.12559193 -0.0030626692 0.18032481 -0.44544935 0.06755555 -0.066822544 -0.16997471
-0.41464886 -0.08244257 0.2865786 -0.024307473 -0.13047458 -0.051660534 0.1148664 -0.15482186
0.32156655 0.06867785 -0.1882188 -0.18222369 -0.1171498 0.020678116 0.0936711 0.029821286
-0.20587748 0.10054208 0.40256524 0.12621048 -0.06049058 0.23358358 -0.16840309 0.05253504
0.06776437 -0.13450679 -0.029353106 0.24047859 -0.05349303 -0.0040741637 -0.13095255 -0.23583645
-0.09237807 0.08899133 -0.44006366 -0.07192249 0.2009589 0.18192813 -0.10729864 0.18057626
0.3163971 0.20390423 0.17808856 0.027778614 0.035647556 -0.09537343 -0.1644058 -0.22033027
0.109023154 0.110500984 -0.16041477 -0.2707048 0.2145576 0.3429227 -0.2020395 0.17569935
0.09851557 -0.35652688 0.20445564 -0.109929994 -0.017586628 0.09607818 0.0009067528 0.13080354
-0.06040036 -0.11853865 -0.12629884 0.023635 -0.24145705 0.1402661 0.41948408 0.12433987
-0.16189112 -0.2436995 0.115910135 -0.00039105496 0.11416223 0.2984436 -0.068279214 0.23225169
0.059431482 0.009835282 -0.03903918 0.19580005 -0.09422874 0.049690396 -0.23530968 0.019023336

base.mlp.fc2.0.0.bias f4 [64]
00000000: 0434 edba 0000 0000 0000 0000 49cd 1b3a
00000010: 315b ea3a f2bd d73a 0000 0000 b033 81b9
00000020: 739e fe3a 0000 0000 c09e 1439 0000 0000
00000030: 0000 0000 0000 0000 cbf8 fbba debf a739
00000040: 0000 0000 e260 003b 0000 0000 0000 0000
00000050: 00b5 26bb 8455 37ba dd71 11bb 61b8 243b
00000060: 98c8 0bbb bcb2 b43a 3127 03bb 0000 0000
00000070: 2612 3ebb 0000 0000 f400 12bb 4f21 2f3b
00000080: 28b2 e83a 0000 0000 5037 48b9 f965 193b
00000090: 733e 16bb a43f 0cbb e3f7 8bba 0000 0000
000000a0: 465c 273b 1e91 0bb9 0000 0000 2013 a9b9
000000b0: b275 5e3b 0000 0000 5e98 c93a 7fcd 0ebb
000000c0: 0000 0000 0000 0000 0000 0000 651b 2a3b
000000d0: 2629 023b 3baa e73a 0000 0000 0000 0000
000000e0: 383d bb38 0000 0000 0000 0000 d627 96ba
000000f0: 3607 e8ba a8df a43a 6b62 4f3b 33d9 0a3b
-0.0018097167 0.0 0.0 0.00059433706 0.001787996 0.0016459806 0.0 -0.00024643308
0.0019425884 0.0 0.00014173519 0.0 0.0 0.0 -0.0019223926 0.00031995674
0.0 0.0019588997 0.0 0.0 -0.0025437474 -0.0006993639 -0.0022193112 0.0025134312
-0.002132928 0.0013786177 -0.0020012374 0.0 -0.0029002517 0.0 -0.00222784 0.0026722734
0.001775329 0.0 -0.00019094092 0.0023406728 -0.0022925406 -0.0021400237 -0.0010678734 0.0
0.0025537177 -0.00013310133 0.0 -0.0003224844 0.0033944664 0.0 0.0015380492 -0.0021789966
0.0 0.0 0.0 0.002595627 0.0019860952 0.0017674634 0.0 0.0
8.928258e-05 0.0 0.0 -0.0011455964 -0.0017702344 0.0012578862 0.0031644355 0.002118659

base.mlp.fc2.0.2.weight f4 [64]
00000000: 362a 803f 2d80 7f3f 627d 7f3f 2bce 7f3f
00000010: 2af9 7f3f ac32 803f 3581 7f3f dff5 7f3f
00000020: 1d40 7f3f 422a 7f3f da98 7f3f f07c 7f3f
00000030: 5c32 803f f682 7f3f f360 7f3f b6b4 7f3f
00000040: de50 803f 992b 803f 0182 7f3f 628c 803f
00000050: 5363 7f3f 87e1 7e3f 8f28 803f 2153 803f
00000060: eff0 7e3f 841c 803f b455 7f3f a244 803f
00000070: a45f 803f d93d 803f 1a1d 7f3f adf7 7f3f
00000080: ae90 803f 9e59 803f af6b 7f3f 273b 803f
00000090: 65f4 7f3f e35c 7f3f bd11 803f ec46 7f3f
000000a0: 9f56 803f 64ec 7f3f 1a7e 7f3f f82b 803f
000000b0: 3170 803f 57c0 7f3f 2279 7f3f e817 7f3f
000000c0: 9780 7f3f bf2d 803f 066d 803f 275f 803f
000000d0: bf42 803f 7f05 803f b07e 7f3f e045 803f
000000e0: 4a03 803f 8738 803f bd44 803f f9ac 7f3f
000000f0: 938f 7f3f 9779 7f3f b46c 803f 445e 7f3f
1.0012882 0.99804956 0.99800694 0.9992396 0.9998957 1.0015464 0.9980653 0.99984545
0.99707204 0.99673855 0.9984261 0.99800014 1.0015368 0.99809206 0.9975731 0.9988512
1.0024679 1.0013305 0.99807745 1.0042841 0.9976093 0.9956288 1.0012378 1.0025369
0.99586385 1.0008702 0.9974015 1.0020945 1.0029187 1.0018874 0.9965378 0.999873
1.0044153 1.0027349 0.9977369 1.0018052 0.9998229 0.9975111 1.0005413 0.99717593
1.0026435 0.9997008 0.9980179 1.0013418 1.0034238 0.9990286 0.9979421 0.99645853
0.9980559 1.0013961 1.0033271 1.0029038 1.0020369 1.0001677 0.99802685 1.0021324
1.0001004 1.0017251 1.0020977 0.9987331 0.9982845 0.99794906 1.0033174 0.9975321

base.mlp.fc2.0.2.bias f4 [64]
00000000: 414f b9ba a522 fd3a 20b5 003b adc2 5a3a
00000010: 76b3 ee3a ff5f de3a 4e74 f93a ecc8 2d38
00000020: 6273 043b b605 583b 1b62 1a3a 463b 013b
00000030: 9de7 c2ba a7bd f53a f635 f1ba 2742 813a
00000040: ab9f 21bb f984 033b 07b0 f73a d112 8dbb
00000050: dc09 26bb f5a6 853b b383 9cba 454a 273b
00000060: a7cf e8ba 4ca5 e83a cd1b feba 259c 07bb
00000070: bf4d 41bb 50b1 f2ba ab0a 08bb f071 2f3b
00000080: 45fe 91bb 3e19 34bb c140 ce3a 1a1a 1b3b
00000090: 639a e4ba 6732 03bb 5a49 973b 5c80 3a3b
000000a0: 5568 2a3b 4e8c 3139 000e 003b 12d6 9d3b
000000b0: 89fe 5e3b 5d23 6f3a 5346 fb3a aa4e 08bb
000000c0: 85e6 fa3a 3c98 afba e1ef 5cbb adca 2c3b
000000d0: d929 033b d9d6 e93a 2db6 fe3a c76f 0abb
000000e0: 17c5 0539 c778 dcba 1506 08bb 6485 76ba
000000f0: c7a6 d6ba 1b57 043b 3eda 563b 6a15 0e3b
-0.0014137999 0.0019312693 0.001963921 0.0008345049 0.0018211443 0.0016965865 0.0019031854 4.1433537e-05
0.0020210375 0.0032962388 0.00058892526 0.0019719168 -0.0014870052 0.0018748537 -0.0018402922 0.0009861634
-0.002466182 0.0020068272 0.0018897065 -0.0043052216 -0.0025335466 0.0040787407 -0.0011941105 0.0025526446
-0.001776208 0.0017749458 -0.0019386947 -0.0020692435 -0.0029495803 -0.0018515978 -0.0020758312 0.0026770793
-0.00445536 -0.0027480866 0.0015735851 0.002366668 -0.001744103 -0.0020019056 0.0046168985 0.0028457856
0.0026002128 0.00016932303 0.0019539595 0.004816779 0.0034026226 0.0009122396 0.0019170739 -0.002079884
0.0019142187 -0.001339681 -0.0033712315 0.0026365921 0.0020013957 0.0017840519 0.0019432955 -0.0021123753
0.0001275729 -0.0016820662 -0.0020755578 -0.0009404032 -0.0016376608 0.002019352 0.003278389 0.0021680244

rnn.rnn.weight_ih_l0 f4 [192, 64]
00000000: e0b1 383d 7126 1d3d e04f b2bd c22a 72bc
00000010: 661a b43d 9374 80bd 35b1 43bc abde fc3c
00000020: 7fc2 023d 6173 2f3c 1e9c 573e 9978 d8bd
00000030: 187d dabc 58d9 d53d a3f5 bcbb fd41 b4bd
00000040: 1810 0cbb b4aa 39bd 253f d3bd fd76 17bd
00000050: 7b5a 81bd 6485 b2bd 6454 21bd 3cde a03c
00000060: 521e 12be cc93 07bd ef04 323e 9502 6a3d
00000070: e929 dcbd 55c2 3bbd 9bf0 083d 057b 77bd
00000080: 93eb fbbc 7aa1 c6bd 75b3 723c 1505 78bd
00000090: 2162 45bd 51b9 943d 1168 a03d 02a6 07bd
000000a0: 4ad8 aabd b785 f2bd 715b 81bd 4742 48ba
000000b0: d59a 543c c22e 803d 8653 9b3d dc28 e8bd
000000c0: 1a8c b5bd 19ac 7abc 2edf ae39 98cb 6c3d
000000d0: accc f03b ffb2 d13d 9a91 98bd c7e2 b43c
000000e0: c761 d0bc 4e3a a9bd a54c e9bd 5029 71bc
000000f0: 85c8 ac3c 6faf c93d d76d c7bd 4ea4 003e
00000100: efee 263d 25f0 c53d e4a5 32bd 6c6b c9bd
00000110: 4b6c 6dbd 6369 cdbc 8671 57bd f911 a83d
00000120: d4aa fd3d ff83 fb3d 7aee 113e cfa6 9d3d
00000130: 81b6 343d 0c3f 2c3a aa0d b0bc 952c 99bb
00000140: 92f2 69bb 9db2 e23b 56f3 98bc 9ebb 26bc
00000150: 5c99 9bbd 3bc6 3fbe 48bd 883d 2b6b 84bd
00000160: 0a0e 7c3d a0b0 93bd 3108 acbd 7b13 06bd
00000170: 0378 403d 1c7e 563c 27b7 773d ea7a 08bd
00000180: 1a43 24be 49ee 19be 574f 02bd 0860 ebbc
00000190: 9e40 b3bd 87c8 0cbe ac28 913c ac27 23bc
000001a0: 3fad 953d 21df 033e 2eee 813c 7a86 2b3d
000001b0: 2b6e 3c3d 5042 f9bc 00e3 0c3d 889a 02bd
000001c0: 9f59 34bd 5d07 61bd 5d42 053e c1bd b8bd
000001d0: b3c2 e73d 8c64 ad3b 6316 c4bc 46d7 643d
000001e0: 6424 c2bc a2ce 70bd 5d2e 373d e40c 52bd
000001f0: a1a9 c9bb 22a0 bdbc af1f 97bd 9b45 d33d
00000200: 63fd 833d 05d5 cebd 02bd b8bd bd40 aabd
00000210: 07dd ee3c 99a9 903d e2e8 55bb eeac f4bc
00000220: 17e6 ddbd 26cf c33c bb89 1cbc b9d9 1dbe
00000230: 6ac4 a8bd ede3 b23c fba4 97bd 7133 6e3d
00000240: 116f 493d 6fc7 16bd 69d0 853d 12d1 b83b
00000250: 00e5 1a3e c856 8bbc a0d7 913d 4f4e 96bc
00000260: 8594 aa3c 7d6c 263d 5534 483d 8a5c c1bd
00000270: f2ed 773c 4174 883d 9edf d93d fe63 b3bd
00000280: fc6b 9f3b 3b04 333d 7dd7 babd e441 0dbd
00000290: 93d8 ebbb 7c13 8aba 06a2 953b 748c 003e
000002a0: fd35 c6bd f4c0 183c 83c1 c63c 3bc0 89bd
000002b0: cd0a 18be ca61 ac3d ec3c b7bc d909 4bbd
000002c0: 98e0 b83c e2af 1bbe 8eda aabc ecc1 323d
000002d0: 80f6 54bc bb52 b0bd f5f7 ff3d 8b62 85bd
000002e0: 5d39 a73d 39fe ea3b ae8e 1dbd 5980 613d
000002f0: 330a d43c 478b 063d f2e1 513b 64de 1d3e
00000300: e35e 99bd ddf6 b3bd 5985 2d3d d914 ad3d
00000310: 0017 e03b 58f5 1a3d a139 8fbd 25ba b0bd
00000320: 4235 023e e3c2 9f3d d64b a93b 43ee 6cbb
00000330: 06b5 af3c ef2d 3bbc 5246 ec3d 3039 f3bd
00000340: b189 15bc ea5e 0dbe 7780 9b3c 52a5 dbbd
00000350: c8bc 11bd 438f e53c ffe4 5abc 7204 b9bd
00000360: d081 9abc a7d9 34bc 4909 593d 3203 22bd
00000370: 9ee3 743d b960 a73c e19c afbc 9a7e 943d
00000380: c333 01be 0aa3 c13d a9bb b0bd 5933 be3c
00000390: 5558 1cbe 7678 153d 1126 a6bd f2c3 2c3d
000003a0: f5c8 9ebd 3e3c f7ba 1d0c b53d c5ae 863b
000003b0: 8303 48be b1c6 013b 86c8 7dbc 7b4e 7cbd
000003c0: 86a5 d6bd 602a 2b3c 6e1d 303c c070 74bd
000003d0: 60aa 06be 6481 c63c fb32 8f3d ecef a5bd
000003e0: 0189 89bd 6a36 0ebc bdbc 723c 20ee 15bd
000003f0: ad9f a4bd 3d0c e6bd c86b d13c 88bd a7bd
0.04509151 0.03836674 -0.08706641 -0.014780702 0.087940976 -0.06272235 -0.011944105 0.030867895
0.031923767 0.010708661 0.21055648 -0.10569877 -0.026670977 0.10441846 -0.005766587 -0.08801649
-0.0021371897 -0.04532881 -0.10314778 -0.03697871 -0.06316086 -0.087168485 -0.03938712 0.01963722
-0.14269379 -0.033099934 0.17384695 0.05713137 -0.10750181 -0.045839626 0.033432584 -0.060420055
-0.030751979 -0.09698768 0.014813294 -0.06055172 -0.048189286 0.07261909 0.07832349 -0.0331173
-0.08342035 -0.1184191 -0.06316269 -0.00076392706 0.012976368 0.06258918 0.0758429 -0.11335918
-0.08864613 -0.01529982 0.00033354148 0.05781135 0.0073486175 0.10239219 -0.07449646 0.022080792
-0.025437249 -0.08263074 -0.11391572 -0.014719322 0.021091709 0.098479144 -0.09737747 0.12562677
0.04075521 0.096649446 -0.043615237 -0.09834942 -0.057964604 -0.025074666 -0.0525985 0.08206553
0.123860985 0.12281036 0.14251128 0.07697832 0.04411936 0.0006570674 -0.02149089 -0.004674504
-0.0035697562 0.006918265 -0.01867072 -0.010176567 -0.0759761 -0.18727963 0.066767275 -0.06465753
0.061536826 -0.07211423 -0.084 -0.03273342 0.046989452 0.01309159 0.060477402 -0.033320345
-0.16041222 -0.15032305 -0.031813946 -0.028732315 -0.08752559 -0.1374837 0.01771959 -0.009958189
0.07308435 0.12878086 0.015860643 0.041876294 0.0460035 -0.030427128 0.03439617 -0.031885654
-0.04403078 -0.054938663 0.13013597 -0.09020568 0.11316433 0.005291527 -0.023936456 0.055869363
-0.023698993 -0.05879081 0.04472195 -0.051281825 -0.0061542545 -0.023147646 -0.0737909 0.103160106
0.06444814 -0.10099224 -0.090204254 -0.08313129 0.029158128 0.07063598 -0.003264003 -0.029867616
-0.10834902 0.023902487 -0.009554322 -0.15415086 -0.08240588 0.0218372 -0.074045144 0.058154527
0.049178187 -0.03681129 0.06533892 0.0056401575 0.15126419 -0.017009154 0.07121205 -0.018347887
0.020822773 0.040630806 0.048878033 -0.094414786 0.015132414 0.06662799 0.10638355 -0.08759306
0.0048651677 0.043705206 -0.091231324 -0.034486666 -0.0071974485 -0.0010534371 0.004566434 0.12553579
-0.09678266 0.009323347 0.024262195 -0.06726118 -0.1484787 0.08417089 -0.022367917 -0.04956994
0.022568032 -0.15203813 -0.020856168 0.04364197 -0.012998223 -0.086095296 0.12498466 -0.06512936
0.08165238 0.007171419 -0.038466148 0.055054042 0.02588377 0.03284767 0.0032025543 0.15416867
-0.07488801 -0.0878732 0.0423635 0.08451242 0.0068386793 0.037831634 -0.06993414 -0.08629254
0.12715629 0.078008436 0.005166511 -0.0036152757 0.021448623 -0.011424526 0.1153685 -0.11876142
-0.0091270665 -0.13805738 0.018982155 -0.10724892 -0.035580426 0.028022414 -0.013360261 -0.09034051
-0.018860728 -0.0110382205 0.05298737 -0.03955383 0.059787385 0.020431863 -0.02143711 0.0725071
-0.12617402 0.09454925 -0.08629543 0.023217844 -0.15268071 0.036491834 -0.08112729 0.042179056
-0.07753173 -0.0018862558 0.08840201 0.0041101896 -0.1953259 0.0019802267 -0.015489703 -0.061598282
-0.1048079 0.010447115 0.010749204 -0.05967784 -0.1315093 0.02423162 0.06992146 -0.08102402
-0.067155845 -0.0086799655 0.0148155065 -0.036604047 -0.08038268 -0.11232803 0.02556409 -0.08190447
