MAPPO/results/MyEnv/MyEnv/rmappo/check/run19/models/critic_agent2.pt (torch, 314992 bytes, 21 tensors)

base.feature_norm.weight f4 [651]
00000000: c20d 803f e4fd 7f3f 80a6 7f3f 8404 803f
00000010: 2b9d 803f 4a02 803f db05 803f ea01 803f
00000020: 49e9 7f3f 43b0 7f3f c0fc 7f3f bfee 7f3f
00000030: 29e4 7f3f 26f8 7f3f 8f07 803f c4f2 7f3f
00000040: e450 7f3f 18c5 7f3f 6801 803f 69d4 7f3f
00000050: 340f 803f 808d 7f3f 1522 803f 9aa4 7f3f
00000060: 36e0 7f3f 0304 803f 1913 803f 0424 7f3f
00000070: ede4 7f3f 6c3a 7f3f 9347 803f efd7 7f3f
00000080: 48f1 7f3f 0001 803f ae08 803f 034c 803f
00000090: effb 7f3f 18e9 7f3f 8d31 803f 8e14 803f
000000a0: a606 803f d14d 803f 3ee2 7f3f 1b01 803f
000000b0: 5457 7f3f 84ee 7f3f 2c90 803f e3f1 7f3f
000000c0: 2bf6 7f3f 9be0 7f3f 700a 803f 6295 803f
000000d0: a3b6 7f3f 3905 803f 4738 7f3f 1525 803f
000000e0: 9bfb 7f3f 71db 7f3f 4cf2 7f3f e20f 803f
000000f0: 3002 803f b00a 803f 09d0 7f3f 0502 803f
00000100: 82b6 7f3f a101 803f b60c 803f f0d2 7f3f
00000110: 8c75 803f d0f8 7e3f 0224 7f3f 89ea 7f3f
00000120: 4ac8 7f3f c638 7f3f 7df7 7f3f c70f 7f3f
00000130: 3617 803f 7314 803f 6cf7 7f3f a9e2 7f3f
00000140: 31ec 7f3f 7e19 803f a70f 7f3f 8264 7f3f
00000150: 9509 803f a9f1 7f3f 34d6 7f3f 37e8 7f3f
00000160: cef1 7f3f 9eb1 7f3f f638 803f 4103 803f
00000170: 0c29 803f c919 803f dfb5 7f3f 8343 803f
00000180: abf2 7e3f 8a39 803f e4bd 7f3f df17 803f
00000190: ad0a 803f b936 803f 072a 803f 420c 803f
000001a0: 271a 803f ab09 803f ace4 7f3f c00a 803f
000001b0: cde5 7e3f 4b2b 7f3f 5fdc 7f3f 0e06 803f
000001c0: de5e 7f3f f51c 803f d68e 803f 0e0b 803f
000001d0: 1de4 7f3f fe0d 803f 701c 803f a086 7f3f
000001e0: b4e1 7f3f 6a13 7f3f 8367 803f ded5 7f3f
000001f0: dacf 7f3f d9ad 7f3f e364 7f3f d10b 803f
00000200: 68d7 7f3f fe0c 803f c516 803f 4ff3 7f3f
00000210: 931e 803f da14 803f d345 803f e9be 7f3f
00000220: 22fb 7f3f d5b8 7f3f 0303 7f3f 622e 803f
00000230: 2904 803f 7cf9 7f3f 69f1 7f3f 53e8 7f3f
00000240: 84f7 7f3f fd80 803f 0ce2 7f3f 4127 803f
00000250: 3316 803f 7fe3 7f3f c0f2 7f3f 5f7f 803f
00000260: 80ab 7f3f d6fb 7f3f edfd 7f3f 8e03 7f3f
00000270: 2ae8 7f3f e912 803f 44ed 7f3f e8ed 7f3f
00000280: 03cb 7f3f b0fd 7f3f 2b11 803f 8104 803f
00000290: b38b 7f3f 8526 803f e5e8 7f3f 6b6f 7f3f
000002a0: 68a1 7f3f 5ad2 7f3f 256b 7f3f c603 803f
000002b0: 0204 803f 6a07 803f e701 803f e4ff 7f3f
000002c0: 5b19 803f fd5e 7f3f 62e4 7f3f f407 803f
000002d0: 58cf 7f3f c12e 803f 9500 803f 7dff 7f3f
000002e0: 5d68 7f3f 4254 7f3f 243e 803f 25f3 7f3f
000002f0: cad8 7f3f b5c4 7f3f 22d9 7f3f 41e7 7f3f
00000300: c913 803f f2e8 7f3f de0a 803f ca1b 7f3f
00000310: 5f0e 803f e293 7f3f 4d05 803f cd99 7f3f
00000320: a10c 803f 6714 803f 34c7 7f3f 7206 803f
00000330: d3ef 7f3f 0218 803f 851c 803f 4e17 803f
00000340: 8e0f 803f 61f0 7f3f b229 803f 63d1 7f3f
00000350: 7306 803f 1a11 803f d00e 803f 3c02 803f
00000360: 5201 803f 4f18 803f 0ef9 7f3f 60f5 7f3f
00000370: 47f7 7f3f 2a0f 803f 18c2 7f3f ae05 803f
00000380: df02 803f b3fc 7f3f 8c25 7f3f 1513 803f
00000390: 7dca 7e3f 44cc 7f3f 41da 7f3f 806e 7f3f
000003a0: b0c6 7f3f 4b15 803f 42fd 7f3f 9afe 7f3f
000003b0: 0e74 7f3f 1506 803f c3ee 7f3f 6bbe 7f3f
000003c0: bf0a 803f ca08 803f 5394 7f3f b120 803f
000003d0: a494 7f3f e2ef 7f3f 5107 803f 6d0c 803f
000003e0: a54d 803f 8cc7 7e3f c1e9 7f3f fc01 803f
000003f0: 91ca 7f3f 9b17 803f 8543 7f3f f306 803f
1.0004199 0.9999678 0.99863434 1.0001378 1.0047964 1.0000699 1.0001787 1.0000584
0.9996534 0.9987833 0.9999504 0.9997367 0.9995752 0.9998802 1.0002307 0.99979806
0.99732804 0.99910116 1.0000429 0.9993349 1.000464 0.99825287 1.0010401 0.9986054
0.99951494 1.0001224 1.0005828 0.9966433 0.9995869 0.9969852 1.0021843 0.99938864
0.9997754 1.0000305 1.0002649 1.0023197 0.99993795 0.9996505 1.0015122 1.0006273
1.0002029 1.0023748 0.99954593 1.0000337 0.9974263 0.9997332 1.0043998 0.99978465
0.99985 0.99952096 1.0003185 1.0045588 0.99888057 1.0001594 0.9969525 1.0011317
0.99993294 0.99944216 0.9997909 1.0004847 1.0000668 1.0003262 0.9992681 1.0000616
0.9988786 1.0000497 1.0003879 0.9993124 1.0035872 0.9959841 0.9966432 0.9996725
0.9991499 0.99696004 0.9998701 0.9963345 1.0007083 1.0006241 0.9998691 0.9995523
0.99969774 1.000778 0.9963326 0.9976274 1.0002924 0.9997812 0.99936223 0.99963707
0.9997834 0.998804 1.0017383 1.0000993 1.0012527 1.0007869 0.9988689 1.0020603
0.9958903 1.001756 0.99899125 1.0007285 1.0003258 1.00167 1.0012826 1.0003741
1.0007981 1.000295 0.999583 1.0003281 0.995694 0.99675435 0.99945635 1.0001848
0.9975413 1.0008837 1.004359 1.0003374 0.9995745 1.000427 1.0008678 0.99814796
0.9995377 0.99639 1.0031589 0.9993571 0.9992653 0.99874645 0.99763316 1.0003606
0.9993806 1.0003965 1.0006949 0.99980634 1.000933 1.0006363 1.0021309 0.9990068
0.99992573 0.99891406 0.9961397 1.0014155 1.000127 0.9999006 0.9997774 0.99963874
0.99987054 1.0039364 0.99954295 1.0011979 1.0006775 0.99956506 0.9997978 1.003887
0.99871063 0.99993646 0.99996835 0.996148 0.9996363 1.0005771 0.99971414 0.9997239
0.99919146 0.9999647 1.0005239 1.0001374 0.9982254 1.0011755 0.99964744 0.99779385
0.9985566 0.99930346 0.99772865 1.0001152 1.0001223 1.0002263 1.000058 0.99999833
1.0007738 0.99754316 0.9995786 1.0002427 0.99925756 1.0014268 1.0000178 0.9999922
0.9976862 0.9973794 1.0018964 0.99980384 0.9994017 0.99909526 0.99940693 0.9996224
1.0006038 0.9996482 1.0003316 0.9965178 1.0004386 0.99835026 1.0001618 0.99844056
1.0003854 1.0006226 0.99913335 1.0001967 0.9997532 1.0007327 1.0008703 1.0007112
1.0004747 0.99976164 1.0012724 0.99928874 1.0001968 1.0005219 1.000452 1.0000682
1.0000403 1.0007418 0.999894 0.9998379 0.9998669 1.0004628 0.9990554 1.0001733
1.0000876 0.99994963 0.99666667 1.0005823 0.9952772 0.9992106 0.99942404 0.99777985
0.9991255 1.0006498 0.99995816 0.99997866 0.9978646 1.0001856 0.99973696 0.9989993
1.000328 1.0002682 0.998357 1.0009977 0.9983618 0.9997541 1.0002233 1.0003792
1.0023695 0.99523234 0.99966055 1.0000606 0.99918467 1.0007204 0.997124 1.0002121

base.feature_norm.bias f4 [651]
00000000: a687 ddb9 f3eb 5338 ebff c43a d67a dfb8
00000010: 9df6 a4bb 79d4 3138 6856 63b9 7ef5 2ab8
00000020: 7a2f 9a39 764b a43a 2cd2 e5b6 3d0e 9939
00000030: 1cc8 ed39 db2c 1e39 9742 8ab9 328a 5a39
00000040: 6d77 423b dd06 573a 9e64 98b8 d92f 553a
00000050: 412d 05ba 207e f23a 645b 8fba f9a8 be3a
00000060: ffdf 073a a60b 00b9 999a 46ba f0ca 713b
00000070: 2be4 df39 d49f 543b f916 29bb dbd0 0c3a
00000080: 057f 8939 fcd0 f3b6 f251 abb9 c4ac 27bb
00000090: f2ac 5938 78fa 9d39 8f66 c5ba a2fc 1bba
000000a0: 32de 51b9 312f 34bb 58e7 bd39 f2e5 39b8
000000b0: 6176 553b e39d 9c39 66d1 9cbb 3052 4639
000000c0: 99be 0339 ac86 d739 bb93 94b9 5624 9ebb
000000d0: a9ca 7d3a a4f2 2db9 719d 5f3b cd80 b7ba
000000e0: bc0d fa37 d945 1f3a 5259 6e39 b8d1 ebb9
000000f0: 64ad e5b8 daaa adb9 c8f5 273a c00e 18b9
00000100: 65d5 973a 81bb 82b8 8266 e4b9 1b04 1c3a
00000110: 872b 71bb dd61 8d3b e909 6b3b 30f2 8e39
00000120: bfa7 333a b3ff 553b d829 2639 6e7a 803b
00000130: 244c 42ba 58a4 2cba cb57 2939 02aa f139
00000140: eb3a 9039 3b2f 39ba e6e9 763b e16f 263b
00000150: dc7f 67b9 3419 6f39 b4b3 163a 6764 d539
00000160: 978c 5639 0399 b53a 3242 daba 241f dfb8
00000170: 1298 95ba e5b1 57ba 5788 8b3a 1759 14bb
00000180: a2f3 8e3b 0fb7 e1ba eb3b 883a 6dd2 40ba
00000190: 24ad afb9 71f6 d9ba a3bd b3ba 317f cbb9
000001a0: 9507 55ba e335 96b9 229f cb39 6780 94b9
000001b0: a77e 983b 0d66 5b3b 9675 e739 4471 78b9
000001c0: 677a 2e3b cfc1 7dba 7551 99bb b054 f2b9
000001d0: 45a0 b339 7f77 eab9 d6cc 65ba 500f 023b
000001e0: 4a96 f839 75c4 793b ef9d 67bb 57f0 2f3a
000001f0: 3661 3f3a c260 903a 0929 293b a186 dab9
00000200: 5dfc 5d3a a309 25ba 66cc 3aba f397 8f39
00000210: c724 9cba fcec 35ba faf7 17bb b74d 7a3a
00000220: f50c 1737 c942 ab3a 535d 823b 6546 c2ba
00000230: da5c fcb8 94f8 f938 17a2 8039 7620 d839
00000240: a0a6 1b39 7d09 85bb dc15 f439 73bb d3ba
00000250: 1e62 70ba cd88 fb39 cd8d 8239 9e9a 89bb
00000260: cf33 ab3a 0f2b f338 c8a8 c237 8376 6d3b
00000270: 61de ae39 8f03 43ba 997d 9739 f912 9339
00000280: bb24 633a a37c b437 48cb 09ba 0a30 e6b8
00000290: e194 e73a 6505 a3ba 8157 c739 2f9d 0b3b
000002a0: 61dd 073b d13f 2c3a 7684 183b 3b18 32b9
000002b0: ba0f a1b8 ec94 00b9 58ba 8ab8 4fbb b337
000002c0: e9b8 29ba f05e 283b a6ae ba39 6dee 8bb9
000002d0: 0d7c 433a 0474 a7ba c02f 0fb7 2c8b 5438
000002e0: 5818 323b 921d 3c3b b242 02bb 0b4c 6e39
000002f0: 6761 243a 31d8 bb3a c22a 1a3a 0ab9 1e3a
00000300: 95f6 2aba 2894 b239 aa4b ebb9 eb20 783b
00000310: 3732 beb9 dc26 f63a f126 5cb9 bd5e ba3a
00000320: bb7d 92b9 46de 26ba 312d 5a3a ca52 26b9
00000330: cfae 8839 b3ee 1aba 5b48 96ba d9a7 28ba
00000340: 089c 10ba b0f6 8e39 dc7f 81ba c029 063a
00000350: f8d5 17b9 7c77 87b9 dbaf 5d3a 0507 a9b8
00000360: 42d3 21b8 fe02 d537 b62d 053a d436 3339
00000370: a807 1cb9 fa03 7ab8 b89f 793a 11a3 2ab9
00000380: 0c49 dfb8 7356 de37 f559 603b b62d 25ba
00000390: 53d2 a53b 5a61 6dbb 318e 3a39 5cc8 623b
000003a0: 1afe 523a bb25 2cba fef4 7838 0017 d435
000003b0: 9719 fd3a 5d94 61b9 937e 9a39 8a83 863a
000003c0: e4db 8eb9 4492 a0b9 dbb5 ec3a d5d6 4cba
000003d0: 80e2 eb3a 8703 5539 e3c4 0cb9 60ba 2ab9
000003e0: 7c2f 26bb d864 a13b d103 8b39 524b 1036
000003f0: d7b0 6c3a bec4 5bba 68c2 463b 2a0a 07b9
-0.0004225347 5.0526065e-05 0.0015029883 -0.000106563486 -0.0050342814 4.239797e-05 -0.00021680596 -4.075979e-05
0.00029408542 0.0012534696 -6.849199e-06 0.00029193042 0.00045353256 0.00015084764 -0.00026371024 0.00020841582
0.0029673234 0.0008202622 -7.266666e-05 0.0008132435 -0.0005080291 0.0018500723 -0.0010937271 0.0014546207
0.00051832193 -0.0001221137 -0.00075761374 0.0036894642 0.00042703873 0.0032443898 -0.0025801046 0.0005371698
0.00026225313 -7.2662933e-06 -0.00032676716 -0.0025585154 5.18979e-05 0.00030131987 -0.0015060472 -0.0005950426
-0.00020014567 -0.0027493949 0.00036221254 -4.432159e-05 0.003257178 0.00029872273 -0.0047857044 0.00018913369
0.00012564137 0.00041108334 -0.00028338828 -0.004826109 0.0009681383 -0.00016588956 0.0034120942 -0.0014000178
2.9808718e-05 0.0006075777 0.00022730723 -0.00044978946 -0.000109518674 -0.00033124426 0.00064071687 -0.00014501344
0.0011583982 -6.2338084e-05 -0.00043563923 0.00059515395 -0.0036799626 0.0043146447 0.0035864061 0.00027264794
0.0006853304 0.003265363 0.00015846582 0.0039208448 -0.00074118585 -0.00065857684 0.00016149801 0.00046093768
0.00027509718 -0.0007064228 0.0037676035 0.0025396275 -0.00022077508 0.00022802205 0.0005748824 0.0004070133
0.00020461004 0.0013854805 -0.0016651808 -0.00010639269 -0.0011413118 -0.00082281075 0.0010645491 -0.002263611
0.0043625394 -0.0017220693 0.0010393834 -0.00073555746 -0.000335076 -0.0016629231 -0.0013713132 -0.00038813942
-0.0008126435 -0.00028650378 0.0003883774 -0.00028324427 0.00465377 0.0033477575 0.00044147362 -0.00023693318
0.002662325 -0.0009680064 -0.0046789 -0.00046220934 0.0003426095 -0.0004472099 -0.00087661797 0.0019845553
0.0004741422 0.0038111482 -0.0035341938 0.00067115336 0.00073005573 0.0011015164 0.0025811812 -0.00041680507
0.0008468086 -0.00062956865 -0.00071257947 0.00027388296 -0.0011912816 -0.00069399155 -0.0023188577 0.00095483236
9.003318e-06 0.0013066168 0.0039784103 -0.0014822005 -0.00012033591 0.000119195465 0.0002453483 0.00041222916
0.00014844025 -0.004059969 0.00046555593 -0.0016153887 -0.0009169894 0.00047976375 0.00024901182 -0.00419934
0.0013061705 0.00011595163 2.3205197e-05 0.0036233969 0.0003335355 -0.000743919 0.00028894542 0.0002805216
0.0008664836 2.151571e-05 -0.00052564265 -0.000109762026 0.0017668271 -0.0012437521 0.00038021433 0.0021303406
0.0020731317 0.00065707887 0.0023272312 -0.0001698443 -7.6800075e-05 -0.00012262509 -6.615062e-05 2.1425685e-05
-0.0006474392 0.0025691353 0.00035606808 -0.00026689787 0.00074571447 -0.0012775664 -8.534582e-06 5.0674353e-05
0.0027175155 0.0028704149 -0.001987618 0.00022725777 0.00062706176 0.0014331398 0.0005881005 0.00060547946
-0.0006521729 0.0003406119 -0.00044879067 0.0037861418 -0.00036277037 0.0018779892 -0.00020995342 0.0014218908
-0.00027940967 -0.0006365519 0.0008322774 -0.00015861835 0.00026070184 -0.0005910203 -0.0011465655 -0.00064337027
-0.00055164145 0.00027268147 -0.0009880024 0.00051179156 -0.00014480192 -0.0002583823 0.00084566855 -8.0598555e-05
-3.858214e-05 2.5392972e-05 0.0005080359 0.00017091195 -0.00014880172 -5.960835e-05 0.0009522396 -0.0001627321
-0.00010647075 2.6504718e-05 0.0034233306 -0.0006301062 0.005060473 -0.0036221356 0.00017791313 0.0034604287
0.00080487283 -0.00065669016 5.9355974e-05 1.5801925e-06 0.0019309995 -0.00021512942 0.00029467474 0.001026259
-0.00027248182 -0.00030626555 0.0018059568 -0.0007813995 0.0017996579 0.00020314577 -0.00013424786 -0.00016281893
-0.0025357893 0.0049253516 0.0002651499 2.1501514e-06 0.0009029037 -0.0008383504 0.0030328277 -0.0001287839

base.mlp.fc1.0.weight f4 [64, 651]
00000000: 609b 65bd 9a6b 5ebb 7548 b9bd e96b 2b3d
00000010: 4b37 d5bd 3487 58bd 2bc8 553d bf22 b1bc
00000020: 1877 75bd c0e1 4c3d ff0f 87bd 6b89 373d
00000030: 262e aa3d 0d64 1ebb 64b8 4b3c 90be cc3b
00000040: bb47 d0bd c98f b83c fba3 afbd 2876 903c
00000050: cb60 843c 6e93 d13c 2b11 433d 219a cdbb
00000060: b1bc abbb 0e7a d13c 351f cc3a 44e7 04bd
00000070: 071f 0e3d e3e7 3bba 3c1e 1abc d010 38bd
00000080: 4aea ec3c e904 c1bd ee83 e9bc 288a 7a3d
00000090: f1fe 40bd 5f4d aa3c 9fd9 de3c 4b83 bb3a
000000a0: 4567 3f3c 7209 a0bd 9667 10bd 9e92 b1bd
000000b0: 2b96 0b3c ebea e63c a1a6 c93c 1440 5c3d
000000c0: 714f 98bb 5f15 233d 6534 07bc 071a b4bc
000000d0: 3228 af3d 1248 183d 83fd 4eba 7721 babd
000000e0: 36a1 b43d 6596 c93d b782 9d3c 28a1 c5bc
000000f0: c4e1 b53c e880 3cbd f21e 813d 548f f3bc
00000100: b734 74bd 47d4 033d 7244 3b3d 0835 883b
00000110: 539a 2a3d c4e1 343d 15ba d33c f034 c8bc
00000120: c959 99bd 5071 52bd c1f5 00be 7bb5 bbbc
00000130: 68d8 ad3d 6ebf 7f3d 4e5b ee3b 2b54 f5ba
00000140: b2d5 b03d 0c0e 913d 5723 45bd 4321 2bbd
00000150: 994f 393d 9e06 093d 8306 08bc 8b7c 883d
00000160: f8ba 6f3b 0cc6 e5bc 5cd5 b03c 2b54 cf3b
00000170: 85fe afbc e84f 84bd 7ffd 2e3d 3396 a8bd
00000180: 0623 25bd 3c7c a93d d261 f8bc ec34 da3b
00000190: 3689 35bd a48a cbbc ea2c b9bd c72c 31bd
000001a0: 62a4 5e3d cfdc 0abd 6c9e a73d c4b6 a13d
000001b0: 3d46 0abd 5822 dc3d 03bd 7dbd 7711 093b
000001c0: 0388 53bd 9f6f 90bd 3254 153c 2170 5cbc
000001d0: cb78 053d 3615 83bd 41d5 1e3d 4860 4dbd
000001e0: d5aa cd3c 1286 a7ba 49a7 9cbc 8c43 23bd
000001f0: ea71 4ebd c636 8cbd b88f 32bd ae6d 1d38
00000200: a726 dabc 40fe b63c 5d18 5a3c 8ab2 bfbd
00000210: 2929 413d 3db6 be3b 8735 0a3d 9b1d 2fbd
00000220: d6a3 d13c 5136 32bd c2cd 32bd 0892 88bd
00000230: 3054 373d 4f9a 423d 9f1f 463d 10ec 8a3c
00000240: fed6 6bbd dd25 bd3d 49bb 61bb 29a2 91bc
00000250: 8ae2 883d 488a d33c 5882 28be c95c 59bd
00000260: cc42 9e3d 343e b23c e525 3e3d 7bec 633c
00000270: f00a 1c3c 6534 073c ed46 b9bd 5c10 f33d
00000280: b1a9 013d f292 f73c 48aa c5bd 9291 90bc
00000290: 058e 593d c501 68bd b586 283d 31db e2bc
000002a0: b8c9 da3d fcd7 7dbd 1507 b9bc ce87 1cbe
000002b0: bb68 723d 6bfd 26bd 7d79 4fbe 81ab 87bd
000002c0: a50c 95bd e224 c83d 8cb0 22bc 31e5 263d
000002d0: f5f5 d03d 6ede ac3b 7b9c 793c df9f b23c
000002e0: 2214 7ebd 5e45 863d da96 ae3b cca2 1cbc
000002f0: 6447 3cbd ac36 d7bc 57e0 683d ddc7 c0bd
00000300: d5d0 2dbd 0f59 193d 4d4f a5bd e2e3 3d3c
00000310: 7aa8 b5bb d2c7 e03d 54e6 4cbc 4b84 d63c
00000320: 4737 09bc 698a 00bd c7c7 773d 4d97 5c3d
00000330: 0aa9 26bd 0038 80bd a6ca 5c3d 8177 993d
00000340: 3872 ab3d e34b 15bc 3647 873c c494 5fbd
00000350: 9bf4 e6bc 132b 353b c07d 79bd 13c9 313d
00000360: a18f 58bd fe1e e2bd 67c6 76bd d3ad 1c3c
00000370: 5f3b e6bc f090 efbc c4a8 61bd bf60 143d
00000380: dcf8 0f3d 6d8d 37bd 875f 53bd de94 cabc
00000390: d8bc ef3c ec78 1dbc ba00 0dbd f3a7 8f3d
000003a0: 5093 a03c 6bb5 c73d 2d0e adbd e567 46bd
000003b0: 04ff bc3c 162a 92bd 28d1 a33d 91f0 f2bc
000003c0: 8a5d 02be 5e95 503c c4e4 85bd 3aa9 423d
000003d0: bb1f 2abb 58c2 983d 226a 7bbb e44b 0bbd
000003e0: eab2 8bbd b925 303d 186f 39bc ab77 cf3d
000003f0: 49cb 34bd 4819 11bd f4a5 d13c 6af8 c9bd
-0.05605638 -0.0033938647 -0.09047023 0.041850958 -0.10410937 -0.052863315 0.05219285 -0.021623014
-0.05992803 0.05001998 -0.06594848 0.044808786 0.08309583 -0.0024168522 0.012434099 0.0062483028
-0.101699315 0.0225295 -0.08576199 0.017634466 0.016159436 0.025582995 0.047623795 -0.006274477
-0.0052409996 0.025570896 0.0015573265 -0.032447115 0.03469756 -0.00071680377 -0.0094066225 -0.04493791
0.028920311 -0.09424765 -0.028505292 0.061166912 -0.04711813 0.020788847 0.02720338 0.0014306096
0.011682336 -0.078143016 -0.035255037 -0.08670543 0.00851969 0.02818819 0.024615588 0.053772047
-0.004648142 0.039815303 -0.008252238 -0.021985067 0.085525885 0.037178107 -0.00078960526 -0.09088414
0.08819811 0.098431386 0.019227369 -0.024124697 0.02220238 -0.046021372 0.063047305 -0.02973143
-0.059620585 0.032184865 0.04571957 0.0041567124 0.04165108 0.04416062 0.025845567 -0.024439305
-0.07487828 -0.051377594 -0.12593748 -0.022913685 0.08488542 0.06243842 0.007274068 -0.0018717101
0.08634509 0.07082757 -0.048129406 -0.041779768 0.045241926 0.033453576 -0.008302334 0.0666438
0.0036579948 -0.028048538 0.021586113 0.0063271723 -0.021483669 -0.064605534 0.04272222 -0.08231773
-0.040316604 0.08275649 -0.030320082 0.006659141 -0.044320308 -0.024846382 -0.0904177 -0.043255594
0.054355986 -0.033901986 0.081845134 0.07896188 -0.03375839 0.10748738 -0.061947834 0.002091495
-0.051643383 -0.0705254 0.009114312 -0.013454468 0.0325859 -0.0640053 0.038777594 -0.05014065
0.025105873 -0.0012781045 -0.019122737 -0.03985934 -0.050401606 -0.06846385 -0.043594092 3.7533864e-05
-0.026629759 0.022338033 0.013311473 -0.093602255 0.047158394 0.0058200643 0.033742454 -0.042752843
0.025590818 -0.04350883 -0.043653257 -0.06668478 0.04475802 0.04751044 0.04837 0.016958266
-0.05757808 0.092357375 -0.0034443906 -0.01777752 0.06683834 0.025822774 -0.16455972 -0.053067002
0.07727584 0.021758176 0.046422858 0.013911362 0.009524092 0.008252238 -0.09046731 0.11868355
0.03165597 0.030221436 -0.09651619 -0.017647538 0.053113956 -0.056642313 0.04114409 -0.02769241
0.10683006 -0.061973557 -0.022586385 -0.1528618 0.05918191 -0.040769022 -0.20261188 -0.06624509
-0.072778024 0.0977266 -0.009929787 0.040745918 0.102031626 0.005275539 0.015235062 0.021804748
-0.06203092 0.065561995 0.0053280415 -0.009560298 -0.04596652 -0.026271187 0.056854572 -0.09413121
-0.042435486 0.03743845 -0.08071766 0.011589976 -0.0055437656 0.10975613 -0.012506086 0.02618613
-0.008374996 -0.031382 0.060493257 0.05385523 -0.040688552 -0.06260681 0.053904198 0.07493497
0.08371395 -0.009112331 0.016513448 -0.054585233 -0.028192809 0.0027644082 -0.06091094 0.04340465
-0.05287135 -0.110410675 -0.060247805 0.009562927 -0.028104482 -0.029243916 -0.055092588 0.036225077
0.03514944 -0.04481261 -0.051604774 -0.024729189 0.029264852 -0.00961135 -0.03442452 0.07014456
0.019601494 0.097513996 -0.084499694 -0.048438925 0.02307082 -0.071369335 0.07998878 -0.029655727
-0.12730995 0.012730924 -0.06537774 0.04752467 -0.0025958854 0.07458943 -0.003836282 -0.03400792
-0.068212345 0.043004725 -0.011317991 0.10130247 -0.04413918 -0.0354245 0.025591828 -0.09861834

base.mlp.fc1.0.bias f4 [64]
00000000: 5ba2 0e38 0000 0000 6e86 ecb9 0000 0000
00000010: 0000 0000 8988 b1ba 3548 1639 22a6 ddba
00000020: e0ea 3739 7265 ca3a 0000 0000 64ee c5b8
00000030: 0000 0000 f181 2dbb 0000 0000 9089 2138
00000040: 0000 0000 6f40 9fba 0000 0000 0000 0000
00000050: efc8 883a a5e7 67bb 94c6 e2ba 0000 0000
00000060: 2de8 60ba 4428 4bbb 8c94 a1b9 e672 8539
00000070: 6c6f 033a 30c3 3eba 0000 0000 0000 0000
00000080: c04d c6ba e342 83ba 1c0a 0f39 0000 0000
00000090: 046d efb9 0000 0000 16a1 f138 a0d7 8939
000000a0: e7ea e9ba 0000 0000 0000 0000 0ef9 d8b8
000000b0: efc0 fa38 0934 633b ba86 94bb 9aaa 8ab9
000000c0: cbe7 3b3b 0000 0000 1692 fa39 0000 0000
000000d0: 1dac 813b 6adc 3c39 fe25 04b9 0000 0000
000000e0: 2da6 153a 4663 5139 0000 0000 0000 0000
000000f0: 0000 0000 0000 0000 3027 9cbb feff 48ba
3.4006644e-05 0.0 -0.00045113586 0.0 0.0 -0.0013544719 0.00014332014 -0.0016910473
0.00017539738 0.001544161 0.0 -9.438096e-05 0.0 -0.0026475156 0.0 3.8513506e-05
0.0 -0.001214994 0.0 0.0 0.001043586 -0.0035385874 -0.0017301613 0.0
-0.0008579519 -0.0030999342 -0.0003081899 0.00025453343 0.00050138566 -0.000727701 0.0 0.0
-0.0015129372 -0.0010014441 0.00013641309 0.0 -0.00045666855 0.0 0.0001152178 0.0002629133
-0.0017846496 0.0 0.0 -0.00010346073 0.00011956866 0.0034668467 -0.004532662 -0.0002644852
0.0028672095 0.0 0.00047792558 0.0 0.003957285 0.00018011188 -0.00012602654 0.0
0.0005708661 0.00019968775 0.0 0.0 0.0 0.0 -0.0047654137 -0.00076675403

base.mlp.fc1.2.weight f4 [64]
00000000: a201 803f d502 803f c3de 7f3f cdef 7f3f
00000010: 4fdc 7f3f c1ec 7f3f f7c0 7e3f 5a08 803f
00000020: c4b6 7f3f 7a2d 803f f31f 803f 669c 7f3f
00000030: a10c 803f a507 803f b621 803f 3785 7f3f
00000040: f0dc 7f3f 9b31 803f cf8d 803f c804 803f
00000050: 9728 803f 3ce5 7e3f 56e1 7f3f dc51 7f3f
00000060: e702 803f 8401 803f d8bb 7f3f 00f8 7f3f
00000070: 8cfd 7f3f 46cc 7f3f ab6f 803f ddee 7f3f
00000080: d6dd 7f3f 02b4 7f3f ce02 803f 4b1f 803f
00000090: b8c9 7f3f 44f4 7f3f 8cac 7f3f 8aa7 7f3f
000000a0: 0569 7f3f 5c15 803f a8a7 803f 34f1 7f3f
000000b0: 9907 803f 208d 803f 4661 7f3f a9ea 7f3f
000000c0: bd4f 803f b6e9 7f3f 791a 7f3f 952f 803f
000000d0: ec7c 803f d05a 7f3f 6986 7f3f 56e7 7f3f
000000e0: 8899 7f3f 8c03 803f 9301 803f 0f02 803f
000000f0: 6205 803f e300 803f 8548 7f3f 62cc 7f3f
1.0000498 1.0000864 0.9994928 0.9997528 0.9994554 0.9997063 0.9951319 1.0002549
0.99888253 1.0013878 1.000975 0.9984802 1.0003854 1.0002333 1.0010288 0.99812645
0.999465 1.0015138 1.0043277 1.0001459 1.0012387 0.99568534 0.9995321 0.9973428
1.0000886 1.0000463 0.99896 0.9998779 0.99996257 0.9992107 1.0034078 0.9997385
0.9994787 0.99884045 1.0000856 1.000955 0.99917173 0.99982095 0.9987266 0.9986502
0.9976962 1.0006518 1.0051165 0.9997742 1.0002319 1.0043068 0.997578 0.9996744
1.0024334 0.9996599 0.9964977 1.0014521 1.0038123 0.99747944 0.9981447 0.99962366
0.99843645 1.0001082 1.000048 1.0000628 1.0001643 1.0000271 0.9972003 0.9992124

base.mlp.fc1.2.bias f4 [64]
00000000: 17b8 5339 0a16 e0b8 2b75 c437 80ff 8d39
00000010: bea2 0b3a 2ee0 71b8 809c 4339 2309 86b9
00000020: a2ce 563a 5b08 be3a 33b4 7dba 4756 f7b7
00000030: e1f3 d2b9 4541 91b9 31e3 88ba 0063 2739
00000040: fce0 0e3a 46f9 c7ba cf9a 8ebb d14b 2bb9
00000050: 1b74 aa3a 8ee9 88bb 80cf e839 9a42 303b
00000060: 2f96 4bb9 d344 9cb8 a674 6fb9 3b24 aa39
00000070: c792 573a 9131 dab9 fa5f 60bb 83c7 8a39
00000080: 0f5e f939 9f7b 963a ea65 7539 7d38 7eba
00000090: af51 c1b9 fb05 3339 351f 933a 05ef bf39
000000a0: 024a b4ba 87a7 2cba 3999 a8bb e944 10b7
000000b0: 79cd 9f39 a875 853b a972 49bb 1a58 34b9
000000c0: f433 273b 7462 a739 09fa 643b ac60 beba
000000d0: 918b 613b 313b 463a d297 cd38 c230 ce39
000000e0: e269 7c3a 576b 6a39 7838 8eb8 0efe 2bb8
000000f0: b8da 42b9 1826 52b8 a309 8fbb c1ce 3cba
0.00020191107 -0.000106852574 2.3419581e-05 0.00027083978 0.00053266797 -5.766766e-05 0.0001865495 -0.0002556528
0.0008194243 0.001449834 -0.0009678036 -2.948487e-05 -0.00040236025 -0.00027705185 -0.0010443685 0.00015963241
0.00054503954 -0.0015256784 -0.0043519507 -0.00016336075 0.0013004573 -0.0041782325 0.00044405088 0.0026895166
-0.00019415536 -7.451479e-05 -0.00022836271 0.0003245192 0.00082234706 -0.0004161713 -0.0034236894 0.0002647006
0.0004756306 0.0011480934 0.00023402987 -0.00096977485 -0.00036872688 0.00017072998 0.001122451 0.00036608442
-0.0013754966 -0.0006586243 -0.0051452187 -8.599113e-06 0.00030479932 0.0040728636 -0.0030738509 -0.00017198958
0.0025513144 0.00031926075 0.0034939072 -0.001452466 0.0034415463 0.0007561921 9.8034405e-05 0.0003932771
0.0009628815 0.00022355966 -6.781606e-05 -4.1006184e-05 -0.00018582761 -5.010338e-05 -0.0043651625 -0.00072024396

base.mlp.fc_h.0.weight f4 [64, 64]
00000000: c0fa 883d 8a50 77bd 29f3 0dbe f063 573d
00000010: 85bd a33e 018e 423e 7224 9f3d 7959 bebd
00000020: 574d 62be 59a5 b83c ad6b a03e 84b3 f33d
00000030: 209f 983e 1bcf 673e 20c7 b1bd 8ead 2f3e
00000040: 7f83 57be fabb eb3d dcf8 91bc 907e e4be
00000050: 68ee d23d eace 2fbc 27b0 a5bc a1ca 40be
00000060: 2f05 2dbd 1705 9fbd 2777 5fbd edd9 a53d
00000070: c3f8 c43d 95bd b2bc 5e7f 25bd db64 b43d
00000080: d9bd 8d3e af5c 01be 9f14 f6bd 847f 6ebe
00000090: 754d 5f3e 317b 59be 4a10 73be dca1 983e
000000a0: 701d ad3e 186f 95be 95f2 e3bc ebd3 77be
000000b0: 3cf0 72be 9c37 bd3d 6141 babe 541a c83d
000000c0: 153c 1dbe f2f7 dd3c 3e50 b8bd b759 363e
000000d0: e1a4 b03d 1561 fdbd c261 353c 2203 2abe
000000e0: 3045 953e 1fce 07bd acfb 633d 7659 03be
000000f0: e114 bdbd c3c1 eb3c a0d3 0d3d f240 53be
00000100: 5024 d0be d4bd 7c3d 8a6b 0bbf 8f00 1dbe
00000110: 5309 093e ceac 003e cf6a f7bd ef8a 693c
00000120: 7a20 d93d 9102 b5bd a883 613d 0626 aa3d
00000130: 2504 b4bd d470 2b3d 87ea 9cbd 8381 833d
00000140: b887 29be 294c a4be 9792 ef3c c02a 903d
00000150: 41ba 46be 03ff 52be 5393 e83d 6095 443d
00000160: 68ab 62bc fb23 7d3d 6055 5bbe 23b9 a93c
00000170: db2d b03d dc9c 3cbe dee5 ae3d f803 133c
00000180: b80c 783d 7873 bb3c 88c0 883d 0299 ebbd
00000190: 4a53 5e3e de29 c93d 571c b63e bb96 81be
000001a0: 3233 75be a7bc 54be c7e1 5fbe 4d9f 7fbd
000001b0: 5c8a ffbd 85e3 66be 5f69 853e 9e84 92bd
000001c0: 839a 2ebe 42f8 09be 951c babe 19e3 253e
000001d0: deb9 513b aca0 f33c f4db c3bd 4986 04be
000001e0: 0e6d b23e ed2e 6d3e 7a57 10be 64f2 fb3d
000001f0: b825 373e d453 5cbe 0a89 ac3c cf1f 113d
00000200: f2e2 bcbe 7d5d 52be a335 10be b09c 54be
00000210: e95f 283e 8274 a13d d087 033e d64a 433c
00000220: 8c72 4ebe 4ec0 893e 88c5 303e 48b1 2dbe
00000230: 3a65 f1bc 0704 2bbe 5660 efbc 5504 40be
00000240: 4a9c 3abe f370 4c3a 249c 51be 10f2 dd3c
00000250: f020 1bbd a29a 9c3e e39d bcbe 6d16 8abe
00000260: ae62 493c 4776 78bd f2a0 2d3e 979d 0dbe
00000270: c24a ef3d e997 b2bd 03e2 34be 6151 93bd
00000280: 998b cf3d 0beb 2fbe c473 993e 77c8 dc3e
00000290: 5884 30bc c5c5 5f3d e215 b6bd 326d 413e
000002a0: 2064 04be 4d6a 313e 82f0 fe3c 1867 0ebe
000002b0: 6f7c 2fbe 11b0 04be af15 e4bd 6601 64bd
000002c0: b7e6 883e a2af babd ceeb 4bbe 1964 92bd
000002d0: 81c0 b5be 4a3b 47bd 388a a5be 7c24 533e
000002e0: bbde 69ba 8129 5abb aff7 323d f8f1 313e
000002f0: ce2d 0bbd 94e1 4a3e f114 223d 9771 0c3e
00000300: d1ba 4c3e d6aa 563e 4dd4 113e a474 2ebb
00000310: ca6b 61be 1cf2 863d 6a69 603d 6cc2 4bbe
00000320: aab5 af3d 8af6 d9bc 85a0 af3d 1714 893e
00000330: 79b3 dd3c 417e a6be 9135 aabd 70c9 c83d
00000340: baad dcbe 537a 8f3e bd4a 003d 2bdb da3e
00000350: caf7 e8bd 0268 a93c 2d94 fd3d dd3d 04be
00000360: 1cfb b6bd 6669 5cbe 5213 c03c 1b42 183d
00000370: 7ae6 dfbd 1ca4 0f3e fe39 8cbd 3a2b 1fbd
00000380: c529 813e 1fc7 36be 85db 03bd 72b3 29bc
00000390: e3ce 883e e77c d93e 7c6e f2bc 1fbd 323e
000003a0: fbde 863e fd1d fd3d 38a6 fe3d 5165 3f3e
000003b0: 4f8a fdbd 04a0 75be d3d8 68bd d395 a4bd
000003c0: 0cf9 7ebd 8c3b 73be b49d 683d a58f d6bd
000003d0: 2076 733e aa42 65be 12a5 b4bd 01ca 1fbd
000003e0: c698 b03d 1b73 623e 33ae 053b 3ebb ff3d
000003f0: 8524 603e 3962 bbbd 8caf 31be dcad 733e
0.06688452 -0.060379542 -0.1386229 0.052585542 0.3198053 0.18999483 0.07770623 -0.09294409
-0.22099815 0.022539781 0.3133215 0.11899474 0.29808903 0.22637598 -0.08680558 0.1715605
-0.21046256 0.11510463 -0.01781886 -0.4462781 0.10299379 -0.0107304845 -0.020225598 -0.18827297
-0.04224127 -0.07764643 -0.054556992 0.08098207 0.0961776 -0.021818915 -0.04040467 0.08808299
0.27683905 -0.12633012 -0.12015652 -0.23290831 0.21806891 -0.212384 -0.23736683 0.2981099
0.33811522 -0.2918632 -0.027825633 -0.24201934 -0.23724455 0.09239122 -0.36378005 0.09770647
-0.1535495 0.027095769 -0.0899968 0.17807661 0.08625198 -0.123720326 0.011070671 -0.16602758
0.29154348 -0.033155557 0.055659935 -0.12827095 -0.09232498 0.028778916 0.03462565 -0.20630243
-0.40652704 0.06170447 -0.54460967 -0.15332244 0.13382463 0.1256592 -0.12080919 0.014254316
0.106018975 -0.0883838 0.055057198 0.08308034 -0.08789853 0.04185565 -0.0766192 0.06421187
-0.16555679 -0.32089356 0.029244704 0.07039404 -0.19406988 -0.20605092 0.11356225 0.047994018
-0.013834812 0.06180189 -0.21419287 0.020718163 0.08602496 -0.18419212 0.085399374 0.008973114
0.060559005 0.022882208 0.066773474 -0.11503793 0.2171146 0.09822439 0.35568497 -0.2531031
-0.2394531 -0.2077509 -0.21863471 -0.06240778 -0.12477562 -0.2254773 0.26056954 -0.07154201
-0.17051129 -0.13473609 -0.3634993 0.16199912 0.0032001655 0.0297397 -0.09563437 -0.1294185
0.34848827 0.23162432 -0.1409587 0.12302092 0.17885482 -0.21516353 0.021061439 0.035430726
-0.36891896 -0.20543475 -0.14082961 -0.20762897 0.16442837 0.0788355 0.12844777 0.011919698
-0.20160884 0.2690453 0.17262852 -0.16962159 -0.029467214 -0.16700755 -0.029220741 -0.18751653
-0.18223682 0.0007798813 -0.20469719 0.027092963 -0.03787321 0.30586725 -0.36839208 -0.26970235
0.0122915935 -0.060659673 0.16955927 -0.13829647 0.11684181 -0.08720381 -0.17664342 -0.07193256
0.10134048 -0.17179506 0.29971135 0.43121693 -0.010773741 0.054631967 -0.088908926 0.18889311
-0.1292882 0.17325707 0.031120542 -0.13906515 -0.17137311 -0.12957789 -0.11136948 -0.055665396
0.2673852 -0.091155306 -0.19914171 -0.07147998 -0.3549843 -0.048640527 -0.32332015 0.20619386
-0.0008921434 -0.0033288898 0.04369324 0.1737746 -0.03397923 0.19812614 0.039570753 0.13715206
0.1999314 0.20963606 0.14241143 -0.0026619816 -0.22013775 0.065891474 0.05478803 -0.19898385
0.085795715 -0.026606817 0.085755385 0.2677314 0.027063118 -0.325182 -0.08310998 0.09804046
-0.43101293 0.28023013 0.031321276 0.42745337 -0.11375387 0.020679478 0.12381778 -0.12914224
-0.08934614 -0.21524581 0.023446713 0.037172418 -0.10932632 0.14027447 -0.06846999 -0.038859583
0.2522718 -0.17849396 -0.032191772 -0.0103577245 0.26720342 0.42478105 -0.029593699 0.17454956
0.26341996 0.123592354 0.124340475 0.18690993 -0.12379896 -0.23986822 -0.056847405 -0.08036389
-0.06224923 -0.23753184 0.056791022 -0.10476617 0.2377553 -0.22388712 -0.08820547 -0.039011005
0.08622889 0.22114222 0.002039802 0.124868855 0.21888931 -0.09149594 -0.17352122 0.23796791

base.mlp.fc_h.0.bias f4 [64]
00000000: 0000 0000 0000 0000 0000 0000 0000 0000
00000010: 0000 0000 0000 0000 0000 0000 0000 0000
00000020: 0000 0000 0000 0000 0000 0000 0000 0000
00000030: 0000 0000 0000 0000 0000 0000 0000 0000
00000040: 0000 0000 0000 0000 0000 0000 0000 0000
00000050: 0000 0000 0000 0000 0000 0000 0000 0000
00000060: 0000 0000 0000 0000 0000 0000 0000 0000
00000070: 0000 0000 0000 0000 0000 0000 0000 0000
00000080: 0000 0000 0000 0000 0000 0000 0000 0000
00000090: 0000 0000 0000 0000 0000 0000 0000 0000
000000a0: 0000 0000 0000 0000 0000 0000 0000 0000
000000b0: 0000 0000 0000 0000 0000 0000 0000 0000
000000c0: 0000 0000 0000 0000 0000 0000 0000 0000
000000d0: 0000 0000 0000 0000 0000 0000 0000 0000
000000e0: 0000 0000 0000 0000 0000 0000 0000 0000
000000f0: 0000 0000 0000 0000 0000 0000 0000 0000
0.0 0.0 0.0 0.0 0.0 0.0 0.0 0.0
0.0 0.0 0.0 0.0 0.0 0.0 0.0 0.0
0.0 0.0 0.0 0.0 0.0 0.0 0.0 0.0
0.0 0.0 0.0 0.0 0.0 0.0 0.0 0.0
0.0 0.0 0.0 0.0 0.0 0.0 0.0 0.0
0.0 0.0 0.0 0.0 0.0 0.0 0.0 0.0
0.0 0.0 0.0 0.0 0.0 0.0 0.0 0.0
0.0 0.0 0.0 0.0 0.0 0.0 0.0 0.0

base.mlp.fc_h.2.weight f4 [64]
00000000: 0000 803f 0000 803f 0000 803f 0000 803f
00000010: 0000 803f 0000 803f 0000 803f 0000 803f
00000020: 0000 803f 0000 803f 0000 803f 0000 803f
00000030: 0000 803f 0000 803f 0000 803f 0000 803f
00000040: 0000 803f 0000 803f 0000 803f 0000 803f
00000050: 0000 803f 0000 803f 0000 803f 0000 803f
00000060: 0000 803f 0000 803f 0000 803f 0000 803f
00000070: 0000 803f 0000 803f 0000 803f 0000 803f
00000080: 0000 803f 0000 803f 0000 803f 0000 803f
00000090: 0000 803f 0000 803f 0000 803f 0000 803f
000000a0: 0000 803f 0000 803f 0000 803f 0000 803f
000000b0: 0000 803f 0000 803f 0000 803f 0000 803f
000000c0: 0000 803f 0000 803f 0000 803f 0000 803f
000000d0: 0000 803f 0000 803f 0000 803f 0000 803f
000000e0: 0000 803f 0000 803f 0000 803f 0000 803f
000000f0: 0000 803f 0000 803f 0000 803f 0000 803f
1.0 1.0 1.0 1.0 1.0 1.0 1.0 1.0
1.0 1.0 1.0 1.0 1.0 1.0 1.0 1.0
1.0 1.0 1.0 1.0 1.0 1.0 1.0 1.0
1.0 1.0 1.0 1.0 1.0 1.0 1.0 1.0
1.0 1.0 1.0 1.0 1.0 1.0 1.0 1.0
1.0 1.0 1.0 1.0 1.0 1.0 1.0 1.0
1.0 1.0 1.0 1.0 1.0 1.0 1.0 1.0
1.0 1.0 1.0 1.0 1.0 1.0 1.0 1.0

base.mlp.fc_h.2.bias f4 [64]
00000000: 0000 0000 0000 0000 0000 0000 0000 0000
00000010: 0000 0000 0000 0000 0000 0000 0000 0000
00000020: 0000 0000 0000 0000 0000 0000 0000 0000
00000030: 0000 0000 0000 0000 0000 0000 0000 0000
00000040: 0000 0000 0000 0000 0000 0000 0000 0000
00000050: 0000 0000 0000 0000 0000 0000 0000 0000
00000060: 0000 0000 0000 0000 0000 0000 0000 0000
00000070: 0000 0000 0000 0000 0000 0000 0000 0000
00000080: 0000 0000 0000 0000 0000 0000 0000 0000
00000090: 0000 0000 0000 0000 0000 0000 0000 0000
000000a0: 0000 0000 0000 0000 0000 0000 0000 0000
000000b0: 0000 0000 0000 0000 0000 0000 0000 0000
000000c0: 0000 0000 0000 0000 0000 0000 0000 0000
000000d0: 0000 0000 0000 0000 0000 0000 0000 0000
000000e0: 0000 0000 0000 0000 0000 0000 0000 0000
000000f0: 0000 0000 0000 0000 0000 0000 0000 0000
0.0 0.0 0.0 0.0 0.0 0.0 0.0 0.0
0.0 0.0 0.0 0.0 0.0 0.0 0.0 0.0
0.0 0.0 0.0 0.0 0.0 0.0 0.0 0.0
0.0 0.0 0.0 0.0 0.0 0.0 0.0 0.0
0.0 0.0 0.0 0.0 0.0 0.0 0.0 0.0
0.0 0.0 0.0 0.0 0.0 0.0 0.0 0.0
0.0 0.0 0.0 0.0 0.0 0.0 0.0 0.0
0.0 0.0 0.0 0.0 0.0 0.0 0.0 0.0

base.mlp.fc2.0.0.weight f4 [64, 64]
00000000: ecf6 883d 134a 77bd 3b01 0ebe 2d69 573d
00000010: 58be a33e 877f 423e 8893 a03d de56 bebd
00000020: ab4c 62be f4c3 b83c 526c a03e 8529 f33d
00000030: eb9f 983e c8d0 673e f0c3 b1bd 6074 2f3e
00000040: e881 57be 28bf eb3d 93ee 91bc c37d e4be
00000050: 32e8 d23d 5383 30bc 05a3 a5bc 49c9 40be
00000060: a277 2dbd d201 9fbd 37dc 5ebd 54b0 a53d
00000070: 1cbe c53d 14fd b2bc 377a 25bd cd67 b43d
00000080: b2be 8d3e 025b 01be 9014 f6bd 667e 6ebe
00000090: d03e 5f3e a579 59be 2915 73be 85b6 983e
000000a0: 1836 ad3e 426e 95be cce7 e3bc 24d5 77be
000000b0: 27f6 72be 316b bd3d 6246 babe 9631 c83d
000000c0: a736 1dbe fe04 de3c 024e b8bd 055b 363e
000000d0: e7d2 b03d 18a2 fdbd 7d62 333c d201 2abe
000000e0: 3c3b 953e 19c1 07bd 2102 643d 2558 03be
000000f0: 6b11 bdbd bdce eb3c e362 0a3d a94d 53be
00000100: 5024 d0be d4bd 7c3d 8a6b 0bbf 8f00 1dbe
00000110: 5309 093e ceac 003e cf6a f7bd ef8a 693c
00000120: 7a20 d93d 9102 b5bd a883 613d 0626 aa3d
00000130: 2504 b4bd d470 2b3d 87ea 9cbd 8381 833d
00000140: b887 29be 294c a4be 9792 ef3c c02a 903d
00000150: 41ba 46be 03ff 52be 5393 e83d 6095 443d
00000160: 68ab 62bc fb23 7d3d 6055 5bbe 23b9 a93c
00000170: db2d b03d dc9c 3cbe dee5 ae3d f803 133c
00000180: b80c 783d 7873 bb3c 88c0 883d 0299 ebbd
00000190: 4a53 5e3e de29 c93d 571c b63e bb96 81be
000001a0: 3233 75be a7bc 54be c7e1 5fbe 4d9f 7fbd
000001b0: 5c8a ffbd 85e3 66be 5f69 853e 9e84 92bd
000001c0: 839a 2ebe 42f8 09be 951c babe 19e3 253e
000001d0: deb9 513b aca0 f33c f4db c3bd 4986 04be
000001e0: 0e6d b23e ed2e 6d3e 7a57 10be 64f2 fb3d
000001f0: b825 373e d453 5cbe 0a89 ac3c cf1f 113d
00000200: b89c bdbe 83fd 50be a072 0ebe 763b 53be
00000210: 95bf 293e 8c34 a53d c890 fe3d 7787 593c
00000220: d554 4dbe 3403 893e f526 323e 1f9c 2dbe
00000230: c064 e6bc 34a9 29be 325f e4bc 4217 3dbe
00000240: 5e3c 39be 7e6c 0b3b 0b3b 50be f5f1 e83c
00000250: 1a6a 20bd e704 9c3e 4fee bbbe f165 89be
00000260: 9d24 623c 57fc 72bd 65aa 2d3e 349c 0ebe
00000270: f274 f23d 6977 b2bd c380 33be 1991 90bd
00000280: 6d44 d23d 5b8b 2ebe 9cb3 983e ec78 dd3e
00000290: 9e17 3fbc f745 653d 770d b3bd 7b58 3e3e
000002a0: 8868 06be 3aca 323e 72fc 043d 3f92 0fbe
000002b0: 7bd4 30be f957 05be cb88 e5bd 0a04 6abd
000002c0: 332b 883e daef b7bd 3884 4abe 27a1 8fbd
000002d0: 0a2e b7be fd82 3ebd 8316 a4be b485 543e
000002e0: 0e3b 4a3a b4ff 9bbb 9477 383d 3b53 333e
000002f0: 8aae 05bd 8941 4c3e 411f 203d 13f8 0a3e
00000300: df64 4b3e bb04 583e e3f1 123e f073 b0ba
00000310: b711 60be 17e7 883d 866f 743d 8769 4abe
00000320: 9702 b33d d60a e4bc 0852 b23d c5aa 863e
00000330: f681 e83c cac2 a5be 1082 a7bd 782d c83d
00000340: c500 dcbe ef26 903e 04ae 053d 1d88 db3e
00000350: 42fe ebbd f206 9c3c 9424 003e aae4 02be
00000360: c8b5 b0bd 290b 5bbe c80d e23c a98c 0f3d
00000370: eaff dfbd 372b 153e 7f88 89bd 7bc4 19bd
00000380: 75d5 813e dd6c 35be 29e2 08bd b324 14bc
00000390: 72dc 873e cf29 da3e c875 e8bc 197b 333e
000003a0: e6ba 863e ded1 ff3d fbab 003e 3d60 3d3e
000003b0: 571e 00be 02d0 78be 45e7 70bd 8656 a7bd
000003c0: 56eb 81bd 95e1 71be 43eb 6d3d 31de d3bd
000003d0: 6114 743e 648d 6abe 3e69 b3bd 4966 1abd
000003e0: 7a6e b53d f401 613e 5f27 5c3b 8436 013e
000003f0: 9a7e 613e 68ae b8bd e49e 34be 80df 723e
0.066877216 -0.060373377 -0.13867657 0.052590538 0.31981158 0.1899396 0.07840639 -0.09293912
-0.22099559 0.022554375 0.31332642 0.118731536 0.29809508 0.22638237 -0.0867995 0.17134237
-0.21045649 0.115110695 -0.017813956 -0.446272 0.10298194 -0.010773498 -0.020219335 -0.18826784
-0.04235042 -0.07764019 -0.054409232 0.080902725 0.09655401 -0.021849193 -0.040399756 0.08808861
0.2768455 -0.12632373 -0.12015641 -0.23290405 0.21801305 -0.2123781 -0.2373854 0.2982675
0.33830333 -0.29185683 -0.02782049 -0.242024 -0.23726712 0.09248961 -0.36381823 0.09775083
-0.1535288 0.02710199 -0.08999254 0.17808159 0.086339764 -0.123844326 0.010948774 -0.16602257
0.29146755 -0.033143137 0.055666093 -0.12826593 -0.09231838 0.028785104 0.033785712 -0.20635094
-0.40652704 0.06170447 -0.54460967 -0.15332244 0.13382463 0.1256592 -0.12080919 0.014254316
0.106018975 -0.0883838 0.055057198 0.08308034 -0.08789853 0.04185565 -0.0766192 0.06421187
-0.16555679 -0.32089356 0.029244704 0.07039404 -0.19406988 -0.20605092 0.11356225 0.047994018
-0.013834812 0.06180189 -0.21419287 0.020718163 0.08602496 -0.18419212 0.085399374 0.008973114
0.060559005 0.022882208 0.066773474 -0.11503793 0.2171146 0.09822439 0.35568497 -0.2531031
-0.2394531 -0.2077509 -0.21863471 -0.06240778 -0.12477562 -0.2254773 0.26056954 -0.07154201
-0.17051129 -0.13473609 -0.3634993 0.16199912 0.0032001655 0.0297397 -0.09563437 -0.1294185
0.34848827 0.23162432 -0.1409587 0.12302092 0.17885482 -0.21516353 0.021061439 0.035430726
-0.3703363 -0.20409207 -0.13910913 -0.20628151 0.16576989 0.08066663 0.124299586 0.013276926
-0.20051892 0.26760256 0.17397673 -0.16954087 -0.028124213 -0.16568452 -0.027877424 -0.18465903
-0.18089435 0.0021274383 -0.20335023 0.028435687 -0.039163686 0.3047249 -0.36705253 -0.26835588
0.013802675 -0.05932268 0.16959532 -0.13926774 0.11838712 -0.08714182 -0.17529587 -0.07058925
0.102669574 -0.17045347 0.2982453 0.4325632 -0.011663346 0.055974927 -0.087428026 0.1858844
-0.13125813 0.17459956 0.032467313 -0.14020632 -0.17268555 -0.1302184 -0.11207732 -0.05713276
0.26595458 -0.08981295 -0.19777 -0.07013159 -0.35777313 -0.04651164 -0.32048425 0.20754129
0.00077144883 -0.004760707 0.045035914 0.17512219 -0.032637157 0.19946875 0.039092306 0.13571195
0.19862698 0.21095555 0.14350085 -0.0013462286 -0.21881758 0.06684702 0.05967667 -0.19766818
0.08740728 -0.027837198 0.087070525 0.26302162 0.028382283 -0.32375175 -0.08179104 0.097742975
-0.42969337 0.28154704 0.032636657 0.42877284 -0.11523105 0.01904628 0.12513953 -0.12782541
-0.08628422 -0.21390976 0.027594462 0.035046253 -0.109374836 0.14567266 -0.06715488 -0.037540894
0.25358167 -0.1771731 -0.033418808 -0.009041953 0.26535374 0.42610022 -0.028376475 0.17527427
0.26314467 0.12491201 0.12565605 0.18493743 -0.12511574 -0.24298099 -0.058814306 -0.081708
-0.06343715 -0.23621209 0.05808569 -0.10345114 0.23835899 -0.22905499 -0.08760308 -0.037695203
0.08858962 0.21973401 0.0033592803 0.12618452 0.22020951 -0.0901764 -0.17638737 0.23718071

base.mlp.fc2.0.0.bias f4 [64]
00000000: 0098 8bb4 0000 0000 4482 b2ba 7750 aeba
00000010: 0000 0000 d6d1 19b9 71b9 ac39 06ad c039
00000020: 8961 51bb 0000 0000 ff3b 9ebb 0e05 203b
00000030: 0000 0000 0000 0000 e8b3 f338 e41f 9139
00000040: c016 b0b7 ab34 83b9 0000 0000 fcc2 d839
00000050: 5366 a33a c914 863b 0000 0000 4f2f 87bb
00000060: e490 39ba 7526 adb7 0000 0000 0000 0000
00000070: 0000 0000 0000 0000 0000 0000 2c2e 0f39
00000080: bc0d b2ba 0000 0000 f7ec 45bb 0000 0000
00000090: 0000 0000 f66a 8739 0000 0000 0000 0000
000000a0: 441a a237 08aa 2b39 e994 37b9 ebcc 7d39
000000b0: 955c 0dba 993f de37 b211 f6b8 0000 0000
000000c0: e815 63ba 8736 9e39 10fe 343a e220 dcb7
000000d0: 0000 0000 53fc b83a e150 3c3b a60d 26bb
000000e0: 0000 0000 0000 0000 e8aa 99b9 ebea 1bbb
000000f0: 57ed 5e3a 57ce 9d38 0000 0000 ea84 acb9
-2.6001362e-07 0.0 -0.0013619144 -0.0013299127 0.0 -0.00014669387 0.0003294456 0.00036750006
-0.0031949005 0.0 -0.0048289294 0.0024417075 0.0 0.0 0.00011620653 0.00027680316
-2.0991429e-05 -0.00025025508 0.0 0.00041344005 0.0012466408 0.0040918333 0.0 -0.0041255127
-0.00070787803 -2.0641115e-05 0.0 0.0 0.0 0.0 0.0 0.00013654743
-0.0013584415 0.0 -0.0030201057 0.0 0.0 0.000258289 0.0 0.0
1.9324136e-05 0.00016371172 -0.00017507713 0.00024204298 -0.0005392519 2.6494077e-05 -0.0001173349 0.0
-0.0008662627 0.00030176734 0.00069043133 -2.6241356e-05 0.0 0.0014113284 0.002873473 -0.0025337725
0.0 0.0 -0.0002930977 -0.0023791145 0.00085039943 7.524777e-05 0.0 -0.00032905425

base.mlp.fc2.0.2.weight f4 [64]
00000000: ce07 803f 58a0 7f3f 1556 7f3f 6f77 803f
00000010: e9c0 7e3f 85d3 7f3f 32fe 7f3f b275 7f3f
00000020: 477f 7f3f 9501 803f bb71 7f3f 4fa1 803f
00000030: 633c 803f fb07 803f b600 803f f1e4 7f3f
00000040: 6de4 7f3f 770a 803f 8104 803f 0c0b 803f
00000050: 176d 803f 5622 803f a0bd 7f3f bfa6 803f
00000060: 0afb 7f3f 80f0 7f3f 9e09 803f 9219 803f
00000070: 11e8 7f3f 0f70 803f d300 803f 0203 7f3f
00000080: f8dc 7f3f 2501 803f 778d 7f3f a515 803f
00000090: caf1 7f3f 25f6 7f3f a609 803f d3ef 7f3f
000000a0: b1cc 7f3f c737 803f 4fe0 7f3f 8116 803f
000000b0: 55ed 7f3f 648f 7f3f e2f2 7f3f 5101 803f
000000c0: a2e8 7f3f 3502 803f 5619 803f 12f5 7f3f
000000d0: e0f9 7f3f edab 803f 7b5e 7f3f f516 803f
000000e0: dba4 7f3f ca27 803f 48a4 7f3f f91d 803f
000000f0: e913 803f 1e0e 7f3f 40e8 7f3f 91fc 7f3f
1.0002382 0.9985404 0.99740726 1.0036448 0.9951311 0.9993213 0.99997246 0.99788964
0.99803585 1.0000483 0.99782914 1.0049227 1.0018429 1.0002435 1.0000217 0.9995871
0.99957925 1.0003194 1.0001374 1.0003371 1.0033292 1.0010478 0.9989872 1.0050887
0.9999243 0.9997635 1.0002935 1.0007803 0.9996348 1.0034198 1.0000252 0.99613965
0.99946547 1.0000349 0.99825233 1.0006605 0.99978316 0.9998496 1.0002944 0.9997532
0.9992171 1.0017022 0.9995164 1.0006868 0.99971515 0.9982817 0.99979985 1.0000402
0.99964345 1.0000674 1.0007732 0.9998332 0.99990654 1.0052468 0.9975354 1.0007006
0.99860924 1.0012143 0.9986005 1.0009147 1.0006076 0.99630916 0.9996376 0.9999476

base.mlp.fc2.0.2.bias f4 [64]
00000000: a8e7 87b9 a971 b93a 63b8 74ba 707e 84bb
00000010: ab8c a23b ab4c f2b8 008b 7e36 e722 313a
00000020: 2114 deba 6d11 01b8 3e22 70bb 99af a03b
00000030: 4717 f3ba 5264 8bb9 a8ad c738 cbe1 b339
00000040: 0024 e7b6 5af9 04b9 619f f8b8 7ba1 a6b9
00000050: 1e83 5a3b f9a2 843a 4c1a 863a 798e 92ba
00000060: ff69 6cb8 c09e 96b6 b43e 8eb9 4abd 4dba
00000070: 5c6c b639 99cd 67bb 0694 25b8 1472 f438
00000080: aa3e 8039 6095 5fb7 4398 bcba 4d2a 28ba
00000090: bf24 4f39 7edb 6b39 a13e 8fb9 e5d5 8d39
000000a0: 5dea 0238 7602 9539 fc55 49b9 2422 34ba
000000b0: dcc9 cab9 380c 1738 9f72 8db9 24d4 a1b7
000000c0: 8d68 2b39 9b29 8939 2ba3 703a 6624 deb7
000000d0: 1a9a e638 989e ba3b 5455 283b 3b67 40ba
000000e0: 2f2e b43a acc1 9fba c40d 50b9 1617 5cba
000000f0: 44d2 353a 420a 8e38 2bc7 b239 f698 7638
-0.00025921804 0.0014148253 -0.0009335337 -0.004043393 0.0049606166 -0.0001155374 3.7929858e-06 0.0006757215
-0.0016943255 -3.0772226e-05 -0.0036641504 0.0049037454 -0.0018546366 -0.0002658689 9.5214054e-05 0.0003430977
-6.8885274e-06 -0.00012681392 -0.00011855248 -0.000317823 0.0033342312 0.001011937 0.0010231226 -0.0011181376
-5.63655e-05 -4.4888293e-06 -0.00027131068 -0.00078483357 0.0003479448 -0.0035370348 -3.9476923e-05 0.000116560754
0.0002446075 -1.3326615e-05 -0.0014388639 -0.0006414995 0.00019754747 0.00022493114 -0.00027321748 0.0002705298
3.1212683e-05 0.00028421328 -0.00019200885 -0.00068715424 -0.0003867884 3.6012585e-05 -0.00026979015 -1.9291481e-05
0.00016346779 0.00026161675 0.00091795874 -2.6481412e-05 0.00010995958 0.0056951754 0.0025685625 -0.0007339601
0.0013746674 -0.0012188456 -0.00019841554 -0.0008395774 0.0006935934 6.772998e-05 0.00034099197 5.8793426e-05

rnn.rnn.weight_ih_l0 f4 [192, 64]
00000000: 7dea bbbc 71eb a9bd d26e b8bd 8e0e 17bc
00000010: a241 f2bd b265 cf3c b542 a83d adcd 15be
00000020: 4730 49be 4fd0 c33a b5ea b8bc 3041 8e3d
00000030: 2b6f 7fbc cfa9 553e a051 43bd a9e5 713d
00000040: eda1 75bd 8865 55bc 2483 ebbc 4f62 3d3b
00000050: ab6f 05bd 12df 013d bc9f 183c 412a 9d3d
00000060: 83bc ae3d d74a c1bd e53f 13bd d0ea 373d
00000070: 1999 04be bd68 d23d 9c2d 8abc 9d85 9bbc
00000080: b0b1 ddbd 9fb1 62bc 2abe 903d 2757 213d
00000090: 4f85 063d 19a2 e03d 094d 763c 233d 49bd
000000a0: 0cab 2abd 820a b7bc 8ed6 753d 01a1 95bc
000000b0: 0ff5 193d 9dc8 33bc 2195 86bd bead d73d
000000c0: 111e 863d e016 1d3c 49c0 48bb d53c 8e3c
000000d0: f9e5 c6bb f517 0e3d 86ea 573d 3eb5 f6bc
000000e0: a8bc f7bd 2bdf f53a bea5 fe3c 9eca b03c
000000f0: 6992 31bc 6548 fbbb 35c4 4b3e 1538 acbd
00000100: 8101 0e3e e1e1 1d3e 66a4 b13d 70f9 783d
00000110: 8c42 21be e846 07bd faff 78bb 21e8 b83c
00000120: b608 9ebd e5f4 b7bc 80b9 5dbd 2374 22ba
00000130: 501d 3bbd 96c6 3d3d 4270 ce3c 3915 ddbd
00000140: e97f 9ebd 3f7e 503d e94d 113e 192d dcbd
00000150: 86d5 b8bc dddf e3bd 8423 f63d 4014 b53c
00000160: bc62 e8bc 20b5 bfbc c443 42bd 5908 a93d
00000170: 2719 073e 23a5 c1bd 58f7 043e 3a85 433d
00000180: a995 023e 254a 51bd 2ab3 283c 7daa b3bc
00000190: 93f4 80bd 4593 13bb 720d f93c 124a 013c
000001a0: d68e 8bbc b8e9 efbd 2c9b babc 672f 623c
000001b0: 8585 2fbc bb1d 023e 00b3 043d af94 87bd
000001c0: 3f53 253d f715 2cbd f6be d8b9 bbce d2bc
000001d0: 88a4 f03c 8b16 c0bd 462b 903d 0a4c 01be
000001e0: 6acc 11bd 88ee 9f3d 6765 b13d 3f82 2a3c
000001f0: 5dda ee3d 43bc 0f3d b432 453d e297 873d
00000200: da86 79bd 7938 873d 3a29 b03c 5136 b93c
00000210: f0bd 40bc e66b 2e3d af57 ab3d b9fb ad3c
00000220: 79b4 f0bc 38cf 86bc 139b 9fbc 330a 26bd
00000230: 6e39 233e c397 8b3c 054b 67bd 376d 93bd
00000240: d1b6 b5bd f95f 9b3c fe30 f0bc ae05 af3d
00000250: 7cd8 e7bc 5328 cd3d 6e57 b6bd 38bc c0bd
00000260: 47be dfbd 524c 563d e11c b6bd 1e60 c6bc
00000270: 8585 a23d 212b 903c 5b30 f1bd dcda 38bd
00000280: d91d d73c 3d66 443c 01be f63c 34df 52bd
00000290: 4745 48bd 5682 65bd 2d9a 223d d99a 4a3d
000002a0: a088 573d 28cc 53be a36f b6bc 64f0 203d
000002b0: 4216 f43c d7a0 b63d 2949 7f3d 0fe6 b7bd
000002c0: 5834 a83d 7326 63bd fa8d 4cbd 1775 2e3d
000002d0: bd6e c43d ce4e 63bd 0b5d 8b3d baf3 9abd
000002e0: 5ed6 983c 4eab ab3d 3f78 573d 659c 5e3d
000002f0: a05c 5c3d 7933 b23d 8543 8c3d 3720 913d
00000300: 2400 9dbd 35df 35bd 6ae8 5b3c a8a1 ef3d
00000310: e424 12bd 4ebb 55be 3b48 8a3d 9f2d da3c
00000320: 7e46 06bd cebd 9abc 09bb 32bd 9c53 0b3c
00000330: 9e3e abbc c0a7 293d b72a 4d3d 258b 81bc
00000340: 530d f93d 8525 9b3d 0ca6 2c3c bb09 a1bc
00000350: b21b bb3d d2db 033e 98df c53d 5de1 9f3d
00000360: 1e5d 39bd 585e 7fbc cbda cd3c 4b44 5dbd
00000370: bd65 86bb c489 be3c e45a 7f3c 2741 893c
00000380: a29a 003e f966 173d 0c65 1dbc d25b 2b3e
00000390: eaf5 2cbd 7da8 dfbc 03ce 83bd a6c6 81bc
000003a0: 0df1 04bd 1834 36bc b653 23bd 7dc9 fdb9
000003b0: bce3 89bd faae c63c a506 0c3e 77c2 213c
000003c0: d07f 0a3d 049e 683c 8032 90bd 76e7 8e3d
000003d0: 48df d13d 8c6a 80bd e2aa afbc 6536 a93c
000003e0: 5752 82bd 4ae3 3e3e 8ca4 32bd 56ce e53d
000003f0: b7bf 6abd 15f0 23be 0e97 bdbd 7aa2 f53d
-0.022938961 -0.0829686 -0.09005512 -0.009219779 -0.11828925 0.025317047 0.08215848 -0.1462924
-0.19647323 0.00149394 -0.022572855 0.06946027 -0.015590469 0.20865558 -0.047685266 0.05905691
-0.059968878 -0.013024695 -0.028749056 0.0028897708 -0.032577198 0.031706877 0.009315427 0.07674075
0.085320495 -0.09438103 -0.035949606 0.04490167 -0.12949027 0.102738835 -0.016867451 -0.01898461
-0.10824907 -0.0138362935 0.07067521 0.039389756 0.032841977 0.10968418 0.015033015 -0.04913057
-0.04166703 -0.022343878 0.06001907 -0.01826525 0.03758722 -0.010973123 -0.06571413 0.105311856
0.065487035 0.009587973 -0.003063219 0.017362991 -0.0060698953 0.034690816 0.052713893 -0.03011572
-0.1209653 0.0018758526 0.031084891 0.02158099 -0.01083813 -0.007668542 0.19899066 -0.08409134
0.13867761 0.15418197 0.08673935 0.060784757 -0.15748042 -0.033026606 -0.003799437 0.022571625
-0.07716505 -0.022455642 -0.054131985 -0.0006197115 -0.04568225 0.046331964 0.025200013 -0.107950635
-0.07739241 0.050901648 0.14189877 -0.10750789 -0.022562753 -0.11126683 0.12018493 0.022104383
-0.028367393 -0.023401797 -0.047427908 0.08253545 0.13193189 -0.094553255 0.12984979 0.047734477
0.12752403 -0.0510961 0.010296622 -0.021931881 -0.06296649 -0.00225182 0.030401919 0.007891195
-0.017035883 -0.117145 -0.02277907 0.013805247 -0.010712986 0.12706654 0.03239727 -0.06620156
0.040362593 -0.042013135 -0.00041341007 -0.025733342 0.02937533 -0.093793 0.07039504 -0.12626663
-0.035595335 0.07809168 0.08661919 0.01040703 0.11662743 0.03509165 0.048144057 0.06620766
-0.06091962 0.06602568 0.021504033 0.022608908 -0.011764035 0.04258337 0.08366334 0.021238195
-0.029382931 -0.016456231 -0.019483125 -0.04053707 0.15939876 0.017040139 -0.05646803 -0.071985655
-0.0887276 0.018966662 -0.029320236 0.08546005 -0.02830147 0.10017457 -0.08903395 -0.094109
-0.109249644 0.05231888 -0.08892227 -0.024215754 0.07935623 0.01759869 -0.11776801 -0.045130596
0.02625935 0.011987266 0.030119898 -0.051482394 -0.048894193 -0.0560325 0.039697815 0.04946408
0.05262053 -0.20683348 -0.02227003 0.039291754 0.02979577 0.089173965 0.06232563 -0.08979427
0.08213109 -0.05545659 -0.049940087 0.042592134 0.09591434 -0.055495076 0.06804856 -0.075660184
0.018656906 0.08382283 0.05260491 0.05434837 0.05379927 0.08701224 0.06848816 0.070862226
-0.076660424 -0.04440232 0.013422111 0.11700755 -0.035679713 -0.20872232 0.06752058 0.026633082
-0.03278207 -0.018889334 -0.043635402 0.008503821 -0.020903882 0.041419744 0.050089564 -0.01581342
0.121607445 0.07575516 0.010537636 -0.01965796 0.09136142 0.12876824 0.09661788 0.078066565
-0.04525482 -0.015586458 0.025128743 -0.054020207 -0.0041014836 0.023259051 0.015585635 0.0167547
0.12558988 0.036963437 -0.009606611 0.16734245 -0.04222671 -0.027302021 -0.06435778 -0.015841793
-0.032456446 -0.011120819 -0.039874755 -0.0004840604 -0.0673289 0.024253357 0.1367441 0.009873024
0.033813298 0.01419783 -0.07040882 0.069777414 0.10247666 -0.06270322 -0.021443788 0.02065582
-0.06363361 0.18641391 -0.043613955 0.11220996 -0.05731174 -0.16009553 -0.09257327 0.119938806
