MAPPO/results/MyEnv/MyEnv/rmappo/check/run19/models/critic_agent3.pt (torch, 314992 bytes, 21 tensors)

base.feature_norm.weight f4 [651]
0.9993947 0.99984354 0.99982405 0.99923295 1.0003403 1.004698 0.9996135 0.99945116
1.0002004 0.9997222 1.0011518 0.9997054 1.0003217 0.99946016 0.9998779 0.9993412
1.002409 0.9979745 0.9999999 1.0002073 1.0005571 0.99993 1.001485 0.9998784
1.0008817 1.0003551 0.9952018 0.9996172 1.0004574 1.0003198 0.9966521 0.99921775
0.9954152 1.0002091 0.9991118 1.0002979 0.9990073 1.0000672 0.9977254 0.9998777
0.99882096 1.0006499 1.0042335 0.99948484 1.0000056 0.99989784 1.0001091 0.9991921
0.99827147 0.9995129 1.0011299 0.9999626 1.000039 0.9995945 0.9997364 1.0029159
0.9978988 1.0002704 1.0001113 0.9960877 0.99986225 0.9998249 0.9980246 0.99901855
1.0004488 0.9999755 0.99942994 1.0003227 1.0001556 0.9998093 0.99912006 0.99956113
0.9998708 0.9996314 1.0001869 1.0001636 0.99869543 0.9995382 0.99806285 1.0001132
0.9999735 1.0000209 1.0001427 0.9999549 0.9998967 1.0003095 0.99883956 1.0002822
0.9986476 0.9978374 0.9998382 0.9998681 1.0011884 0.99976116 1.0002375 0.99964523
1.0043802 0.9996439 0.99894047 1.0004826 0.9996345 0.99954176 1.0004988 0.9999297
0.9972655 0.9998315 0.9998015 0.9979234 1.0037173 1.0008183 1.0001698 0.9994916
0.9992341 0.9993192 0.99986565 0.99998474 0.9998239 1.0002265 0.99863476 1.0000526
1.0004773 0.9986448 0.99842197 1.0002753 0.9994102 1.0001839 1.0001612 0.9999744
1.0000701 1.0000157 0.99991333 1.0000849 0.99934065 0.99975216 1.0000106 0.9999238
0.9986979 1.0000842 1.0005857 0.9996498 1.000444 1.0037434 0.99917364 0.9995502
1.0008421 0.9994084 0.9991092 0.9993304 1.0000836 1.0000985 1.0000979 1.0002372
0.9993711 1.0007046 1.0000259 1.0000616 1.00013 0.9966174 0.998637 1.0001564
1.0005151 0.999599 0.99990934 0.9984802 0.9998908 1.0000411 0.99998325 1.0002761
0.99949735 1.0002483 0.99959993 0.99984473 0.999736 0.9995162 0.99984145 1.000492
1.0003976 0.999773 1.0001993 0.9977865 1.0001411 0.9999108 0.9990021 0.9999487
1.0000206 1.0003903 1.0002171 1.0002168 1.0000218 0.99989885 1.0001985 0.99782944
0.99948645 1.0002217 0.99890924 1.0005909 0.99979794 0.99962443 0.9991257 0.9989529
0.9996706 1.0001682 0.9997601 1.0001129 0.99999577 1.0007937 1.0003237 1.0029309
0.9987134 0.9958033 0.9999056 0.9999018 0.99831444 0.99928945 0.99961215 1.0002575
0.9993969 0.9998947 0.9997499 1.0003867 0.99986106 0.9997897 0.9995768 0.9952545
0.9984763 0.996934 1.000039 0.9997794 0.9991835 1.0004976 0.9992369 1.0000395
1.0025945 0.99930525 1.0002282 0.9992539 0.9999473 0.9996154 0.99979836 0.99963963
0.99992174 0.9998133 1.0018624 0.99939173 0.9992731 1.0000665 0.99946237 1.0002842
1.0008303 0.99948686 0.99908584 1.0002868 1.0003009 0.9992417 0.9995593 0.99968785
00000000: 55d8 7f3f bff5 7f3f 78f4 7f3f bbcd 7f3f
00000010: 270b 803f f299 803f ace6 7f3f 08dc 7f3f
00000020: 9106 803f cbed 7f3f be25 803f b1ec 7f3f
00000030: 8b0a 803f 9fdc 7f3f 00f8 7f3f d3d4 7f3f
00000040: f04e 803f 427b 7f3f feff 7f3f cb06 803f
00000050: 4112 803f 6afb 7f3f a930 803f 08f8 7f3f
00000060: e41c 803f a30b 803f 8cc5 7e3f eae6 7f3f
00000070: fd0e 803f 7b0a 803f 9824 7f3f bccc 7f3f
00000080: 88d3 7e3f da06 803f cac5 7f3f c309 803f
00000090: f1be 7f3f 3402 803f ef6a 7f3f fcf7 7f3f
000000a0: bbb2 7f3f 4c15 803f b98a 803f 3dde 7f3f
000000b0: 2f00 803f 4ef9 7f3f 9303 803f 0ecb 7f3f
000000c0: b88e 7f3f 14e0 7f3f 0625 803f 8dfd 7f3f
000000d0: 4701 803f 6de5 7f3f baee 7f3f 8c5f 803f
000000e0: 4c76 7f3f dc08 803f a603 803f 9aff 7e3f
000000f0: f9f6 7f3f 86f4 7f3f 8a7e 7f3f aebf 7f3f
00000100: b50e 803f 65fe 7f3f a4da 7f3f 930a 803f
00000110: 1905 803f 81f3 7f3f 55c6 7f3f 3de3 7f3f
00000120: 88f7 7f3f d8e7 7f3f 2006 803f 5c05 803f
00000130: 81aa 7f3f bce1 7f3f 0c81 7f3f b603 803f
00000140: 43fe 7f3f af00 803f ad04 803f 0bfd 7f3f
00000150: 3bf9 7f3f 240a 803f f3b3 7f3f 3f09 803f
00000160: 5ea7 7f3f 4672 7f3f 65f5 7f3f 5bf7 7f3f
00000170: f126 803f 59f0 7f3f c807 803f c0e8 7f3f
00000180: 888f 803f aae8 7f3f 90ba 7f3f d00f 803f
00000190: 0ce8 7f3f f8e1 7f3f 5810 803f 65fb 7f3f
000001a0: cb4c 7f3f f5f4 7f3f fef2 7f3f e877 7f3f
000001b0: cf79 803f d01a 803f 9005 803f aede 7f3f
000001c0: cecd 7f3f 62d3 7f3f 32f7 7f3f 00ff 7f3f
000001d0: 76f4 7f3f 6c07 803f 87a6 7f3f b901 803f
000001e0: a40f 803f 30a7 7f3f 9598 7f3f 0509 803f
000001f0: 59d9 7f3f 0706 803f 4805 803f 53fe 7f3f
00000200: 4c02 803f 8400 803f 52fa 7f3f c802 803f
00000210: cad4 7f3f c2ef 7f3f 5900 803f 02fb 7f3f
00000220: aaaa 7f3f c202 803f 3113 803f 0de9 7f3f
00000230: 8d0e 803f aa7a 803f d8c9 7f3f 86e2 7f3f
00000240: 981b 803f 3bd9 7f3f 9fc5 7f3f 1ed4 7f3f
00000250: bd02 803f 3a03 803f 3503 803f c607 803f
00000260: c9d6 7f3f 1717 803f d900 803f 0502 803f
00000270: 4304 803f 5122 7f3f ada6 7f3f 2005 803f
00000280: e110 803f b8e5 7f3f 0ffa 7f3f 669c 7f3f
00000290: d8f8 7f3f 5901 803f e7fe 7f3f 0c09 803f
000002a0: 0fdf 7f3f 2308 803f c8e5 7f3f d3f5 7f3f
000002b0: b3ee 7f3f 4be0 7f3f 9cf5 7f3f 1f10 803f
000002c0: 070d 803f 20f1 7f3f 8806 803f f06e 7f3f
000002d0: a004 803f 27fa 7f3f 9abe 7f3f a3fc 7f3f
000002e0: ad00 803f ca0c 803f 1d07 803f 1b07 803f
000002f0: b700 803f 5ff9 7f3f 8106 803f c071 7f3f
00000300: 58de 7f3f 4407 803f 84b8 7f3f 5d13 803f
00000310: c2f2 7f3f 63e7 7f3f b4c6 7f3f 61bb 7f3f
00000320: 6aea 7f3f 8305 803f 47f0 7f3f b303 803f
00000330: b9ff 7f3f 021a 803f 9b0a 803f 0a60 803f
00000340: aeab 7f3f f7ec 7e3f d0f9 7f3f 90f9 7f3f
00000350: 8991 7f3f 6fd1 7f3f 95e6 7f3f 7008 803f
00000360: 7ad8 7f3f 19f9 7f3f 9cef 7f3f ac0c 803f
00000370: e5f6 7f3f 38f2 7f3f 44e4 7f3f 00c9 7e3f
00000380: 259c 7f3f 1137 7f3f 4701 803f 8bf1 7f3f
00000390: 7dca 7f3f 4e10 803f fdcd 7f3f 4b01 803f
000003a0: 0455 803f 78d2 7f3f 7a07 803f 1bcf 7f3f
000003b0: 8cfc 7f3f cbe6 7f3f c9f2 7f3f 62e8 7f3f
000003c0: dffa 7f3f c4f3 7f3f 073d 803f 23d8 7f3f
000003d0: 5dd0 7f3f 2e02 803f c4dc 7f3f 5009 803f
000003e0: 351b 803f 5fde 7f3f 17c4 7f3f 6609 803f
000003f0: dc09 803f 4ece 7f3f 1ee3 7f3f 8beb 7f3f

base.feature_norm.bias f4 [651]
0.0005958807 0.00015681096 0.00015744129 0.00077054516 -0.00033855843 -0.0050062938 0.00037883708 0.0005090169
-0.00017433956 0.0002878078 -0.0011792707 0.00028722244 -0.00030234558 0.00054592016 9.905399e-05 0.0006961218
-0.0024055985 0.002096684 -9.273965e-06 -0.00021009863 -0.0005854353 6.207568e-05 -0.0015324815 0.000120227916
-0.0010762743 -0.00035237576 0.0049946257 0.0003974271 -0.00043430543 -0.00033315062 0.0034413615 0.00066405843
0.004807138 -0.00020109542 0.0008681473 -0.0002812815 0.001159204 -8.1731574e-05 0.0025591801 0.0001235863
0.0012134663 -0.0006821209 -0.0044120606 0.00048368747 -2.3237037e-05 0.000114179 -9.914949e-05 0.00082860014
0.0017161716 0.0004748568 -0.001173315 4.859813e-05 -1.3350062e-05 0.0004188827 0.0002549892 -0.0028799793
0.002148547 -0.0002518176 -0.000106779175 0.004054425 0.00014612931 0.00017855498 0.0022253806 0.0009831557
-0.00048940594 8.53655e-06 0.00056282914 -0.00033147313 -0.00014326742 0.00019114754 0.0008903098 0.00042349196
0.0001310984 0.00036721042 -0.00019411216 -0.00016680421 0.0014144831 0.00046594293 0.002382669 -0.000127251
3.76307e-05 -2.1560503e-05 -0.00014163573 5.982657e-05 0.00010518394 -0.00030228752 0.0012885871 -0.00028907397
0.0013516085 0.0023675547 0.0001554882 0.00012170616 -0.0011957319 0.00027543708 -0.0002441414 0.00035734937
-0.004473884 0.00033903876 0.0011881973 -0.00052494294 0.0003800585 0.00046869146 -0.0005078814 7.681474e-05
0.0027068378 0.00015117187 0.00020122033 0.0020283868 -0.0038294184 -0.0008431234 -0.00016989515 0.0005056604
0.00076010445 0.00069617725 0.00010679641 1.0081316e-05 0.0001883689 -0.00021291265 0.0014127925 -4.311712e-05
-0.0004797684 0.0013726981 0.0016521208 -0.00027333244 0.00059413334 -0.00018888155 -0.00015474057 2.0804808e-05
-6.844748e-05 1.7168608e-05 9.2849274e-05 -8.3802464e-05 0.00071005046 0.00024222085 -1.34427755e-05 7.691593e-05
0.0013931411 -0.00011581331 -0.000593615 0.00035746724 -0.0004456809 -0.0039485013 0.0008560234 0.0004549696
-0.0007399286 0.00065813534 0.0008888291 0.00068295107 -0.00010787524 -0.00014774044 -0.000102838676 -0.00023879365
0.0006307638 -0.0007385517 -1.3927012e-05 -6.307314e-05 -0.00013338908 0.0037271206 0.0013822868 -0.00019346885
-0.0005241209 0.00040342842 0.000117526666 0.001501709 0.00011559772 -4.1699746e-05 1.37594725e-05 -0.00027974643
0.0006060877 -0.00024129561 0.0003941897 0.00015285981 0.00028811707 0.0004943752 0.00016069732 -0.00048833527
-0.00039867387 0.00020846723 -0.00018883555 0.0024491365 -0.0001397912 8.032896e-05 0.0010147705 4.8743743e-05
-2.1060077e-05 -0.0003919583 -0.00022243004 -0.00023670605 -1.4735251e-05 0.00013553131 -0.00018527306 0.0020534904
0.0005135715 -0.00021323026 0.0010939405 -0.0005900635 0.00018964855 0.00038104903 0.0008743559 0.0010854361
0.00028318964 -0.00016271218 0.00024950525 -0.00010729846 -1.300039e-06 -0.0008268907 -0.0002656323 -0.0026623926
0.0012978419 0.0043045296 0.00016068004 2.981731e-05 0.001730046 0.000729735 0.0005630033 -0.00025362472
0.0005660542 0.0003154871 6.133288e-05 -0.00039611908 0.00012679199 -0.000101805155 0.0004199942 0.005402789
0.001564765 0.0033136688 -4.201745e-05 0.00022375511 0.0009098728 -0.0003964878 0.0015621417 -0.00078591186
-0.0026367696 0.0006285147 -0.00022878879 0.00074777 4.3014552e-05 0.00038311497 0.0001827443 0.0003540267
7.2081275e-05 0.00018147555 -0.001889213 0.0006047457 0.0007312827 -7.4909905e-05 0.000540417 -0.0002759188
-0.0008713691 0.00045690816 0.00091371173 -0.00021619967 0.00017450558 0.00055229524 0.00025968606 0.00021392766
00000000: e034 1c3a 9f6d 2439 d316 2539 69fe 493a
00000010: 8b80 b1b9 d60b a4bb a79e c639 8c6f 053a
00000020: ebce 36b9 e9e4 9639 c291 9aba 5896 9639
00000030: 2384 9eb9 151c 0f3a 35bb cf38 f17b 363a
00000040: 3fa7 1dbb 8568 093b 6097 1bb7 ec4d 5cb9
00000050: e677 19ba a02e 8238 8cdd c8ba df22 fc38
00000060: c611 8dba 13bf b8b9 f5a9 a33b c35d d039
00000070: 7db3 e3b9 b8aa aeb9 7788 613b 3514 2e3a
00000080: 3285 9d3b 24dd 52b9 6194 633a f778 93b9
00000090: 6ff0 973a 4e67 abb8 ebb7 273b f296 0139
000000a0: 2c0d 9f3a 5cd0 32ba 0c93 90bb 6f97 fd39
000000b0: 28ed c2b7 6273 ef38 7aee cfb8 6a36 593a
000000c0: 2af1 e03a 33f6 f839 ebc9 99ba d8d5 4b38
000000d0: 14fa 5fb7 7c9d db39 12b0 8539 09be 3cbb
000000e0: a3ce 0c3b 6306 84b9 a2ee dfb8 fbda 843b
000000f0: 4a3a 1939 7d3a 3b39 b1d7 113b 3bdd 803a
00000100: 7a4b 00ba 3438 0f37 d38a 133a 92c9 adb9
00000110: 0e3a 16b9 c76e 4839 ae63 693a 2108 de39
00000120: 7577 0939 2686 c039 968a 4bb9 2ae8 2eb9
00000130: 2d66 b93a cd49 f439 8d26 1c3b ae6e 05b9
00000140: a8d5 1d38 d4dc b4b7 0d84 14b9 4aee 7a38
00000150: 3396 dc38 587c 9eb9 cfe5 a83a da8e 97b9
00000160: 7528 b13a fa28 1b3b 8c0a 2339 7f3c ff38
00000170: 1bba 9cba 8a68 9039 1b00 80b9 9f5a bb39
00000180: a999 92bb 03c1 b139 49bd 9b3a 539c 09ba
00000190: 9742 c739 b4ba f539 5823 05ba 9917 a138
000001a0: 3465 313b e483 1e39 acfe 5239 afee 043b
000001b0: fbf6 7abb 0e05 5dba e225 32b9 4c8e 043a
000001c0: bf41 473a aa7f 363a e3f7 df38 ec22 2937
000001d0: e484 4539 4e41 5fb9 732d b93a a8d8 34b8
000001e0: 6d89 fbb9 1bec b33a fa8b d83a 0f4e 8fb9
000001f0: 9dbf 1b3a 810e 46b9 db41 22b9 fc85 ae37
00000200: 768b 8fb8 4e05 9037 13b8 c238 1bbf afb8
00000210: ae22 3a3a aafc 7d39 4888 61b7 ed4d a138
00000220: 0f9a b63a cce0 f2b8 d49c 1bba 716a bb39
00000230: 47aa e9b9 6e62 81bb c266 603a fc88 ee39
00000240: c5f7 41ba b786 2c3a 5000 693a 1208 333a
00000250: 143b e2b8 c6ea 1ab9 18ab d7b8 af64 7ab9
00000260: d859 253a 5e9b 41ba 10a8 69b7 2246 84b8
00000270: 5cde 0bb9 b542 743b d92d b53a e6dd 4ab9
00000280: 2865 09ba 3f83 d339 a678 f638 fed4 c43a
00000290: 0e6d f238 c3e6 2eb8 7cd8 6637 eeaa 92b9
000002a0: dbe1 1e3a 4c04 7db9 3fab ce39 fe48 2039
000002b0: 6b0e 9739 f598 013a dc80 2839 a003 00ba
000002c0: 1a05 d1b9 ff97 5a39 2802 46b9 b181 203b
000002d0: ea94 12b9 4876 a838 0c02 853a 3272 4c38
000002e0: 2caa b0b7 c17f cdb9 1c3c 69b9 4c34 78b9
000002f0: 6c37 77b7 691d 0e39 dc45 42b9 da93 063b
00000300: 33a1 063a 9096 5fb9 8d62 8f3a 7eae 1aba
00000310: 65dc 4639 89c7 c739 0835 653a 3145 8e3a
00000320: 1279 9439 b89d 2ab9 07d0 8239 6c05 e1b8
00000330: 007d aeb5 b2c3 58ba 9044 8bb9 897b 2ebb
00000340: 591c aa3a 030d 8d3b 387c 2839 3020 fa37
00000350: b6c2 e23a b04b 3f3a 8396 133a eff8 84b9
00000360: 4163 143a f667 a539 d79f 8038 34ae cfb9
00000370: 77f3 0439 3a80 d5b8 ab32 dc39 e109 b13b
00000380: cd18 cd3a 232a 593b e53b 30b8 ce9f 6a39
00000390: 8884 6e3a b1df cfb9 c7c0 cc3a a705 4eba
000003a0: a7cd 2cbb e8c2 243a 06e7 6fb9 ff05 443a
000003b0: 866a 3438 d2dc c839 0d9f 3f39 a99c b939
000003c0: 572a 9738 794a 3e39 789f f7ba cc87 1e3a
000003d0: 8db3 3f3a f318 9db8 c5aa 0d3a 32a9 90b9
000003e0: 976c 64ba 2d8d ef39 2886 6f3a a8b3 62b9
000003f0: 7cfb 3639 e8c7 103a 7926 8839 c551 6039

base.mlp.fc1.0.weight f4 [64, 651]
0.0026903176 0.025459314 0.04708118 0.047520187 0.0788297 0.004705979 -0.025551453 -0.05223329
-0.0069999658 -0.0005278311 -0.0108721005 -0.018850703 0.020310134 -0.13218878 0.060512662 0.06343577
-0.010649157 0.07184359 0.060375217 -0.06740313 -0.0054926137 0.029723156 0.018241541 0.10033618
0.02669727 0.01368082 0.06393706 0.049533598 0.005309147 0.038689077 -0.011688684 -0.027154319
0.012791909 -0.019912915 0.02182664 0.059509046 0.008325622 0.09114914 -0.06557815 0.011746714
-0.053488474 0.13559672 0.03522047 0.03890382 0.06262984 0.003465003 0.010451027 0.0016172243
-0.08631724 -0.03410598 0.008855615 0.0543383 -0.0370515 0.06681464 -0.11582511 -0.0010543
-0.0019434851 -0.10408108 0.059562173 -0.04522017 -0.07463487 0.077725425 0.042743098 0.053275198
0.074548304 -0.07149129 -0.046786454 -0.047587294 -0.008018546 -0.027728518 0.068309754 -0.030704724
0.1260384 0.008410514 0.0129476115 0.0029575902 0.062490813 -0.06595802 -0.07205871 -0.021724392
0.054574735 -0.022022141 -0.14922231 -0.11694089 -0.049184132 -0.024087587 -0.05058732 0.07063452
0.011493012 0.017554143 0.0059097004 0.09863993 -0.049447484 -0.07871077 -0.03935582 -0.019737095
-0.018512368 0.04073151 0.00865786 -0.114289954 -0.046412252 0.06325204 0.1259665 -0.045555923
0.06334724 -0.04517193 -0.009184906 -0.03770941 -0.11781142 -0.054751974 0.063203074 0.044447176
0.008910799 -0.07008788 0.04274475 -0.029090561 0.09411382 -0.05334138 -0.023251487 0.049971886
-0.03225857 0.09827108 0.11477516 0.0013749951 -0.031322457 -0.09076195 -0.068259016 -0.0049917335
0.09445943 -0.05057955 -0.012210896 -0.066392876 0.011948488 -0.08257596 0.006890073 0.05546703
0.017547367 0.010849474 -0.0314327 0.033403657 -0.009759418 0.0003093659 -0.056190103 0.050257936
-0.05435443 0.0029106133 0.0612703 0.031699322 -0.03883018 -0.17647395 -0.02242919 0.088442765
0.0013265843 0.028549872 -0.032580018 0.04766419 -0.0988008 -0.010423572 0.059436817 -0.09223913
0.0067938073 0.06307065 0.0050135553 -0.0102966195 0.012852865 0.044178456 -0.035237942 -0.057951927
-0.047435578 -0.06161044 0.06667904 0.10702169 -0.0127503425 0.040248152 -0.018847855 -0.0013572301
-0.09351218 0.010280712 0.023670936 0.05276726 0.05860282 -0.018134708 0.049277954 -0.012645758
0.02333554 0.06267377 0.116472505 -0.019340873 -0.037963297 -0.022763807 -0.015655264 -0.119911656
0.0145628145 -0.007487459 0.099503934 -0.032108147 0.031295203 -0.005266965 -0.07424872 -0.065708145
0.04236466 0.018886108 0.0592762 0.04532569 -0.034960132 0.010876428 -0.019803088 0.010314555
-0.045025636 0.15013602 0.042981658 -0.0014539511 0.03276105 -0.033258285 -0.07789866 0.014626533
-0.026550196 0.006883628 -0.0991726 0.033755038 0.039533123 0.06755349 -0.016017362 -0.06115853
-0.058586627 0.0006379893 -0.09776983 -0.027765846 -0.06956496 0.03866955 -0.00028126372 -0.03715176
-0.060734477 -0.022663234 -0.020751955 0.015826566 0.06057106 -0.06666352 0.018943712 0.061414484
-0.039709054 0.0105635235 0.060215726 0.062078923 -0.13235193 0.029821131 0.11277995 -0.011269874
-0.062778406 -0.012717169 -0.026117455 -0.024123754 0.13125992 0.023436135 0.024601134 -0.0601817
00000000: 0a50 303b 0d90 d03c 32d8 403d 87a4 423d
00000010: 7771 a13d 9d34 9a3b 4851 d1bc 93f2 55bd
00000020: f85f e5bb 255e 0aba e520 32bc ca6c 9abc
00000030: 7061 a63c 7f5c 07be 20dc 773d 9dea 813d
00000040: cd79 2ebc bb22 933d 014c 773d a70a 8abd
00000050: 62fb b3bb fa7d f33c 496f 953c 0e7d cd3d
00000060: 3cb4 da3c 8525 603c 6ff1 823d bee3 4a3d
00000070: 5af8 ad3b 7078 1e3d e581 3fbc bc72 debc
00000080: 2895 513c 6920 a3bc c8cd b23c c2bf 733d
00000090: 3168 083c 66ac ba3d d64d 86bd 4a75 403c
000000a0: bb16 5bbd ded9 0a3e 5743 103d 9d59 1f3d
000000b0: 1344 803d 1b15 633b c93a 2b3c 0bf9 d33a
000000c0: 18c7 b0bd b6b2 0bbd 2417 113c d691 5e3d
000000d0: 50c3 17bd 1dd6 883d b735 edbd 7030 8aba
000000e0: 8abc feba 7628 d5bd 77f7 733d c938 39bd
000000f0: 2bda 98bd 822e 9f3d 6313 2f3d 1837 5a3d
00000100: c8ac 983d 076a 92bd 27a3 3fbd e5ea 42bd
00000110: 3860 03bc eb26 e3bc fce5 8b3d 7988 fbbc
00000120: 3610 013e 41cc 093c 3822 543c 21d4 413b
00000130: 5ef6 7f3d 0015 87bd 8493 93bd 5af7 b1bc
00000140: c289 5f3d c767 b4bc bccd 18be b57e efbd
00000150: 4d75 49bd 5553 c5bc a634 4fbd d5a8 903d
00000160: 304d 3c3c b5cd 8f3c 29a6 c13b bb03 ca3d
00000170: 7289 4abd 1d33 a1bd 9133 21bd b0af a1bc
00000180: 40a7 97bc 15d6 263d b2d9 0d3c da10 eabd
00000190: c61a 3ebd 498a 813d 5dfd 003e d998 3abd
000001a0: 33bc 813d 3406 39bd 4a7c 16bc 2f75 1abd
000001b0: 1d47 f1bd 9b43 60bd 9d70 813d 3e0e 363d
000001c0: 9afe 113c 3c8a 8fbd 1e15 2f3d 544f eebc
000001d0: bfbe c03d 7e7c 5abd e779 bebc 52af 4c3d
000001e0: 9021 04bd 5942 c93d 3d0f eb3d 2e39 b43a
000001f0: fa4b 00bd 67e1 b9bd 62cb 8bbd b291 a3bb
00000200: f273 c13d 812c 4fbd 3610 48bc fdf8 87bd
00000210: 97c3 433c 961d a9bd 1fc6 e13b 6531 633d
00000220: 7fbf 8f3c fec1 313c 93bf 00bd 46d2 083d
00000230: f7e5 1fbc 6332 a239 9827 66bd 44db 4d3d
00000240: c0a2 5ebd fdbf 3e3b 91f6 7a3d 26d7 013d
00000250: 650c 1fbd 96b5 34be 6cbd b7bc 7b21 b53d
00000260: c8e0 ad3a 6ce1 e93c a072 05bd 873b 433d
00000270: 1358 cabd a1c7 2abc 0574 733d dee7 bcbd
00000280: 969e de3b 2f2b 813d c048 a43b 27b3 28bc
00000290: d394 523c 78f4 343d a955 10bd 005f 6dbd
000002a0: cf4b 42bd 3b5b 7cbd 058f 883d 302e db3d
000002b0: d0e6 50bc 3fdb 243d d166 9abc 16e5 b1ba
000002c0: 5083 bfbd 6e70 283c 8de9 c13c 7b22 583d
000002d0: 8309 703d 3d8f 94bc aed7 493d 2730 4fbc
000002e0: 2d2a bf3c 1b5b 803d 2389 ee3d c070 9ebc
000002f0: 677f 1bbd 2a7b babc 783f 80bc 3e94 f5bd
00000300: df98 6e3c 5c59 f5bb b8c8 cb3d d583 03bd
00000310: 662f 003d 8196 acbb b70f 98bd fe91 86bd
00000320: 9186 2d3d 0ab7 9a3c 9acb 723d 6ea7 393d
00000330: 5b32 0fbd 0c33 323c 163a a2bc 61fe 283c
00000340: cd6c 38bd 42bd 193e 890d 303d 8192 beba
00000350: 7330 063d d739 08bd 5589 9fbd 20a4 6f3c
00000360: cc7f d9bc 0f90 e13b 011b cbbd b942 0a3d
00000370: 7ced 213d 7c59 8a3d d836 83bc 5e81 7abd
00000380: 88f8 6fbd bd3e 273a 8c3b c8bd 3375 e3bc
00000390: 1378 8ebd f663 1e3d 9476 93b9 722c 18bd
000003a0: b7c4 78bd 3fa8 b9bc 0100 aabc b7a6 813c
000003b0: 5c19 783d e286 88bd d82f 9b3c c18d 7b3d
000003c0: f6a5 22bd a112 2d3c c4a4 763d 7846 7e3d
000003d0: 4487 07be 724b f43c 2df9 e63d 47a5 38bc
000003e0: f791 80bd ac5b 50bc 46f4 d5bc 2e9f c5bc
000003f0: 0069 063e 23fd bf3c 5188 c93c 1681 76bd

base.mlp.fc1.0.bias f4 [64]
0.0 -0.0009146719 6.812939e-05 -0.00015828865 -0.0009565852 -0.0022479226 -0.0015515367 0.0
0.0 0.00018633415 -0.0002090645 -7.191377e-05 0.0 0.0 0.0 0.0
-2.0700238e-05 0.0005304388 0.00023147944 -0.00044068773 0.00015698161 0.0 0.00010586594 0.0
0.00031492204 0.003851284 0.0 0.0012459457 0.004389735 -0.0015670944 0.0 0.0
-0.00026189128 0.0 0.0 -0.00011822313 -8.9022345e-05 0.00036845478 0.0 0.0009932017
-0.00024375014 0.0 -0.0003926134 0.0 0.0 -0.0031226694 0.0014096134 -0.001212907
0.0 -0.00019894537 0.0 0.00021006672 0.00017286866 -0.00035882476 -0.0015314409 -0.0017918444
0.0006556723 -0.0011444216 -0.0035142745 0.0 0.0 -0.0012113607 0.0 0.0
00000000: 0000 0000 98c6 6fba b0e0 8e38 49fa 25b9
00000010: 59c3 7aba e251 13bb ef5c cbba 0000 0000
00000020: 0000 0000 b162 4339 5338 5bb9 69d0 96b8
00000030: 0000 0000 0000 0000 0000 0000 0000 0000
00000040: 6ca5 adb7 250d 0b3a 4ab9 7239 1b0c e7b9
00000050: 6e9b 2439 0000 0000 5804 de38 0000 0000
00000060: 1f1c a539 d365 7c3b 0000 0000 004f a33a
00000070: c4d7 8f3b f666 cdba 0000 0000 0000 0000
00000080: 744e 89b9 0000 0000 0000 0000 8fee f7b8
00000090: 82b1 bab8 2a2d c139 0000 0000 522e 823a
000000a0: 2e97 7fb9 0000 0000 aed7 cdb9 0000 0000
000000b0: 0000 0000 b3a5 4cbb c7c2 b83a 68fa 9eba
000000c0: 0000 0000 fe9b 50b9 0000 0000 5b45 5c39
000000d0: 1444 3539 a520 bcb9 a1ba c8ba 52dc eaba
000000e0: 6ce1 2b3a 6b00 96ba be4f 66bb 0000 0000
000000f0: 0000 0000 85c6 9eba 0000 0000 0000 0000

base.mlp.fc1.2.weight f4 [64]
1.0000296 0.9994066 0.9995026 0.9983374 1.000075 1.0012194 1.0035084 1.0002396
1.0001646 0.998661 0.99972975 0.9999239 0.9997563 0.99979407 0.99996275 1.0002289
0.9998378 1.0003419 0.9989533 0.99934083 0.9999276 1.0002528 0.9999935 1.0018253
1.000148 1.0019791 0.99929935 1.0005816 1.000396 0.99997634 1.0007082 0.9999697
0.999515 0.99992156 1.0003473 0.99935615 0.9994453 1.0006131 0.99937415 0.9979631
0.9994937 0.99984515 0.9995077 1.0006418 0.9988275 0.99953985 0.9971283 0.99982035
1.0008974 0.99954295 1.0007325 0.99919426 0.9992716 0.9996425 1.0000116 0.99993074
1.0021515 1.0002025 1.000007 1.0042897 0.9950346 0.9976168 0.9995643 1.0012976
00000000: f800 803f 1cd9 7f3f 67df 7f3f 0a93 7f3f
00000010: 7502 803f f527 803f f772 803f da07 803f
00000020: 6505 803f 3fa8 7f3f 4aee 7f3f 03fb 7f3f
00000030: 07f0 7f3f 81f2 7f3f 8ffd 7f3f 8007 803f
00000040: 5ff5 7f3f 340b 803f 67bb 7f3f cdd4 7f3f
00000050: 41fb 7f3f 4908 803f 93ff 7f3f d03b 803f
00000060: da04 803f da40 803f 15d2 7f3f 0f13 803f
00000070: fa0c 803f 73fe 7f3f 3517 803f 04fe 7f3f
00000080: 37e0 7f3f dcfa 7f3f 610b 803f ced5 7f3f
00000090: a6db 7f3f 1714 803f fcd6 7f3f 827a 7f3f
000000a0: d2de 7f3f daf5 7f3f bddf 7f3f 0815 803f
000000b0: 29b3 7f3f d8e1 7f3f cd43 7f3f 3af4 7f3f
000000c0: 681d 803f 0ce2 7f3f 0118 803f 32cb 7f3f
000000d0: 43d0 7f3f 92e8 7f3f 6100 803f 76fb 7f3f
000000e0: 8046 803f a306 803f 3b00 803f 918c 803f
000000f0: 96ba 7e3f d163 7f3f 72e3 7f3f 852a 803f

base.mlp.fc1.2.bias f4 [64]
-2.19711e-06 0.00025076297 0.00024353358 -0.00015304482 -5.1410632e-05 -0.0022244789 -0.0035830087 -0.00026460597
-0.00014969028 0.0003028673 -0.00021768686 1.633132e-05 0.00022103268 0.0002305685 1.3637611e-05 -0.00025587855
8.950006e-06 0.0004834511 0.000439174 -0.00012757143 0.00016298554 -0.00022773485 0.000116797455 -0.0018510767
0.00043272373 0.0019897232 0.00072586583 0.0008843564 0.00050704216 2.3705048e-05 -0.000736202 5.726558e-05
-8.6889566e-05 5.486529e-05 -0.00032444514 -2.609477e-05 -7.829271e-05 0.0006834067 0.00060362526 0.00049274403
0.00023265803 0.00013049523 -0.0002151216 -0.0006190434 0.001154551 -0.000482326 0.003239793 -0.0001925399
-0.0008835629 0.00018036133 -0.00070157635 0.00021791087 0.00016716047 3.58939e-06 -2.5389803e-05 9.141482e-05
0.0021556332 -0.00018512589 -0.00013645197 -0.004325182 0.0050025927 -0.002286235 0.00045826094 -0.0012778987
00000000: 1072 13b6 d678 8339 0c5d 7f39 a87a 20b9
00000010: bfa1 57b8 90c8 11bb e9d0 6abb d0ba 8ab9
00000020: 2ef6 1cb9 29ca 9e39 df42 64b9 3eff 8837
00000030: 02c5 6739 c3c4 7139 18cd 6437 7027 86b9
00000040: fc27 1637 b577 fd39 f040 e639 b2c4 05b9
00000050: 19e7 2a39 1ccc 6eb9 28f1 f438 d49f f2ba
00000060: 32df e239 0466 023b 0848 3e3a 27d4 673a
00000070: 06eb 043a 34da c637 aefd 40ba 7330 7038
00000080: 7b38 b6b8 281f 6638 4a1a aab9 18e6 dab7
00000090: 1431 a4b8 a626 333a 9b3c 1e3a 7e2b 013a
000000a0: aaf5 7339 8cd5 0839 4492 61b9 4d47 22ba
000000b0: 4e54 973a b3e0 fcb9 b552 543b 89e4 49b9
000000c0: e79e 67ba 601f 3d39 fee9 37ba 017f 6439
000000d0: cc47 2f39 40e1 7036 30fc d4b7 f5b5 bf38
000000e0: 8645 0d3b 5a1e 42b9 8c14 0fb9 42ba 8dbb
000000f0: caec a33b a9d4 15bb be42 f039 2a7f a7ba

base.mlp.fc_h.0.weight f4 [64, 64]
-0.189502 0.07470671 -0.15930806 0.33386222 0.14497231 0.35876307 0.17690206 -0.10344798
0.3110513 -0.42836803 -0.06389319 -0.31811306 -0.20900403 0.026731499 0.17668335 0.30651364
0.025744287 0.17795171 -0.10443082 0.14266421 -0.21602468 0.109312974 0.07439485 -0.018876009
0.13677548 -0.14255151 0.119754285 0.05150815 0.2236622 -0.30599076 0.28077555 -0.06097442
0.061079733 0.15058386 -0.09474629 -0.011377842 0.16505367 -0.045415215 0.23411387 -0.16309074
0.124282055 0.16952716 0.2367667 0.13065764 0.034899004 0.02198582 -0.013077812 0.027141858
0.18365645 0.13889699 -0.13695732 -0.21722949 0.09531447 0.2820592 0.06986795 0.22872715
0.056292936 -0.15281542 -0.021064106 -0.23647657 -0.024444168 -0.17092368 -0.047755387 -0.13631976
-0.23754807 -0.22754063 -0.0031217893 0.05669118 -0.2408591 0.11573411 -0.097583674 0.012554958
-0.022934616 0.14949054 0.17970712 0.23247379 0.013231575 0.25951627 -0.25583637 -0.03909078
0.24380426 -0.06985719 0.1996696 0.2848778 0.1524743 0.04575228 0.22432314 0.21956372
0.23605137 0.20205884 0.029933834 0.022213733 -0.2348308 0.090660796 0.08729607 -0.277106
0.000119146505 0.18062137 -0.26472396 -0.0018547555 -0.23845099 -0.12766354 -0.077665545 -0.124658614
0.020938396 0.0073336344 -0.14645591 0.49847522 0.070074156 0.2507083 0.26613435 0.17134383
-0.007495593 0.17954397 0.06358631 0.13988252 0.27609503 0.24442327 0.010583918 -0.024331586
0.20049223 0.05756321 -0.20966592 -0.18924765 0.05871294 -0.14286494 0.18225259 -0.010097652
0.19632895 -0.13685364 -0.22489959 -0.076570615 -0.039993662 0.07156034 0.12157471 -0.09455736
0.20949689 0.068843596 0.19432668 -0.22887935 -0.1619651 0.29271615 -0.21226186 -0.04809974
-0.16746308 0.27558398 0.028258532 -0.23301692 0.22210017 -0.004119839 0.023290096 -0.058933206
0.014734102 0.23453851 -0.09864012 0.20556289 -0.08794725 -0.3357441 0.23060325 0.06857219
0.0015757673 -0.17833114 -0.06750943 -0.12879507 0.03855079 0.05911801 -0.33242324 -0.08613585
0.26588687 -0.09782981 0.049104787 -0.11913979 0.18773182 0.038735017 -0.24103466 0.036540747
0.11624169 0.020051092 0.3772867 0.32901827 -0.14881273 -0.32703987 0.25337783 0.12742415
0.08752144 -0.09701956 -0.19181657 -0.02242833 0.35612258 -0.15978341 -0.06332178 0.07807382
0.02641471 0.04700775 -0.06260561 0.0036008486 0.15647094 -0.13185233 -0.3836308 -0.17925346
0.09212395 0.3129166 0.27864635 -0.14155263 -0.12632853 0.17512181 0.16599856 0.1409607
0.115580186 0.11466987 0.38971263 -0.061790504 -0.017425116 0.22925253 -0.17012282 0.047008585
0.12668982 -0.09275793 -0.023317559 -0.3334356 0.050457116 -0.05835306 0.03624816 0.048501972
-0.0009161021 0.013035671 -0.102649435 0.2558049 -0.08485522 0.33069474 -0.07622046 -0.016252412
0.087950625 0.1552501 0.16838747 -0.10450612 0.15885481 0.17204076 0.26606265 -0.41436896
0.19693956 0.067210354 -0.20743716 -0.1483477 -0.07673867 -0.29520956 0.045584835 -0.06833524
0.30646393 0.1377298 -0.042945545 -0.13236569 -0.1725698 0.3399437 0.08080486 -0.04665693
00000000: d00c 42be d5ff 983d a721 23be fdef aa3e
00000010: 9f73 143e cbaf b73e d025 353e 89dc d3bd
00000020: 1e42 9f3e 0e53 dbbe 6fda 82bd b7df a2be
00000030: 2705 56be 04fc da3c 7bec 343e 5bef 9c3e
00000040: afe5 d23c f938 363e d3df d5bd 9116 123e
00000050: 9335 5dbe 7bdf df3d 545c 983d dca1 9abc
00000060: df0e 0c3e 06f9 11be bc41 f53d 36fa 523d
00000070: b407 653e d2aa 9cbe d0c1 8f3e 50c0 79bd
00000080: be2e 7a3d a832 1a3e 580a c2bd 216a 3abc
00000090: d403 293e 4e05 3abd 8cbb 6f3e 4201 27be
000000a0: 9787 fe3d 8798 2d3e f872 723e 1ecb 053e
000000b0: 42f2 0e3d 9b1b b43c 5244 56bc 9a58 de3c
000000c0: 7010 3c3e 033b 0e3e 8a3e 0cbe 6871 5ebe
000000d0: 3c34 c33d 106a 903e ee16 8f3d 7337 6a3e
000000e0: 6c93 663d a57b 1cbe a28e acbc ea26 72be
000000f0: 233f c8bc 9e06 2fbe 279b 43bd 6897 0bbe
00000100: cd3f 73be 6900 69be ef96 4cbb 0335 683d
00000110: c5a3 76be 0106 ed3d f3d9 c7bd 50b3 4d3c
00000120: 60e1 bbbc 0c14 193e 2505 383e 9c0d 6e3e
00000130: 3fc9 583c 51df 843e fcfc 82be a71d 20bd
00000140: d3a7 793e 4911 8fbd 3076 4c3e 81db 913e
00000150: 3922 1c3e be66 3b3d f7b4 653e 50d5 603e
00000160: 73b7 713e 83e8 4e3e cd37 f53c 93f9 b53c
00000170: 7c77 70be 5eac b93d 48c8 b23d d6e0 8dbe
00000180: 4bde f938 cff4 383e e689 87be 441b f3ba
00000190: 7f2c 74be 3bba 02be 1d0f 9fbd 044d ffbd
000001a0: 0087 ab3c fc4e f03b 8af8 15be 2538 ff3e
000001b0: 0a83 8f3d d75c 803e c342 883e c274 2f3e
000001c0: 979d f5bb 60da 373e 8a39 823d 5d3d 0f3e
000001d0: 545c 8d3e 184a 7a3e 2b68 2d3c 0953 c7bc
000001e0: d64d 4d3e 67c7 6b3d aab2 56be 23ca 41be
000001f0: fb7c 703d 304b 12be 6ca0 3a3e 9f70 25bc
00000200: 750a 493e 5c23 0cbe 144c 66be 0ed1 9cbd
00000210: 65d0 23bd 3a8e 923d 29fc f83d 4aa7 c1bd
00000220: 5a86 563e dffd 8c3d 93fd 463e 595f 6abe
00000230: 2eda 25be e4de 953e 2c5b 59be 3c04 45bd
00000240: 717b 2bbe 5819 8d3e 707e e73c fd9b 6ebe
00000250: 3a6e 633e b7ff 86bb dfca be3c f263 71bd
00000260: 4e67 713c dd2a 703e d503 cabd 147f 523e
00000270: b01d b4bd a7e6 abbe 4223 6c3e 946f 8c3d
00000280: fa89 ce3a 709c 36be 6242 8abd dbe2 03be
00000290: 6fe7 1d3d ba25 723d 6133 aabe fe67 b0bd
000002a0: 5322 883e ff5a c8bd 1a22 493d 90ff f3bd
000002b0: c53c 403e 9ca8 1e3d cad1 76be c0ab 153d
000002c0: 2010 ee3d 3042 a43c b92b c13e 1575 a83e
000002d0: 5d62 18be c571 a7be bdba 813e 7a7b 023e
000002e0: 713e b33d 31b2 c6bd 906b 44be 9ebb b7bc
000002f0: b355 b63e 439e 23be d9ae 81bd 2be5 9f3d
00000300: a963 d83c 338b 403d 5f37 80bd 37fc 6b3b
00000310: eb39 203e 4c04 07be 426b c4be 388e 37be
00000320: 7bab bc3d 9b36 a03e bcaa 8e3e 2cf3 10be
00000330: 445c 01be 2253 333e 87fb 293e 0058 103e
00000340: 4eb5 ec3d 09d8 ea3d 6a88 c73e 0a18 7dbd
00000350: 1ebf 8ebc 2dc1 6a3e ad34 2ebe 138c 403d
00000360: faba 013e dff7 bdbd 7704 bfbc 12b8 aabe
00000370: 1fac 4e3d 9e03 6fbd f378 143d 01aa 463d
00000380: 9226 70ba 9193 553c de39 d2bd dcf8 823e
00000390: 93c8 adbd d250 a93e 7919 9cbd c723 85bc
000003a0: 751f b43d e2f9 1e3e c46d 2c3e 4e07 d6bd
000003b0: d6aa 223e 742b 303e 5d39 883e 2b28 d4be
000003c0: 86aa 493e 95a5 893d 686a 54be 76e8 17be
000003d0: 2a29 9dbd b525 97be 2ab7 3a3d 59f3 8bbd
000003e0: d7e8 9c3e 0a09 0d3e abe7 2fbd df8a 07be
000003f0: 23b6 30be 1a0d ae3e 057d a53d 561b 3fbd

base.mlp.fc_h.0.bias f4 [64]
0.0 0.0 0.0 0.0 0.0 0.0 0.0 0.0
0.0 0.0 0.0 0.0 0.0 0.0 0.0 0.0
0.0 0.0 0.0 0.0 0.0 0.0 0.0 0.0
0.0 0.0 0.0 0.0 0.0 0.0 0.0 0.0
0.0 0.0 0.0 0.0 0.0 0.0 0.0 0.0
0.0 0.0 0.0 0.0 0.0 0.0 0.0 0.0
0.0 0.0 0.0 0.0 0.0 0.0 0.0 0.0
0.0 0.0 0.0 0.0 0.0 0.0 0.0 0.0
00000000: 0000 0000 0000 0000 0000 0000 0000 0000
00000010: 0000 0000 0000 0000 0000 0000 0000 0000
00000020: 0000 0000 0000 0000 0000 0000 0000 0000
00000030: 0000 0000 0000 0000 0000 0000 0000 0000
00000040: 0000 0000 0000 0000 0000 0000 0000 0000
00000050: 0000 0000 0000 0000 0000 0000 0000 0000
00000060: 0000 0000 0000 0000 0000 0000 0000 0000
00000070: 0000 0000 0000 0000 0000 0000 0000 0000
00000080: 0000 0000 0000 0000 0000 0000 0000 0000
00000090: 0000 0000 0000 0000 0000 0000 0000 0000
000000a0: 0000 0000 0000 0000 0000 0000 0000 0000
000000b0: 0000 0000 0000 0000 0000 0000 0000 0000
000000c0: 0000 0000 0000 0000 0000 0000 0000 0000
000000d0: 0000 0000 0000 0000 0000 0000 0000 0000
000000e0: 0000 0000 0000 0000 0000 0000 0000 0000
000000f0: 0000 0000 0000 0000 0000 0000 0000 0000

base.mlp.fc_h.2.weight f4 [64]
1.0 1.0 1.0 1.0 1.0 1.0 1.0 1.0
1.0 1.0 1.0 1.0 1.0 1.0 1.0 1.0
1.0 1.0 1.0 1.0 1.0 1.0 1.0 1.0
1.0 1.0 1.0 1.0 1.0 1.0 1.0 1.0
1.0 1.0 1.0 1.0 1.0 1.0 1.0 1.0
1.0 1.0 1.0 1.0 1.0 1.0 1.0 1.0
1.0 1.0 1.0 1.0 1.0 1.0 1.0 1.0
1.0 1.0 1.0 1.0 1.0 1.0 1.0 1.0
00000000: 0000 803f 0000 803f 0000 803f 0000 803f
00000010: 0000 803f 0000 803f 0000 803f 0000 803f
00000020: 0000 803f 0000 803f 0000 803f 0000 803f
00000030: 0000 803f 0000 803f 0000 803f 0000 803f
00000040: 0000 803f 0000 803f 0000 803f 0000 803f
00000050: 0000 803f 0000 803f 0000 803f 0000 803f
00000060: 0000 803f 0000 803f 0000 803f 0000 803f
00000070: 0000 803f 0000 803f 0000 803f 0000 803f
00000080: 0000 803f 0000 803f 0000 803f 0000 803f
00000090: 0000 803f 0000 803f 0000 803f 0000 803f
000000a0: 0000 803f 0000 803f 0000 803f 0000 803f
000000b0: 0000 803f 0000 803f 0000 803f 0000 803f
000000c0: 0000 803f 0000 803f 0000 803f 0000 803f
000000d0: 0000 803f 0000 803f 0000 803f 0000 803f
000000e0: 0000 803f 0000 803f 0000 803f 0000 803f
000000f0: 0000 803f 0000 803f 0000 803f 0000 803f

base.mlp.fc_h.2.bias f4 [64]
0.0 0.0 0.0 0.0 0.0 0.0 0.0 0.0
0.0 0.0 0.0 0.0 0.0 0.0 0.0 0.0
0.0 0.0 0.0 0.0 0.0 0.0 0.0 0.0
0.0 0.0 0.0 0.0 0.0 0.0 0.0 0.0
0.0 0.0 0.0 0.0 0.0 0.0 0.0 0.0
0.0 0.0 0.0 0.0 0.0 0.0 0.0 0.0
0.0 0.0 0.0 0.0 0.0 0.0 0.0 0.0
0.0 0.0 0.0 0.0 0.0 0.0 0.0 0.0
00000000: 0000 0000 0000 0000 0000 0000 0000 0000
00000010: 0000 0000 0000 0000 0000 0000 0000 0000
00000020: 0000 0000 0000 0000 0000 0000 0000 0000
00000030: 0000 0000 0000 0000 0000 0000 0000 0000
00000040: 0000 0000 0000 0000 0000 0000 0000 0000
00000050: 0000 0000 0000 0000 0000 0000 0000 0000
00000060: 0000 0000 0000 0000 0000 0000 0000 0000
00000070: 0000 0000 0000 0000 0000 0000 0000 0000
00000080: 0000 0000 0000 0000 0000 0000 0000 0000
00000090: 0000 0000 0000 0000 0000 0000 0000 0000
000000a0: 0000 0000 0000 0000 0000 0000 0000 0000
000000b0: 0000 0000 0000 0000 0000 0000 0000 0000
000000c0: 0000 0000 0000 0000 0000 0000 0000 0000
000000d0: 0000 0000 0000 0000 0000 0000 0000 0000
000000e0: 0000 0000 0000 0000 0000 0000 0000 0000
000000f0: 0000 0000 0000 0000 0000 0000 0000 0000

base.mlp.fc2.0.0.weight f4 [64, 64]
-0.189502 0.07470671 -0.15930806 0.33386222 0.14497231 0.35876307 0.17690206 -0.10344798
0.3110513 -0.42836803 -0.06389319 -0.31811306 -0.20900403 0.026731499 0.17668335 0.30651364
0.025744287 0.17795171 -0.10443082 0.14266421 -0.21602468 0.109312974 0.07439485 -0.018876009
0.13677548 -0.14255151 0.119754285 0.05150815 0.2236622 -0.30599076 0.28077555 -0.06097442
0.061079733 0.15058386 -0.09474629 -0.011377842 0.16505367 -0.045415215 0.23411387 -0.16309074
0.124282055 0.16952716 0.2367667 0.13065764 0.034899004 0.02198582 -0.013077812 0.027141858
0.18365645 0.13889699 -0.13695732 -0.21722949 0.09531447 0.2820592 0.06986795 0.22872715
0.056292936 -0.15281542 -0.021064106 -0.23647657 -0.024444168 -0.17092368 -0.047755387 -0.13631976
-0.23788036 -0.22737078 -0.0037643483 0.058187604 -0.24119352 0.1154961 -0.09774167 0.012228468
-0.023266356 0.15049379 0.18012047 0.232715 0.012905001 0.2591839 -0.25616288 -0.03941717
0.2439859 -0.0696455 0.20002095 0.284647 0.15259969 0.04542002 0.22454625 0.21923698
0.23670359 0.2024195 0.029601555 0.022280876 -0.23460014 0.09030779 0.086969376 -0.27743843
-0.0008328402 0.1802947 -0.2650563 -0.0015274383 -0.23761976 -0.12722704 -0.07799216 -0.12631047
0.020286452 0.007007176 -0.14637151 0.49814287 0.06974782 0.25105873 0.2662022 0.17058745
-0.007827856 0.17893405 0.06325372 0.13891959 0.2751577 0.24372725 0.010207786 -0.02466939
0.20096585 0.057266753 -0.20985804 -0.18957676 0.058382105 -0.14166422 0.18192032 -0.010429903
0.19601569 -0.13669965 -0.22552817 -0.07521455 -0.040309142 0.07133838 0.12141651 -0.09486478
0.20918421 0.069741495 0.19472313 -0.22864696 -0.16227259 0.29240283 -0.21256934 -0.048407063
-0.1672892 0.27578145 0.028642565 -0.23324502 0.22221082 -0.0044330256 0.02349904 -0.059240784
0.015372145 0.23487626 -0.09895336 0.20560345 -0.087735265 -0.33607882 0.23029561 0.068258874
0.0006174939 -0.17863871 -0.0678227 -0.12844293 0.03935977 0.059534095 -0.3327308 -0.08786736
0.26529086 -0.09813722 0.049157575 -0.11945309 0.18742451 0.039082978 -0.24096529 0.03581207
0.11592852 0.01947919 0.3769732 0.3280399 -0.14971858 -0.3277436 0.253023 0.12710527
0.0879716 -0.097300775 -0.19199386 -0.02273826 0.35581064 -0.15860908 -0.06363498 0.07776069
0.026237378 0.047307756 -0.062476087 0.001952506 0.15629591 -0.1321174 -0.38395807 -0.17943636
0.09194604 0.3116469 0.27874506 -0.1412938 -0.1265113 0.17494456 0.16581571 0.14077768
0.11589253 0.11495638 0.3889003 -0.061113507 -0.01705646 0.22907513 -0.16984421 0.04682574
0.12654512 -0.09260398 -0.023494875 -0.33299273 0.05073339 -0.058509625 0.03606542 0.048324723
-0.00045662603 0.012852943 -0.10282676 0.25500625 -0.08517056 0.33077562 -0.07640318 -0.014247522
0.088058144 0.15506719 0.16881025 -0.10468344 0.15867183 0.17218004 0.26554087 -0.41413885
0.19676211 0.067282125 -0.2076143 -0.14788058 -0.07632173 -0.29501927 0.045448847 -0.06850755
0.30650753 0.13751982 -0.043256238 -0.13254634 -0.17274816 0.33924374 0.08062749 -0.046834428
00000000: d00c 42be d5ff 983d a721 23be fdef aa3e
00000010: 9f73 143e cbaf b73e d025 353e 89dc d3bd
00000020: 1e42 9f3e 0e53 dbbe 6fda 82bd b7df a2be
00000030: 2705 56be 04fc da3c 7bec 343e 5bef 9c3e
00000040: afe5 d23c f938 363e d3df d5bd 9116 123e
00000050: 9335 5dbe 7bdf df3d 545c 983d dca1 9abc
00000060: df0e 0c3e 06f9 11be bc41 f53d 36fa 523d
00000070: b407 653e d2aa 9cbe d0c1 8f3e 50c0 79bd
00000080: be2e 7a3d a832 1a3e 580a c2bd 216a 3abc
00000090: d403 293e 4e05 3abd 8cbb 6f3e 4201 27be
000000a0: 9787 fe3d 8798 2d3e f872 723e 1ecb 053e
000000b0: 42f2 0e3d 9b1b b43c 5244 56bc 9a58 de3c
000000c0: 7010 3c3e 033b 0e3e 8a3e 0cbe 6871 5ebe
000000d0: 3c34 c33d 106a 903e ee16 8f3d 7337 6a3e
000000e0: 6c93 663d a57b 1cbe a28e acbc ea26 72be
000000f0: 233f c8bc 9e06 2fbe 279b 43bd 6897 0bbe
00000100: e996 73be e3d3 68be 49b3 76bb 2056 6e3d
00000110: 6ffb 76be 3889 ec3d c92c c8bd ea59 483c
00000120: 1699 bebc 0b1b 1a3e 8071 383e d74c 6e3e
00000130: 7f6f 533c c1b3 843e c827 83be e673 21bd
00000140: 71d7 793e 4da2 8ebd 4bd2 4c3e 40bd 913e
00000150: 1843 1c3e 580a 3a3d 74ef 653e a97f 603e
00000160: 6d62 723e 0f47 4f3e f67e f23c 6286 b63c
00000170: 053b 70be 4af3 b83d 001d b23d 690c 8ebe
00000180: f652 5aba 2d9f 383e 76b5 87be 5334 c8ba
00000190: 9852 73be ce47 02be 5bba 9fbd 8857 01be
000001a0: c62f a63c 749c e53b 6ae2 15be 950c ff3e
000001b0: f2d7 8e3d c58a 803e a84b 883e 7aae 2e3e
000001c0: 6840 00bc 7d3a 373e 2b8b 813d f040 0e3e
000001d0: 78e1 8c3e a393 793e 8f3e 273c 7617 cabc
000001e0: fec9 4d3e 8b90 6a3d 07e5 56be 6920 42be
000001f0: 1322 6f3d 6d10 11be 5249 3a3e 2fe2 2abc
00000200: 56b8 483e fefa 0bbe dbf0 66be 160a 9abd
00000210: 331b 25bd db19 923d 38a9 f83d 7748 c2bd
00000220: 6334 563e a1d4 8e3d 8065 473e 6e22 6abe
00000230: c92a 26be d3b5 953e c7ab 59be 7c46 46bd
00000240: dc4d 2bbe 3a33 8d3e d0a3 ea3c c8d7 6ebe
00000250: 3c8b 633e ea42 91bb 0f81 c03c 77a6 72bd
00000260: 73db 7b3c 6783 703e 0fa8 cabd b689 523e
00000270: 8cae b3bd 8612 acbe 9dd2 6b3e 4fcb 8b3d
00000280: 50df 213a 11ed 36be a1e6 8abd 8b86 03be
00000290: b637 213d 06da 733d b15b aabe cdf3 b3bd
000002a0: 34d4 873e 2bfc c8bd 7459 493d d2a3 f4bd
000002b0: 36ec 3f3e 7915 203d 9bbf 76be adaf 123d
000002c0: ef6b ed3d d392 9f3c a202 c13e d9f4 a73e
000002d0: d44f 19be 02ce a7be 3b8c 813e e227 023e
000002e0: 742a b43d a145 c7bd 0a9a 44be 9645 babc
000002f0: d02c b63e 6b6a 22be 0e53 82bd ff40 9f3d
00000300: c5ef d63c c7c5 413d ede6 7fbd 3beb ff3a
00000310: 090c 203e c949 07be 2796 c4be 2abe 37be
00000320: 354e bc3d 2f90 9f3e acb7 8e3e 52af 10be
00000330: 2e8c 01be ab24 333e 98cb 293e 0628 103e
00000340: 1059 ed3d 406e eb3d f11d c73e 2852 7abd
00000350: fdb9 8bbc ac92 6a3e a4eb 2dbe 59cc 3f3d
00000360: 0b95 013e 28a7 bdbd 5378 c0bc 067e aabe
00000370: d1cd 4f3d caa7 6fbd 55b9 133d 25f0 453d
00000380: 4f67 efb9 2695 523c d696 d2bd 2e90 823e
00000390: e76d aebd 6c5b a93e 4579 9cbd 706e 69bc
000003a0: d457 b43d efc9 1e3e 98dc 2c3e 4564 d6bd
000003b0: de7a 223e f74f 303e f9f4 873e 020a d4be
000003c0: 027c 493e 36cb 893d d898 54be 026e 17be
000003d0: 914e 9cbd c40c 97be 9228 3a3d b04d 8cbd
000003e0: 8eee 9c3e ffd1 0c3e 742d 31bd 3aba 07be
000003f0: e5e4 30be 5bb1 ad3e 0720 a53d 75d5 3fbd

base.mlp.fc2.0.0.bias f4 [64]
0.0 0.0003540732 0.00033564988 0.00015685288 0.0 -0.0006204147 -0.0020619074 -0.0005949876
0.0 -0.0010156177 0.00035526272 -0.0007139641 -0.0002531216 -0.00037612623 0.0 -0.00015191559
0.0 0.0 0.0 -0.0018232381 -0.00017143796 0.0 0.0 0.0021028733
0.0 0.0 -0.0003556338 -0.0016947385 0.00021868713 0.00042239996 -0.0011575705 0.0
-0.00010589477 -0.0011613203 -0.002191831 0.0 0.0 0.00039107964 8.0420454e-05 0.00026062032
0.0 7.6080905e-05 -0.00024958167 0.0014724671 0.0 -0.0016622372 0.00078535476 0.0
0.0 -0.0001638942 0.0024673538 -0.0012938653 0.0 -0.0021441649 -0.0007991529 0.0008172034
0.0 0.0 0.0 0.00023006886 0.0 0.0056397105 0.0 -0.0010444156
00000000: 0000 0000 e7a2 b939 2afa af39 e078 2439
00000010: 0000 0000 53a3 22ba 1121 07bb f1f8 1bba
00000020: 0000 0000 7a1e 85ba 8e42 ba39 5229 3bba
00000030: 68b5 84b9 cf32 c5b9 0000 0000 884b 1fb9
00000040: 0000 0000 0000 0000 0000 0000 b8f9 eeba
00000050: 07c4 33b9 0000 0000 0000 0000 5cd0 093b
00000060: 0000 0000 0000 0000 5c74 bab9 fd21 deba
00000070: 614f 6539 9075 dd39 9fb9 97ba 0000 0000
00000080: d213 deb8 7137 98ba d2a4 0fbb 0000 0000
00000090: 0000 0000 d209 cd39 67a7 a838 dea3 8839
000000a0: 0000 0000 a08d 9f38 49da 82b9 ccff c03a
000000b0: 0000 0000 6ddf d9ba 44e0 4d3a 0000 0000
000000c0: 0000 0000 04db 2bb9 54b3 213b ea96 a9ba
000000d0: 0000 0000 1e85 0cbb 3e7e 51ba 9839 563a
000000e0: 0000 0000 0000 0000 0000 0000 a43e 7139
000000f0: 0000 0000 52cd b83b 0000 0000 c6e4 88ba

base.mlp.fc2.0.2.weight f4 [64]
0.9998375 1.0001729 1.0002738 0.9997577 0.9995691 0.99881256 1.000008 0.9986815
0.99938405 0.99814415 1.0004368 1.0004148 0.99994993 0.99946505 1.0014206 0.9990383
1.0006125 1.000249 0.9999642 0.9997094 0.9993639 1.00017 1.0000609 1.0014658
0.9999237 0.9999335 0.99967915 1.000143 1.0001138 1.0007854 1.000402 1.000402
0.99962354 1.0016208 1.0002179 0.9999072 1.0002526 0.9994928 0.9969996 0.9986456
0.9999884 0.9989446 0.9985158 1.0022172 0.9996919 0.99994594 1.0013182 0.9998587
0.9996697 0.9994936 1.0018731 1.000504 1.0003427 1.0018836 1.0017788 1.0013121
1.0000869 1.0002337 0.99970865 1.0010406 1.000702 0.9945655 1.0017306 0.99998003
00000000: 5af5 7f3f aa05 803f f908 803f 1ff0 7f3f
00000010: c3e3 7f3f 2eb2 7f3f 4300 803f 97a9 7f3f
00000020: a2d7 7f3f 6086 7f3f 500e 803f 980d 803f
00000030: b8fc 7f3f f1dc 7f3f 8d2e 803f f9c0 7f3f
00000040: 1214 803f 2908 803f a7fd 7f3f f5ec 7f3f
00000050: 50d6 7f3f 9205 803f ff01 803f 0830 803f
00000060: 00fb 7f3f a4fb 7f3f f9ea 7f3f b004 803f
00000070: bb03 803f bc19 803f 2c0d 803f 2c0d 803f
00000080: 54e7 7f3f 1c35 803f 2407 803f ebf9 7f3f
00000090: 4708 803f c3de 7f3f 5e3b 7f3f 3da7 7f3f
000000a0: 3dff 7f3f d5ba 7f3f bb9e 7f3f a748 803f
000000b0: cfeb 7f3f 75fc 7f3f 322b 803f bdf6 7f3f
000000c0: 5aea 7f3f d0de 7f3f 613d 803f 8410 803f
000000d0: 3b0b 803f b93d 803f 4a3a 803f ff2a 803f
000000e0: d902 803f a807 803f e8ec 7f3f 1922 803f
000000f0: 0117 803f d89b 7e3f b538 803f b1fe 7f3f

base.mlp.fc2.0.2.bias f4 [64]
0.00014415503 0.00040386387 0.00039082707 0.00021930329 0.00041000798 -0.0006259021 -3.7460813e-05 -0.00058730115
0.0006393092 -0.001930955 0.00041794073 -0.0005744562 7.005003e-05 -0.00035908798 -0.001410433 -9.5028554e-05
-0.0005963068 -0.00023232764 5.634606e-05 0.00030830826 5.874203e-05 -0.0001915992 -8.024593e-05 0.0016096462
5.6489393e-05 4.8241964e-05 -0.0001513149 -0.00024879182 0.0002749933 0.00077786425 -0.0003936441 -0.0003835016
-1.9574356e-05 -0.00095676695 -0.0002069052 4.7617308e-05 -0.00027345604 0.00041865808 6.654688e-05 0.0003096653
-7.335766e-06 0.000114640345 -0.0002501681 0.0021428878 0.0003278821 6.818438e-05 0.0014572167 0.00012330778
0.0003498856 -9.572137e-05 0.002094342 -0.00054551044 -0.00036348056 -0.0018786478 -0.0014014011 0.0013092235
-6.801275e-05 -0.0002122178 0.00027302743 0.0011075848 -0.000689593 0.005575161 -0.0017212279 -1.5281905e-05
00000000: 5228 1739 b1bd d339 ece7 cc39 c7f4 6539
00000010: 57f6 d639 9413 24ba 3e1f 1db8 1df5 19ba
00000020: 5097 273a 1918 fdba 0e1f db39 1a97 16ba
00000030: d3e7 9238 f943 bcb9 47de b8ba 114a c7b8
00000040: 7951 1cba fa9c 73b9 1f55 6c38 6fa4 a139
00000050: c661 7638 05e8 48b9 b549 a8b8 c4fa d23a
00000060: 06ef 6c38 6a57 4a38 49aa 1eb9 4670 82b9
00000070: fa2c 9039 96e9 4b3a 0462 ceb9 b710 c9b9
00000080: 9c33 a4b7 8bcf 7aba b1f4 58b9 b2b8 4738
00000090: a65e 8fb9 567f db39 168f 8b38 935a a239
000000a0: c025 f6b6 116b f038 fe28 83b9 b16f 0c3b
000000b0: 97e7 ab39 36fe 8e38 1400 bf3a 2e4c 0139
000000c0: da70 b739 05be c8b8 3a41 093b 9600 0fba
000000d0: 8991 beb9 f63c f6ba 38af b7ba 409a ab3a
000000e0: 11a2 8eb8 c886 5eb9 1f25 8f39 612c 913a
000000f0: cec5 34ba d7af b63b d39a e1ba a431 80b7

rnn.rnn.weight_ih_l0 f4 [192, 64]
-0.0030466993 -0.13386463 -0.027133469 0.054255746 -0.071477264 0.007766924 0.06812309 -0.06346229
0.054355003 0.00063562684 0.109130055 -0.0724018 0.0200255 -0.066711694 0.101052664 -0.09326849
0.05670143 -0.116525106 0.009137743 0.0642975 -0.07224023 -0.09092477 0.06132255 -0.10522155
0.047895495 0.043445762 -0.0716817 0.0014076419 -0.06352395 -0.04701854 -0.0405098 0.009658707
0.0316211 -0.14176704 -0.022428568 0.007658092 -0.081315175 0.029916367 0.1044858 0.04920594
0.06199724 -0.10811252 -0.079129435 -0.031534836 0.07342296 0.08339459 -0.0009824045 0.08469341
-0.0093549 0.13847506 -0.042078342 -0.006321311 0.035074946 0.041182578 -0.018006824 -0.18582636
0.04922533 0.043227747 -0.024962936 -0.08342945 0.106985524 0.036456574 0.0025435344 0.05386628
-0.11024445 0.0456505 -0.095322266 -0.05259414 -0.04388732 0.023906158 0.12774284 -0.05494107
-0.09980632 -0.09266767 -0.0034392523 0.0002994674 -0.12035237 0.015282811 0.13468572 -0.12923619
0.035361424 0.019795427 -0.040544458 0.015219687 0.05331643 0.028173631 -0.06883698 0.05526055
0.12925933 -0.11921705 -0.076430276 -0.005684995 0.11948992 -0.0760392 -0.12375554 -0.013614712
0.057465345 -0.0003040084 0.07517289 0.044787962 0.019835524 0.053112864 -0.04201972 -0.05573882
0.16316158 -0.08940412 -0.0009576834 0.059685968 0.08886199 -0.12256967 0.16677432 0.047475707
0.101880826 0.007441766 0.024841791 -0.045085788 0.0007344638 -0.02390908 0.014398238 -0.046510443
0.016270082 0.008469449 -0.13118583 -0.08418168 0.040303405 0.08162565 0.020076647 0.04462095
0.0061377673 -0.011335429 -0.054990876 -0.011910506 -0.11023869 0.09393558 -0.08408414 -0.1744141
0.013851086 0.11750705 -0.0890508 0.027743049 0.07937709 0.07306258 0.03063047 0.065257795
-0.06526514 -0.062204886 -0.04594871 0.11606747 -0.048160776 0.02603092 -0.012198539 -0.010713577
-0.05752759 -0.056504924 -0.013852074 -0.010226127 -0.025246967 -0.042271826 -0.09186567 -0.041087504
0.047670837 0.08076717 0.038620483 -0.10984216 -0.11891663 -0.05505614 -0.01177042 0.023724468
-0.10430557 -0.027941734 -0.014310896 -0.106193714 0.039967388 0.049041606 0.11694221 -0.04049205
0.008099359 0.027224775 0.083976835 0.020158082 -0.011370743 0.08209062 0.13260648 0.043881167
-0.037604403 0.022829147 0.022143241 -0.0050288946 0.11984876 -0.03383341 -0.031538926 0.059316028
0.0231886 -0.021693476 0.025597148 -0.087571785 -0.10514888 -0.11135253 -0.034018565 0.109821655
0.061218012 0.026334692 -0.030476384 -0.13732468 -0.10956473 0.10043807 -0.09528845 -0.073780835
0.018605215 0.03518491 0.030275878 0.09262239 -0.006574072 -0.024051309 -0.028802384 -0.09913691
-0.10038433 0.005448787 -0.06790076 0.009747972 -0.021823445 -0.09639345 0.071894825 -0.025856
-0.11724807 0.035577312 0.057659045 -0.009977869 -0.09675805 -0.004346017 0.022250239 -0.03622961
0.00778925 -0.089546755 -0.06314422 -0.0031765734 -0.0062694526 -0.025562674 -0.062253743 -0.097704865
-0.0690481 -0.07613486 -0.07701463 -0.16251275 -0.15316612 -0.09059091 0.09450783 -0.09159704
-0.060725622 -0.09229443 -0.05924059 0.064479604 -0.016197847 -0.02915268 -0.08928747 0.0055792686
00000000: 22ab 47bb cf13 09be 0247 debc 463b 5e3d
00000010: ac62 92bd ae81 fe3b 1e84 8b3d 84f8 81bd
00000020: 5aa3 5e3d 32a0 263a 947f df3d 6547 94bd
00000030: 840c a43c 24a0 88bd b3f4 ce3d 8d03 bfbd
00000040: c23f 683d b7a4 eebd 79b6 153c 68ae 833d
00000050: b0f2 93bd c436 babd 5b2d 7b3d 657e d7bd
00000060: 112e 443d 2ff4 313d dbcd 92bd a080 b83a
00000070: d818 82bd 8396 40bd 9bed 25bd 8e3f 1e3c
00000080: 2085 013d 612b 11be 1ebc b7bc bbf0 fa3b
00000090: 9288 a6bd 2b13 f53c a7fc d53d 2b8c 493d
000000a0: d1f0 7d3d 196a ddbd 9d0e a2bd ac2a 01bd
000000b0: c75e 963d c8ca aa3d 06c4 80ba bd73 ad3d
000000c0: 4b45 19bc 68cc 0d3e 575a 2cbd 0023 cfbb
000000d0: bfaa 0f3d 10af 283d 0c83 93bc 4449 3ebe
000000e0: 80a0 493d 940f 313d 127f ccbc 0fdd aabd
000000f0: 3a1b db3d 7d53 153d 6db1 263b e3a2 5c3d
00000100: d8c7 e1bd 05fc 3a3d 5238 c3bd f46c 57bd
00000110: 31c3 33bd d9d6 c33c 05cf 023e e309 61bd
00000120: 4267 ccbd 8cc8 bdbd 1465 61bb d601 9d39
00000130: 4e7b f6bd c164 7a3c 0eeb 093e 7e56 04be
00000140: 24d7 103d 052a a23c f211 26bd fe5b 793c
00000150: 5462 5a3d 63cc e63c 67fa 8cbd e358 623d
00000160: 8f5c 043e 1228 f4bd 7a87 9cbd 3249 babb
00000170: 22b7 f43d 71ba 9bbd 8b73 fdbd 3e10 5fbc
00000180: c860 6b3d 5163 9fb9 3ff4 993d 9573 373d
00000190: 1c7e a23c e08c 593d df1c 2cbd 644e 64bd
000001a0: d413 273e 8219 b7bd 0c0d 7bba 4679 743d
000001b0: 46fd b53d cf05 fbbd e3c6 2a3e e375 423d
000001c0: e5a6 d03d 0fda f33b 0381 cb3c e0ab 38bd
000001d0: 0889 403a fadc c3bc 96e6 6b3c bc81 3ebd
000001e0: d648 853c 72c3 0a3c 9455 06be 7267 acbd
000001f0: 2f15 253d 592b a73d c877 a43c 75c4 363d
00000200: 531f c93b 3cb8 39bc 1d3e 61bd 4824 43bc
00000210: d3c4 e1bd 4c61 c03d 4e34 acbd 9c99 32be
00000220: aaef 623c 89a7 f03d 4460 b6bd 6445 e33c
00000230: 7590 a23d d5a1 953d c0ec fa3c e1a5 853d
00000240: bba9 85bd 8dca 7ebd b734 3cbd c8b4 ed3d
00000250: 3c44 45bd cc3e d53c 62dc 47bc 0088 2fbc
00000260: 0da2 6bbd b571 67bd cff3 62bc 7c8b 27bc
00000270: bad2 cebc 3925 2dbd 1224 bcbd 5f4b 28bd
00000280: 7f42 433d 4269 a53d 8330 1e3d edf4 e0bd
00000290: 908a f3bd 8c82 61bd b8d8 40bc d159 c23c
000002a0: 299e d5bd 10e6 e4bc 4078 6abc 177c d9bd
000002b0: d8b4 233d dadf 483d 667f ef3d feda 25bd
000002c0: 2db3 043c 7e06 df3c 0cfc ab3d 9022 a53c
000002d0: 5a4c 3abc 211f a83d fec9 073e bdbc 333d
000002e0: 1307 1abd 3104 bb3c be65 b53c 6dc9 a4bb
000002f0: 4473 f53d e794 0abd f62e 01bd 5df5 723d
00000300: 05f6 bd3c 84b6 b1bc 1cb1 d13c d658 b3bd
00000310: 4c58 d7bd cc0c e4bd 0d57 0bbd 2dea e03d
00000320: bdbf 7a3d dabb d73c 9ca9 f9bc d79e 0cbe
00000330: 7963 e0bd 7ab2 cd3d 9726 c3bd 681a 97bd
00000340: f769 983c 0d1e 103d 1e05 f83c cfb0 bd3d
00000350: 506b d7bb 4007 c5bc faf2 ebbc 4b08 cbbd
00000360: 4d96 cdbd bd8b b23b 8e0f 8bbd f5b5 1f3c
00000370: 15c7 b2bc ee69 c5bd 983d 933d f6cf d3bc
00000380: c21f f0bd 84b9 113d e42b 6c3d 377a 23bc
00000390: 1629 c6bd 0869 8ebb 2246 b63c 8065 14bd
000003a0: f73c ff3b 4a64 b7bd c251 81bd 0f2e 50bb
000003b0: fb6f cdbb d068 d1bc c8fd 7ebd 7d19 c8bd
000003c0: 1769 8dbd 98ec 9bbd d9b9 9dbd be69 26be
000003d0: 94d7 1cbe ba87 b9bd 528d c13d 3b97 bbbd
000003e0: 6ebb 78bd dd04 bdbd 43a6 72bd e20d 843d
000003f0: 59b1 84bc 9ad1 eebc 59dc b6bd 4cd2 b63b
